Checkpoints/ResNet8_nckd_4.0_ResNet18_0.8366.pth (torch, 334858 bytes, 47 tensors)

conv1.weight f4 [16, 3, 3, 3]
0	0xbcba656f	-0.022753445
1	0x3e7238af	0.23654436
2	0x3e2d78d2	0.1694062
3	0xbe7ecc4f	-0.24882625
4	0x3c80985a	0.015697647
5	0x3e494a20	0.19657183
6	0xbe4369b7	-0.19083296
7	0x3d0e7980	0.03478384
8	0xbdab5b54	-0.08367029
9	0xbe467d2b	-0.19383685
10	0x3e2165be	0.15761468
11	0xbe2bf2de	-0.16791865
12	0xbea14934	-0.31501162
13	0x3d0f4807	0.0349808
14	0x3e5eebaf	0.21769594
15	0xbe3ad1a0	-0.18244028
16	0x3e5f2fe6	0.21795616
17	0x3e353ac0	0.17698193
18	0x3d36f7fb	0.044670086
19	0xbcf8dc0a	-0.03037836
20	0xbe044412	-0.12916592
21	0xbdd5f0a2	-0.10446288
22	0xbd5c12d4	-0.053728893
23	0x3ddabceb	0.106805645
24	0xbdeec3f0	-0.11658466
25	0x3e7f5e9d	0.24938436
26	0x3d173025	0.03691115
27	0x3db75203	0.08951189
28	0x3cf66a97	0.030080123
29	0x3e8b2bc6	0.27181834
30	0xbd70eae7	-0.05881777
31	0x3ec398e7	0.38202593
32	0x3e52da59	0.20591106
33	0xbde09e55	-0.109676994
34	0x3e416bd2	0.18888786
35	0xbe6f7e32	-0.23387983
36	0xbe3eeaa4	-0.18644196
37	0xbdd88433	-0.1057209
38	0xbda13523	-0.07871463
39	0xbd883b0a	-0.06651886
40	0xbdb9b098	-0.09066886
41	0xbe9accf3	-0.3023449
42	0xbe0507fa	-0.12991324
43	0xbd03b357	-0.032153454
44	0xbd0114e1	-0.031514052
45	0x3dcf07f5	0.101089396
46	0xbe0fa316	-0.14027056
47	0x3da78896	0.081803486
48	0x3c9742dc	0.018464498
49	0x3b400c3d	0.002930417
50	0xbe2ec0d6	-0.17065749
51	0x3e0d1317	0.13776813
52	0x3e265eb1	0.1624706
53	0x3d0b5e5b	0.03402553
54	0x3e7d0dd8	0.24712312
55	0xbd3bbd74	-0.045834973
56	0x3dc0d319	0.09415264
57	0xbe094221	-0.13404132
58	0x3da188e7	0.0788744
59	0xbe917f21	-0.28417304
60	0xbdbd8e0d	-0.0925561
61	0xbdb583a3	-0.08862998
62	0xbe75b555	-0.23994954
63	0xbdaf3e6e	-0.085568294
64	0x3c766303	0.015038255
65	0x3d79f333	0.06102295
66	0xbcaa7592	-0.020808015
67	0x3d950a21	0.072773226
68	0xbdafad84	-0.08578017
69	0x3da8855a	0.0822856
70	0xbdd1467b	-0.10218521
71	0xbd989c68	-0.07451707
72	0xbdf48a2f	-0.11940419
73	0xbe567d45	-0.20946224
74	0xbe5b7ee8	-0.2143513
75	0x3d80a44a	0.06281336
76	0x3eb539cc	0.35395658
77	0x3e9aecba	0.30258733
78	0xbcb74edb	-0.022376468
79	0x3e801a6b	0.25020155
80	0x3e7d8db7	0.24761091
81	0x3eaecc3c	0.34140193
82	0xbbcbd753	-0.006220737
83	0x3dcede6c	0.10101017
84	0xbdafc643	-0.08582737
85	0xbf010684	-0.5040057
86	0xbdb38a03	-0.08766558
87	0x3e1ffa0b	0.15622728
88	0xbe0d1b69	-0.13779987
89	0x3dbe19e4	0.09282282
90	0x3df3c0da	0.11902018
91	0xbd93e515	-0.07221428
92	0xbbc5a57b	-0.0060316897
93	0xbe4e2cbe	-0.20134255
94	0xbf30ca5b	-0.6905877
95	0xbd350592	-0.044194765
96	0x3e1dde5f	0.15416859
97	0xbd39c65e	-0.045355193
98	0x3d119e82	0.035551555
99	0xbde32dd8	-0.110927284
100	0x3da33bf5	0.0797042
101	0x3dd5a731	0.1043228
102	0x3e229b10	0.15879464
103	0xbe012f88	-0.12615788
104	0xbc1a5e4e	-0.009421898
105	0x3b67117c	0.0035258224
106	0x3d38d053	0.04512055
107	0x3cc00bc1	0.023443105
108	0xbe6d5027	-0.23175107
109	0x3e2bf65e	0.167932
110	0x3e02b5fa	0.12764731
111	0x3d82ed37	0.063929014
112	0x3e06b128	0.13153517
113	0xbe6cb09d	-0.23114248
114	0x3dc0463a	0.09388395
115	0x3e2caffc	0.16864008
116	0xbe597f08	-0.21239865
117	0x3e0bc2b8	0.13648498
118	0xbdc6efc2	-0.09713699
119	0xbe8b0f05	-0.27159896
120	0x3e9018aa	0.28143817
121	0x3dc94bc0	0.09828901
122	0xbec0424f	-0.3755059
123	0x3d6703ea	0.056400217
124	0xbc01c6fd	-0.007920978
125	0x3c9f5435	0.019449333
126	0x3e49aac8	0.19694054
127	0xbc961084	-0.018318422
128	0x3cd8b3ef	0.026452987
129	0x3e27c6d2	0.16384438
130	0x3c85f43d	0.016351813
131	0xbe7a4e9d	-0.24444051
132	0xbdae5aa7	-0.08513384
133	0x3dfa8edd	0.1223428
134	0xbd953a0a	-0.07286461
135	0xbde31880	-0.110886574
136	0xbc28824e	-0.010284973
137	0x3e001022	0.12506154
138	0xbe270a37	-0.1631249
139	0xbeb61ec9	-0.35570362
140	0xbcbfcfdb	-0.023414543
141	0xbcc36166	-0.023850154
142	0x3e497bcf	0.19676135
143	0x3e8a562e	0.27018875
144	0x3d4c98c8	0.04995039
145	0x3e85a485	0.2610208
146	0x3e1f968b	0.15584771
147	0x3dc93ba6	0.0982583
148	0xbe962d34	-0.29331362
149	0x3d085899	0.03328762
150	0xbd90c224	-0.070682794
151	0x3dda8f50	0.10671866
152	0xbe3e9f42	-0.1861544
153	0x3d609eaa	0.054838814
154	0xbc8c23b3	-0.017106866
155	0xbe1507cf	-0.1455376
156	0x3e04f4d0	0.12984014
157	0xbeb15aa5	-0.3463947
158	0x3bd813ff	0.0065941806
159	0x3c9e5a4f	0.019330172
160	0x3e92e9e2	0.28694063
161	0xbd421c52	-0.04739029
162	0x3d8829a6	0.06648569
163	0xbe16aa0a	-0.14713302
164	0xbdf7347d	-0.12070558
165	0xbe01d9a5	-0.12680681
166	0x3ebca344	0.36843312
167	0x3d89339f	0.06699299
168	0xbe5c3621	-0.21505024
169	0x3c0e0ea7	0.008670486
170	0x3d1189de	0.03553187
171	0xbdc448b5	-0.0958418
172	0xbc7cc9b1	-0.015428946
173	0xbe20e31c	-0.15711635
174	0xbd1e795d	-0.03868996
175	0x3efb1b8a	0.49044448
176	0xbd6c1120	-0.05763352
177	0x3db3f63f	0.08787202
178	0xbe5454d5	-0.20735486
179	0x3cb73a1f	0.022366581
180	0x3c8af64a	0.016963143
181	0xbd34c0f9	-0.044129346
182	0x3d9546e5	0.07288913
183	0xbe29701c	-0.16546673
184	0x3ee84b8c	0.45370138
185	0xbe16a238	-0.14710319
186	0x3deece9d	0.11660502
187	0xbdce1cf0	-0.10064113
188	0xbe15331f	-0.14570282
189	0x3e37227c	0.17884248
190	0xbe67c40f	-0.22633384
191	0xb8a1b32d	-7.710452e-05
192	0xbd20e3b8	-0.03927967
193	0xbe1d356d	-0.15352412
194	0x3d2bfa12	0.041986533
195	0xbe07c982	-0.13260463
196	0x3ed8616f	0.42261836
197	0x3ea996e4	0.33122933
198	0x3e52ce83	0.2058659
199	0xbe900ef2	-0.28136402
200	0xbe0a84b8	-0.1352719
201	0xbdf8cb3c	-0.12148139
202	0xbe257a24	-0.16159874
203	0xbdf3f518	-0.11911982
204	0xbe2f9af6	-0.17148957
205	0xbe0d02c8	-0.13770592
206	0x3d38432e	0.044985943
207	0xbd0ad212	-0.033891745
208	0xbc8dda55	-0.017316023
209	0x3dc18799	0.09449691
210	0x3e6641f8	0.22486103
211	0xbe304af3	-0.17216091
212	0x3dc4fb57	0.09618252
213	0xbcc529c8	-0.024067774
214	0x3dc9ea00	0.09859085
215	0x3e3356bd	0.17513557
216	0xbe2f8e5c	-0.1714415
217	0xbdefc1bc	-0.11706874
218	0x3deff8f7	0.11717408
219	0x3e2fbcf5	0.17161925
220	0xbe052fc3	-0.13006501
221	0x3e166348	0.1468631
222	0xbd8925af	-0.06696641
223	0x3e809ce2	0.25119692
224	0x3cae1695	0.021251002
225	0xbdbc0c57	-0.09182041
226	0x3ddfceb8	0.109281
227	0x3d42ab05	0.04752638
228	0x3d9819f0	0.07426822
229	0xbec78f3d	-0.3897647
230	0xbe9ec3b1	-0.31008676
231	0xbbed727c	-0.0072463136
232	0x3ccbe48b	0.024889251
233	0xbcf60d83	-0.03003574
234	0x3d7911dd	0.06080805
235	0x3ea0a6d7	0.3137729
236	0x3e967a0b	0.29389986
237	0x3e1e7eda	0.15478078
238	0xbdd20585	-0.10254959
239	0xbd866509	-0.0656224
240	0xbcdfe3a1	-0.027330222
241	0xbe88422c	-0.26612985
242	0xbe8910dc	-0.26770675
243	0x3e04d3d1	0.12971427
244	0xbe256318	-0.16151083
245	0xbe312faf	-0.17303346
246	0x3cfa8904	0.030582912
247	0xbe27045d	-0.16310258
248	0xbd4b0c17	-0.049572077
249	0x3d70dd99	0.058805082
250	0x3e77f8e8	0.24216044
251	0xbdf765f1	-0.12079991
252	0x3cd62e10	0.026145011
253	0x3d7ced1d	0.061749566
254	0x3ecf99d3	0.40547046
255	0xbd3b9a5f	-0.045801517

bn1.weight f4 [16]
0	0x3f53ff43	0.82811373
1	0x3eccd186	0.40003604
2	0x3eff6f7c	0.49889743
3	0x3f7c316e	0.98512924
4	0x3f48f619	0.78500515
5	0x3f5a294f	0.8521928
6	0x3fabe64e	1.3429658
7	0x3f2afb09	0.667893
8	0x3f2a3b94	0.6649716
9	0x3f0843b3	0.532283
10	0x3f11d321	0.5696278
11	0x3ecd1bc4	0.40060246
12	0x3f25daa6	0.64786756
13	0x3efbc1b8	0.49171233
14	0x3f1db0c5	0.61597854
15	0x3f4f76fc	0.8104093

bn1.bias f4 [16]
0	0x3e93865b	0.28813443
1	0x3e422694	0.18960029
2	0x3e33c2d1	0.17554785
3	0xbecc5e45	-0.39915672
4	0x3eeaf273	0.458881
5	0x3f1054ad	0.56379205
6	0x3f1757ed	0.5911854
7	0x3e366a90	0.17814088
8	0x3e57c178	0.21069896
9	0x3f3afe1f	0.7304401
10	0x3e9e3309	0.30898312
11	0x3d0892d8	0.033343166
12	0xbec2f720	-0.38079166
13	0x3e98ab62	0.29818255
14	0x3e6b3752	0.22970322
15	0x3ed227ec	0.41046083

bn1.running_mean f4 [16]
0	0xbd15804c	-0.036499307
1	0x3c0be1d1	0.008537726
2	0xbd05f1db	-0.032701354
3	0x3e928164	0.28614342
4	0xbcb007c0	-0.02148807
5	0x3d0fa08e	0.035065226
6	0xbd7fffcb	-0.062499803
7	0x3d4db733	0.05022354
8	0x3dcad493	0.099038266
9	0x3b9fc615	0.004875908
10	0xbc631130	-0.013859078
11	0x3c3e999e	0.011633305
12	0x3e2abe51	0.16674162
13	0xbdb0b5ea	-0.08628447
14	0xbd8342e9	-0.064092465
15	0xbd576e89	-0.05259565

bn1.running_var f4 [16]
0	0x3f6d31e4	0.9265425
1	0x3e3b2010	0.1827395
2	0x3e95102e	0.29113907
3	0x3fff3844	1.9939046
4	0x3f5ee42b	0.87066907
5	0x3e84b6e2	0.2592078
6	0x3ebcf44a	0.36905128
7	0x3ef14710	0.4712453
8	0x3eef25f1	0.46708634
9	0x3db922b7	0.090398245
10	0x3ee94249	0.45558384
11	0x3dd8a79b	0.10578843
12	0x3fcded33	1.6088012
13	0x3eb8d227	0.36097834
14	0x400a93d0	2.1652718
15	0x3ef3dce2	0.47629458

layer1.conv1.weight f4 [16, 16, 3, 3]
0	0x3db7d3aa	0.089759186
1	0x3eed1a20	0.46308994
2	0x3d785e08	0.06063655
3	0xbdda1189	-0.10647876
4	0x3e60e33a	0.2196168
5	0x3e01e7e0	0.1268611
6	0xbe2d626c	-0.16932076
7	0x3b2faf1c	0.0026807254
8	0x3d02f517	0.031972017
9	0xbd5bce9a	-0.053663827
10	0x3dc007ac	0.09376463
11	0x3df861fe	0.121280655
12	0xbda5b3c9	-0.08090932
13	0xbda71783	-0.081587814
14	0x3e01c5f6	0.12673172
15	0xbc8a16f6	-0.016856652
16	0xbce1e269	-0.027573781
17	0xbe84f9e5	-0.25971904
18	0x3d0b89d3	0.034066986
19	0x3e30b0bf	0.17254923
20	0xbdcb2716	-0.099195644
21	0xbe3a2908	-0.18179715
22	0x3cf08822	0.029361788
23	0x3d8843dd	0.06653569
24	0xbcecba13	-0.02889732
25	0xbe10bf41	-0.14135458
26	0x3d5a3e3d	0.05328201
27	0x3d00901e	0.03138744
28	0xbddc4377	-0.107550554
29	0xbe16e564	-0.14735943
30	0x3eedfa0d	0.46479836
31	0x3eab2c87	0.3343241
32	0x3e986967	0.29767916
33	0xbe744282	-0.23853496
34	0xbcbf11a5	-0.023323843
35	0x3b703c18	0.0036656912
36	0x3c47bcba	0.012190992
37	0x3e6971aa	0.22797266
38	0xbe8a2ce1	-0.26987365
39	0xbe0298e4	-0.12753636
40	0x3e395d2b	0.18101947
41	0x3dc6ab6c	0.09700665
42	0xbd33dbb7	-0.04391071
43	0x3d83e378	0.064398706
44	0xbc2b77d7	-0.010465584
45	0xbe2583e8	-0.161636
46	0xbd462d78	-0.048383206
47	0x3db0ddf6	0.08636086
48	0x3e23b92d	0.15988608
49	0x3d33dbef	0.043910917
50	0xb9d9ea82	-0.00041564187
51	0xbd6ae6fd	-0.057349194
52	0x3e263155	0.16229756
53	0xbe4a1298	-0.19733655
54	0x3e2554bb	0.16145603
55	0x3e0d4e45	0.13799389
56	0xb9b90a47	-0.00035293607
57	0xbe5a2804	-0.21304327
58	0x3d13e7a2	0.036109574
59	0xbd3a6c28	-0.045513302
60	0x3d837c77	0.06420224
61	0x3cb79ffe	0.022415157
62	0x3e7840ff	0.24243544
63	0x3dbb1126	0.0913413
64	0xbda2326a	-0.07919772
65	0xbc364cf3	-0.011126745
66	0x3c5fed09	0.013667353
67	0xbd9021bb	-0.070376836
68	0x3de3b42c	0.111183494
69	0xbdf58d65	-0.119898595
70	0xbdc275e9	-0.09495146
71	0x3d708e17	0.058729257
72	0xbda4c820	-0.08045983
73	0xbe6f2f55	-0.233579
74	0x3afc52e9	0.0019250783
75	0x3e2afc49	0.16697802
76	0x3d793347	0.060839918
77	0x3b8a1ebe	0.0042150905
78	0xbd565fea	-0.052337565
79	0x3e373807	0.17892466
80	0x3e0970d2	0.13421944
81	0xbe1fd2a7	-0.15607701
82	0x3de9c943	0.11415341
83	0x3e0d50e6	0.13800392
84	0xbbc6d46d	-0.0060678036
85	0xbdb92ba3	-0.09041526
86	0x3c730478	0.014832608
87	0xbdb3ea42	-0.087849155
88	0xbd22b134	-0.039719775
89	0xbe72e1c3	-0.23718934
90	0x3c09d014	0.008411426
91	0x3e691338	0.22761238
92	0x3c869189	0.016426818
93	0xbe34a3e2	-0.17640641
94	0x3e108d24	0.14116341
95	0x3e84d58e	0.2594418
96	0xbcfc7378	-0.030816779
97	0xbe07e97f	-0.13272665
98	0x3e4687cc	0.1938774
99	0x3e8e9171	0.27845338
100	0x3ed1a5af	0.4094672
101	0x3d48b751	0.04900295
102	0x3d105a77	0.035242524
103	0x3e80c843	0.25152788
104	0xbb06afb7	-0.0020551512
105	0xbec2a8ca	-0.380194
106	0x3e29322c	0.16523045
107	0x3d9a3edb	0.0753152
108	0x3dce6d9f	0.10079502
109	0x3e63938c	0.22224253
110	0xbc46fcc4	-0.012145225
111	0xbe10c5a4	-0.14137894
112	0xbd87112a	-0.06595071
113	0xbe3211b3	-0.17389564
114	0x3d8baf0d	0.06820498
115	0x3ebcef75	0.3690144
116	0x3dab1ca7	0.083550744
117	0xbd34fe86	-0.044188045
118	0xbdbb5c78	-0.091484964
119	0xbe8920a5	-0.26782718
120	0xbd9dfe5e	-0.07714532
121	0x3cb8a33e	0.022538777
122	0xbe132271	-0.14368607
123	0x3dd591dd	0.10428212
124	0x3e3c5bff	0.18394469
125	0xbde5d0a4	-0.11221436
126	0x3d0cda94	0.03438814
127	0x3d2133fc	0.039356217
128	0xbe96ea89	-0.2947581
129	0xbdbd065c	-0.092297286
130	0xbcf6ae28	-0.030112341
131	0xbdb76613	-0.08955016
132	0xbbc5b504	-0.0060335416
133	0x3d589400	0.05287552
134	0xbccd4cee	-0.025061097
135	0xbde590c2	-0.11209251
136	0x3dca04b7	0.098641805
137	0xbe83406e	-0.25635093
138	0xbe72d3eb	-0.23713653
139	0x3dc3af2c	0.09554896
140	0x3e0643a9	0.13111748
141	0xbd5b892c	-0.053597614
142	0x3e5f4229	0.21802582
143	0x3e204d63	0.1565452
144	0x3cd4e8e6	0.02598996
145	0xbe213c6f	-0.1574571
146	0xbc4469b6	-0.011988094
147	0xbd2e5e76	-0.042570554
148	0x3cc7aa3d	0.024373168
149	0x3dedc0c5	0.116090335
150	0xbc324041	-0.010879577
151	0xba32e623	-0.0006824454
152	0xbd1a4a35	-0.037668426
153	0x3e1d1d99	0.15343322
154	0x3e5bb874	0.21457082
155	0x3de11ae1	0.10991455
156	0x3e1ceede	0.15325496
157	0x3d8f10de	0.06985639
158	0xbd05fe95	-0.03271349
159	0xbe5e30b7	-0.2169827
160	0xbe137ebc	-0.14403814
161	0xbe0050ad	-0.12530775
162	0xbe0a0d51	-0.13481642
163	0xbd8da4c2	-0.06916191
164	0xbc8947c7	-0.016757859
165	0xbe1c4656	-0.15261206
166	0xbdb1b3d2	-0.08676876
167	0xbd48bd69	-0.04900876
168	0x3e107d88	0.14110386
169	0x3e2e4203	0.17017369
170	0x3e94f4ed	0.29093114
171	0xbbd23727	-0.006415266
172	0x3a713b90	0.0009202296
173	0x3b2cded9	0.0026377945
174	0xbccbbf49	-0.024871485
175	0x3cbae038	0.022811994
176	0x3d2ce4a1	0.042210225
177	0x3e19033c	0.1494264
178	0xbd7f45f9	-0.06232259
179	0xbb591032	-0.0033121225
180	0x3d26d6d8	0.040732235
181	0x3d08fd70	0.03344482
182	0x3dbab6c5	0.09116892
183	0xbcc04b1d	-0.023473317
184	0x3d0a9928	0.033837467
185	0xbe11e4da	-0.14247456
186	0x3d04da24	0.032434598
187	0xbdc836d9	-0.09776086
188	0x3c9f2105	0.019424925
189	0xbe0d758f	-0.13814376
190	0xbe8322c7	-0.2561247
191	0xbea5bb7a	-0.32369596
192	0x3d4f258a	0.05057291
193	0x3ececfac	0.40392816
194	0x3ea524bd	0.32254592
195	0xbb8bbf5c	-0.004264755
196	0xbd53c84d	-0.051704694
197	0xbdcade43	-0.09905674
198	0x3e407e5f	0.18798207
199	0x3ec7c84c	0.39020002
200	0x3e0af50a	0.13570037
201	0xbe4b5c05	-0.19859321
202	0xbef7bd72	-0.48386723
203	0xbef05918	-0.46942973
204	0x3e01e66e	0.12685558
205	0x3e36a381	0.1783581
206	0x3eaee140	0.34156227
207	0x3cd545aa	0.026034195
208	0xbdce2746	-0.100660846
209	0xbe5f213c	-0.21790022
210	0xbd0e7993	-0.03478391
211	0x3cfd33c2	0.03090847
212	0xba839e07	-0.0010041603
213	0xbd217f43	-0.039428007
214	0x3b14d215	0.0022708226
215	0x3c62f5a0	0.013852507
216	0x3dc89a1d	0.0979502
217	0x3c34b71f	0.011029988
218	0x3de2688e	0.110550985
219	0x3d47684f	0.04868346
220	0x3dc008c3	0.09376671
221	0x3b1b993f	0.0023742465
222	0xbda967ba	-0.082717374
223	0xbe962ff2	-0.29333454
224	0xbdfc81f0	-0.12329471
225	0x3e35a19a	0.17737427
226	0x3d5cca2a	0.053903736
227	0xbd85e250	-0.06537306
228	0xbe50b1d3	-0.20380335
229	0xbe28cc1e	-0.16484115
230	0x3c7c1383	0.015385511
231	0x3d06aef9	0.03288171
232	0x3e1d1693	0.15340643
233	0xbcdea771	-0.027179452
234	0xbcf1abc2	-0.029500846
235	0xbdb8f4ae	-0.09031044
236	0x3d98e362	0.07465245
237	0x39e31131	0.00043309623
238	0xbba1dd38	-0.0049397014
239	0x3de81b49	0.11333329
240	0xbd954221	-0.07288004
241	0xbe1448a6	-0.14480838
242	0xbd4077be	-0.046989195
243	0x3d12c0b3	0.035828304
244	0xbe6fe33d	-0.23426528
245	0x3ae0930d	0.0017133668
246	0x3d49af00	0.04923916
247	0x3e4197d6	0.18905577
248	0x3e6448bd	0.22293372
249	0xbd035548	-0.032063752
250	0xbcf01df2	-0.029311154
251	0xbe40f9d8	-0.18845308
252	0xbdb5ef4b	-0.08883532
253	0xbd9c0935	-0.076189436
254	0xbe675e7a	-0.22594634
255	0x3dfa3211	0.12216581

layer1.bn1.weight f4 [16]
0	0x3f5024de	0.81306255
1	0x3f9554c6	1.1666496
2	0x3f6db96b	0.9286105
3	0x3f641c20	0.89105415
4	0x3f6cc236	0.9248384
5	0x3f906f33	1.1283935
6	0x3f3591ae	0.70925415
7	0x3f5c113a	0.85963786
8	0x3f87a542	1.0597308
9	0x3f8d5bf8	1.1043692
10	0x3f715a96	0.9427885
11	0x3f8baa47	1.091134
12	0x3f53e0a4	0.8276465
13	0x3f9c89b7	1.2229527
14	0x3f471603	0.7776796
15	0x3f7263d0	0.9468355

layer1.bn1.bias f4 [16]
0	0xbd2a93b7	-0.041644778
1	0xbd543976	-0.05181261
2	0x3d25e002	0.040496834
3	0x3c341492	0.0109912325
4	0x3d6571e8	0.056016833
5	0xbd4abe20	-0.049497724
6	0xbd7af381	-0.06126738
7	0x3ea872f4	0.32900202
8	0xbd6b1626	-0.05739417
9	0xbe0a7c70	-0.13524032
10	0x3e8e8eef	0.27843425
11	0xbd92c507	-0.07166486
12	0xbe090fed	-0.13384981
13	0x3e222d39	0.15837564
14	0xbc0d99fb	-0.008642669
15	0xbdc0ddd6	-0.09417312

layer1.bn1.running_mean f4 [16]
0	0x3f302e44	0.68820596
1	0xbe5a28d2	-0.21304634
2	0xbeb60744	-0.35552418
3	0xbe448d67	-0.19194566
4	0x3ed2b11d	0.41150752
5	0xbe46fb56	-0.19431815
6	0xbec2f7b2	-0.38079602
7	0xbf709a5c	-0.93985534
8	0xbe8cfcd2	-0.27536637
9	0xbf10a00f	-0.5649423
10	0xbf9caa3a	-1.2239449
11	0xbe68d39e	-0.22736976
12	0xbf8524ef	-1.0401896
13	0xbf0d9b3e	-0.55315006
14	0x3f13a04a	0.57666457
15	0xbea45994	-0.32099593

layer1.bn1.running_var f4 [16]
0	0x3f9e48c4	1.2365956
1	0x409d989d	4.9248796
2	0x3f4c7950	0.7987261
3	0x3f177e12	0.59176743
4	0x401372bf	2.3038785
5	0x407b6b88	3.9284382
6	0x3f44b000	0.76831055
7	0x3f795eb2	0.9741012
8	0x3ff21b0e	1.8914506
9	0x3f6894e4	0.9085219
10	0x4001b72d	2.0268052
11	0x4032267b	2.7835987
12	0x3f3e881c	0.74426436
13	0x4018b537	2.3860605
14	0x3fd7a028	1.6845751
15	0x404b6b7e	3.1784358

layer1.conv2.weight f4 [16, 16, 3, 3]
0	0xbd97351f	-0.07383179
1	0xbd451b49	-0.048121724
2	0x3dd111c9	0.102084704
3	0xbc05f872	-0.00817691
4	0xbdc4b306	-0.096044585
5	0x3e4a8984	0.1977902
6	0x3dbd8742	0.09254314
7	0xbd164937	-0.036690917
8	0x3def7ee1	0.11694122
9	0x3bea2cb4	0.0071464423
10	0xbd14ebf1	-0.036357824
11	0xba72b085	-0.0009257871
12	0xbe84e7b1	-0.25958017
13	0xbdc4a233	-0.096012495
14	0xbd2e66d8	-0.04257855
15	0xbe24987a	-0.1607379
16	0xbdad764d	-0.0846983
17	0xbdac4a0f	-0.08412563
18	0x3e4167fd	0.18887325
19	0x3e4c29a5	0.19937761
20	0xbdeeb9e9	-0.11656553
21	0x3d7a0b50	0.061045945
22	0x3ea9c0cd	0.33154908
23	0x3e486111	0.19568278
24	0xbd587d21	-0.052853707
25	0x3e889a10	0.2668004
26	0x3ecc31b2	0.39881665
27	0x3d892156	0.066958115
28	0xbcd8e299	-0.026475238
29	0xbe4bcba1	-0.19901897
30	0xbe0a5a9e	-0.1351113
31	0xbe0f923d	-0.14020629
32	0xbcac8a0c	-0.02106192
33	0xbe80eae7	-0.25179216
34	0xbcbb008d	-0.022827411
35	0x3dae5d86	0.08513932
36	0xbe53c526	-0.20680675
37	0xbd8bd4f4	-0.06827727
38	0xbddc5f0a	-0.10760315
39	0xbe495a26	-0.19663295
40	0xbd2bdac6	-0.041956685
41	0xbe1f6a38	-0.15567863
42	0xbe87021d	-0.263688
43	0xbe3c1421	-0.18367054
44	0xbe18a769	-0.14907612
45	0xbd9cec4f	-0.0766226
46	0x3d04856b	0.0323538
47	0x3d3379aa	0.0438172
48	0xbe463f0a	-0.19359985
49	0x3dd84a65	0.10561065
50	0x3e2f799a	0.17136231
51	0xbdff38b3	-0.124619864
52	0x3e28a834	0.16470414
53	0x3db2b95f	0.08726763
54	0xbe157b5d	-0.1459784
55	0xbe6e7307	-0.23286067
56	0xbd79ed0b	-0.061017077
57	0xbdb0df76	-0.08636372
58	0xbe856626	-0.26054496
59	0xbe09a4d2	-0.1344178
60	0xbd02c9b0	-0.031930625
61	0xbdc64263	-0.09680631
62	0x3a2fef14	0.00067113456
63	0xbd78f492	-0.060780115
64	0x3e798448	0.24366868
65	0x3e8a4221	0.27003577
66	0xbd8295c2	-0.0637622
67	0x3e89cef2	0.269157
68	0x3e7a1b43	0.24424462
69	0xbcc1a699	-0.02363901
70	0x3d3e3053	0.046432804
71	0x3c8967e1	0.016773166
72	0x3e8189ef	0.25300547
73	0x3d4db2dc	0.0502194
74	0xbd186ac9	-0.037211213
75	0x3e0e576a	0.13900533
76	0x3def4c4e	0.11684476
77	0xbd0b24c6	-0.033970617
78	0x3d9c325f	0.07626795
79	0x3e266198	0.16248167
80	0x3e0d4b5d	0.1379828
81	0x3e31acb8	0.17351043
82	0x3bdb5e50	0.0066945925
83	0xbd69f19b	-0.05711518
84	0x3d847c91	0.06469072
85	0x3d9a3879	0.075303026
86	0xbcec02fd	-0.028810019
87	0xbcbdc3c5	-0.02316464
88	0xbd80c602	-0.06287767
89	0xbd812506	-0.0630589
90	0x3dfb5588	0.12272173
91	0xbdc7ad54	-0.097498566
92	0xbd7d75bb	-0.061879855
93	0x3e11bf2b	0.14233081
94	0xbe2fae49	-0.17156328
95	0x3d31f127	0.04344287
96	0x3d80e4e2	0.06293656
97	0xbd48b272	-0.048998304
98	0xbcaf73ed	-0.021417582
99	0x3eb83663	0.35978994
100	0x3e0768cc	0.1322357
101	0xbe7af5e7	-0.24507867
102	0x3dfed6a8	0.12443286
103	0x3dcb13ac	0.099158615
104	0x3d8b5c99	0.06804771
105	0x3db6914b	0.08914431
106	0x3e8cdc13	0.27511653
107	0x3ea24925	0.3169643
108	0xbe3e1e4b	-0.18566243
109	0x3da47693	0.08030429
110	0x3db8e88c	0.0902873
111	0xbc2214ca	-0.009892652
112	0x3e08e4dc	0.13368553
113	0x3d94e734	0.07270661
114	0x3de561f8	0.11200327
115	0x3e740b5b	0.23832457
116	0x3e632de6	0.22185478
117	0x3c7b7564	0.015347812
118	0x3e0b2d13	0.13591413
119	0x3d355a3d	0.04427551
120	0x3dc98f37	0.09841769
121	0x3e89ad2c	0.26889932
122	0x3e19efb1	0.15032841
123	0xbd096b56	-0.03354963
124	0x3dc92125	0.09820775
125	0xbc599e9e	-0.013282446
126	0x3db03ed4	0.086057335
127	0x3dc30652	0.0952269
128	0x3d18af95	0.037276823
129	0xba10c8bb	-0.0005523075
130	0x3e07e6f0	0.1327169
131	0x3dd212eb	0.102575146
132	0xbe5f347f	-0.2179737
133	0xbdec22d8	-0.115300834
134	0x3de23b6f	0.11046492
135	0x3d87876b	0.06617626
136	0x3c48c28c	0.012253415
137	0x3ccd7164	0.025078483
138	0xbd9c06a8	-0.07618457
139	0x3c5a1b44	0.013312165
140	0x3e1bbc10	0.15208459
141	0xbd964b21	-0.073385485
142	0x3e185102	0.14874652
143	0x3e9a908d	0.30188408
144	0xbd7ef48e	-0.062244944
145	0xbd4e81ce	-0.05041676
146	0x3e4b52ef	0.19855855
147	0x3cafdf44	0.021468766
148	0x3e27328a	0.16327873
149	0x3e1d82e5	0.15381964
150	0x3d5050ac	0.050858185
151	0x3debc415	0.11512009
152	0x3d3f5200	0.04670906
153	0xbea314ed	-0.31851903
154	0xbea4e9cc	-0.32209623
155	0xbeaee8b7	-0.34161922
156	0xbed3bc8e	-0.41354793
157	0xbe912dd8	-0.28355289
158	0xbe4fa6da	-0.20278493
159	0xbe59fba4	-0.212874
160	0xbe5165f7	-0.20449053
161	0xbe026e6b	-0.12737434
162	0xbe7d54a8	-0.24739325
163	0xbe222000	-0.1583252
164	0x3d69928c	0.057024524
165	0xbdd26385	-0.10272888
166	0xbca5d5d7	-0.020243568
167	0x3e1f784e	0.15573236
168	0x3e8c05dd	0.27348223
169	0x3dc1dca8	0.09465915
170	0x3bbc19c9	0.0057403785
171	0xbdd55d02	-0.104181305
172	0xbe0114b8	-0.1260556
173	0xbdd7d6be	-0.10539006
174	0xbdbc0be1	-0.09181953
175	0xbe2a8a41	-0.16654302
176	0xbde4ad5a	-0.11165877
177	0xbd2c4154	-0.04205449
178	0xbea0cd2c	-0.31406534
179	0xbe615d73	-0.22008304
180	0xbd89ac21	-0.06722284
181	0xbe117ae2	-0.14207032
182	0xbe71caef	-0.2361257
183	0x3d6c030f	0.057620104
184	0x3cba1c39	0.022718536
185	0x3cdfc038	0.027313337
186	0x3be2e89e	0.006924703
187	0xbb3c3a47	-0.002872126
188	0x3d44b374	0.048022702
189	0x3e79e1f5	0.24402602
190	0x3d72ebe7	0.059307005
191	0x3c144ffe	0.009052275
192	0x3dc332f1	0.09531201
193	0x3c9388b7	0.018009527
194	0x3e1f8dcb	0.15581433
195	0x3d612577	0.05496737
196	0x3c516ef8	0.012782805
197	0x3d533841	0.05156732
198	0xbe277260	-0.16352224
199	0xbd18d48d	-0.03731208
200	0x3e5b152d	0.21394797
201	0xbe36dd19	-0.1785778
202	0xbe3a8f68	-0.18218768
203	0x3e01497e	0.12625691
204	0xbe4888ee	-0.19583485
205	0xbe83be5b	-0.25731167
206	0xbe0583c7	-0.1303855
207	0xbda9422c	-0.082645744
208	0xbee442d9	-0.4458225
209	0xbdbd477c	-0.0924215
210	0xbe09e8dd	-0.13467737
211	0xbecfae6e	-0.40562767
212	0xbe96e14e	-0.2946877
213	0x39c33cf7	0.0003723872
214	0xbe73fb2c	-0.23826283
215	0xbea74721	-0.32671455
216	0x3d695e6a	0.056974806
217	0xbd00a547	-0.03140762
218	0x3cd15d92	0.025557313
219	0x3c9c8d29	0.01911028
220	0xba45a9b6	-0.00075402425
221	0x3c934f5e	0.017982181
222	0x3a4fd46c	0.00079280767
223	0xbd47aac5	-0.048746843
224	0x3b372473	0.002794531
225	0x3d861b22	0.06548144
226	0x3dcaba7a	0.09898849
227	0x3d5a9b70	0.053370893
228	0x3e1e655d	0.15468355
229	0x3dd99a34	0.10625115
230	0x3d90ddac	0.070735306
231	0x3e00c47c	0.12574953
232	0x3dff80be	0.124757275
233	0x3de28092	0.11059679
234	0xbda4780d	-0.0803071
235	0xbe04698b	-0.12930886
236	0xbd821beb	-0.06352981
237	0x3da71f40	0.08160257
238	0x3bb075c1	0.005385131
239	0xbd4f7815	-0.05065163
240	0x3e2e8834	0.17044145
241	0x3ea08107	0.3134844
242	0x3e09b5f4	0.13448316
243	0xbdf543c7	-0.11975818
244	0x3d99205d	0.07476876
245	0x3e6ab300	0.22919846
246	0xbd03e2ae	-0.0321986
247	0xbdd181fc	-0.10229871
248	0x3df55296	0.11978643
249	0xbdc283c5	-0.09497789
250	0xbe313e60	-0.1730895
251	0xbbcd90d9	-0.0062733707
252	0x3d80a1d0	0.06280863
253	0xbdf0769f	-0.11741375
254	0xbdeca6e5	-0.1155527
255	0x3e09fd04	0.13475424

layer1.bn2.weight f4 [16]
0	0x3f55402c	0.83301044
1	0x3f974569	1.1818057
2	0x3f9aa20d	1.2080704
3	0x3f438116	0.76368845
4	0x3f84c319	1.0372039
5	0x3f83b2e3	1.0288967
6	0x3fb9a9a3	1.4504894
7	0x3f4bec1f	0.7965717
8	0x3f5f5c7d	0.872505
9	0x3f824c66	1.0179565
10	0x3f812962	1.0090754
11	0x3fda741e	1.7066686
12	0x3f99f66c	1.2028327
13	0x3fb4d95d	1.4128834
14	0x3f5aaed4	0.85423017
15	0x3f8e400f	1.1113299

layer1.bn2.bias f4 [16]
0	0x3dbe8349	0.093023844
1	0x3ed8059b	0.42191777
2	0x3e574ac9	0.21024622
3	0x3ecead76	0.40366715
4	0x3e0a9e2c	0.135369
5	0x3e98a803	0.29815683
6	0x3e3d7f16	0.1850551
7	0x3d8ec624	0.06971386
8	0x3d25be48	0.04046467
9	0x3d82dfdd	0.06390355
10	0x3eac6d18	0.33676982
11	0xbe17a9b3	-0.14810829
12	0x3e6e7713	0.2328761
13	0xbe85f39e	-0.26162428
14	0x3f0aa885	0.5416339
15	0xbed2f49c	-0.41202247

layer1.bn2.running_mean f4 [16]
0	0x3fa5f0ed	1.296415
1	0xbfe27bee	-1.769407
2	0xbeee0c56	-0.46493787
3	0xbf3c094b	-0.7345168
4	0x3e59b0ed	0.21258898
5	0x3e372f24	0.17889076
6	0xbf085477	-0.53253883
7	0x3ef8d5bb	0.48600563
8	0x3e83b375	0.25722852
9	0x3f5f21b1	0.87160784
10	0xbfa95316	-1.3228481
11	0xbd8a7bb6	-0.06761877
12	0xbf279a83	-0.6547014
13	0xbfe120e2	-1.758816
14	0x3e47b04b	0.19500844
15	0xbd72d56f	-0.059285577

layer1.bn2.running_var f4 [16]
0	0x3fc182e9	1.5118076
1	0x3ffe7dea	1.9882176
2	0x3ff0a4dd	1.8800312
3	0x3fe093a5	1.7545058
4	0x3fd2d067	1.6469849
5	0x3fc1aa80	1.5130157
6	0x405c9c53	3.4470413
7	0x3fb77a42	1.4334185
8	0x3fa1b6f6	1.263396
9	0x401b50e1	2.4268115
10	0x400296a5	2.0404446
11	0x4015af65	2.3388302
12	0x4010cdef	2.2625692
13	0x4062b6c1	3.5424044
14	0x3ffb0307	1.9610299
15	0x3f7a3215	0.9773267

layer2.conv1.weight f4 [32, 16, 3, 3]
0	0x3dae549f	0.08512234
1	0x3e057754	0.13033801
2	0xbe03aae3	-0.12858157
3	0x3e15201b	0.14563029
4	0xbcd8c86b	-0.026462754
5	0xbe480217	-0.19532047
6	0x3e26d516	0.16292223
7	0xbd6ac9c8	-0.05732134
8	0xbea3158f	-0.31852385
9	0x3c76d7f3	0.015066135
10	0x3d0c5aca	0.03426627
11	0x3ed549cc	0.41657865
12	0xbb90eedf	-0.004423007
13	0x3ca31b73	0.01991055
14	0x3e32d50f	0.17464088
15	0xbdf90e64	-0.12160948
16	0x3d9e9a04	0.0774422
17	0x3dffeddf	0.12496542
18	0xbe537f09	-0.20653929
19	0xba3dc1c6	-0.00072386523
20	0x3d01007b	0.0314946
21	0xbddacee8	-0.106839955
22	0x3d7804af	0.06055134
23	0xbdc35258	-0.0953719
24	0xbde60953	-0.11232247
25	0xbc8fb299	-0.017541217
26	0xbe0456ff	-0.12923811
27	0x3e995f19	0.29955366
28	0x3e7b9324	0.24567848
29	0x3e3bee3b	0.18352596
30	0x3e38e09c	0.18054432
31	0x3d4ec0a4	0.050476685
32	0x3dbee701	0.09321404
33	0x3e8b4f1a	0.27208787
34	0xbe1e0391	-0.15431048
35	0xbe4ecb41	-0.20194723
36	0xbd560078	-0.05224654
37	0x3cbbc022	0.022918765
38	0x3ec5436f	0.3852801
39	0xbc91c516	-0.017794173
40	0x3dfa4b4b	0.12221392
41	0x3dc830fe	0.097749695
42	0x3de52d47	0.111902766
43	0x3c68c76a	0.0142077
44	0xbde9147f	-0.113808624
45	0xbcc3a323	-0.0238815
46	0x3e38aed9	0.18035449
47	0x3e8810c6	0.26575297
48	0xbddc9179	-0.10769934
49	0x3da56884	0.080765754
50	0x3e95b9b5	0.29243246
51	0x3ea8bdc3	0.32957277
52	0x3ea403f6	0.32034272
53	0x3ea57a13	0.32319698
54	0xbe0314cb	-0.128009
55	0x3ce0ac9c	0.027426057
56	0x3e391f30	0.18078303
57	0xbd15e82d	-0.036598373
58	0x3e25f52f	0.16206811
59	0x3e45d796	0.19320521
60	0x3dba2c53	0.090904854
61	0x3dd3c89a	0.10340996
62	0x3d0806fe	0.033209793
63	0xbe0cf5ee	-0.1376569
64	0x3d009413	0.031391215
65	0x3c4135b9	0.011792594
66	0xbe5018ea	-0.20322004
67	0x3da472c2	0.08029701
68	0x3d2e625e	0.04257428
69	0xbccc49a8	-0.024937466
70	0x3c477975	0.012174954
71	0x3de7db0b	0.11321076
72	0x3ec132a8	0.3773396
73	0x3d8c286f	0.068436496
74	0xbe7020e3	-0.23450045
75	0x3e21b064	0.15789944
76	0x3d9774cf	0.07395326
77	0xbe624867	-0.22097932
78	0xbd8de3e6	-0.06928234
79	0xbe204558	-0.15651453
80	0xbe48e7d2	-0.19619682
81	0xbd097a23	-0.033563744
82	0xbc14ada7	-0.009074605
83	0x3dda9591	0.10673059
84	0xbe47f5e1	-0.19527389
85	0x3c624697	0.013810775
86	0x3dd77161	0.10519672
87	0xbe83121b	-0.2559975
88	0xbe12b730	-0.14327693
89	0x3d8e5c36	0.069511816
90	0xbe52ee9e	-0.20598838
91	0xbd995812	-0.07487501
92	0x3d9896c4	0.07450631
93	0xbe5a6ff8	-0.21331775
94	0xbdbc38e8	-0.091905415
95	0x3ccb6c54	0.024831928
96	0xbe555d5f	-0.208364
97	0xbd89d125	-0.06729344
98	0x3e12c55f	0.14333104
99	0x3db750d3	0.08950963
100	0x3e288837	0.16458212
101	0x3db972b0	0.09055078
102	0x3da26cea	0.0793093
103	0x3e7dc0a6	0.24780521
104	0x3e1c973c	0.15292066
105	0x3dcf2267	0.101139836
106	0x3d2b2074	0.041778997
107	0xbce3a4b4	-0.027788498
108	0x3da80a46	0.082050845
109	0x3c86940d	0.016428018
110	0xbcfed72e	-0.031108465
111	0x3dcc25e6	0.09968166
112	0xbc225f4e	-0.009910418
113	0x3c73ca0d	0.014879716
114	0xbd0dc3dc	-0.034610614
115	0x3a29de00	0.0006479919
116	0xbd64db64	-0.05587329
117	0x3d6ff507	0.058583286
118	0xbd95807e	-0.072998986
119	0xbe03be4e	-0.12865564
120	0xbc6db8aa	-0.014509359
121	0xbe0e117b	-0.13873856
122	0xbe275ffa	-0.16345206
123	0xbd70bb6a	-0.058772482
124	0xbd5aa343	-0.053378355
125	0xbd10620b	-0.03524975
126	0xbe1e4922	-0.15457585
127	0xbdebf3a2	-0.11521079
128	0x3e6e895f	0.2329459
129	0xbdaa6b72	-0.08321275
130	0xbe4f8ae4	-0.20267826
131	0xbd8d9a1a	-0.06914158
132	0xbd2933c7	-0.041309144
133	0xbe3f9cce	-0.1871216
134	0xbe458338	-0.19288337
135	0x3e451557	0.19246422
136	0x3e70c7fb	0.23513786
137	0x3cf0b03e	0.029380914
138	0x3d807489	0.06272227
139	0x3e73ce05	0.23809059
140	0x3c806dea	0.015677411
141	0xbd42346c	-0.047413275
142	0xbdc502cb	-0.09619673
143	0xbde34a58	-0.11098164
144	0xbed185fd	-0.40922537
145	0xbcb02a78	-0.021504626
146	0x3dac98cc	0.08427581
147	0xbead9376	-0.33901566
148	0xbdaf5410	-0.085609555
149	0x3dd8fa52	0.1059462
150	0xbe1fff0d	-0.15624638
151	0x3d4be34a	0.049777307
152	0x3b92d00f	0.004480369
153	0x3c42b8e0	0.011884898
154	0x3c35c13c	0.011093434
155	0x3c846ea9	0.016166048
156	0xbd8820e2	-0.06646897
157	0x3c1d28e2	0.009592267
158	0x3d85f2ab	0.06540426
159	0xbe0a4ee0	-0.13506651
160	0xbd3f0cfa	-0.046643235
161	0x3dfa08b3	0.122086905
162	0x3da12b45	0.07869581
163	0x3b0d44bb	0.002155586
164	0x3accdaaa	0.0015629132
165	0x3ba2488e	0.004952497
166	0xbdc5bc0f	-0.0965501
167	0x3da6972f	0.08134305
168	0xbd50e9b6	-0.051004134
169	0xbda5a9e4	-0.08089045
170	0x3e2a1016	0.16607699
171	0xbd81f034	-0.06344643
172	0xbcb12aa6	-0.021626782
173	0xbdf14354	-0.1178042
174	0x3dead8e0	0.11467147
175	0x3defba4c	0.11705455
176	0xbda78ed6	-0.08181541
177	0x3e4f97c0	0.20272732
178	0x3e5c2609	0.21498884
179	0xbd70d3f0	-0.05879587
180	0xbe3625a5	-0.17787798
181	0xbda2a350	-0.07941306
182	0x3d6dff5c	0.058104858
183	0xbdfc77be	-0.123275265
184	0x3d827b7e	0.063712105
185	0x3e0e36df	0.13888119
186	0xbdb626cb	-0.08894118
187	0x3da32ade	0.07967161
188	0x3e0ee31d	0.13953824
189	0xbda55734	-0.08073273
190	0x3e0cc660	0.13747549
191	0x3dc91efb	0.09820362
192	0xbd4d012d	-0.05004995
193	0x3ddeb4e9	0.108743496
194	0x3c06312d	0.008190435
195	0x3cf9cdc9	0.030493634
196	0x3d4fabd0	0.050700963
197	0xbd5853ae	-0.05281418
198	0x3dda32d2	0.106542245
199	0x3e153a36	0.14572987
200	0xbd45cf88	-0.04829362
201	0x3e0813cc	0.13288802
202	0x3e336a6e	0.17521068
203	0x3cf3a570	0.029741973
204	0x3e62fd03	0.22166829
205	0x3e384aa5	0.17997225
206	0x3d95495a	0.07289381
207	0xbe2749a0	-0.1633668
208	0xbd241528	-0.04005924
209	0x3dc32d7f	0.09530162
210	0xb9d53d6a	-0.00040672283
211	0x3d2d756d	0.042348314
212	0x3dd34fdb	0.103179656
213	0x3c4e192e	0.0125792455
214	0x3dacb977	0.08433812
215	0x3dbde440	0.09272051
216	0xbe0b3dca	-0.1359779
217	0x3c711a7c	0.014715787
218	0x3d8c409f	0.06848263
219	0x3e05f33d	0.1308107
220	0x3e5f189b	0.2178673
221	0x3e81c4cf	0.25345466
222	0x3e9f7f15	0.31151643
223	0x3ebc13a8	0.36733747
224	0x3e79367a	0.24337187
225	0xbd3c014a	-0.045899667
226	0xbdc2ce78	-0.09512037
227	0x3ca8a4c4	0.020586379
228	0xbc092a9c	-0.008371975
229	0xbdcb896c	-0.099383205
230	0xbd693918	-0.056939214
231	0xbda926be	-0.082593426
232	0x3c46acdb	0.012126173
233	0x3e06bd6f	0.131582
234	0xbd601f2a	-0.05471722
235	0xbcb52b19	-0.022115277
236	0x3da07f8d	0.078368284
237	0x3d5d75cf	0.05406743
238	0x3cf14af8	0.029454693
239	0xbbc92213	-0.006138095
240	0x3e077c78	0.13231075
241	0x3dc4d511	0.09610952
242	0x3cd37b09	0.025815504
243	0xbe8bcdc4	-0.27305424
244	0xbef1ced9	-0.47228125
245	0xbe8728a8	-0.26398206
246	0xbec55485	-0.38541046
247	0xbef211ed	-0.472793
248	0xbe899435	-0.26870885
249	0xbe279aa5	-0.16367586
250	0xbe8a0f29	-0.2696469
251	0xbdfd61c4	-0.12372163
252	0xbd37c025	-0.044860978
253	0x3ccdadc9	0.025107281
254	0x3bf1fe39	0.007385042
255	0x3daf5a29	0.085621186

layer2.bn1.weight f4 [32]
0	0x3f597981	0.84951025
1	0x3f71556c	0.9427097
2	0x3f4dc977	0.80385536
3	0x3f868658	1.0509748
4	0x3f565c51	0.83734614
5	0x3f82d066	1.0219848
6	0x3f665c8e	0.8998498
7	0x3f4e59c6	0.80605733
8	0x3f5f2e0d	0.8717964
9	0x3f8a013b	1.0781626
10	0x3f530a26	0.8243736
11	0x3f7fdff8	0.99951124
12	0x3f6b9f10	0.92039585
13	0x3f4de15e	0.8042201
14	0x3f8e59ff	1.1121215
15	0x3f5b7c8f	0.85736936
16	0x3f915744	1.1354756
17	0x3f5f4fb1	0.87230974
18	0x3f9b506a	1.2133915
19	0x3f57b166	0.84255064
20	0x3f5cd96b	0.86269253
21	0x3f575ad6	0.8412298
22	0x3faa7bdb	1.3319048
23	0x3f9e0940	1.2346573
24	0x3f5f5d61	0.8725186
25	0x3f620bdb	0.8829934
26	0x3f675dfc	0.90377784
27	0x3f7f1204	0.99636865
28	0x3f67b4ed	0.90510446
29	0x3f805846	1.0026939
30	0x3f47d58a	0.7806021
31	0x3f7aa44e	0.9790696

layer2.bn1.bias f4 [32]
0	0x3b136951	0.0022493193
1	0x3d63be8a	0.055601634
2	0xbe38fb1f	-0.18064545
3	0xbd36fc23	-0.04467405
4	0xbe9f8071	-0.3115268
5	0xbe1271ae	-0.14301178
6	0x3e07f3e7	0.13276635
7	0xbdec1fe0	-0.11529517
8	0xbe894411	-0.26809743
9	0x3de64bd4	0.11244932
10	0xbdf8b16a	-0.12143214
11	0xbe36f30d	-0.17866154
12	0xbdbf10b1	-0.093293555
13	0xbeb65b00	-0.35616302
14	0xbc9ed48d	-0.019388461
15	0xbe923f9d	-0.28564158
16	0xbe85b932	-0.26117855
17	0xbe52deb0	-0.20592761
18	0xbeac705e	-0.3367948
19	0xbe31da27	-0.17368375
20	0xbda7dc47	-0.081963114
21	0x3d1d0f2b	0.038344543
22	0xbe91911e	-0.28431028
23	0xbe3b5ffe	-0.18298337
24	0xbd9ba3a7	-0.075995736
25	0xbe3cf15c	-0.18451446
26	0xbd9209b4	-0.07130757
27	0xbde2ab31	-0.110678084
28	0xbe8da64c	-0.27665937
29	0xbd27faeb	-0.04101078
30	0xbe82b96b	-0.25532088
31	0xbe64a16d	-0.22327204

layer2.bn1.running_mean f4 [32]
0	0x4019669f	2.3968885
1	0x3fa8d610	1.3190327
2	0xc03db50d	-2.9641755
3	0xc07055cb	-3.7552364
4	0x3e8827c2	0.26592833
5	0xc006e878	-2.1079388
6	0xc0ec9f5e	-7.394454
7	0x3ea14d57	0.31504318
8	0xc0471c08	-3.111086
9	0xc08d93af	-4.424278
10	0xc035c3ba	-2.8400712
11	0xc048b40c	-3.1359892
12	0xbf85d9bf	-1.0457076
13	0x3f5397d4	0.82653546
14	0xbfe793bf	-1.8091964
15	0x3ec0a010	0.37622118
16	0xbf411387	-0.7542042
17	0xc090130a	-4.502324
18	0xc008a6e6	-2.1351867
19	0x3f0e7827	0.5565209
20	0xbfc70eec	-1.5551429
21	0xc031b0bc	-2.776412
22	0xc0962f03	-4.6932387
23	0xbfac48cd	-1.3459717
24	0xbf8f581c	-1.1198764
25	0xc069a220	-3.6505203
26	0x3fa9712a	1.323766
27	0xbe9729c4	-0.29524052
28	0xbfa9a8a9	-1.3254596
29	0xc0d8dfc1	-6.7773137
30	0xc06de768	-3.717249
31	0xbfaa65a5	-1.331227

layer2.bn1.running_var f4 [32]
0	0x40cbad44	6.3649006
1	0x409494a4	4.6431446
2	0x4059b769	3.4018195
3	0x4103f6bf	8.247741
4	0x40723cd8	3.7849636
5	0x410b9186	8.723028
6	0x40f39fe7	7.6132693
7	0x40afdbdb	5.495588
8	0x4040dbff	3.0134275
9	0x41095370	8.5828705
10	0x405b18f1	3.4233973
11	0x40e7abb8	7.2397118
12	0x41338e21	11.222199
13	0x40c2d504	6.088503
14	0x40f55da2	7.66768
15	0x40a98430	5.297386
16	0x40a8a3af	5.269981
17	0x4055ab7f	3.3385923
18	0x40cb827e	6.359679
19	0x406f8bfe	3.7429194
20	0x404164f3	3.0217865
21	0x40a62e4a	5.1931505
22	0x411b38c1	9.701356
23	0x4111d8f7	9.11547
24	0x40759fe1	3.8378832
25	0x4032ed22	2.7957234
26	0x405b485f	3.4262922
27	0x40b93011	5.7871175
28	0x3fe96e74	1.8236833
29	0x40f317dc	7.5966625
30	0x40c5380f	6.163093
31	0x40995a53	4.792276

layer2.conv2.weight f4 [32, 32, 3, 3]
0	0xbea777a2	-0.3270846
1	0xbcd15b76	-0.025556307
2	0x3dd9536e	0.10611616
3	0x3d1a1e9d	0.03762685
4	0x3e2ebcfd	0.17064281
5	0x3d93346c	0.07187733
6	0x3d4729f6	0.048624
7	0x3e173ec9	0.14770044
8	0x3da9be04	0.08288196
9	0xbda781fb	-0.08179089
10	0x3deb1865	0.11479262
11	0x3e02c6fb	0.12771218
12	0xbe437242	-0.19086555
13	0x3de28495	0.11060444
14	0x3dba2db5	0.09090749
15	0xbe073270	-0.13202834
16	0xbc70a29e	-0.014687208
17	0xbe5e64e0	-0.21718168
18	0xbd9c0d3a	-0.0761971
19	0xbca024cc	-0.019548796
20	0x3de5fa56	0.112293884
21	0xbdc412c2	-0.0957389
22	0xbd4ff035	-0.05076619
23	0x3cb3605f	0.02189654
24	0xbe5a047c	-0.21290773
25	0xbd29237c	-0.041293606
26	0x3aed374d	0.0018098146
27	0x3dfbdaa9	0.122975655
28	0xbbb48f61	-0.005510256
29	0xbe3ffea4	-0.18749481
30	0x3e054feb	0.13018768
31	0xbbe42ca9	-0.0069633317
32	0xbe6d6b29	-0.2318541
33	0x3cb3cb99	0.021947669
34	0xbdb682c1	-0.08911658
35	0xbeade12a	-0.3396085
36	0xbe4ad919	-0.19809379
37	0xbe6357ed	-0.2220151
38	0xbd71ff70	-0.059081495
39	0xbebfdb01	-0.37471774
40	0xbe1bc27d	-0.1521091
41	0xbdc6ee42	-0.09713413
42	0xbe8d8882	-0.2764321
43	0xbd9fd1eb	-0.078037106
44	0xbe3876a6	-0.18014011
45	0xbce45cc9	-0.027876275
46	0x3cb8730d	0.022515798
47	0x3e19c130	0.15015101
48	0xbe123e53	-0.14281587
49	0xbd9a8de2	-0.07546593
50	0xbdad1733	-0.084516905
51	0xbc770cd4	-0.015078742
52	0xbdcbb685	-0.09946922
53	0x3d5b8e4f	0.053602513
54	0x3e30922c	0.1724326
55	0xbd1c7736	-0.038199626
56	0xbe1d1064	-0.15338284
57	0x3e385dd9	0.1800455
58	0xbd11ce99	-0.035597418
59	0xbe57bc49	-0.21067919
60	0x3e56db8f	0.20982192
61	0x3df12075	0.11773769
62	0xbe589edd	-0.21154352
63	0xbe5da558	-0.21645105
64	0xbe124d05	-0.14287193
65	0xbe1de94b	-0.15421025
66	0xbd313917	-0.043267336
67	0x3e2b990d	0.16757603
68	0xbc8aa2cc	-0.01692333
69	0xbdd33c0a	-0.10314186
70	0x3cc2451e	0.023714598
71	0x3dacf4df	0.08445143
72	0x3db220a9	0.08697636
73	0x3e5e10cb	0.21686094
74	0xbcccd3a8	-0.02500327
75	0xbde2f6a1	-0.11082197
76	0x3e0f2f61	0.13982917
77	0x3e25efe1	0.16204788
78	0x3ce85800	0.028362274
79	0x3d8ff239	0.07028622
80	0x3d30dd0b	0.043179553
81	0x3e2064a1	0.15663387
82	0x3d31b739	0.043387625
83	0xbe4391e4	-0.19098622
84	0x3d16aef1	0.03678793
85	0x3c260d31	0.010134981
86	0xbe6159a9	-0.22006859
87	0xbe4befa5	-0.19915636
88	0x3cf10863	0.029422944
89	0xbd2ff44a	-0.04295758
90	0x3e75192f	0.23935388
91	0xbd3696c8	-0.04457739
92	0xbe09cd14	-0.13457137
93	0x3e89d376	0.26919144
94	0x3d4385cb	0.047735017
95	0xbcece723	-0.028918808
96	0x3e8d6eb4	0.27623522
97	0x3dd773c1	0.10520125
98	0x3e4b78c2	0.19870284
99	0xbd443f8f	-0.047912177
100	0xbd887d01	-0.066644676
101	0xbd976085	-0.073914565
102	0x3d6885bc	0.056768164
103	0x3d4bf6df	0.04979598
104	0xbcc0213e	-0.023453351
105	0xbc073673	-0.008252728
106	0xbda8d60b	-0.082439505
107	0xbdf8dcb8	-0.12151474
108	0x3c55f6cc	0.013059329
109	0x3dba7bc4	0.09105638
110	0xbe00d201	-0.1258011
111	0xbc266906	-0.0101568755
112	0x3d219c07	0.03945544
113	0xbdf3d2ff	-0.11905479
114	0xbd434a56	-0.047678314
115	0xbc693599	-0.01423397
116	0xbdd9f05d	-0.10641549
117	0xbc617f26	-0.013763225
118	0x3d99d388	0.075110495
119	0x3e0f788b	0.14010827
120	0x3dc66136	0.0968651
121	0x3e790d48	0.24321473
122	0x3df655d4	0.12028089
123	0x3de77a7f	0.11302661
124	0x3e5fe09b	0.21863024
125	0x3ca2b213	0.019860303
126	0x3d47c8c2	0.048775442
127	0x3d241678	0.04006049
128	0xbe5655e4	-0.20931202
129	0x3ddc3cd1	0.10753787
130	0xbcf0286c	-0.02931615
131	0xbe4e7404	-0.20161444
132	0x3d65969e	0.056051843
133	0xbcc0cf99	-0.02353649
134	0x3dcc40cc	0.099732965
135	0xbe3c6c11	-0.18400599
136	0xbe5a07d8	-0.21292055
137	0x3cfed8fd	0.031109327
138	0xbcce9382	-0.025216822
139	0xbc8782ea	-0.016541917
140	0x3d2ef222	0.042711385
141	0x3c938d35	0.018011669
142	0xbdac7ad9	-0.08421869
143	0xb6bc5bfa	-5.613544e-06
144	0xbe2f4f62	-0.17120126
145	0x3d8d3446	0.06894736
146	0x3ea45a85	0.3210031
147	0xbe3da5ba	-0.18520251
148	0xbcee1c5d	-0.029066259
149	0x3dd39de4	0.103328496
150	0xbe2f8120	-0.17139101
151	0xbe641b66	-0.22276077
152	0xbdc6b656	-0.097027466
153	0xbc0ebc9f	-0.008711963
154	0x3d813fde	0.0631101
155	0x3e955ef3	0.29174003
156	0xbd0808bf	-0.033211466
157	0x3e341ae9	0.1758839
158	0x3e9d7391	0.30752233
159	0xbda4d3d1	-0.08048213
160	0x3e074113	0.13208418
161	0x3e82e4a1	0.25565055
162	0xbc2189d6	-0.009859523
163	0xbe114c42	-0.14189246
164	0xbc9e36fc	-0.019313328
165	0x3d7b535e	0.061358802
166	0xbdaeba55	-0.08531634
167	0xbd6c53e1	-0.05769718
168	0xbdebe151	-0.11517585
169	0xbe338d40	-0.17534351
170	0xbdb8deb6	-0.09026854
171	0x3e59c2f0	0.21265769
172	0x3e56790e	0.20944616
173	0xbe04ebf5	-0.12980635
174	0x3da97762	0.082747236
175	0x3e1ba45f	0.15199421
176	0x3b72225c	0.003694675
177	0xbdde8eeb	-0.10867103
178	0x3bccf969	0.006255318
179	0x3d95ea14	0.073200375
180	0x3c74f7c0	0.014951646
181	0xbcc9cbac	-0.024633251
182	0xbec40233	-0.38282928
183	0xbda99b54	-0.082815796
184	0x3d564e60	0.052320838
185	0x3c29b31e	0.010357646
186	0xbd5adb14	-0.053431585
187	0x3e5614cd	0.20906372
188	0x3e877b21	0.26461127
189	0xbe2a09dc	-0.16605324
190	0xbdca9a2f	-0.098926894
191	0xbdfcfc4d	-0.1235281
192	0xbce5d9db	-0.028057983
193	0xbbf196d4	-0.0073727164
194	0xbe1becbe	-0.15227029
195	0x3e8a304e	0.2698998
196	0xba1d554d	-0.00060017855
197	0xbe5021c2	-0.20325378
198	0x3e819fe3	0.25317296
199	0x3e12618c	0.14295024
200	0xbe4e1848	-0.2012645
201	0xbd3688d8	-0.044564098
202	0xbd08a080	-0.03335619
203	0xbe4b0dc9	-0.19829477
204	0x3c85729f	0.016290007
205	0xbdc7bb1f	-0.097524874
206	0xbeb744f1	-0.35794786
207	0xbe06bea9	-0.13158669
208	0xbd3a2077	-0.045441117
209	0x3e653e2c	0.22386998
210	0xbe5d8635	-0.21633227
211	0xbdd94e4f	-0.10610639
212	0x3dfc6bc3	0.123252414
213	0xbf0f91c8	-0.5608182
214	0xbf0a92d7	-0.5413031
215	0xbeb7c179	-0.35889795
216	0xbe87594b	-0.26435313
217	0xbd9a2df7	-0.07528298
218	0x3bce5131	0.0062963
219	0xbe4f4e9c	-0.20244831
220	0xbe63ba49	-0.22239031
221	0xbe17b1f0	-0.14813972
222	0xbc8d4e79	-0.017249333
223	0xbe39df1f	-0.1815152
224	0x3d31aa88	0.043375522
225	0x3d2e7f35	0.042601783
226	0x3e50fa35	0.20407946
227	0x3dd2ff75	0.10302631
228	0xbce0aee7	-0.02742715
229	0x3c82c94e	0.01596513
230	0x3cd84cab	0.026403746
231	0xbec591be	-0.38587755
232	0xbe85dcca	-0.2614501
233	0x3d1bc67d	0.03803109
234	0xbe312d7c	-0.17302507
235	0xbdaa2ef5	-0.083097376
236	0x3ddada9e	0.10686229
237	0xbe4cf9f5	-0.20017226
238	0xbd61aba3	-0.055095326
239	0x3df39c8c	0.11895093
240	0xbe79afcb	-0.24383466
241	0xbe99bb54	-0.30025733
242	0xbe078a0e	-0.13236257
243	0x3ddc9103	0.10769846
244	0x3df91ed3	0.121640824
245	0xbd9c5322	-0.07633044
246	0x3e1168e6	0.14200172
247	0x3d5cd1f5	0.053911168
248	0xbd47f299	-0.048815344
249	0x3dd3ba42	0.1033826
250	0xbd58aa78	-0.052896947
251	0xbe263b85	-0.16233642
252	0x3da9885c	0.082779616
253	0x3d96e20e	0.07367335
254	0x3e440893	0.19143896
255	0x3da58f33	0.08083954

layer2.bn2.weight f4 [32]
0	0x3f8c620e	1.0967424
1	0x3f8a9de2	1.0829432
2	0x3f9da5df	1.2316245
3	0x3fa69a23	1.3015789
4	0x3f8124c9	1.0089351
5	0x3f92af53	1.1459755
6	0x3f76507f	0.9621658
7	0x3fb82e14	1.4389062
8	0x3f9d99d8	1.2312574
9	0x3f84fc6a	1.0389531
10	0x3fa4f712	1.28879
11	0x3fa02f60	1.2514458
12	0x3f9aed55	1.2103678
13	0x3fa0208c	1.2509933
14	0x3f9e7a36	1.2381046
15	0x3fbc6e1c	1.4721103
16	0x3f8555c7	1.0416802
17	0x3f8953a9	1.0728656
18	0x3f97b8f4	1.1853318
19	0x3f4e77e6	0.806517
20	0x3f95c014	1.1699243
21	0x3f8d7f40	1.1054459
22	0x3fae8fe4	1.3637662
23	0x3f9aab53	1.2083534
24	0x3f96ccf0	1.1781292
25	0x3fb0719c	1.3784671
26	0x3fa20ae0	1.2659569
27	0x3fa42a6d	1.2825447
28	0x3f9c9457	1.223277
29	0x3f7587b4	0.9591019
30	0x3f9d241f	1.2276648
31	0x3fa6d342	1.3033221

layer2.bn2.bias f4 [32]
0	0xbb0a94ab	-0.0021145742
1	0xbddc27f6	-0.107498094
2	0x3dfc16d8	0.123090446
3	0xbee997e9	-0.4562371
4	0xbe053b8e	-0.13011
5	0xbdc7efee	-0.0976256
6	0x3d5b2cdb	0.053509574
7	0xbea78526	-0.32718772
8	0xbe17c88e	-0.148226
9	0xbe0c1f2e	-0.13683769
10	0x3db8d615	0.09025208
11	0xbe0b2b6c	-0.13590783
12	0xbdacea42	-0.08443119
13	0xbd95e031	-0.07318152
14	0xbd3aaffa	-0.04557798
15	0x3d17c6a6	0.03705468
16	0xbd7b06b2	-0.061285682
17	0x3e732aef	0.23746847
18	0xbd5c9b6c	-0.05385916
19	0xbd5f52c3	-0.054522287
20	0xbde44725	-0.11146382
21	0xbe4d281f	-0.20034836
22	0xbe844fd7	-0.25842163
23	0xbd0f6efd	-0.035017956
24	0x3ce04e29	0.02738102
25	0x3baf9b8f	0.00535912
26	0x3d6faded	0.058515478
27	0x3e48dec2	0.19616225
28	0x3c903bd7	0.017606659
29	0x3e72202c	0.23645085
30	0xbdd9576e	-0.10612379
31	0xbe3ee49a	-0.18641892

layer2.bn2.running_mean f4 [32]
0	0xbff06c92	-1.8783133
1	0xbfa86600	-1.3156128
2	0xbfb24060	-1.3925896
3	0xbfa04309	-1.2520458
4	0xbeede252	-0.4646173
5	0xbeda6471	-0.42654756
6	0x3f85d159	1.0454513
7	0xbfbca3b8	-1.4737463
8	0x3f02411b	0.50880593
9	0xbf85e92a	-1.0461781
10	0xbfcef580	-1.6168671
11	0xbed205d0	-0.4102006
12	0xbeb01922	-0.34394175
13	0xbf731ff0	-0.9497061
14	0x3e1d10a0	0.15338373
15	0xc000a782	-2.0102239
16	0xbdafefcb	-0.08590659
17	0xbf83252c	-1.0245719
18	0xc007f0b7	-2.124067
19	0x3f8323b4	1.0245271
20	0x3dfa10c6	0.122102305
21	0x3dbeb214	0.093113095
22	0xbf7b6cfa	-0.9821316
23	0xbf261438	-0.648746
24	0x3ec1a5bd	0.3782176
25	0xc0730f13	-3.797795
26	0x3ca74c56	0.020422142
27	0x401e37a8	2.472147
28	0xbf0cf41d	-0.5505999
29	0xc07d6ebf	-3.9598844
30	0xbf9bb00d	-1.2163101
31	0xbfb8447a	-1.4395897

layer2.bn2.running_var f4 [32]
0	0x4039b011	2.9013712
1	0x3fc77b26	1.5584457
2	0x405a7b08	3.4137592
3	0x3fa48925	1.2854353
4	0x400dc06b	2.2148693
5	0x3ffde5f8	1.9835806
6	0x400945d8	2.144888
7	0x402f9f42	2.7440953
8	0x3fe90ef3	1.8207687
9	0x402e6966	2.725183
10	0x403fa032	2.9941525
11	0x3fe605e6	1.797055
12	0x3fece2e7	1.8506745
13	0x402ba9ca	2.682238
14	0x3ff3091e	1.8987157
15	0x4064ee1a	3.5770326
16	0x401bf256	2.436666
17	0x40597199	3.3975585
18	0x4025e550	2.5921211
19	0x401bf947	2.4370897
20	0x40039f8b	2.0566127
21	0x404516f7	3.0795267
22	0x4005f67b	2.093169
23	0x3fdda1e4	1.731503
24	0x404f5fc4	3.24022
25	0x4038f17c	2.889739
26	0x40757e80	3.835846
27	0x4063bfba	3.558577
28	0x403a4682	2.9105535
29	0x40438b31	3.0553706
30	0x4037ee31	2.873913
31	0x4023907b	2.5556934
