Checkpoints/ResNet8_tckd_ResNet18_0.8688.pth (torch, 334554 bytes, 47 tensors)

conv1.weight f4 [16, 3, 3, 3]
0	0xbd2985fe	-0.04138755
1	0x3e8abd20	0.27097416
2	0x3e3c6084	0.18396193
3	0xbe8e3fa4	-0.2778293
4	0x3d3e0c80	0.04639864
5	0x3e58b46d	0.21162577
6	0xbe50c9f3	-0.20389538
7	0x3d2edc9b	0.042690855
8	0xbde75978	-0.11296362
9	0xbe7ad481	-0.24495126
10	0x3e3b9be4	0.18321186
11	0xbe167f26	-0.14696941
12	0xbec6453f	-0.38724706
13	0x3d2e2a21	0.042520646
14	0x3e78a5ba	0.2428197
15	0xbe492284	-0.19642073
16	0x3e71f207	0.23627482
17	0x3e34893c	0.17630476
18	0x3d7c05d4	0.061528996
19	0xbb564dd5	-0.00327002
20	0xbe1a79ed	-0.15085573
21	0xbdcb7628	-0.09934646
22	0xbd2d191a	-0.042260267
23	0x3db45a2a	0.0880626
24	0xbdb23a90	-0.08702576
25	0x3e71b15b	0.23602812
26	0xbc84102c	-0.016120993
27	0x3e0aa55c	0.13539642
28	0x3ac6fddd	0.0015181858
29	0x3ea3287b	0.31866822
30	0xbcc5f264	-0.024163432
31	0x3eba24b9	0.36356142
32	0x3e0eee77	0.13958155
33	0xbd63c914	-0.055611685
34	0x3e5377dd	0.20651193
35	0xbe6fa08a	-0.23401085
36	0xbe467445	-0.19380291
37	0xbe11d7d0	-0.14242482
38	0xbd0d73a1	-0.0345341
39	0xbd9cf8c4	-0.07664636
40	0xbdbe27ff	-0.092849724
41	0xbeb565df	-0.35429284
42	0xbe1d1883	-0.15341382
43	0xbd32a292	-0.04361207
44	0xbd939a6a	-0.072071865
45	0x3e127896	0.14303812
46	0xbe3b7b83	-0.18308835
47	0x3d46680b	0.048439067
48	0x3d82d26c	0.06387791
49	0x3d11dd87	0.035611656
50	0xbe687da4	-0.22704178
51	0x3e295d2b	0.16539447
52	0x3e51e0a2	0.20495847
53	0x3cb1ed47	0.021719588
54	0x3e7a0012	0.2441409
55	0xbd49ceab	-0.04926936
56	0x3dcc7b3d	0.09984443
57	0xbdf1778f	-0.11790382
58	0x3d950789	0.07276828
59	0xbe9dec18	-0.30844188
60	0xbd655d27	-0.05599704
61	0xbe099932	-0.13437346
62	0xbe8fdfca	-0.28100425
63	0xbda0dba1	-0.07854391
64	0x3cf44dbe	0.029822227
65	0x3d97fa84	0.07420829
66	0xbcd18d88	-0.025580183
67	0x3d7ac1f4	0.061220124
68	0xbdefc8da	-0.11708231
69	0x3dba39b4	0.09093037
70	0xbe17edcc	-0.14836806
71	0xbd9d43f7	-0.07678979
72	0xbe0a5d60	-0.13512182
73	0xbe55a413	-0.2086337
74	0xbe527db0	-0.20555758
75	0x3d5a08da	0.053231098
76	0x3ebefbb4	0.3730141
77	0x3ea6ca06	0.32576007
78	0xbae088cb	-0.0017130611
79	0x3e8cb5e3	0.2748252
80	0x3ead2bb8	0.33822417
81	0x3eb8bd7d	0.36082068
82	0xbdc733f0	-0.09726703
83	0x3c4e57ec	0.012594204
84	0xbe11439b	-0.14185946
85	0xbee756ac	-0.45183313
86	0xbd1b0dd1	-0.037854973
87	0x3e025fd7	0.12731872
88	0xbd605c40	-0.054775476
89	0x3e47eb59	0.19523372
90	0x3e589917	0.21152149
91	0xbd8927e0	-0.06697059
92	0x3bd3d679	0.006464776
93	0xbe8eed64	-0.2791549
94	0xbf4a08e5	-0.7891982
95	0xbdba026c	-0.09082493
96	0x3de31aad	0.110890724
97	0xbdd6b7c2	-0.10484268
98	0x3d025299	0.031817053
99	0xbcb75f03	-0.022384172
100	0x3dcf074c	0.10108814
101	0x3d7da462	0.061924346
102	0x3e228f68	0.15875018
103	0xbdb6005e	-0.08886789
104	0xbd6fa1dd	-0.058503974
105	0xbb064667	-0.002048874
106	0x3d70bdde	0.05877482
107	0xbc1e6e52	-0.009669857
108	0xbe8368a5	-0.25665775
109	0x3e2b8873	0.1675127
110	0x3e0ba4f8	0.1363715
111	0x3dbd8e2d	0.092556335
112	0x3e057338	0.13032234
113	0xbe7893f0	-0.24275184
114	0x3de63ba0	0.11241841
115	0x3e0e851c	0.13917965
116	0xbe683930	-0.22678065
117	0x3e0ed301	0.13947679
118	0xbdd7adb8	-0.10531181
119	0xbe9636b8	-0.29338622
120	0x3eaf79fd	0.34272757
121	0x3dcc6ef0	0.09982097
122	0xbed9a590	-0.42509127
123	0x3dd31c15	0.103080906
124	0xbc9b7703	-0.018977648
125	0xbc74a66e	-0.014932258
126	0x3e5922ff	0.21204756
127	0xbc6ec175	-0.014572491
128	0x3cebd9a6	0.028790306
129	0x3e246cab	0.16057079
130	0x3cdbc8d1	0.026829155
131	0xbe68908e	-0.22711393
132	0xbdc99511	-0.09842885
133	0x3ddee632	0.1088375
134	0xbd93e537	-0.07221454
135	0xbe11a78b	-0.14224069
136	0xbb590950	-0.0033117123
137	0x3dfec763	0.12440374
138	0xbe4d49db	-0.20047705
139	0xbeb44627	-0.35209772
140	0xbcccb83d	-0.024990195
141	0xbc597ffd	-0.013275144
142	0x3e72c960	0.23709631
143	0x3e95bc5f	0.29245278
144	0x3d5be3e0	0.053684115
145	0x3e808db2	0.25108105
146	0x3e473e0e	0.19457266
147	0x3de26747	0.11054855
148	0xbeb73462	-0.35782152
149	0x3cf08fc9	0.029365437
150	0xbd4cffce	-0.05004864
151	0x3dce0f76	0.10061543
152	0xbe36a12b	-0.17834918
153	0x3d89cfa5	0.06729058
154	0x3cf4ac6b	0.029867372
155	0xbe06eebe	-0.1317701
156	0x3e0fc0aa	0.1403834
157	0xbeb92a28	-0.36164975
158	0xbcdc0055	-0.026855627
159	0xbb1cdd1f	-0.002393551
160	0x3e8f6937	0.2800996
161	0xbdb495cc	-0.08817634
162	0x3d2c2f16	0.042037092
163	0xbd864773	-0.065565966
164	0xbe2b765b	-0.16744368
165	0xbe230939	-0.15921487
166	0x3ec6196f	0.3869128
167	0x3d5e162c	0.054220363
168	0xbe763073	-0.2404192
169	0x3cddc58a	0.027071733
170	0x3d302bf0	0.043010652
171	0xbe0d732e	-0.13813469
172	0x3c7f43ce	0.015580131
173	0xbe72af31	-0.23699643
174	0xbc1faaf3	-0.009745347
175	0x3f03db4d	0.515065
176	0xbd8e327f	-0.06943225
177	0x3e3b1982	0.18271449
178	0xbe4fe813	-0.20303373
179	0x3d287a8a	0.041132487
180	0x3cc81452	0.024423752
181	0x3c1bb79e	0.009504227
182	0x3d6fab1a	0.058512785
183	0xbe43ee3e	-0.19133851
184	0x3ee5dea8	0.44896436
185	0xbe0b73c4	-0.1361838
186	0x3dd54ed0	0.10415423
187	0xbe1ff28c	-0.15619868
188	0xbe2cf82c	-0.16891545
189	0x3e538c06	0.20658883
190	0xbe5ae2f4	-0.21375638
191	0x3d58c4c5	0.05292203
192	0xbcfa7337	-0.030572517
193	0xbe4498f1	-0.19198968
194	0x3db71661	0.08939815
195	0xbd8ee669	-0.06977541
196	0x3ee1ae32	0.44078213
197	0x3eb06e6b	0.34459242
198	0x3e67288f	0.22574066
199	0xbea40340	-0.3203373
200	0xbe07d0b7	-0.13263212
201	0xbe3bec1a	-0.18351784
202	0xbe8c4fb6	-0.27404565
203	0xbdc4fd67	-0.09618645
204	0xbe183b79	-0.14866437
205	0xbe12bce9	-0.14329876
206	0x3d3e6c9b	0.046490293
207	0x3c94388d	0.018093372
208	0x3b273fff	0.0025520322
209	0x3dd86aad	0.10567222
210	0x3e55aa23	0.20865683
211	0xbe7a8eda	-0.24468556
212	0x3de2d7ef	0.11076342
213	0x3c27ff19	0.010253691
214	0x3daa8aa2	0.08327223
215	0x3e088844	0.13333231
216	0xbe335b04	-0.17515188
217	0xbdddd69f	-0.10831951
218	0x3e45e025	0.19323786
219	0x3e4dafab	0.20086543
220	0xbdf3d215	-0.11905304
221	0x3e30b93e	0.17258164
222	0xbd7b9117	-0.061417665
223	0x3e895909	0.2682574
224	0x3cb05da6	0.02152903
225	0xbe010ded	-0.12602969
226	0x3db166c7	0.08662181
227	0x3de86702	0.11347772
228	0x3d37b4f1	0.044850294
229	0xbee9f385	-0.45693603
230	0xbe9b8535	-0.30375066
231	0xbd485d34	-0.04891701
232	0xbd188ff3	-0.037246656
233	0xbdd28d1c	-0.10280821
234	0x3c846f51	0.016166361
235	0x3e920f13	0.28527126
236	0x3e9595fe	0.29215997
237	0x3e371170	0.17877746
238	0xbd95fdc2	-0.07323791
239	0xbc318e53	-0.010837155
240	0xbcce1684	-0.02515722
241	0xbe61dbb9	-0.22056474
242	0xbe8f034d	-0.27932206
243	0x3e468ca2	0.19389585
244	0xbe670814	-0.22561675
245	0xbe4c7d1c	-0.199696
246	0x3cecc338	0.028901681
247	0xbe222fb4	-0.1583851
248	0xbd831ddb	-0.06402179
249	0x3d9fd2c0	0.07803869
250	0x3e41a010	0.18908715
251	0xbe2feb40	-0.17179585
252	0x3da2eac9	0.07954938
253	0x3d4238c1	0.047417406
254	0x3ed4ec87	0.41586706
255	0xbd3bd056	-0.04585298

bn1.weight f4 [16]
0	0x3f55019c	0.8320558
1	0x3ee68aaf	0.45027682
2	0x3efc2f74	0.49254954
3	0x3f83464f	1.0255831
4	0x3f444e73	0.76682204
5	0x3f51ea16	0.8199781
6	0x3f9e3947	1.236123
7	0x3f3bc94a	0.7335402
8	0x3f11e588	0.5699086
9	0x3f1fd355	0.6243184
10	0x3f0d79d9	0.5526405
11	0x3edddf25	0.43334308
12	0x3f1a81d2	0.6035434
13	0x3f0b69a3	0.54458064
14	0x3f2db48d	0.67853624
15	0x3f550e8b	0.83225316

bn1.bias f4 [16]
0	0x3e8ed86f	0.278995
1	0x3e3767da	0.1791071
2	0x3e636378	0.22205913
3	0xbefb7d46	-0.49119014
4	0x3ee72e3a	0.45152456
5	0x3f0ee1c6	0.5581325
6	0x3f1edda7	0.62056965
7	0x3e3fdaf6	0.1873587
8	0x3e266703	0.16250233
9	0x3f3b8428	0.7324853
10	0x3eb10a98	0.34578395
11	0x3e7f8c3e	0.24955842
12	0xbe7a7a4f	-0.2446072
13	0x3e8ef7a9	0.27923325
14	0x3e399607	0.18123637
15	0x3ec9299a	0.39289552

bn1.running_mean f4 [16]
0	0xbd0599b6	-0.032617293
1	0x3c6bf7dd	0.014402357
2	0xbce5640b	-0.028001806
3	0x3eb2b379	0.34902552
4	0xbc7eb2a4	-0.015545521
5	0x3d38b008	0.04508975
6	0xbd87b55b	-0.06626388
7	0x3d64ed5a	0.05589042
8	0x3de24c50	0.11049712
9	0x3c0ad880	0.008474469
10	0xbcba35af	-0.022730676
11	0x3bfaff56	0.007659833
12	0x3e438953	0.19095354
13	0xbdc71b54	-0.09722009
14	0xbd87897e	-0.066180214
15	0xbd5ed4bf	-0.05440211

bn1.running_var f4 [16]
0	0x3f88f7ff	1.0700682
1	0x3e85d974	0.26142466
2	0x3ec61542	0.38688093
3	0x402133e3	2.518792
4	0x3f88a848	1.0676355
5	0x3ea46727	0.3210995
6	0x3ee0adf1	0.43882707
7	0x3f160c3e	0.5861243
8	0x3f158578	0.5840678
9	0x3e2d6b5b	0.16935484
10	0x3ed81c8d	0.42209283
11	0x3e14bec2	0.14525893
12	0x3fd82ca7	1.6888627
13	0x3f075275	0.52860194
14	0x402bac0c	2.682376
15	0x3ef825b1	0.48466256

layer1.conv1.weight f4 [16, 16, 3, 3]
0	0x3e3e16de	0.1856341
1	0x3edf37ee	0.43597358
2	0x3e2e4e0c	0.1702196
3	0xbe85c1f1	-0.26124528
4	0x3e26e51e	0.16298339
5	0x3e9f1a9e	0.31074995
6	0xbe9373fd	-0.2879943
7	0xbdcc03ac	-0.09961638
8	0x3dd98e01	0.10622788
9	0xbe462722	-0.19350865
10	0x3e00206f	0.12512372
11	0x3e8c5abf	0.27412984
12	0xbe6270cc	-0.22113341
13	0xbe09020b	-0.13379686
14	0x3e558c28	0.20854247
15	0xbe97cba2	-0.29647547
16	0xbd1507c5	-0.036384363
17	0xbe017f47	-0.12646209
18	0xbc1f0518	-0.009705804
19	0x3e2712dc	0.16315788
20	0xbe3412c5	-0.17585285
21	0xbe362356	-0.17786917
22	0x3d0759f7	0.03304478
23	0x3d36e6da	0.04465375
24	0xbc6b915d	-0.014377919
25	0xbd1f8765	-0.03894748
26	0x3d6acbab	0.05732314
27	0x3e02c7b8	0.12771499
28	0xbdad80ac	-0.08471808
29	0xbe70a6d4	-0.2350114
30	0x3eb2f4c6	0.34952372
31	0x3e5fdf85	0.2186261
32	0x3e43cd40	0.19121265
33	0xbe5be180	-0.2147274
34	0x3b8aa7e2	0.004231439
35	0x3dcf28f7	0.10115235
36	0xbe389f6c	-0.18029565
37	0x3e19a145	0.15002926
38	0xbe8be49e	-0.2732286
39	0xbe0d8efb	-0.13824074
40	0x3e1a7f20	0.15087557
41	0x3dbc8ae5	0.092061795
42	0x3d438088	0.04773
43	0x3dbe6d49	0.09298188
44	0xbcbf32ee	-0.023339715
45	0x3d5af392	0.053454943
46	0xbe4c301a	-0.19940224
47	0xbe061d7a	-0.13097182
48	0x3da361b9	0.079776235
49	0x3dd0d8b5	0.101975836
50	0x3da3cfa6	0.0799859
51	0xbe28504c	-0.16436881
52	0x3dd14fa7	0.102202706
53	0xbc3273e2	-0.010891886
54	0x3e34247e	0.17592046
55	0x3d1c0404	0.038089767
56	0xbdb80c99	-0.08986778
57	0x3c9dcc24	0.01926238
58	0x3d470e6d	0.048597742
59	0xbdafc323	-0.08582141
60	0xbcf087e3	-0.02936167
61	0x3d9ec15f	0.07751726
62	0x3e44ff6a	0.19238058
63	0xbd92c93e	-0.0716729
64	0xbe2eefd2	-0.17083672
65	0xbdb7aeab	-0.08968862
66	0x3d830853	0.06398072
67	0xbe174293	-0.1477149
68	0x3d99545b	0.07486793
69	0x3d36055c	0.044438705
70	0xbd25006d	-0.04028361
71	0x3c1be73a	0.009515578
72	0x3d1060a8	0.03524843
73	0xbe93697a	-0.2879141
74	0xbe4b749d	-0.19868703
75	0x3e2528af	0.16128801
76	0x3e6951f8	0.22785175
77	0xbbe3dc56	-0.0069537563
78	0xbeaeaed7	-0.34117767
79	0x3e28d848	0.16488755
80	0x3e64fb3f	0.22361468
81	0xbe7c335d	-0.24628969
82	0x3e39efec	0.18157929
83	0x3e38601e	0.18005416
84	0xbd6fa553	-0.058507275
85	0xbd75d0fd	-0.06001376
86	0xbcf2354d	-0.029566431
87	0xbd237d77	-0.039914574
88	0x3cd2f8d4	0.025753416
89	0xbe26b2b7	-0.16279112
90	0x3d844db6	0.06460135
91	0x3ec148f7	0.3775098
92	0x3e44362c	0.1916129
93	0xbe667833	-0.2250679
94	0x3dde071e	0.10841201
95	0x3eb390ac	0.35071313
96	0xbc978045	-0.01849378
97	0xbe527343	-0.20551781
98	0x3d8f7470	0.070046306
99	0x3eed6b41	0.4637089
100	0x3e95ddfa	0.29270917
101	0x3df99846	0.12187247
102	0x3da437d7	0.08018463
103	0x3dca2915	0.09871117
104	0x3dc6c2c8	0.0970512
105	0xbeb5068b	-0.35356554
106	0xbdd754d3	-0.10514226
107	0x3d3ad495	0.04561289
108	0xbe3fb489	-0.18721212
109	0x3cd032e2	0.025414888
110	0xbe28bc12	-0.16477993
111	0xbda6b556	-0.08140056
112	0xbca8a8f5	-0.020588377
113	0xbdd15926	-0.10222082
114	0x3e4ccfd1	0.2000115
115	0x3ec083b9	0.37600496
116	0x3db92837	0.090408735
117	0xbd523c8e	-0.05132728
118	0xbae398f6	-0.0017364311
119	0xbe144769	-0.14480366
120	0x3c9c80ce	0.019104388
121	0xbc5bc2f4	-0.01341318
122	0xbd2aa4ae	-0.041660957
123	0x3d163355	0.036670048
124	0xbc84468a	-0.016146917
125	0xbe75b2d5	-0.23994
126	0xbc57e51e	-0.013177184
127	0x3e847378	0.25869346
128	0xbe127678	-0.14303005
129	0xbe7b1545	-0.24519832
130	0xbd452e71	-0.048139993
131	0xbd6802a4	-0.056643143
132	0xbe12f1e2	-0.14350083
133	0x3c4ba2da	0.012428964
134	0x3c80f7d5	0.015743176
135	0xbe01a3bc	-0.12660116
136	0x3d2f8858	0.042854637
137	0xbd933c7e	-0.07189272
138	0xbdbd25ca	-0.09235723
139	0x3bf99fa1	0.007617906
140	0x3d494d51	0.049146
141	0xbe67a36c	-0.22620934
142	0x3e839819	0.2570198
143	0x3e84dd1c	0.25949943
144	0x3dd49492	0.103799
145	0xbdb757c7	-0.08952289
146	0x3c011953	0.007879573
147	0x39a94c6e	0.00032291136
148	0x3c3c467a	0.011491412
149	0x3d2dbd80	0.04241705
150	0x3d982b5b	0.074301444
151	0xbcde3056	-0.027122658
152	0xbe0e1d18	-0.13878286
153	0x3e3f1ab0	0.18662524
154	0x3e8c2376	0.27370805
155	0x3e12d56a	0.14339224
156	0x3e0f5c5c	0.14000076
157	0x3dc51f9c	0.0962517
158	0xbbedf40e	-0.0072617596
159	0xbe38730a	-0.18012634
160	0xbd83cf8a	-0.06436069
161	0xbd9e23ee	-0.07721697
162	0xbd909850	-0.07060301
163	0x3d0a4ecf	0.033766564
164	0xbd2a4c54	-0.0415767
165	0xbde0e8e0	-0.109819174
166	0xbe04aa3c	-0.12955564
167	0xbe4cbda7	-0.19994222
168	0x3df3567f	0.11881732
169	0x3e3adbc9	0.18247904
170	0x3e84f8ab	0.2597097
171	0x3d419840	0.047264338
172	0x3c9983dc	0.018739633
173	0x3d889d89	0.066706724
174	0xbd8d8de5	-0.0691183
175	0xbd4c21be	-0.049836867
176	0xba9d60e7	-0.0012007029
177	0x3e39e746	0.1815463
178	0x3c587a08	0.013212688
179	0x3df9fb0c	0.122060865
180	0x3dee3189	0.11630542
181	0x3d287914	0.041131094
182	0x3d53189a	0.051537134
183	0x3d71f804	0.059074417
184	0x3d6f3949	0.05840424
185	0xbe2b53dc	-0.16731209
186	0x3c564e35	0.013080169
187	0xbe460c40	-0.1934061
188	0xbd00b74f	-0.031424817
189	0xbe2d4f59	-0.169248
190	0xbeb1a9a3	-0.34699735
191	0xbedc9ccc	-0.43088377
192	0x3dedaa56	0.116047546
193	0x3ef436a0	0.47697926
194	0x3ecce81d	0.40020838
195	0xbce256a8	-0.027629212
196	0xbd70c553	-0.058781933
197	0xbe0325f7	-0.12807451
198	0x3e57bf2b	0.21069019
199	0x3eae8cda	0.34091836
200	0x3e207efd	0.15673442
201	0xbea5124a	-0.32240516
202	0xbee0eb86	-0.4392969
203	0xbec5835f	-0.3857679
204	0x3dfdb291	0.123875745
205	0x3e990e98	0.29893947
206	0x3e95717c	0.29188144
207	0xbd978415	-0.073982395
208	0xbdbfee07	-0.09371572
209	0xbe7149a9	-0.23563255
210	0xbd6b38b9	-0.05742714
211	0x3da8fabe	0.0825095
212	0x3a42cbf5	0.00074309047
213	0xbc88c9c0	-0.016697764
214	0xbcdde312	-0.027085815
215	0xbd63299f	-0.055459615
216	0x3e12ee57	0.14348732
217	0x3d169f75	0.036773164
218	0x3e05f699	0.13082351
219	0x3dfac472	0.122445
220	0x3d777e09	0.06042293
221	0xbdb60cb1	-0.088891394
222	0xbdd90135	-0.10595933
223	0xbe6bf045	-0.23040874
224	0xbe56e465	-0.20985563
225	0x3e5d6fa6	0.21624622
226	0x3e0846a7	0.13308202
227	0xbd4fe0b1	-0.05075139
228	0xbe1ccf8e	-0.15313551
229	0xbe57025d	-0.20996995
230	0x3b31f876	0.002715615
231	0x3d0e8e49	0.034803662
232	0x3e08045f	0.13282917
233	0xbcc45df6	-0.023970585
234	0xbd61668b	-0.055029433
235	0xbd55cdf8	-0.05219838
236	0x3e54c3d0	0.20777822
237	0xbd6cbb5c	-0.057795867
238	0xbc414a31	-0.011797474
239	0x3e1bdc95	0.15220864
240	0xbdab1fca	-0.08355673
241	0xbe3c7fae	-0.18408081
242	0xbde27567	-0.11057549
243	0xbb5e3abe	-0.0033909525
244	0xbe9521fb	-0.29127488
245	0xbd0c648b	-0.034275573
246	0xbd4650b5	-0.048416812
247	0x3e7e9a37	0.24863516
248	0x3eaf189a	0.34198457
249	0x3d338424	0.04382719
250	0x3d33f2f1	0.04393286
251	0xbdc2ca79	-0.09511275
252	0xbe37f183	-0.17963223
253	0xbdc28b0b	-0.094991766
254	0xbdb79fe1	-0.08966041
255	0xbd4f2be5	-0.05057897

layer1.bn1.weight f4 [16]
0	0x3f3b688e	0.7320641
1	0x3f95e587	1.1710671
2	0x3f7671e4	0.96267533
3	0x3f640bd4	0.8908055
4	0x3f732b03	0.94987506
5	0x3f933081	1.1499177
6	0x3f3436cd	0.7039612
7	0x3f6f4ebc	0.93479514
8	0x3f880390	1.0626087
9	0x3f897191	1.0737783
10	0x3f68af3d	0.9089239
11	0x3f920d80	1.141037
12	0x3f56a7c4	0.8384974
13	0x3f9c7ffa	1.2226555
14	0x3f456efb	0.7712247
15	0x3f73d1fe	0.952423

layer1.bn1.bias f4 [16]
0	0xbd38eec4	-0.04514958
1	0xbd4668cf	-0.048439797
2	0x3bd43da4	0.0064770747
3	0xbcd4e2d7	-0.025987072
4	0x3d683553	0.05669148
5	0xbd50b112	-0.050950117
6	0x3c289e7f	0.010291695
7	0x3e5db28e	0.21650144
8	0xbe156fbc	-0.14593405
9	0xbe383573	-0.1798914
10	0x3e07a222	0.13245443
11	0xbe052407	-0.13002025
12	0xbe10de70	-0.14147353
13	0x3eaaa007	0.33325216
14	0x3c869da5	0.016432593
15	0xbe520c11	-0.20512415

layer1.bn1.running_mean f4 [16]
0	0x3f0a0fc1	0.5393029
1	0x3d4dceed	0.050246168
2	0xbf5ea94d	-0.8697708
3	0xbecc9aa7	-0.3996174
4	0x3f3f2f92	0.7468196
5	0xbf144023	-0.57910365
6	0xbf67af89	-0.9050222
7	0xbfa7e1cf	-1.3115786
8	0xbee70946	-0.45124263
9	0xbf15b47d	-0.5847853
10	0xbf557a03	-0.833893
11	0xbef7d66e	-0.48405784
12	0xbf502883	-0.81311816
13	0xbf4a1d4f	-0.7895097
14	0x3eddf424	0.43350327
15	0xbf7d1f44	-0.9887583

layer1.bn1.running_var f4 [16]
0	0x3f9343d7	1.1505078
1	0x40b91bcc	5.784643
2	0x3f8ff1dc	1.1245685
3	0x3f5a7cb7	0.8534655
4	0x403c39ef	2.941036
5	0x40a8ce45	5.2751794
6	0x3f764a1b	0.96206826
7	0x3fefeb1d	1.8743626
8	0x3fd936d1	1.6969854
9	0x3f8d7ea5	1.1054274
10	0x400333c5	2.0500348
11	0x40773305	3.862489
12	0x3f64b038	0.8933139
13	0x3ff449b9	1.9084998
14	0x3fe267f7	1.7687978
15	0x406043a5	3.5041287

layer1.conv2.weight f4 [16, 16, 3, 3]
0	0xbdf0491d	-0.11732695
1	0x3d9856cc	0.0743843
2	0x3e00cd87	0.12578402
3	0x3d1da71b	0.038489442
4	0xbdce83bb	-0.10083719
5	0x3d516a90	0.051127017
6	0x3df370ea	0.11886771
7	0xbce537c7	-0.027980698
8	0x3c30c526	0.010789191
9	0xbd1385fc	-0.03601645
10	0xbe07c792	-0.13259724
11	0xbe0aaa5e	-0.13541552
12	0xbe9cd4c0	-0.30631065
13	0xbdad1f3a	-0.084532216
14	0x3c8ee928	0.017445162
15	0xbdd1fb8c	-0.10253057
16	0xbce08434	-0.02740679
17	0xbccd7285	-0.025079021
18	0x3ddf23ec	0.108955234
19	0x3e7acca8	0.24492133
20	0xbd8ddbea	-0.06926711
21	0x3d9b5fa2	0.075866
22	0x3ed36df3	0.41294822
23	0x3e6e7bf7	0.23289476
24	0xbd9c58f8	-0.07634157
25	0x3e74ef6b	0.23919456
26	0x3e5a3fdb	0.21313421
27	0x3dddce6c	0.108303875
28	0x3d4f52b5	0.050615985
29	0xbdac3599	-0.084086604
30	0xbd1cd70b	-0.03829102
31	0xbe08b8d4	-0.13351756
32	0xbd989ef1	-0.07452191
33	0xbe6d6ef6	-0.2318686
34	0xbe211960	-0.15732336
35	0x3d55cd95	0.05219801
36	0xbe65c40b	-0.22438066
37	0xbd597afc	-0.053095803
38	0xbd60bf2f	-0.054869827
39	0xbe504f48	-0.20342743
40	0xbcf6b6e9	-0.030116515
41	0xbda6837c	-0.081305474
42	0xbe97b6b7	-0.29631588
43	0xbe161635	-0.14656909
44	0xbd631b84	-0.055446163
45	0xbe0eb7b0	-0.13937259
46	0x3d987670	0.07444465
47	0x3d55a5ab	0.052159946
48	0xbe2e5096	-0.17022929
49	0x3dfa9969	0.12236292
50	0x3e39ace6	0.18132362
51	0xbe16c055	-0.14721806
52	0x3dcaf1e6	0.0990942
53	0x3d858569	0.065195866
54	0xbda8af54	-0.08236566
55	0xbdd160b7	-0.10223525
56	0xbdc7a92c	-0.09749064
57	0xbd1933ac	-0.037402794
58	0xbe2aa80b	-0.16665666
59	0xbe583163	-0.2111259
60	0x3d21329c	0.039354905
61	0xbe51f68a	-0.20504203
62	0xbe12e3d1	-0.14344718
63	0x3db412d6	0.08792655
64	0x3eb574bd	0.35440627
65	0x3e583117	0.21112476
66	0xbd9a8ac7	-0.07546001
67	0x3e48f9df	0.19626568
68	0x3e5bb800	0.21456909
69	0xbd8d8509	-0.0691014
70	0xbcb858b6	-0.022503238
71	0xbc9cc868	-0.01913853
72	0x3e2b16f6	0.16707978
73	0xbd672ea1	-0.056440953
74	0xbe25856b	-0.16164176
75	0x3e1fa4e9	0.15590252
76	0x3dd9673c	0.106153935
77	0xbe02dd69	-0.12779774
78	0x3df010ee	0.11721979
79	0x3e53f8c8	0.20700371
80	0x3cbbc195	0.022919456
81	0x3e10dd2e	0.14146873
82	0xbd18de99	-0.03732166
83	0xbe38a0f9	-0.18030156
84	0x3d8a9648	0.06766945
85	0x3e0e4673	0.13894062
86	0xbd7ef799	-0.062247846
87	0xbd23e00f	-0.0400086
88	0x3d256f18	0.04038915
89	0x3daa315e	0.08310197
90	0x3da4422a	0.08020432
91	0xbe243200	-0.16034698
92	0xbdb9bdcc	-0.09069404
93	0x3e2bb737	0.1676911
94	0xbe58d93c	-0.21176618
95	0xba8dcab0	-0.0010817852
96	0x3e9f4a14	0.31111205
97	0xbddae996	-0.10689084
98	0xbdb31686	-0.087445304
99	0x3eca0b84	0.3946191
100	0x3e9684aa	0.2939809
101	0xbe1c5f61	-0.15270759
102	0x3e69a595	0.22817071
103	0x3e7384b4	0.23781091
104	0x3da5ea33	0.081013106
105	0x3e28dd05	0.16490562
106	0x3e6abd26	0.22923717
107	0x3ebb09d2	0.3653093
108	0xbded3322	-0.115820184
109	0x3d9056d9	0.07047815
110	0x3e4910bc	0.1963529
111	0xbcb05364	-0.021524139
112	0xbbb1d2ba	-0.005426732
113	0x3d9052d6	0.0704705
114	0xbd6c04ca	-0.057621755
115	0x3de3f7ac	0.11131224
116	0x3dc62665	0.09675292
117	0x3e2466a9	0.16054787
118	0x3ed7350f	0.42032668
119	0x3ddb41ac	0.10705885
120	0x3dea35cc	0.11436042
121	0x3ea9e590	0.33182955
122	0x3e9e7473	0.3094822
123	0xbd2a7f0b	-0.041625064
124	0x3e03498a	0.12821022
125	0x3dcb63b9	0.0993113
126	0x3dae9b44	0.08525708
127	0xbbd5bf9a	-0.006523085
128	0xbd0366d1	-0.032080475
129	0xbd49b521	-0.049245004
130	0x3cd84226	0.02639873
131	0x3c3e7719	0.011625075
132	0xbe31a8d6	-0.17349562
133	0xbde8b51c	-0.11362669
134	0x3e09992f	0.13437341
135	0xbc2e93be	-0.010655342
136	0x3e27c48b	0.16383569
137	0x3e8dfb7d	0.27730933
138	0xbd88f374	-0.0668706
139	0x3dd13b92	0.1021644
140	0x3e438837	0.1909493
141	0x3da638f8	0.08116335
142	0x3e769cdb	0.24083273
143	0x3e5e8405	0.21730049
144	0x3d8bf8a1	0.068345316
145	0xbbbabca2	-0.0056987563
146	0x3e1fa70a	0.15591064
147	0x3d698d55	0.05701955
148	0x3e2a7d79	0.16649427
149	0x3e6dc231	0.2321861
150	0x3dddd099	0.108308025
151	0x3d805d9f	0.06267857
152	0x3de6c83b	0.1126866
153	0xbecb018f	-0.39649627
154	0xbeca309e	-0.39490217
155	0xbeb4dd22	-0.3532496
156	0xbf18fdab	-0.59762067
157	0xbed82247	-0.42213652
158	0xbe215309	-0.15754332
159	0xbed49648	-0.41520905
160	0xbe84c762	-0.25933367
161	0x3e00eda5	0.12590654
162	0xbe2e37e1	-0.17013504
163	0xbdcc71e9	-0.09982664
164	0x3dc92cf3	0.098230265
165	0xbd3d0e30	-0.04615611
166	0xbd3be821	-0.045875672
167	0x3de4564f	0.111492746
168	0x3e493f5d	0.19653077
169	0x3da6ca0b	0.081440054
170	0x3d847ce9	0.06469137
171	0xbe18c2e9	-0.14918102
172	0xbe63909a	-0.2222313
173	0xbda7ba44	-0.08189824
174	0xbcb9dfba	-0.022689689
175	0xbe692641	-0.22768499
176	0xbdc9f6ad	-0.09861503
177	0x3b216c08	0.0024631042
178	0xbea6e315	-0.32595125
179	0xbe58ef27	-0.2118498
180	0xbe07dc8d	-0.13267727
181	0xbe2830b9	-0.16424836
182	0xbe98eff9	-0.29870585
183	0x3c8c99c4	0.017163165
184	0x3ce0a726	0.027423453
185	0x3dd1220a	0.102115706
186	0xbd8f7436	-0.07004587
187	0xbe0180f5	-0.1264685
188	0x3c6a06f4	0.014283884
189	0x3e5060b6	0.20349392
190	0x3e16c9dd	0.14725442
191	0x3d9aaf23	0.07552936
192	0x3cd5da9c	0.026105218
193	0xbd854f37	-0.0650925
194	0x3e404393	0.18775778
195	0x3e1a50a2	0.15069821
196	0xbc2bd3a7	-0.010487474
197	0x3cc0fec8	0.02355899
198	0xbe5f2874	-0.21792775
199	0xbda05095	-0.0782787
200	0x3de024ff	0.109445564
201	0xbe1e02eb	-0.154308
202	0xbdb08579	-0.08619208
203	0x3dc2af30	0.095060706
204	0xbe2cbc01	-0.16868593
205	0xbe1c9e73	-0.15294819
206	0xbd94cc10	-0.07265484
207	0x3c15d87e	0.009145854
208	0xbed8115f	-0.42200753
209	0xbe7a06b9	-0.24416627
210	0xba2995fc	-0.0006469188
211	0xbe9b55d0	-0.30338907
212	0xbea1578d	-0.31512108
213	0xbd858649	-0.065197535
214	0xbdcc6727	-0.09980612
215	0xbe6dfe16	-0.23241457
216	0x3d9a4bf6	0.0753402
217	0x3c378d29	0.011203089
218	0x3ce7aff8	0.02828215
219	0x3d01c8f1	0.031685773
220	0x3ca70d6b	0.02039214
221	0x3d60ecdc	0.054913387
222	0x3d79754d	0.060902882
223	0x3d3d5dab	0.046231907
224	0x3db92ebf	0.09042119
225	0x3d9640d1	0.073365815
226	0x3e051cc5	0.12999256
227	0x3e03966e	0.12850353
228	0x3e27fcce	0.16405031
229	0x3d948a8a	0.07252987
230	0x3dc2d827	0.09513884
231	0x3cf07401	0.02935219
232	0x3e6847b4	0.22683603
233	0x3e4be732	0.19912413
234	0xbe968580	-0.29398727
235	0xbe11101d	-0.14166303
236	0x3ca18030	0.019714445
237	0x3cac137f	0.02100539
238	0x3baa86fd	0.00520408
239	0x3b7a3591	0.00381789
240	0x3dd61bec	0.104545444
241	0x3e239170	0.15973449
242	0x3db8e66a	0.09028323
243	0xbe79b7f5	-0.2438658
244	0xbd59c499	-0.053166006
245	0x3e8690e4	0.26282418
246	0xbd509323	-0.05092157
247	0xbe881964	-0.26581872
248	0x3e0602ed	0.13087054
249	0xbe3b809f	-0.18310784
250	0xbea2dc03	-0.3180848
251	0xbdc67a5c	-0.09691307
252	0x3e32c542	0.1745806
253	0xbd5d8f66	-0.054091834
254	0xbe5ee50f	-0.21767066
255	0x3e11f41c	0.14253277

layer1.bn2.weight f4 [16]
0	0x3f5f75cc	0.8728912
1	0x3f9034f7	1.1266164
2	0x3fa24798	1.2678099
3	0x3f43ff95	0.7656186
4	0x3f8d302f	1.103033
5	0x3f7c5a73	0.98575515
6	0x3fb123f3	1.3839096
7	0x3f66b87b	0.90125245
8	0x3f545e73	0.8295662
9	0x3f86d648	1.0534143
10	0x3f81eb6a	1.0149968
11	0x3fdbc5e6	1.7169769
12	0x3f985084	1.1899571
13	0x3fb06856	1.3781841
14	0x3f5b39b1	0.85634905
15	0x3f931fc9	1.1494075

layer1.bn2.bias f4 [16]
0	0x3da135be	0.07871579
1	0x3ecb0a82	0.39656454
2	0x3ea1d59b	0.3160828
3	0x3ee0d368	0.4391129
4	0xbd50ba17	-0.05095872
5	0x3e76f47f	0.24116705
6	0x3e7e0b0a	0.24808899
7	0x3cca72d3	0.024712956
8	0x3dab7d71	0.083735354
9	0xbca08c65	-0.019598195
10	0x3efc8828	0.4932263
11	0xbe6a8fce	-0.2290642
12	0x3e427fb0	0.18994021
13	0xbd73b7e8	-0.05950156
14	0x3ef784ff	0.48343655
15	0xbf0a1937	-0.53944725

layer1.bn2.running_mean f4 [16]
0	0x3fdeb30d	1.7398392
1	0xbfc9d17e	-1.5767057
2	0xbefadadb	-0.48995098
3	0xbf24a2c1	-0.6431084
4	0xbd8e15c3	-0.069377445
5	0xbc3c44de	-0.011491029
6	0xbf0d32d9	-0.5515571
7	0x3f1031b8	0.56325865
8	0x3f14b054	0.58081555
9	0x3ffb0fcc	1.9614196
10	0xbfae4b76	-1.3616779
11	0xbdd4e7c9	-0.10395772
12	0xbec2bb5e	-0.38033575
13	0xbff5ce74	-1.920363
14	0xbe4aca93	-0.19803838
15	0xbc5e9f0f	-0.013587727

layer1.bn2.running_var f4 [16]
0	0x3ff81f5a	1.9384568
1	0x40285e02	2.6307378
2	0x40151187	2.3291948
3	0x40067653	2.100972
4	0x3ff0fc9b	1.8827089
5	0x3fe05b58	1.7527876
6	0x405ba17a	3.4317307
7	0x3fea123f	1.8286818
8	0x3f9c166d	1.2194344
9	0x408044c4	4.0083942
10	0x400cca37	2.1998422
11	0x4030716d	2.756923
12	0x404275d0	3.0384407
13	0x4084bc50	4.1479874
14	0x40178def	2.368038
15	0x3fa92671	1.3214856

layer2.conv1.weight f4 [32, 16, 3, 3]
0	0x3d85d7cd	0.06535301
1	0x3cf79300	0.030221462
2	0xbd6e03f9	-0.058109257
3	0x3e259741	0.1617098
4	0xbe1878e2	-0.14889863
5	0xbe62e5b8	-0.22157943
6	0x3e8d13c5	0.27554145
7	0xbdaa95c3	-0.08329346
8	0xbecac079	-0.3959997
9	0x3c09cc15	0.008410473
10	0x3e4a5107	0.19757472
11	0x3edf35f0	0.4359584
12	0x3c491395	0.012272735
13	0x3e30a1bb	0.17249195
14	0x3eb02cae	0.34409088
15	0xbe1e2d15	-0.15446885
16	0x3e01c6f6	0.12673554
17	0x3e0d577a	0.13802901
18	0xbdcd577d	-0.10026453
19	0x3d003409	0.031299625
20	0x3cad2e0f	0.021140127
21	0xbd0443f3	-0.032291364
22	0xbc1a555e	-0.009419767
23	0xbd9c94ba	-0.07645555
24	0xbd389078	-0.04505965
25	0x3e1b9afd	0.15195842
26	0xbcb3c43b	-0.021944156
27	0x3e0dd201	0.13849641
28	0x3dfd81a5	0.12378243
29	0x3e4e5e0c	0.20153064
30	0x3d76c8cc	0.06025009
31	0x3dde2900	0.10847664
32	0x3e56a604	0.20961767
33	0x3e40c67f	0.1882572
34	0xbd8aaf6b	-0.067717396
35	0x3ce3299f	0.027729807
36	0x3a007209	0.0004899805
37	0x3e0622a3	0.1309915
38	0x3e93905e	0.2882108
39	0x3dc3333e	0.09531258
40	0x3e3d7bbe	0.18504235
41	0x3c80888c	0.01569011
42	0x3db86ef8	0.090055406
43	0x3b297326	0.0025855987
44	0xbdb29023	-0.08718898
45	0x3d3f4bc9	0.046703134
46	0x3e4fd6e1	0.20296814
47	0x3e5e3223	0.21698813
48	0xbd7d0735	-0.06177445
49	0xbcc12114	-0.023575343
50	0x3e80047b	0.25003418
51	0x3e19d58e	0.15022871
52	0x3dbbe56e	0.091746196
53	0x3e434bb8	0.19071853
54	0xbca9e907	-0.020740999
55	0x3e0107d6	0.12600645
56	0x3e571cb7	0.21007048
57	0x3c4dcbd5	0.012560804
58	0x3e11c45b	0.1423506
59	0x3e17a73b	0.14809887
60	0x3d747103	0.05967809
61	0xbd25a96f	-0.040444788
62	0xbd58dd2c	-0.0529453
63	0xbe00552d	-0.12532492
64	0x3e0c4be0	0.13700819
65	0x3e06cdff	0.13164519
66	0xbe447559	-0.1918539
67	0xbcd64fea	-0.026161153
68	0x3ddb55aa	0.107096985
69	0xbe1d64e8	-0.15370524
70	0xbd58427a	-0.052797772
71	0x3d1709f1	0.036874715
72	0x3e41b4d9	0.18916644
73	0x3e31061c	0.17287487
74	0x3d14d975	0.036340196
75	0x3d3ac072	0.045593686
76	0x3dc7139b	0.09720536
77	0xbd79e5c6	-0.061010145
78	0xbe1c72da	-0.15278187
79	0xbdc3142e	-0.09525333
80	0xbe3009bf	-0.17191218
81	0x3d965b96	0.073416874
82	0x3c06cfb1	0.008228228
83	0x3e174f7b	0.14776413
84	0xbe6db5a3	-0.2321382
85	0xbe3aaabd	-0.18229194
86	0xbd491a8b	-0.04909758
87	0xbe942b32	-0.28939205
88	0xbed3bd9f	-0.41355607
89	0xbe8c417c	-0.2739371
90	0xbe5f2933	-0.2179306
91	0xbe134de2	-0.14385179
92	0x3de80a9e	0.1133015
93	0xbe76de7b	-0.24108307
94	0xbd8cb8ae	-0.06871162
95	0x3ded31f0	0.115817904
96	0xbe7a78c0	-0.24460125
97	0xbd828649	-0.06373269
98	0x3dc04a80	0.0938921
99	0x3e037538	0.12837684
100	0x3e80eee3	0.25182256
101	0x3e42ad0f	0.19011329
102	0x3e3f9e62	0.18712762
103	0x3e4f756d	0.20259638
104	0x3da84155	0.08215586
105	0x3df0fa05	0.117664374
106	0x3ba91e46	0.0051610796
107	0xbdf2f8c5	-0.11863855
108	0xbe49d643	-0.1971064
109	0x3de5729a	0.11203499
110	0x3e234094	0.15942603
111	0xbdfc9a5b	-0.123341285
112	0xbd50bde4	-0.050962344
113	0x3e0b53ff	0.1360626
114	0xbddb0150	-0.1069361
115	0x3df139ae	0.1177858
116	0x3de102fb	0.109868966
117	0xbe099f4d	-0.13439675
118	0xbe9ee73b	-0.3103579
119	0xbbb7a8d9	-0.005604845
120	0xbe08cf1f	-0.1336026
121	0xbe757941	-0.23972036
122	0xbdd5aba3	-0.10433128
123	0xbe403ab5	-0.18772395
124	0xbe34bf6a	-0.17651144
125	0xbc82d116	-0.01596884
126	0xbe41b0d1	-0.18915106
127	0xbe85b955	-0.2611796
128	0x3b974dc7	0.004617426
129	0xbdcb13a3	-0.09915855
130	0xbe835fbd	-0.2565898
131	0xbe43250a	-0.19057098
132	0x3e0afdc2	0.13573363
133	0xbdd3c3ee	-0.10340105
134	0xbe7ad855	-0.24496587
135	0x3e7a3086	0.24432573
136	0x3ee96a85	0.4558908
137	0x3e0f5fdf	0.14001416
138	0x3e06df67	0.13171159
139	0x3e9b697d	0.3035392
140	0x3dd58a2e	0.10426746
141	0xbc8d1eb9	-0.017226564
142	0xbd63376c	-0.055472776
143	0xbdb08fc3	-0.0862117
144	0xbed7afe8	-0.42126393
145	0x3cd81cf0	0.026380986
146	0x3d2400a2	0.040039666
147	0xbeab999f	-0.3351564
148	0x3c036a44	0.008020941
149	0x3e1c669a	0.15273514
150	0xbd959f33	-0.073057555
151	0x3dfd2156	0.12359874
152	0x3ccc733e	0.024957296
153	0xbc346d95	-0.0110124545
154	0x3d44d099	0.048050497
155	0x3ce76d41	0.028250339
156	0x39fb3b90	0.00047918828
157	0x3e0b9e41	0.13634588
158	0x3d28ff15	0.04125889
159	0xbda091e3	-0.07840326
160	0x3d959e08	0.07305533
161	0x3d4ad616	0.049520575
162	0x3dabf90a	0.0839711
163	0xbda13d13	-0.07872977
164	0x3d260c12	0.040538855
165	0xbce0c0f7	-0.027435763
166	0xbe12a068	-0.14319003
167	0x3de5bc5f	0.112175696
168	0xbdb7dd02	-0.08977701
169	0xbdaa8075	-0.083252825
170	0x3db5c1f2	0.08874883
171	0xbe4a4311	-0.19752146
172	0xbdfffdfb	-0.12499615
173	0xbdf142cb	-0.11780318
174	0x3dc296db	0.0950143
175	0x3e12b2a4	0.14325958
176	0x3b9b1d4b	0.0047337166
177	0x3e661560	0.22469091
178	0x3e6c4c38	0.2307595
179	0xbd2b2eb0	-0.04179257
180	0xbdf88854	-0.121353775
181	0xbd268165	-0.040650744
182	0x3cfcf503	0.03087855
183	0xbad92f68	-0.0016569914
184	0x3e4c5d68	0.19957507
185	0x3e92d83d	0.28680602
186	0xbd96a573	-0.07355776
187	0x3e0fd230	0.14045024
188	0x3e6d0c82	0.23149303
189	0xbdbaa5e3	-0.09113672
190	0x3dcc75ec	0.09983429
191	0x3bd52c79	0.0065055457
192	0x3d627ca6	0.055294655
193	0x3dcc506f	0.09976279
194	0x3dab2eb5	0.08358518
195	0x3dff0e7f	0.12453937
196	0x3dd2760a	0.102764204
197	0x3d4395e8	0.047750384
198	0x3d9a47b6	0.07533209
199	0x3e23ab7f	0.1598339
200	0xbd4a5517	-0.049397554
201	0x3e054627	0.13015042
202	0x3e43a46b	0.19105689
203	0xbc5d3b54	-0.013502914
204	0x3e887f61	0.26659682
205	0x3e529139	0.2056321
206	0x3cd48e7d	0.02594685
207	0xbe2b5c63	-0.16734461
208	0xbd3f0bfa	-0.04664228
209	0xbc873099	-0.016502665
210	0xbda4c2f4	-0.08044997
211	0x3d3354dd	0.043782104
212	0x3e16a75f	0.14712285
213	0xbc7e2435	-0.015511562
214	0x3da5c438	0.080940664
215	0x3e0792d6	0.13239607
216	0xbd8ee93e	-0.06978081
217	0x3d90c257	0.070683174
218	0x3dcd0849	0.10011346
219	0x3e06d2fc	0.13166422
220	0x3e735327	0.23762189
221	0x3e9daad7	0.30794403
222	0x3e909343	0.28237352
223	0x3ea61717	0.3243949
224	0x3e87d692	0.26530892
225	0x3d035b18	0.032069296
226	0xbe029663	-0.1275268
227	0xbdb9007a	-0.09033294
228	0x3d3411dc	0.043962345
229	0xbda97040	-0.08273363
230	0xbd59ff7e	-0.053222172
231	0xbdda1613	-0.106487416
232	0xbd3f75a7	-0.04674306
233	0x3d6fbed6	0.058531605
234	0x3baa1023	0.005189912
235	0xbc56c839	-0.01310926
236	0x3e045387	0.12922488
237	0x3dc63eac	0.096799225
238	0x3c07630a	0.008263359
239	0x3db98cd2	0.090600625
240	0x3da0e4ff	0.078561775
241	0x3c69165c	0.014226522
242	0x3d44b96d	0.0480284
243	0xbeb99e43	-0.36253557
244	0xbf03ba87	-0.51456493
245	0xbeaa1ee8	-0.33226705
246	0xbef2677a	-0.4734457
247	0xbf17505e	-0.59107006
248	0xbee22eaa	-0.44176227
249	0xbe974161	-0.29542068
250	0xbecf1a3d	-0.40449706
251	0xbe6e0056	-0.23242316
252	0x3cf42ec1	0.02980745
253	0x3e0f73c1	0.14009
254	0x3d0cb85c	0.034355506
255	0x3dad769a	0.08469887

layer2.bn1.weight f4 [32]
0	0x3f5aff62	0.85545933
1	0x3f7f1505	0.9964145
2	0x3f4b7911	0.7948161
3	0x3f872d3e	1.0560682
4	0x3f6714d5	0.9026616
5	0x3f9b9c99	1.2157165
6	0x3f6674b0	0.900218
7	0x3f4e02a0	0.80472755
8	0x3f7d1e0d	0.9887398
9	0x3f892134	1.0713258
10	0x3f4eec5c	0.80829406
11	0x3f83dd5e	1.0301931
12	0x3f657afd	0.8964079
13	0x3f4c18de	0.79725444
14	0x3f9ed038	1.2407293
15	0x3f573c82	0.840767
16	0x3f8c936d	1.0982491
17	0x3f5635a3	0.83675593
18	0x3f983ec2	1.1894152
19	0x3f616b68	0.88054514
20	0x3f5f2457	0.87164825
21	0x3f585558	0.84505224
22	0x3fa4ed8a	1.2884991
23	0x3f8fa795	1.1223017
24	0x3f4c2286	0.7974018
25	0x3f644adf	0.89176744
26	0x3f7af9dd	0.9803751
27	0x3f7bb86b	0.98328274
28	0x3f72ec68	0.9489198
29	0x3f7d2404	0.9888308
30	0x3f4ebdfc	0.80758643
31	0x3f622d62	0.883505

layer2.bn1.bias f4 [32]
0	0xbdbc0d20	-0.09182191
1	0x3d66eb85	0.056376953
2	0xbda99494	-0.08280292
3	0xbdf31ba4	-0.118705064
4	0xbe9b8a06	-0.3037874
5	0xbe833d2c	-0.25632608
6	0x3d9c2233	0.076237105
7	0xbe99064d	-0.2988762
8	0xbe99b7f1	-0.3002315
9	0x3d4abfbe	0.049499266
10	0x3d4282cd	0.047488023
11	0xbe03e863	-0.12881617
12	0xbe099327	-0.1343504
13	0xbea4981f	-0.3214731
14	0xbd96dd9b	-0.07366487
15	0xbe852faf	-0.26012942
16	0xbe5451f9	-0.20734395
17	0xbe5568d0	-0.20840764
18	0xbe266727	-0.16250287
19	0xbe42b81b	-0.19015543
20	0xbe0ae49a	-0.13563767
21	0x3d13dfee	0.036102228
22	0xbe60fe81	-0.21972086
23	0xbcad7891	-0.021175655
24	0xbe1803d8	-0.14845216
25	0xbe570dfc	-0.21001428
26	0xbe5d07bd	-0.21584983
27	0xbe16d967	-0.1473137
28	0xbe5b81d8	-0.2143625
29	0xbd912842	-0.07087757
30	0xbdb59a90	-0.08867371
31	0xbe81e5e7	-0.25370714

layer2.bn1.running_mean f4 [32]
0	0x3fa76f81	1.3080903
1	0x3fa06e7a	1.2533715
2	0xc06b1280	-3.6730042
3	0xc095a422	-4.6762857
4	0x400c393f	2.190994
5	0xbe406f14	-0.18792373
6	0xc0ae976e	-5.455985
7	0x3f8db6c3	1.10714
8	0xc0640c0e	-3.5632358
9	0xc09a5a45	-4.823519
10	0xbfc18eea	-1.5121739
11	0xc0411aca	-3.01726
12	0xbfb28e62	-1.3949702
13	0xbedb9034	-0.42883456
14	0xc064a735	-3.5727055
15	0x3f244f74	0.64183736
16	0xbd3fde6a	-0.04684297
17	0xc08e899b	-4.4542975
18	0xc054ebf2	-3.326901
19	0xbe9fcd24	-0.31211197
20	0xc00832ea	-2.1281075
21	0xc093b8f4	-4.6163273
22	0xc04c774c	-3.1947813
23	0xc0108dff	-2.2586668
24	0xbfb14a62	-1.3850825
25	0xc03be125	-2.9356167
26	0x3f7cdf6b	0.9877841
27	0xbf733121	-0.9499684
28	0xbfdc0236	-1.7188175
29	0xc0fe2fee	-7.943351
30	0xc034c6ca	-2.8246331
31	0xbfd80cb2	-1.6878874

layer2.bn1.running_var f4 [32]
0	0x410a1c49	8.631906
1	0x40e261f0	7.0744553
2	0x40a413d8	5.1274223
3	0x41209bde	10.0380535
4	0x409a0993	4.8136687
5	0x414c8258	12.781822
6	0x411a04f1	9.626206
7	0x40cc7a1c	6.389906
8	0x40c3cbd3	6.118631
9	0x413df60a	11.872568
10	0x40ab4ddf	5.3532557
11	0x411b4e63	9.706637
12	0x411c58dd	9.771695
13	0x40d6fc00	6.7182617
14	0x41236b0b	10.213634
15	0x40b1f1db	5.5607734
16	0x40d7912f	6.7364726
17	0x40b7c301	5.742554
18	0x40e1ea76	7.0598707
19	0x40bbd530	5.869774
20	0x40a84300	5.2581787
21	0x40c4bbe4	6.147936
22	0x4140dfcb	12.054637
23	0x414942cd	12.578809
24	0x408c36df	4.381698
25	0x4066499e	3.5982432
26	0x40a76f7f	5.2323604
27	0x40c9bc21	6.304215
28	0x40238d95	2.5555165
29	0x4102e18c	8.180065
30	0x40d0b7a3	6.5224166
31	0x408ed4ce	4.463477

layer2.conv2.weight f4 [32, 32, 3, 3]
0	0xbe1279ad	-0.14304228
1	0xbd9d2463	-0.07672956
2	0xbda24f70	-0.07925308
3	0x3dabf2ac	0.08395895
4	0xbb555204	-0.0032550106
5	0xbd72e640	-0.059301615
6	0x3e04e3bc	0.12977499
7	0x3daffc1f	0.0859301
8	0x3b6fcc75	0.0036590372
9	0x3df91e73	0.12164011
10	0x3e96838d	0.2939724
11	0x3c8f52f5	0.017495612
12	0x3dcec1ba	0.10095544
13	0x3df1104a	0.11770685
14	0xbd871a74	-0.065968424
15	0x3de8fa91	0.11375917
16	0xbc86b7e1	-0.016445102
17	0xbe919c78	-0.2843969
18	0x3d5af290	0.053453982
19	0xbd515261	-0.051103953
20	0xbd4f9b4c	-0.050685212
21	0x3ae194b8	0.0017210459
22	0xbe0ffadc	-0.14060539
23	0xbdcefff7	-0.10107415
24	0xbde8548a	-0.113442495
25	0xbe3cb0f6	-0.1842688
26	0xbe1bb666	-0.15206298
27	0x3e73063f	0.23732851
28	0xbdf774db	-0.12082835
29	0xbe5862f8	-0.21131504
30	0xbb6ca32f	-0.0036108007
31	0xbdfe7dd6	-0.12426345
32	0xbd6230e2	-0.0552224
33	0xbdca3317	-0.09873026
34	0xbe35e9d4	-0.1776498
35	0xbe5b7aff	-0.21433638
36	0xbe62cb0e	-0.22147772
37	0xbe8d0a6f	-0.27547023
38	0xbe1ae812	-0.1512759
39	0xbf0438f8	-0.5164943
40	0xbe8f455b	-0.27982602
41	0xbe829bf2	-0.25509602
42	0xbe4438e5	-0.19162329
43	0xbd555bbc	-0.052089438
44	0xbd8eb944	-0.0696893
45	0xbe7d5612	-0.24739864
46	0x3cee164a	0.029063363
47	0x3e960e85	0.29307953
48	0xbe809de2	-0.25120455
49	0xbcbc1f02	-0.022964004
50	0x3d99308d	0.074799635
51	0xbe3290bc	-0.17438024
52	0xbdfe8466	-0.12427597
53	0x3d0c68c4	0.0342796
54	0x3e70abea	0.2350308
55	0x3b6f36a0	0.0036501065
56	0xbe74214b	-0.23840825
57	0x3e3b9d83	0.18321805
58	0xbc70d697	-0.0146996
59	0xbe727bb2	-0.23679999
60	0x3dfdcf8e	0.123931035
61	0x3dbed4a1	0.093178995
62	0xbe52879c	-0.20559543
63	0xbe800cbe	-0.25009722
64	0xbe9ee5df	-0.31034753
65	0xbee5e983	-0.44904718
66	0xbd7c5d7a	-0.061612584
67	0xbd145a4a	-0.03621892
68	0xbe34ece6	-0.17668495
69	0x3db95174	0.09048739
70	0xbc8dec38	-0.017324552
71	0x3c61c66c	0.013780218
72	0x3ca2ef54	0.019889511
73	0x3da973e2	0.08274056
74	0xbd01d0b5	-0.03169318
75	0x3bb4715c	0.0055066776
76	0x3e752601	0.23940279
77	0x3dd087e5	0.1018217
78	0x3dcdcb6e	0.10048567
79	0x3e374c86	0.17900285
80	0xbdb30e0f	-0.08742916
81	0x3e7bb8d1	0.2458222
82	0x3dfd0177	0.12353795
83	0xbe3ed017	-0.18634067
84	0x3e30108e	0.17193815
85	0x3dd56b17	0.104208164
86	0xbd97d02e	-0.07412754
87	0xbe6356df	-0.22201107
88	0xbdb7e4ac	-0.089791626
89	0xbd2112b9	-0.039324496
90	0x3e741b3f	0.23838519
91	0xbd254f9b	-0.04035912
92	0xbe938d6e	-0.2881884
93	0x3e8d33e0	0.2757864
94	0x3dd23eb0	0.10265863
95	0x3b913031	0.0044307937
96	0x3e88d05a	0.2672146
97	0x3e177dab	0.14794032
98	0x3e703841	0.23458959
99	0x3cb8e2e4	0.022569127
100	0xbddad051	-0.106842645
101	0xbe81ec4b	-0.2537559
102	0x3db45d13	0.08806815
103	0xbcc2634d	-0.02372899
104	0xbe2cc35c	-0.16871399
105	0xbde57b41	-0.112051494
106	0xbe228b20	-0.15873384
107	0xbe03f4a6	-0.12886295
108	0xbc2d58b7	-0.010580233
109	0x3d535593	0.05159528
110	0xbdac50ba	-0.08413835
111	0xbe036867	-0.12832795
112	0xbd178d87	-0.037000205
113	0xbdfb93f3	-0.122840784
114	0x3cb8f3df	0.022577224
115	0x3d6585f3	0.056035947
116	0xbd94dbed	-0.0726851
117	0x3db1bb73	0.08678331
118	0x3e1fab13	0.15592603
119	0x3e10d858	0.14145029
120	0x3e30d19a	0.17267457
121	0x3e774717	0.24148212
122	0x3e0eeb0e	0.13956854
123	0x3d353c6c	0.044247076
124	0x3cd8ef89	0.026481407
125	0xbe198b9b	-0.14994662
126	0xbe14021d	-0.14453931
127	0xbe4989dc	-0.19681495
128	0xbec4d424	-0.384431
129	0xbe101631	-0.14070965
130	0xbe3157dd	-0.17318673
131	0xbe135f65	-0.14391859
132	0xbdf90faf	-0.121611945
133	0xbd9c2b1b	-0.07625409
134	0x3e6c452f	0.23073266
135	0xbe961dad	-0.29319516
136	0xbec642d8	-0.38722873
137	0xbe6080d1	-0.2192414
138	0x3ba0b22a	0.0049040513
139	0x3db2ed37	0.087366514
140	0x3d196c89	0.037457023
141	0xbd1315ec	-0.03590958
142	0x3d95f145	0.07321409
143	0x3d894fa5	0.06704644
144	0xbdd2e4ca	-0.10297544
145	0x3d9de07d	0.07708833
146	0x3eacc3e0	0.3374319
147	0xbe90a5a2	-0.28251368
148	0xbda63292	-0.08115114
149	0x3df43f83	0.119261764
150	0xbeaf29a0	-0.34211445
151	0xbede4ad7	-0.43416473
152	0xbd5ff6f8	-0.054678887
153	0xbba014fe	-0.004885315
154	0x3e32ad49	0.17448916
155	0x3e615bb3	0.22007637
156	0x3c997bf5	0.018735865
157	0x3e537784	0.2065106
158	0x3e458255	0.19287999
159	0xbdedc15c	-0.11609146
160	0x3cd48a7d	0.025944943
161	0x3ce073c1	0.027398946
162	0xba809b3c	-0.0009811888
163	0xbddd029e	-0.10791515
164	0xbe22e0fb	-0.15906136
165	0xbd99e552	-0.075144425
166	0xbdf54985	-0.11976913
167	0xbdf435ba	-0.1192431
168	0xbcdee9a3	-0.027211016
169	0xbe01aecd	-0.12664337
170	0xbd1bcdf2	-0.0380382
171	0x3e656a13	0.22403745
172	0x3e6ff102	0.23431781
173	0x3e118be4	0.1421352
174	0x3e07788e	0.13229582
175	0x3ea5925d	0.3233823
176	0x3e2fe4f4	0.17177182
177	0xbdbe0566	-0.092783734
178	0x3d439c43	0.047756445
179	0x3cc7229b	0.024308493
180	0xbd5d8c64	-0.054088965
181	0xbd329231	-0.04359645
182	0xbe59766a	-0.21236578
183	0xbd91ce04	-0.071193725
184	0x3e118dcf	0.14214252
185	0x3cac40ed	0.021027053
186	0xbd9eb7df	-0.077499144
187	0x3e485bbe	0.19566247
188	0x3e849209	0.25892666
189	0xbd3110cc	-0.04322891
190	0xbe0ed266	-0.13947448
191	0xbe7bb857	-0.24582039
192	0x3d6a14ec	0.05714886
193	0xbe66df8c	-0.22546214
194	0xbed0d581	-0.4078789
195	0x3eaf06ef	0.34184977
196	0xbdc239b9	-0.09483666
197	0xbe80861f	-0.25102326
198	0x3eb59fa7	0.35473368
199	0x3e4383d6	0.1909326
200	0xbe280375	-0.16407569
201	0x3e416aed	0.18888445
202	0x3dd25385	0.10269836
203	0xbe442f61	-0.19158699
204	0x3dcc097c	0.099627465
205	0x3cefbcb3	0.029264783
206	0xbe932f3c	-0.28746974
207	0xbce0f1a8	-0.02745898
208	0xbdafe25d	-0.08588097
209	0xbd951b93	-0.0728065
210	0x3cc04695	0.023471156
211	0xbd48c284	-0.04901363
212	0xbc9bbefe	-0.01901197
213	0xbe98196f	-0.29706904
214	0xbeda96fa	-0.4269331
215	0xbe9c365c	-0.30510223
216	0xbe5c3394	-0.2150405
217	0xbc0f6f18	-0.008754514
218	0xbd3fe587	-0.046849754
219	0xbe95d99f	-0.29267594
220	0xbe1fa0b4	-0.15588647
221	0xbdd324ad	-0.1030973
222	0xbe667ae7	-0.22507821
223	0xbe800568	-0.25004125
224	0xbd8bb641	-0.068218715
225	0x3d9a1c71	0.07524956
226	0xbccf1c36	-0.025282007
227	0x3db22c98	0.08699912
228	0x3d75dcbe	0.06002497
229	0x3cbd9b55	0.023145357
230	0x3df58259	0.119877525
231	0xbe47597e	-0.19467732
232	0xbd1c7218	-0.038194746
233	0x3d5c1c25	0.05373778
234	0xbcd46b70	-0.025930136
235	0xbd8682b1	-0.06567896
236	0x3dcfd6de	0.101484045
237	0xbe7173da	-0.2357935
238	0xbdaf7dee	-0.08568941
239	0xbd286918	-0.04111585
240	0xbe13517d	-0.14386554
241	0xbe3602f3	-0.17774563
242	0x3c480a4b	0.012209485
243	0x3da83d6d	0.08214841
244	0x3e135465	0.14387663
245	0xbc6111da	-0.013737166
246	0x3dd05db4	0.101741225
247	0x3d8e851c	0.06958982
248	0xbddef911	-0.108873494
249	0x3e33bf29	0.1755339
250	0xbc0c3cb4	-0.008559395
251	0xbe3b43b7	-0.1828755
252	0x3d211a7a	0.03933189
253	0x3da7bd45	0.08190397
254	0x3e4a5a57	0.19761024
255	0x3c2b0013	0.010437029

layer2.bn2.weight f4 [32]
0	0x3f854828	1.0412645
1	0x3f83c3a0	1.0294075
2	0x3f99aa7e	1.2005155
3	0x3f96e198	1.1787596
4	0x3f853086	1.0405433
5	0x3f8dbb6a	1.1072819
6	0x3f80a254	1.0049539
7	0x3fadc7d7	1.3576611
8	0x3faa30aa	1.3296101
9	0x3f866af0	1.0501385
10	0x3fb17ea4	1.3866773
11	0x3fadf485	1.3590246
12	0x3f904dfd	1.12738
13	0x3f985cfb	1.1903375
14	0x3fa4a3c2	1.2862475
15	0x3fbc914b	1.473184
16	0x3f91d176	1.1392047
17	0x3f834034	1.0253968
18	0x3f9be7d0	1.2180119
19	0x3f69b159	0.91286236
20	0x3f9cc155	1.22465
21	0x3f83866a	1.0275395
22	0x3facae0b	1.3490614
23	0x3fa10306	1.2579048
24	0x3f9088c9	1.1291744
25	0x3fa7760a	1.3082898
26	0x3fa4f1f8	1.2886343
27	0x3f9f43cf	1.2442569
28	0x3fa5fbb9	1.2967445
29	0x3f7d0ff6	0.9885248
30	0x3f9b79e9	1.2146579
31	0x3fa7c77e	1.3107755

layer2.bn2.bias f4 [32]
0	0x3d89ec20	0.067344904
1	0xbe399214	-0.1812213
2	0xbc9229cb	-0.017842194
3	0xbeb1d90d	-0.3473591
4	0xbe31c056	-0.17358527
5	0xbe0b7cb3	-0.13621788
6	0xbd785da9	-0.060636196
7	0xbebcd657	-0.36882278
8	0xbe4adac0	-0.19810009
9	0xbdef00ae	-0.116700515
10	0xbdfee92c	-0.12446818
11	0xbeb68ea8	-0.35655713
12	0xbd9e8a60	-0.07741237
13	0xbe53b877	-0.20675837
14	0xbdd4703d	-0.1037297
15	0xbbaa8500	-0.005203843
16	0xbe6dae56	-0.23211035
17	0x3d8c3b77	0.068472795
18	0xbdb59d47	-0.08867889
19	0xbdfc6a01	-0.12324906
20	0xbdc8222d	-0.097721435
21	0xbe3f4810	-0.18679833
22	0xbea80bf1	-0.3282161
23	0xbe58f7ab	-0.21188228
24	0xbe1c4e7f	-0.15264319
25	0x3dfcfa7a	0.12352462
26	0xbe092054	-0.13391238
27	0x3dfaf897	0.12254446
28	0xbd38bee0	-0.045103908
29	0x3d95cfc3	0.07315018
30	0xbe1d9a2e	-0.15390846
31	0xbe067450	-0.13130307

layer2.bn2.running_mean f4 [32]
0	0xc005946d	-2.0871842
1	0xbf8f5d53	-1.1200355
2	0xbfdc98e8	-1.7234163
3	0xbfc570dd	-1.5425068
4	0xc028f851	-2.640156
5	0xbf1546e5	-0.583113
6	0x401a7dbd	2.4139245
7	0xbfbee0ee	-1.4912393
8	0x3ea59b89	0.32345226
9	0xbfa11185	-1.2583472
10	0xbfbc04e0	-1.4688988
11	0xbf82188f	-1.0163745
12	0xbf42c25f	-0.76077837
13	0xbfb6e787	-1.4289407
14	0xbafb34c7	-0.0019165509
15	0xc005aa8d	-2.0885346
16	0x3e24ec4c	0.16105765
17	0xbf527144	-0.8220408
18	0xc07d0a98	-3.9537716
19	0x3f10af29	0.56517273
20	0xbfa080ce	-1.2539308
21	0x3ffc2acf	1.9700564
22	0xbfbca4bc	-1.4737773
23	0xbefb29d3	-0.49055347
24	0xbedd74e8	-0.43253255
25	0xc0812b51	-4.0365376
26	0xbf7bbc7a	-0.9833447
27	0x3ff00242	1.8750689
28	0xbf3b3190	-0.731225
29	0xc0274238	-2.6134167
30	0xbfb100e4	-1.3828397
31	0xbfb06387	-1.3780373

layer2.bn2.running_var f4 [32]
0	0x4061def2	3.5292325
1	0x3ff0f60b	1.8825086
2	0x409701da	4.718976
3	0x3ff559a1	1.9167978
4	0x4035fef8	2.843687
5	0x401c30bd	2.4404747
6	0x402ce63e	2.7015529
7	0x401d8244	2.4610758
8	0x402ec796	2.7309318
9	0x408c872d	4.391501
10	0x40466a87	3.100252
11	0x40357ba0	2.8356705
12	0x403922f7	2.892759
13	0x4070a32a	3.7599587
14	0x402c9421	2.696541
15	0x4086212d	4.19155
16	0x4023fb06	2.5621963
17	0x40786d75	3.8816807
18	0x40876ad3	4.23179
19	0x4073afe2	3.80761
20	0x402b0e80	2.67276
21	0x40526cc5	3.2878888
22	0x40181cc6	2.3767562
23	0x3feb6d66	1.8392761
24	0x4073623b	3.8028705
25	0x40668050	3.6015816
26	0x408330fc	4.0997295
27	0x407d09cf	3.9537237
28	0x406babe1	3.6823657
29	0x403df31a	2.9679627
30	0x404efbaa	3.2341104
31	0x40564f1d	3.3485787
