Checkpoints/ResNet8_nckd_8.0_ResNet18_0.8446.pth (torch, 334858 bytes, 47 tensors)

conv1.weight f4 [16, 3, 3, 3]
00000000: fc39 98bc 1b48 793e 424c 1e3e 7b82 85be
00000010: f4b4 c83c ee71 333e 3774 2bbe 1381 553d
00000020: 209d a6bd aac3 53be 7ccb 263e 0e70 27be
00000030: 3f5f b6be 5fc9 1b3d 1c1a 5b3e 6cfb 38be
00000040: ceae 673e ae6e 363e 5b0b 333d 6900 b0bc
00000050: fc6c 02be 8c99 fabd f355 05bd af4c e93d
00000060: 70cf f3bd 57bf 833e 46c9 1c3d 9ab4 f03d
00000070: e886 173d ad9a 8a3e 4d3c 81bd cb5a c13e
00000080: a844 673e 4137 f4bd 6660 3c3e 098d 65be
00000090: cc59 21be 9e94 e8bd 2f50 eabd 2eb8 5cbd
000000a0: edb6 c7bd 2785 9dbe 56d7 03be e3c4 19bd
000000b0: 2732 fabc d561 f73d 814e 15be 56ab 863d
000000c0: c59f 433c 1331 47bc 0b62 32be b679 063e
000000d0: fdfd 213e 4905 343d eee0 8d3e 2647 51bd
000000e0: 8c5a c63d 6377 0dbe 9b67 2c3d 2b65 93be
000000f0: 17d8 bebd 9eb3 edbd b5b3 72be 6c28 a4bd
00000100: 16ba 27bc 9e54 683d dd5b 37bd 3a8a 393d
00000110: 7dc7 b4bd dfed 7d3d e642 ebbd 508d 8cbd
00000120: 94fe b1bd 8bbb 44be e186 48be 5439 9e3d
00000130: 62d6 bd3e 087c a83e 58e5 e3bc eb5c 863e
00000140: 7e1a 853e 7c10 b33e 9988 373c ed4e c93d
00000150: 8f71 02be 4f56 ffbe 59b5 7bbd fec2 103e
00000160: e4d5 c3bd 7be9 b33d 611b 043e 5caf 94bd
00000170: 5d0e c4bc 107c 60be 443e 3abf a348 1cbd
00000180: 200e 083e 6b82 50bd 6f4c b63b 49e4 a2bd
00000190: 9b46 e53d ee5d a83d 97fa 4c3e 4d52 cebd
000001a0: c4fb 98bc b759 4e3c ebfd 4a3d 01c9 1dbd
000001b0: 9a27 7dbe ff3d 303e 1f39 093e dbbc 8e3d
000001c0: 9b3d 153e f234 71be a2ed eb3d f4d2 343e
000001d0: bfee 6bbe de35 ea3d afcd b3bd 10c7 85be
000001e0: ca98 913e c073 e83d 79ea c3be 381a 573d
000001f0: 8b10 2ebc 5448 aa3c cf38 383e 2af3 d23b
00000200: 0b4e 203d 1839 2c3e b75e f63c 016b 81be
00000210: 99b0 c7bd 027c d43d e1fe b2bd e696 d0bd
00000220: 0e88 b03c 388b f83d 70d6 1abe ed9a bcbe
00000230: a543 16bd 64c7 17bd 03d8 373e 83be 963e
00000240: 5827 293d d65a 8e3e 7d67 183e 3580 ee3d
00000250: 9da7 9bbe 43a1 a73b dc87 8abd f1c5 b83d
00000260: 7a72 44be ec4f 163d 5882 bebb 982b 05be
00000270: 47f4 0f3e 2c7b b8be f84f 9eb8 a4cb 203d
00000280: 1a0d 8c3e 6e47 d4bc cb9d a33d 8d23 16be
00000290: 0e23 10be 726d 01be 5514 cb3e ecb6 463d
000002a0: 6bff 54be eda8 5c3c 42cb 163c 8b00 f5bd
000002b0: e46e 1abd da9d 02be 0027 65bd 9448 033f
000002c0: fd08 2bbd efc4 993d fc3a 59be f747 133d
000002d0: e4a6 543c a417 85bd 5b98 9e3d f790 19be
000002e0: c884 e53e 1128 1ebe 9cba 023e 623a e9bd
000002f0: 9047 f7bd f567 513e 2a30 64be d12d cfba
00000300: f55a 5fbb 5728 3cbe eed9 203d 0b12 16be
00000310: 9e01 d33e 0a28 aa3e ec1e 513e 0401 90be
00000320: 939d 11be 556c e9bd 8e6d 44be fa8e f5bd
00000330: 5d85 38be 91d4 03be 2097 7a3d a4dd 32bd
00000340: 3c08 73bb 5f0d f73d 5b04 7d3e 6870 48be
00000350: 8caa c53d b4f4 d5bc d477 b13d b51f 263e
00000360: 39a7 3ebe e095 f9bd a2d1 dc3d fa82 2b3e
00000370: 7e07 d9bd 4f25 393e 35de c0bd 266c 813e
00000380: d9dc 303c a835 acbd cb9a dc3d 9135 cf3c
00000390: d6f8 c13d 9432 c6be c309 96be bbb1 efbb
000003a0: 1093 4e3c 517d 47bc 8d2e 1e3d 2f31 a63e
000003b0: c954 9b3e 57d6 1c3e 3912 f2bd 8472 6abd
000003c0: 7578 4dbc 567e 93be aada 8cbe d834 043e
000003d0: 29f1 17be 21a9 33be b592 013d baf2 30be
000003e0: 5167 2abd a23b a03d c77c 643e ec2b f6bd
000003f0: 5cae a13c 1fd0 a43d 5c0c d03e fb91 84bd
-0.018582337 0.24343912 0.15458778 -0.2607611 0.024500348 0.1752393 -0.16743551 0.052125048
-0.08135438 -0.20680109 0.1628856 -0.16351339 -0.35619542 0.03803384 0.21396679 -0.1806466
0.22625276 0.17815658 0.043712 -0.02148457 -0.12736887 -0.12236318 -0.03255267 0.11391579
-0.119048 0.25731918 0.038277887 0.11753197 0.03699389 0.27071133 -0.063103296 0.37764582
0.22584784 -0.11924601 0.18396148 -0.22417082 -0.15756911 -0.113564715 -0.11441075 -0.053886585
-0.09751687 -0.3076565 -0.12875113 -0.03754128 -0.030541493 0.12079207 -0.14580728 0.065756485
0.0119399475 -0.012157696 -0.17420213 0.13132367 0.15819545 0.043950353 0.2771067 -0.051093243
0.09685239 -0.13815074 0.042090993 -0.28788123 -0.093185596 -0.11606525 -0.23701365 -0.08015522
-0.010237237 0.056721322 -0.044765342 0.04529784 -0.08827112 0.06199443 -0.11487369 -0.06862891
-0.08691135 -0.19212167 -0.19582702 0.07725778 0.37077624 0.32907128 -0.02781932 0.26242766
0.25996774 0.34973514 0.011202001 0.09829507 -0.12738632 -0.49870536 -0.061452243 0.14136884
-0.09562281 0.08784767 0.12901069 -0.0726001 -0.02393263 -0.21922326 -0.7275126 -0.03815521
0.13286638 -0.050905626 0.005563311 -0.07953698 0.111951075 0.08221041 0.20017467 -0.100742914
-0.018674739 0.012594632 0.04955856 -0.03852177 -0.24722138 0.1721115 0.13400696 0.06969615
0.14574282 -0.23555353 0.11519934 0.17658597 -0.23040293 0.114360556 -0.087794654 -0.26128435
0.2843688 0.113502026 -0.38264826 0.05251524 -0.010624061 0.020786442 0.17990421 0.006437679
0.039136928 0.16818655 0.03007446 -0.2527695 -0.0975048 0.10375215 -0.087400205 -0.101850316
0.02154925 0.12135929 -0.15120864 -0.3683695 -0.036685605 -0.037055388 0.17953496 0.29442224
0.041297287 0.27803677 0.14883228 0.11645547 -0.30401316 0.0051156594 -0.06764194 0.09022129
-0.19184294 0.036697313 -0.005813878 -0.13004911 0.14058028 -0.36031473 -7.5489224e-05 0.039256707
0.27353746 -0.025912967 0.07989081 -0.14661999 -0.14075872 -0.12639406 0.3966395 0.04851429
-0.20800559 0.013468009 0.009203734 -0.11962994 -0.03770341 -0.12755528 -0.055945396 0.5128262
-0.04175662 0.07508265 -0.21213907 0.035957303 0.012979243 -0.0649865 0.07743903 -0.14996706
0.44827867 -0.15444972 0.12766498 -0.11388089 -0.12074196 0.20449813 -0.22283998 -0.0015806501
-0.0034081314 -0.18374763 0.039270334 -0.1465532 0.4121217 0.33233672 0.20421952 -0.28125775
-0.14220266 -0.11397616 -0.19182417 -0.11990161 -0.18019624 -0.12874056 0.06117928 -0.043668404
-0.0037083765 0.12063097 0.24708693 -0.1957413 0.0965167 -0.02611766 0.086654335 0.16223033
-0.18618478 -0.121867895 0.10782172 0.16749182 -0.10597132 0.18080638 -0.09417383 0.25277823
0.010794842 -0.084086716 0.10771712 0.025294097 0.0947129 -0.38710463 -0.29304323 -0.0073148883
0.012608305 -0.012175874 0.038618613 0.324594 0.30338123 0.15316139 -0.11819882 -0.057238117
-0.012540926 -0.28807324 -0.27510577 0.12910783 -0.14838089 -0.17544986 0.03163405 -0.17280093
-0.041602436 0.07823874 0.22313224 -0.12020096 0.019736461 0.080475084 0.4063443 -0.06473156

bn1.weight f4 [16]
00000000: ea88 553f 0750 d53e a712 ee3e 2e0a 7b3f
00000010: 2ad2 4c3f 1287 5a3f 9bf5 a63f 8647 293f
00000020: d1fb 253f 518c 063f 6062 103f 54c4 da3e
00000030: 2ddb 2c3f bb98 ff3e 8830 1f3f 9f10 4f3f
0.8341204 0.4166262 0.46498606 0.9806241 0.80008185 0.8536235 1.3043703 0.6612476
0.64837366 0.52557856 0.5640011 0.4272791 0.67521936 0.49921212 0.6218343 0.80884737

bn1.bias f4 [16]
00000000: 62d8 913e 87db 2e3e ab2f 763e 53dd c6be
00000010: 7117 e03e e79f 0b3f 7752 103f 3460 263e
00000020: d48b 5d3e 6c2e 3d3f fce2 c53e d667 d33d
00000030: ec1f dabe 51fe af3e 9eea 853e e729 c43e
0.284854 0.1707593 0.24041621 -0.38840732 0.43767884 0.54540867 0.5637583 0.16247636
0.21635371 0.7389896 0.38649738 0.103225395 -0.4260248 0.34373716 0.2615556 0.3831322

bn1.running_mean f4 [16]
00000000: 5cd5 2fbd 4fac c43b 7751 0fbc 9dd0 9a3e
00000010: 6f66 d2bc 46ef 133d db0c 78bd 5e2f 653d
00000020: 84bb c93d e571 193b 373d 6bbc bdab 673c
00000030: 6baf 463e df6a bdbd 04e3 9dbd 921d 81bd
-0.042928085 0.006001986 -0.00874745 0.30237284 -0.02568361 0.03611686 -0.060559135 0.055953376
0.09850219 0.0023413834 -0.0143578565 0.014140067 0.19402854 -0.092489 -0.077093154 -0.06304468

bn1.running_var f4 [16]
00000000: 70ef 7b3f be48 493e 6d9e b13e 1c17 0140
00000010: 4b7a 603f 0da7 893e 5b7c bf3e 950f ef3e
00000020: 3dc6 e43e 98b9 b03d bce9 f53e 8161 0c3e
00000030: 3ec5 da3f 8449 d23e a777 1340 437f fa3e
0.9841223 0.19656655 0.34691182 2.0170355 0.87686604 0.26885262 0.37399563 0.46691576
0.44682494 0.08629149 0.48029888 0.1370907 1.7091444 0.41071713 2.304178 0.48925218

layer1.conv1.weight f4 [16, 16, 3, 3]
00000000: 5356 1e3d 0622 db3e 3014 943c 1a8d 22be
00000010: 437e 2c3e 0936 1d3e ab3f 3ebe dcd4 89bc
00000020: db6b 393d 6816 e7bc 11ad f23d 2ea0 0f3e
00000030: 9bdb 2bbe 8867 98bd 2fdf 313e 7d48 3fbe
00000040: 48bd bdbd 4b5e 7ebe 6f90 04bd d828 5e3e
00000050: af3a b0bd 245d 7fbe 5a0e 9b3c a1b2 853d
00000060: 2739 dc3b f15e fdbd 6d41 883d a5e1 e6bc
00000070: cd3a 4ebe 52db 2fbe 38ba 003f 1d1c a63e
00000080: 20f3 4c3e 1f2f 82be 93e3 7ebd 35e0 b5bd
00000090: 9f4a cc3c 9557 7c3e e23b 98be cd13 f7bd
000000a0: 0764 233e be94 b13d 8712 e4bc 2561 783d
000000b0: 57f4 ab3d a634 33be d020 2abe b709 ba3d
000000c0: d9f9 153e b473 53bd 8ab7 8abd 69d0 b8bb
000000d0: e7c9 863e 1576 e4bd 5fb7 f23d 7224 1c3e
000000e0: 9c8d d23c 1935 4ebe f9c2 6f3d 1b66 0ebd
000000f0: ce4e 4a3d c7ac 813d a679 523e e763 b43d
00000100: eef1 dbbd 5126 a1bc cb86 6fba b40b dfbd
00000110: cfb0 0e3e 1a56 b8bd bff2 43bd d626 b63c
00000120: 0703 85bc 281f 66be db4f b6bb dce7 103e
00000130: a0d7 853d 03eb 58bd 6f5a 00be 6031 6f3e
00000140: 250e 643e 2e96 30be 2a6c 0e3d e7b9 043e
00000150: 9d3c 6d3d 1e74 bebd f3fc ff3c 9726 38bc
00000160: 2bad 0dbd f0ff 92be d7df 1b3d e243 5d3e
00000170: f38e 71bb 9518 d2bd 0eef 1c3e 15aa 9e3e
00000180: d1b4 debd 094f 4bbe 24bb 123e a800 953e
00000190: 51e8 bc3e ffbb 6d3d c845 893d ebd1 453e
000001a0: 4ff4 1fbd 9c7d d1be c705 5abd e0aa 75bd
000001b0: 9be5 453e ef46 853e 98d2 15be c1b9 efbd
000001c0: 4ccc e3bd 7088 26be 27d0 c13d 71ee ab3e
000001d0: 2f1b f73c 89eb 543c e8ed e1bc 2936 65be
000001e0: ef1c 16be 0997 1abd 8a5e 32be 4159 613d
000001f0: 00b0 283e aed5 27be 605c f73d f347 b33d
00000200: eaed b1be 37a3 e7bd cd46 163c 11ba e1bc
00000210: 202e 72bd dc17 4c3d e48a 203d dec4 bdbd
00000220: 4a4e 143e f15a afbe 6604 0abe 2135 b73d
00000230: 11e8 1f3e 726b e8bd bb71 563e fe57 073e
00000240: ea2b 153d 3f1b 55be 3dd7 6fbd 491f b1bc
00000250: a9b1 353c dade 1a3e 1b63 acba f578 1abc
00000260: 198c e5bc 6467 273e 5f2c 7b3e bc7a 033e
00000270: 8dcc 183e 8001 553d 54c3 51bd 97f5 71be
00000280: ae53 36be 675c 16be fb57 0dbe 5737 e1bd
00000290: 6482 a0bd e2bb cbbd b332 47bd 1e29 e0bc
000002a0: 7019 f23d 7da9 1d3e bb6f 953e be1d 90bc
000002b0: 7781 023b cb4b 013b 3dd7 9bbd e31f ac3c
000002c0: 8b7b 773d 5e2c 003e b05b 0ebd 9f32 943a
000002d0: 40c3 403d 3af8 3e3d 38b6 fc3d aa2f 01bc
000002e0: 8724 333d e5f8 14be 4565 e03c 2b82 c3bd
000002f0: 4e4a b2bc 0d86 19be 4e09 a5be ce72 abbe
00000300: 50c1 793d 5348 ce3e 1629 ba3e ffd3 943c
00000310: a68f eebc 3141 f5bd 72b8 333e 8bb7 b83e
00000320: dc1b 093e 9d7f 3bbe 7901 edbe a850 f6be
00000330: c7a9 f33d c8a2 433e aec4 a93e e45b 803d
00000340: 3954 7fbd 4620 89be 6d8a a5bd b41b 2c3d
00000350: f95d f23b f42a 2fbd d883 773c f120 9c3c
00000360: 136e cf3d 9797 3e39 7b3b 1a3e 2ebe bd3d
00000370: c26b be3d e579 94b9 4415 92bd 2885 84be
00000380: ff24 e1bd f9df 373e 48e4 7f3d f42c b0bd
00000390: a58c 3fbe 0a23 3fbe 1c07 033d 9cf4 133d
000003a0: 2359 303e 1c51 0abc d9f6 17bd 536e babd
000003b0: cf86 7a3d ecc9 073c 109b babb 9792 073e
000003c0: ffe5 59bd 31f0 2fbe 008d bcbd 71c3 e03b
000003d0: 66e9 79be d0e5 8abb 0fba 01bc 7736 343e
000003e0: be67 9a3e 35f0 1d3c 3a54 4bbc 11ae 1abe
000003f0: 71fd 56be 8bf2 73bd 0561 65be a10e b53d
0.038656544 0.42799395 0.018076032 -0.15874138 0.1684504 0.15352644 -0.18578975 -0.016825132
0.045268875 -0.028208926 0.11849416 0.14025947 -0.16782992 -0.07441622 0.17370294 -0.18679996
-0.09264618 -0.24840657 -0.032364305 0.21695268 -0.08604943 -0.24937874 0.018927742 0.065282114
0.0067206803 -0.12371624 0.06653104 -0.028183768 -0.20139618 -0.17173508 0.5028415 0.32443324
0.2001462 -0.25426576 -0.06222875 -0.08880655 0.024937926 0.24642785 -0.29733187 -0.120643236
0.15956126 0.086709484 -0.027840866 0.06063952 0.083962135 -0.17500553 -0.1661408 0.09083884
0.1464609 -0.051624015 -0.067732885 -0.005640079 0.26325914 -0.11155335 0.118513815 0.15248278
0.02570229 -0.20137443 0.05853555 -0.034765344 0.04939156 0.06331783 0.20554218 0.08808117
-0.10739504 -0.019671591 -0.0009137212 -0.10890904 0.13934635 -0.090007976 -0.047838923 0.022235315
-0.016236795 -0.22472823 -0.0055637187 0.14150947 0.06535268 -0.0529585 -0.12534498 0.23358679
0.2227102 -0.17244789 0.034771122 0.12961541 0.057919133 -0.09299491 0.031248545 -0.011239669
-0.034588974 -0.2871089 0.038055267 0.21607926 -0.0036858886 -0.10258595 0.15325567 0.30989137
-0.10874332 -0.19854368 0.14329201 0.29102063 0.36895993 0.058040615 0.06702763 0.19318359
-0.03905135 -0.40916145 -0.053228166 -0.059977412 0.19325869 0.2603068 -0.14631116 -0.117053516
-0.11122951 -0.16262984 0.0946353 0.33580354 0.03016433 0.012995609 -0.027579263 -0.22383942
-0.14659475 -0.037741695 -0.17418876 0.05501676 0.16473389 -0.16390106 0.12078166 0.087539576
-0.34751827 -0.11310428 0.009172154 -0.027554544 -0.05912602 0.04982744 0.039194956 -0.09266065
0.1448299 -0.3424907 -0.1347824 0.089456804 0.1561587 -0.113486186 0.20941822 0.1321716
0.036418833 -0.20811175 -0.058554877 -0.021621363 0.011089721 0.15124074 -0.0013152094 -0.0094282525
-0.028020905 0.16348034 0.24528645 0.12839788 0.1492178 0.052003384 -0.05121167 -0.23628841
-0.17805359 -0.14683686 -0.13803093 -0.10996883 -0.0783737 -0.09947945 -0.048632335 -0.027363356
0.11821258 0.15396686 0.29186806 -0.017592307 0.0019913593 0.0019729014 -0.07609413 0.021011299
0.060420554 0.12516925 -0.03475541 0.001130659 0.047061205 0.046623446 0.12339443 -0.007884899
0.043736007 -0.1454807 0.02739204 -0.09546312 -0.021763947 -0.14992543 -0.3223366 -0.33486027
0.060975373 0.40289554 0.3635947 0.018167494 -0.029121231 -0.11975325 0.17550829 0.36077532
0.13389534 -0.183104 -0.46290186 -0.4810841 0.11897617 0.19105065 0.33157867 0.06267527
-0.06233618 -0.26782435 -0.08083043 0.042018607 0.0073964563 -0.042765573 0.015107118 0.019058676
0.10128417 0.00018176284 0.15061752 0.092647895 0.09297897 -0.00028319578 -0.07132962 -0.2588284
-0.109933846 0.17956533 0.062473565 -0.08602324 -0.18705995 -0.1866571 0.031989202 0.03612195
0.17221503 -0.00844219 -0.037100647 -0.09103074 0.06116372 0.008287888 -0.0056947544 0.13239513
-0.053197857 -0.1718147 -0.09206581 0.006859236 -0.2440544 -0.0042388216 -0.007917895 0.17598902
0.30157274 0.009639789 -0.012410218 -0.15105464 -0.20995118 -0.05955748 -0.22400291 0.08840681

layer1.bn1.weight f4 [16]
00000000: 61aa 503f 8708 973f 1fd7 673f 8ca2 6a3f
00000010: 4a99 633f df44 923f 057b 353f 719d 613f
00000020: 8adc 8a3f 61ff 8c3f 0e8a 7c3f 6576 883f
00000030: e8de 4d3f 4a0c 993f 7f79 4a3f e83b 753f
0.8150998 1.1799477 0.90562624 0.91654277 0.88905776 1.1427268 0.7089084 0.8813086
1.0848553 1.1015435 0.98648155 1.0661131 0.8041825 1.1956875 0.7909164 0.95794535

layer1.bn1.bias f4 [16]
00000000: 092a 9abd 5f0a 42bd 421e 393d 2307 e33c
00000010: 80f1 f53d 720b 91bd 4945 9ebc 5790 a23e
00000020: 94fd b9bc 8839 20be 6792 973e 68a6 81bd
00000030: 77f3 e0bd b753 5e3e 22e7 47bd 45c8 c6bd
-0.07527549 -0.047373172 0.04519487 0.027713364 0.12008953 -0.07082261 -0.019320147 0.31750748
-0.022703923 -0.15646946 0.29603884 -0.063305676 -0.10983937 0.21711622 -0.04880441 -0.09706167

layer1.bn1.running_mean f4 [16]
00000000: 8f9b df3e 8bb2 14be a3bf ccbe 5806 48be
00000010: d784 373e f311 c5be 0231 25bf 81b9 59bf
00000020: eebb 88be d2c8 1dbf ff51 aabf 3293 993b
00000030: 3453 62bf d342 dcbe d704 343f e3de 15bf
0.4367337 -0.14521234 -0.39989957 -0.1953367 0.17921768 -0.38490257 -0.64527905 -0.8504868
-0.2670588 -0.6163455 -1.3306273 0.0046867365 -0.8840821 -0.43019733 0.70319885 -0.58543223

layer1.bn1.running_var f4 [16]
00000000: 8e11 8b3f 26ce 9b40 c705 533f 50a8 303f
00000010: cb37 0d40 403a 8240 0d85 503f a5af 753f
00000020: 0a76 0e40 f865 783f 0e39 0340 9e92 2f40
00000030: 6952 433f 33e8 1540 42f4 b33f 2af8 4240
1.0864732 4.8689146 0.8243069 0.69006824 2.2065303 4.0696106 0.8145302 0.9597114
2.2259545 0.9703059 2.0503573 2.7433238 0.7629762 2.3422973 1.4058917 3.0463967

layer1.conv2.weight f4 [16, 16, 3, 3]
00000000: 0030 fabd 22d0 1abd 9835 773d a4b9 e0bc
00000010: f495 09be 5e25 f73d ce81 033e 6bd7 413b
00000020: f319 f73d b8c4 3f3d 535a 4fbd b08b 0d3d
00000030: 5768 85be 852d e8bd c0e7 81bd 8af8 68be
00000040: 3d48 efbd 2c8e 95bd ea51 753e e852 7f3e
00000050: 5cfe 4cbe 8c7b ad3d 00ab b23e 5a6d 783e
00000060: cd7c a9bd 0435 393e eb3d ac3e 927d f33d
00000070: ddf1 e63c ce24 64be 4b94 37be fc10 3fbe
00000080: e079 dfbc 15e5 89be 3b77 c5bc 0889 fb3d
00000090: 249d 72be 88b3 abbc f334 c7bd 7a66 71be
000000a0: c309 a23c 08c7 2cbd 8fb0 a0be 10ea 27be
000000b0: 6db4 17be 0eed 12be 3b81 213d f759 f0ba
000000c0: 2674 3ebe e896 363d 67de 133e 1881 a9bd
000000d0: 1b64 1e3e 3a31 8e3d 5e99 28bd c487 24be
000000e0: 99d4 97bc b1e1 84bd f566 9dbe 3817 4abe
000000f0: 5c20 7bbd b6b2 4abe 0257 7ebd 7149 a6bd
00000100: 78d7 4f3e 8dff 973e 2c61 3cbc 2757 ad3e
00000110: 909f 3d3e 2cc4 fe3c 6d30 b23d 62e3 a4bd
00000120: 4ff3 803e 4f4d a93d 522c 79bd 14ca 503e
00000130: 39d5 2f3e 85d2 aabd baf7 fd3d 020f 933e
00000140: 8c91 293e 1c55 563e d49b 98b9 c208 a2bd
00000150: ecc9 793d 65fb b03d 23d1 00bd 7273 bfbc
00000160: 519b 37bd 5221 98bd 46d8 9f3d cad2 c0bd
00000170: 0dc4 abbd d72b e83d 88f4 aabd 9e39 e53d
00000180: ba4a ea3d 43d5 d0bb 7ddb 823d 3bf4 af3e
00000190: 14b5 373e 83f3 45be d557 073e 88a4 ff3d
000001a0: a641 ae3c 934a cd3d 6560 8d3e 184d 8e3e
000001b0: a10d 22be fd3e fd3c 18b0 503d 05b2 903d
000001c0: 22d5 333d ce76 17bb 4c89 023e 98b9 733e
000001d0: 5b0a 583e 3765 9e3c 0739 193e 87bc c93d
000001e0: e023 513d b180 613e f211 1a3e 2ac5 563d
000001f0: 98cc e33d 8721 4c3c ce32 c73d 4c6d c33d
00000200: 1aa9 103e 68bc 15bd 73ec 7f3d 129a b13b
00000210: 689c 81be 0267 2bbe 5bda 25bd ed83 273d
00000220: aed7 323d eafe f13c c79a fabc 0ef5 753d
00000230: 7f53 373e 39c2 28bd ecfa e33d 871e a03e
00000240: 2d05 10bd 551a 0d3c c150 283e ae24 f13c
00000250: 1f26 833e dcc5 3b3e cead 9b3d 5c96 803e
00000260: bdf4 d23d 904b 85be 1bd0 a3be 8d8c b3be
00000270: 1899 e4be 16b1 a1be 5c7b 8fbe 6801 81be
00000280: 3fe2 5bbe 9bf2 99bd 5949 27be 34c0 19be
00000290: 8e91 173d dd1c f5bd b59f 43bc 7fa3 1b3e
000002a0: aa76 6a3e 4d05 d13d 88c5 8f3d de72 12be
000002b0: e716 1cbe 271c 32be 0324 e8bd 9e1e 71be
000002c0: 3988 dcbd e84e 18be 9f29 aabe f490 e4bd
000002d0: fbcb 91bd b3e6 40be 027f a6be f520 fc3b
000002e0: 7fa3 f73b 6b4a 413d b92c 713c ba1e 0b3d
000002f0: cd8e 983d 2001 933e 63c4 6f3d f7e1 0d39
00000300: 4ac4 943d 8085 f33b 8265 133e bf4b 843c
00000310: e828 0cbc 2744 ad3d 8876 fdbd 8d50 47bd
00000320: f685 3c3e 0f03 01be a202 3cbe e88f ae3d
00000330: 5982 05be 21b8 77be 63b7 2dbe 8b22 cdbd
00000340: 14e5 dfbe 297b 7abd bd32 42be 6967 d0be
00000350: 727f aabe d9c1 fbbb 2cb0 45be 4554 96be
00000360: 990f 3d3d 2f6b e7bd 0261 c2bd 684e fc3c
00000370: 358b a7bc 0efa 42bd 7854 a1bd 1229 45bd
00000380: d00f f5bc ca27 593d a6bd e63d 54b4 583d
00000390: a422 103e 6efa 073e b85b c23d 6b82 b43d
000003a0: f0e7 403e 21af 403e 5e41 1bbe fa03 fabd
000003b0: bcb5 8d3b ad29 cb3d c524 cfbc f802 04be
000003c0: 2475 0e3e b622 853e ba18 ef3d 414d 34be
000003d0: bc4f e43c de01 633e bd94 753d 2dc3 8abd
000003e0: ced7 ef3d 8171 ce3c 9c64 f7bd 69eb d7bc
000003f0: a51b 413d 6728 05be 7ef4 c3bd a7f3 e33d
-0.122161865 -0.037796147 0.060353845 -0.02743227 -0.13436109 0.12067674 0.12842485 0.0029577862
0.12065496 0.046818465 -0.05062325 0.034557045 -0.26056167 -0.11336807 -0.06343031 -0.2275106
-0.116837 -0.07302508 0.23957029 0.2493397 -0.20018905 0.0847083 0.34896088 0.24260464
-0.08275757 0.1808663 0.3364099 0.11889185 0.028191501 -0.22279665 -0.17927663 -0.18658823
-0.027279794 -0.26932588 -0.024104705 0.12281996 -0.23692757 -0.02095963 -0.09726896 -0.23574248
0.019780045 -0.042182 -0.31384704 -0.16397882 -0.1481492 -0.14348242 0.039429884 -0.0018337358
-0.18598995 0.04457751 0.14440309 -0.08276576 0.15467875 0.06942983 -0.041161887 -0.16067415
-0.018533992 -0.0648836 -0.30742612 -0.1973542 -0.061310157 -0.19794735 -0.062094696 -0.081194766
0.20297039 0.29687157 -0.011497777 0.33855554 0.185179 0.031099401 0.08700643 -0.08051182
0.2518563 0.082666986 -0.060833283 0.20389587 0.17171182 -0.08340935 0.12400766 0.28722388
0.16559428 0.20930904 -0.000291078 -0.07911827 0.060983583 0.086417 -0.03144945 -0.023370478
-0.044825856 -0.0742823 0.07804923 -0.09415205 -0.08387003 0.11336487 -0.08347422 0.1119263
0.11440034 -0.006373079 0.0638952 0.3436602 0.1794017 -0.19331174 0.13217099 0.12482554
0.021271538 0.100239895 0.27612606 0.27793193 -0.15825512 0.030913824 0.050949186 0.070652045
0.04390443 -0.0023111585 0.12747687 0.23801267 0.210977 0.019335372 0.1496316 0.09850412
0.051059604 0.22021748 0.15045908 0.052434124 0.111230075 0.012459165 0.09726487 0.09542331
0.14127007 -0.03655663 0.062481355 0.005419978 -0.2531464 -0.16738513 -0.040491443 0.0408973
0.04366272 0.029540498 -0.030591382 0.060048155 0.17902945 -0.04120085 0.11131844 0.3127329
-0.035161186 0.008612235 0.16437055 0.029436436 0.25615022 0.18337196 0.0760151 0.25114715
0.103005864 -0.26034212 -0.3199471 -0.3506817 -0.4464805 -0.31580418 -0.28023803 -0.25196385
-0.21473025 -0.075169764 -0.16336574 -0.15014726 0.037004046 -0.11968396 -0.011939933 0.15199088
0.22896829 0.10206089 0.07020098 -0.14301631 -0.15243112 -0.17393552 -0.11334994 -0.23546836
-0.1076817 -0.1487385 -0.3323488 -0.1116046 -0.07118984 -0.18838005 -0.32518774 0.0076943585
0.007557332 0.04719011 0.014720135 0.03396485 0.07449112 0.28711796 0.0585369 0.00013530986
0.07264002 0.007431686 0.14394191 0.0161494 -0.008554675 0.08460265 -0.12376124 -0.048660804
0.18410477 -0.12598823 -0.1836038 0.08523542 -0.13038005 -0.24191333 -0.16964488 -0.10016354
-0.4372946 -0.06115261 -0.18964668 -0.40703896 -0.33300358 -0.0076830206 -0.19305485 -0.29361168
0.046157453 -0.112997405 -0.09491159 0.030799106 -0.020452121 -0.047601752 -0.07877439 -0.04813487
-0.029914767 0.05301646 0.11266641 0.05290635 0.14075714 0.13279125 0.0949015 0.08813938
0.18838477 0.18816806 -0.15161654 -0.1220779 0.004324643 0.099200584 -0.025286088 -0.12891757
0.13911873 0.26003045 0.11674638 -0.17607595 0.027870052 0.22168681 0.0599563 -0.06775508
0.11711083 0.025200607 -0.120797366 -0.02635737 0.047145505 -0.13003694 -0.095681176 0.11130457

layer1.bn2.weight f4 [16]
00000000: c9a6 5c3f c244 983f f49d 9e3f 4db2 4a3f
00000010: 13de 833f 38a1 813f 8411 bc3f b20f 5b3f
00000020: 30b8 5b3f 473c 833f d50d 783f 0ccf db3f
00000030: a5c5 963f 985a ae3f ec6a 593f d4f8 8c3f
0.86191994 1.1895983 1.2391953 0.79178315 1.0302147 1.0127325 1.4692845 0.85570824
0.8582792 1.025277 0.96896106 1.7172561 1.1779066 1.3621397 0.84928775 1.1013436

layer1.bn2.bias f4 [16]
00000000: 39c5 293e ba17 e23e b732 5f3e 6898 c93e
00000010: 2e7f 333e 4ded 9a3e eb57 373e 1c73 7d3c
00000020: fd71 473c cc2c 58bd c11c bc3e 55c9 18be
00000030: 4674 963e acc7 4bbe 26c4 0e3f 5af6 bebe
0.1657914 0.44158727 0.2179669 0.3937409 0.17528984 0.3025917 0.17904632 0.015469339
0.012173173 -0.052777097 0.36740687 -0.14920552 0.29385585 -0.19900388 0.5576805 -0.37297326

layer1.bn2.running_mean f4 [16]
00000000: 13b8 b33f b800 f9bf 7d92 e7be 0931 efbe
00000010: db8c 47bd 41a2 6e3e 5596 05bf 455a 803e
00000020: b9b0 043f ef98 853f 6e65 a3bf 6e8e 32bc
00000030: d541 22bf c142 dcbf 05c2 b43d be44 88bd
1.404055 -1.9453344 -0.4522895 -0.46717098 -0.048718315 0.23304082 -0.52182513 0.2506887
0.5183216 1.0437297 -1.2765329 -0.010898216 -0.633817 -1.7207872 0.08826069 -0.066537365

layer1.bn2.running_var f4 [16]
00000000: 7155 ca3f 14fb 1440 7849 f03f 7121 db3f
00000010: db83 cf3f 8595 c83f 52fe 5d40 164b bf3f
00000020: 5f7e a43f 38ec 2440 af08 0c40 332c 3840
00000030: 4acf 1440 a342 6540 6330 0340 1fd7 893f
1.5807325 2.3278246 1.8772421 1.711958 1.6212114 1.567063 3.4686475 1.494479
1.2851065 2.5769176 2.18803 2.8776977 2.325152 3.5821922 2.0498283 1.0768775

layer2.conv1.weight f4 [32, 16, 3, 3]
00000000: 7cc3 f93d 3a40 2d3e 1984 cebd eff2 f23d
00000010: 813c 44bd b3f0 28be 09d6 b23d b53b eebd
00000020: 96c9 9abe 0aa1 96bd f5da a63d 2235 e43e
00000030: 943c f2bb 4bb9 983c c299 633e 47ab cbbd
00000040: 6e01 8a3d 6542 7d3d 79b2 6cbe 64de 783c
00000050: 3c31 aebb b613 f2bd 8ef3 903c c6ce 17be
00000060: 10ff aebd 04a3 303b a5e5 74be 3a4c 973e
00000070: 3ebd 4c3e 60d8 083e fed5 843e b1df 8d3d
00000080: f89d a8bc 2499 ac3e d62f d7bd 378a 47be
00000090: 492f 8abd 92d4 593d 2e98 d63e 5b8a 89bc
000000a0: 1172 053e 29f8 bc3d 4a40 dc3d a06e 0a3b
000000b0: 0188 abbd 3ccf c6bd 98db 693e a1f4 a83e
000000c0: c98a 28be bf8f 113e 7a8d d13e e91a 823e
000000d0: b778 ac3e 02e2 9b3e 1444 d7bd adf3 913c
000000e0: 3013 583e 4bc0 6fbd c22f 303e d2a1 363e
000000f0: f043 043d 9ca6 963d b64d 1a3d 1a16 90bd
00000100: cbe4 a83d 19de d13d 0390 0abe 9040 2a3e
00000110: 83f9 fc3d 4ef1 b4bd 7561 b43d a75b f93d
00000120: 5117 703e 85cb e63c d9eb 46be df83 bf3d
00000130: 21fd 0c3c ae52 b9bd cbea 0dbe a528 b5bd
00000140: b142 5dbc e912 2dbd bd05 3b3d e557 5e3e
00000150: 1735 87be ab26 fbbc 2217 c43d d901 9dbe
00000160: fabd 4fbe e62a 153c f1d4 8fbe 886c 17be
00000170: 979b 583c 3b19 aebe ac2c a6bd 4a71 3c3d
00000180: 0f1c a0be 459c cabd a6bf 233e df78 9e3d
00000190: 996f 303e 34ac 073e 3751 db3d 44fd 5f3e
000001a0: f784 ce3d 9506 9c3d 793b 7bbc 6bb1 70bd
000001b0: 48d9 15bc 0b1f 163d 7e9a 983d 23ea 043e
000001c0: 0a2c 1cbb d0d4 5dbd ecba 8cbc e9b0 babc
000001d0: 13e9 12be 19e4 903d 37dc 28bd a68a e8bc
000001e0: dd84 9e3b 5ed6 f9bd c4ce 1ebe f104 92bd
000001f0: cb03 80bd 644f b1bd 945d 1cbe f5bf 50bd
00000200: 7c09 a43e 2c07 fdbd 4fa1 52be 2e10 b5bc
00000210: 6dc8 2d3d 3843 21be 70cf 0bbe efc5 273e
00000220: 1dad dc3d 4d87 b9bd efdd da3c b44a 283e
00000230: 5704 17bd 8f3e 17be 03d6 09bd 63f1 adbd
00000240: 4bc5 a5be ee86 163c 981b 313e 3d85 a6be
00000250: 6ff3 9bbd fabc f73d a6d4 25be 8996 443d
00000260: b4e2 61bc cd72 103d af6a 403d 2294 003c
00000270: 79e0 babc cff2 b63c d824 3b3d ec68 1ebe
00000280: ebc4 e4bd 9a65 6a3d d34e 663d ff7a 57bd
00000290: d5ea f9bc 920a 563d 55f9 afbd fb2c 8f3d
000002a0: 9753 113c 58f1 aabd dac5 ec3d 9de1 dcbd
000002b0: fbae 5fbd 2aa5 f3bd 49cd f83d 200c cb3d
000002c0: f5b6 3bbd cb22 403e 80fc 2b3e d065 0abd
000002d0: 750e 40be 0548 eebd c2eb 663d 712a 32be
000002e0: 5fca 8e3d 0864 623e 71a0 f8bd 6e4d a33d
000002f0: ba0d 733e e24b f8bd b367 123e 8e96 d83d
00000300: c302 14bd 9445 843d ef18 943d 21fe e73c
00000310: 4220 483c 5e0d a3bd 3cda 893d ec6e 113e
00000320: 35f1 aabc ba6f dc3d 62db 3c3e 4b91 6b3c
00000330: 5123 6c3e 6c3d 1d3e e93f 983d df2d 0fbe
00000340: 9a97 b0bc d1e0 8f3d b73e 0cbd d2e9 f23c
00000350: 1234 053e 42eb 393d 17e2 a13d 6314 6f3d
00000360: ab11 01be 85bf cd3c 91cc 913d 85bf 033e
00000370: fbd7 393e c75f 913e 3934 b33e 8e83 de3e
00000380: 5a88 a53e 437c 403c 8d52 82bd e0b3 0b3d
00000390: 8833 59bc 8d79 c0bd 3901 dbba 1bab cabd
000003a0: 6dc4 853c 9eeb 383e bcfe 3abc bcaf a3bd
000003b0: 2440 1ebd e3fc bf3d 2a28 143b 73fa efbc
000003c0: ef08 9e3d ae24 023d b831 153c e930 97be
000003d0: 7600 e6be de95 85be 3e43 d0be 3374 0dbf
000003e0: 4c78 a4be 8747 48be 6f38 bbbe e68c 39be
000003f0: cf9f 06bd 67f9 d53d d0c9 56bb 1fca a83c
0.12195489 0.16919032 -0.100837894 0.11862742 -0.047909264 -0.1649807 0.0873223 -0.11632482
-0.30231923 -0.073549345 0.081472315 0.44571787 -0.0073924754 0.018643042 0.22226623 -0.09944778
0.06738554 0.061830897 -0.23114957 0.015189741 -0.005315928 -0.11820166 0.01769426 -0.14824972
-0.08544743 0.0026952634 -0.23915727 0.29550344 0.19994065 0.1336379 0.25944513 0.069274314
-0.020583138 0.33710587 -0.10507171 -0.19486319 -0.067473 0.05318124 0.4191298 -0.016789606
0.13031794 0.0922702 0.1075445 0.0021123067 -0.0837555 -0.097074956 0.22837675 0.32999137
-0.16459192 0.14214991 0.4092825 0.25411156 0.33685848 0.30445868 -0.10511032 0.017816389
0.2110107 -0.058532994 0.17205718 0.17835167 0.032291353 0.07355997 0.037671767 -0.070354655
0.08246764 0.1024744 -0.13531499 0.16626191 0.12352278 -0.08835088 0.08807651 0.121756844
0.23446395 0.028173218 -0.19425906 0.09351324 0.0086052725 -0.09048973 -0.13859098 -0.08845643
-0.01350467 -0.042254362 0.04565977 0.21713217 -0.26407692 -0.030658087 0.09574725 -0.30665472
-0.20287314 0.009104466 -0.2809215 -0.14787495 0.013220689 -0.34003624 -0.08113989 0.04600648
-0.31271407 -0.09893087 0.15991077 0.07737898 0.17230071 0.13249284 0.1070885 0.21873957
0.10083955 0.07618443 -0.015334004 -0.05876295 -0.009146042 0.0366507 0.07451342 0.12979941
-0.002382996 -0.054158032 -0.017178975 -0.022789435 -0.14346723 0.07074756 -0.04122564 -0.028386425
0.004837616 -0.121990904 -0.15508562 -0.07129849 -0.062507235 -0.08657721 -0.15270072 -0.050964314
0.32038486 -0.123548836 -0.20569347 -0.022102442 0.04242747 -0.15748298 -0.1365335 0.163841
0.10775206 -0.0905901 0.026717154 0.16434747 -0.036869373 -0.14769958 -0.033651363 -0.084933065
-0.32377085 0.009187443 0.17295682 -0.32523528 -0.07614791 0.12096591 -0.161944 0.047995124
-0.01378696 0.035265733 0.04697674 0.007847818 -0.022812115 0.022332577 0.045689434 -0.15469712
-0.111703716 0.0572258 0.056227516 -0.052607533 -0.030507484 0.052256174 -0.08592478 0.06991001
0.008870027 -0.08346814 0.11561175 -0.1078522 -0.054610234 -0.11896737 0.1214853 0.09914422
-0.04582878 0.18763272 0.1679554 -0.033788502 -0.18755515 -0.116348304 0.05637718 -0.17399003
0.06972193 0.22108471 -0.12139977 0.07973753 0.23735705 -0.121238485 0.1429737 0.10575591
-0.036135446 0.064585835 0.07231318 0.02831942 0.012214722 -0.07961534 0.06731078 0.1420247
-0.02086697 0.10763498 0.18443063 0.014377902 0.23060347 0.15355462 0.07434065 -0.13982342
-0.021556664 0.07025302 -0.034239497 0.02965251 0.13008144 0.045390375 0.07904451 0.05836905
-0.12604396 0.025115738 0.07119096 0.12866028 0.18148796 0.28393385 0.3500078 0.43459743
0.3233059 0.011748376 -0.063634016 0.03410709 -0.013256915 -0.09398184 -0.0016708738 -0.09895917
0.016329015 0.18058631 -0.0114132725 -0.07992503 -0.038635388 0.09374406 0.0022606947 -0.029294228
0.07716548 0.03177326 0.009106092 -0.29529503 -0.44922227 -0.26090902 -0.40676302 -0.5525543
-0.3212303 -0.19558536 -0.36566493 -0.18120155 -0.03286725 0.1044796 -0.0032774098 0.020604191

layer2.bn1.weight f4 [32]
00000000: fd11 5d3f 5c9f 743f 4bbc 4a3f ebf8 8d3f
00000010: df81 4a3f f14e 863f c9ca 673f ea8e 593f
00000020: f6f7 593f c46b 8a3f b21f 5a3f 2e67 7f3f
00000030: 4bdc 6a3f a6c8 493f d640 923f 9e1f 5e3f
00000040: a0de 913f 861b 573f adf7 953f f872 553f
00000050: 7988 593f a5c1 593f 018a ab3f ee19 a13f
00000060: c2f4 653f 6a0b 553f 8bdb 613f f3f0 713f
00000070: 2ff9 663f a3a0 7e3f aad1 433f ec62 813f
0.8635557 0.95555663 0.7919356 1.1091589 0.7910442 1.0492841 0.905438 0.84983695
0.85143983 1.0814137 0.85204613 0.99766815 0.9174239 0.7882179 1.1426036 0.86766994
1.1396065 0.8402637 1.171621 0.83378553 0.84973866 0.85061103 1.340149 1.2586038
0.89826596 0.8322054 0.8822562 0.94508284 0.90223974 0.9946386 0.76491797 1.0108314

layer2.bn1.bias f4 [32]
00000000: 2c62 033d cbb2 d23d 29fc e5bd a9da 64bd
00000010: e7c2 a5be 3af0 52be e07e 143e 365c 9bbd
00000020: 1b7b 60be b2ba 623d 6d36 eabd fb39 0bbe
00000030: 6c93 cfbd 2cb8 a4be 739b 9bbd 646f 92be
00000040: e6bb 8ebe bfea 38be d6fb 80be 0772 9ebe
00000050: 58f7 e3bd 6279 0b3d 0780 97be 76b0 0cbe
00000060: c701 92bd 234c e5bd c4c8 7fbd 3bc9 abbc
00000070: bb4c 82be 9878 adbd 03b3 a6be ce9f 62be
0.032076046 0.10288008 -0.11229736 -0.055872593 -0.3237526 -0.20599452 0.14501524 -0.07585947
-0.21921961 0.055353828 -0.11436162 -0.13596337 -0.1013554 -0.32171762 -0.07598009 -0.2860061
-0.2787773 -0.18058299 -0.25192136 -0.3094637 -0.111311615 0.034051307 -0.29589865 -0.1373919
-0.07129245 -0.111961626 -0.062447324 -0.020969978 -0.25449166 -0.08470267 -0.3255845 -0.22131273

layer2.bn1.running_mean f4 [32]
00000000: d291 fd3f 87f9 313f 2851 64c0 9113 80c0
00000010: f8cc 7ebe 9522 2cc0 5d68 00c1 a79b a6bf
00000020: 37a3 51c0 37bf 72c0 3335 41c0 2d65 69c0
00000030: 9c2e 5ebf 219c f03e d00b 80bf 34c0 693e
00000040: 1e63 9cbf ca2f 90c0 f383 01c0 0617 833f
00000050: 0f6a b3bf 8c92 3dc0 face 8fc0 413e c1bf
00000060: 94d0 aebf 8646 59c0 f1e8 bd3f c462 3b3e
00000070: 6016 c0bf fa51 e3c0 cf7a 52c0 b902 94bf
1.9810126 0.69521374 -3.5674534 -4.0023885 -0.24882877 -2.6896107 -8.025479 -1.3016251
-3.2755868 -3.7929208 -3.018872 -3.6468003 -0.8678987 0.46994117 -1.0003605 0.22827226
-1.2217748 -4.5058336 -2.0236785 1.0241401 -1.4016742 -2.9620695 -4.4940157 -1.5097123
-1.3657403 -3.3949294 1.4836713 0.18299395 -1.5006828 -7.103757 -3.2887456 -1.1563331

layer2.bn1.running_var f4 [32]
00000000: 29b4 fb40 5404 9c40 f479 7340 8ad7 1b41
00000010: 920b 5d40 c192 1641 4337 0d41 4a50 a240
00000020: d6cf 5040 be65 0c41 8a6f 6b40 4dd3 f240
00000030: 84de 3441 407f bf40 2d1d f840 d57c a840
00000040: 8c99 bb40 1cbe 7c40 5641 be40 a5f8 8240
00000050: c897 5740 a1e5 b340 5da3 2441 4ad0 2341
00000060: 0d09 8240 29aa 3640 e30d 5540 cd78 bc40
00000070: a777 ea3f 74b2 f640 18e8 eb40 a64f a740
7.865742 4.8755283 3.8043184 9.740122 3.4538312 9.410829 8.825992 5.072301
3.2626853 8.774839 3.6786828 7.5882936 11.304325 5.9842834 7.7535615 5.2652383
5.8624935 3.9491034 5.9454756 4.092852 3.368639 5.621781 10.289884 10.238352
4.063605 2.8541358 3.3289726 5.889746 1.8317765 7.709284 7.3720818 5.2284727

layer2.conv2.weight f4 [32, 32, 3, 3]
00000000: e873 c6be 69e1 c5bd b172 073e e333 883c
00000010: 52b8 413e b5e1 7c3d bc00 483d 5945 2f3e
00000020: 807b 633d 81ac 98bd a120 d53d d5a3 853d
00000030: ad86 2abe 9bbe f13c 3967 ac3d 4d00 7ebd
00000040: 299a e4bb 8460 53be 322f 9dbd 4139 00bd
00000050: 8ba9 933d da53 21be 8d25 f4bd 2235 84bd
00000060: 59d3 1fbe bd1e 9a3a 0cb0 a5bc 59f0 bd3d
00000070: ba0a b4ba e4c5 84be cd13 143e dd7e 85bc
00000080: 4d75 8dbe a2cd 0a3e eaaf 10be 9a8e d3be
00000090: 822e 04be 95bf 26be 2436 23bc 31d5 8dbe
000000a0: 0f49 96bd cacd b0bd c839 48be b1f1 843c
000000b0: 1113 61be 39f1 b1bd 8fd3 81bd 5365 f23d
000000c0: ffa4 81bd 7f51 a0bd 93f0 f0bc a88e 9b3d
000000d0: 5c2e 66bd 45f8 b83c 97a6 3b3e df36 87bc
000000e0: 7955 1fbe 8b03 7a3e f157 85bc e7db 5dbe
000000f0: bf03 7e3e 4870 f33d b1c6 51be 510b 58be
00000100: dc4d adbd c05d 0bbd 05f3 2ebe e36a 853d
00000110: 48c7 99bd 5bed a1bd 095d 603d 9c59 023e
00000120: b14e 9b3d 3e6e 3d3e c39b 23bd 9125 813b
00000130: b876 6c3e 8651 583e 1202 aa3d 35fa f73d
00000140: 8f7d 963d ff0b 663e 61df 393d dd47 69be
00000150: e3d3 e53d f357 6b3d c1d1 57be f43c 0fbe
00000160: 2729 413d 0aa6 02be 1b9f ac3e a416 a73d
00000170: 30ca 7ebe 5071 973e 1914 4d3d a564 08bd
00000180: c898 903e f461 e53d a79c 5a3d beb5 32be
00000190: 0802 0bbd 38a4 41bd c365 033e a0d9 bc3d
000001a0: d9f7 d03d d4e6 afbd 2dc5 40be 1b6a 72bd
000001b0: c272 f7bb 26da 333e f46a 4bbc 1c85 14bd
000001c0: 7cd2 a43d 7adc a6bd eeac b6bb 46fd 173d
000001d0: 71e5 a1bd 0647 05bc a6fc 2b3e 7df7 3d3e
000001e0: b153 923d 6ede 7d3e 72f7 1a3d 36a3 613d
000001f0: 5759 fd3d c859 34be 9811 e0bb 202e 1ebd
00000200: f032 f1bd 6da3 8e3d 27db 47bd 5a70 c2bd
00000210: c5f2 14bd ff09 e0bd 6f00 023e 56f0 a1be
00000220: 8caa 57be b845 073d 21a3 acbd a10a 43bd
00000230: e783 123c 41d3 013e a491 8abc e789 6339
00000240: b7cd 7cbe ce4c a63b c28a 863e 6499 f9bd
00000250: 584c 713d be4a 2a3e 1703 4cbd 04ce 23be
00000260: ba6b 1cbe 30d5 8ebc 2422 513d 7ce7 953e
00000270: b72d 57bc 256c 1f3e efa9 b73e 8213 e4bd
00000280: a06d 543e 1420 6f3e 89db a3bd 769b d4bd
00000290: e60f bebb c185 ad3d dadd 04bc 0ff9 efbc
000002a0: 091e d1bd 1d4b 12be 9489 a2bd 88db 283e
000002b0: d5ed 8e3e 529f dfbc 2705 8e3c fdd0 2e3e
000002c0: 8582 6e3c b0a9 4abd 5913 e83d c4f8 a23d
000002d0: 818b 8e3d 6f73 aaba 47f7 b0be e82a 7dbd
000002e0: 0cdb 083e 8748 c4bc 1f31 973a d4de 6b3e
000002f0: 0592 983e d956 18be 6f14 f6bd c8b6 96be
00000300: 48f2 7239 f727 7a3c 4466 52be a7be 853e
00000310: 9c67 9fbc ce7a 98be b42d a63e 0385 1d3e
00000320: 8d19 43be a2b2 383c 49e5 453d 1bcb cdbd
00000330: 3f50 0d3e 543b b3bc 96dc c1be 5acd 6fbe
00000340: e2c2 8dbd db76 083e c734 69be cce2 8abd
00000350: 55e4 b63d f804 e0be 57d6 c9be 5eee b7be
00000360: 313c 8dbe b75c 77bd 6711 703d 9d00 91be
00000370: 72e1 4bbe 1916 f2bd 8479 b6bd 43bd 3cbe
00000380: 518d d83c f94d 8f3d 3d25 293e d5c3 403e
00000390: 2900 a3bd ee48 2f3c 9603 a73c ce36 ddbe
000003a0: 1089 3abe cbef d33d 668f 21be ed20 84bd
000003b0: a41f fc3c 92f5 cebd d418 16bd 579a 9dbb
000003c0: 1a80 67be 8bf1 73be 5691 a0bd 3898 153e
000003d0: d089 0f3e 8ac9 b5bd 0556 3c3e 8bd0 dd3d
000003e0: 802b 80bd e984 0e3e 7179 c4bd d3b0 50be
000003f0: aee1 943c a011 da3d 04d1 fd3d 2891 c13d
-0.38760304 -0.09662134 0.13227345 0.016626304 0.18917969 0.06173869 0.048828825 0.17116298
0.0555377 -0.074547775 0.10406614 0.06525389 -0.16652937 0.029509833 0.08418126 -0.062012006
-0.006976385 -0.20642287 -0.076750174 -0.0313046 0.07210072 -0.15754643 -0.11921225 -0.06455447
-0.15607966 0.0011758428 -0.020225547 0.09274358 -0.0013736107 -0.2593223 0.14460678 -0.016295845
-0.27628556 0.13555005 -0.14129606 -0.41319734 -0.12908366 -0.1628402 -0.009961639 -0.27701715
-0.073381536 -0.08633001 -0.19553292 0.016228529 -0.2197993 -0.08688588 -0.0633918 0.11835732
-0.06330299 -0.07828044 -0.02941159 0.07595569 -0.056196555 0.022579322 0.18325268 -0.016505657
-0.15559949 0.24415414 -0.016277285 -0.21665917 0.24806117 0.1188665 -0.20485951 -0.21098067
-0.08462116 -0.034024954 -0.17084892 0.06514528 -0.07508713 -0.079066 0.054776225 0.12729496
0.075833686 0.18499085 -0.039943468 0.003941246 0.23092163 0.21124849 0.08301176 0.1210827
0.07348167 0.22465514 0.045379046 -0.2278132 0.11222055 0.05745692 -0.21076109 -0.13988096
0.047158387 -0.12758651 0.33715138 0.08158615 -0.24881816 0.29578638 0.050067995 -0.033299107
0.28241563 0.11200324 0.05337205 -0.17452142 -0.033937484 -0.04727575 0.12831788 0.09221196
0.10203523 -0.08588949 -0.18825217 -0.05918322 -0.007551522 0.17563686 -0.012415636 -0.036259755
0.08047959 -0.08147521 -0.005574814 0.037106775 -0.079050906 -0.008134609 0.16795596 0.1855144
0.07144869 0.24791881 0.03783364 0.05508729 0.12370556 -0.17612374 -0.006838035 -0.038618207
-0.11777294 0.06964765 -0.048792984 -0.094940856 -0.036364336 -0.109394066 0.12695478 -0.31628674
-0.21061152 0.033025473 -0.08429552 -0.04761756 0.008942581 0.12678243 -0.01691515 0.0002169978
-0.24687849 0.005075074 0.2627774 -0.1218746 0.058910698 0.16630074 -0.049807634 -0.15996557
-0.1527547 -0.01743564 0.05105795 0.2927817 -0.013133458 0.15568598 0.35871837 -0.11136533
0.20744944 0.2335208 -0.080008574 -0.10381214 -0.005800235 0.08472777 -0.008109534 -0.029293565
-0.10210807 -0.14286466 -0.07936397 0.16489995 0.27915826 -0.02729765 0.017336441 0.1707191
0.0145574855 -0.049478233 0.11331815 0.079576045 0.06960202 -0.0013004373 -0.34563658 -0.061808497
0.1336481 -0.023960365 0.0011535025 0.23034221 0.29798904 -0.1487688 -0.12015616 -0.29436326
0.00023169175 0.015268317 -0.20546824 0.2612202 -0.019458584 -0.29781193 0.32456744 0.15382771
-0.19052716 0.011273058 0.048314366 -0.10048505 0.13800143 -0.021878876 -0.37863606 -0.23418179
-0.069219366 0.1332659 -0.22774039 -0.06781539 0.0893027 -0.4375379 -0.3942134 -0.35924047
-0.27584985 -0.060391154 0.058610346 -0.2832078 -0.1991022 -0.11820621 -0.08909896 -0.18431573
0.026434572 0.06997294 0.16518112 0.18824704 -0.07959015 0.01069854 0.020387452 -0.43205875
-0.18216348 0.10348471 -0.15777358 -0.064515926 0.030776806 -0.101054326 -0.03664477 -0.0048096585
-0.2260746 -0.2382261 -0.07840221 0.14608848 0.14017415 -0.08876331 0.18392189 0.10830792
-0.06258297 0.13917889 -0.095934756 -0.20379953 0.018174019 0.10647893 0.12393382 0.094515145

layer2.bn2.weight f4 [32]
00000000: e620 963f 1cdd 8b3f def6 9c3f f014 a73f
00000010: b41b 7f3f 40e2 8f3f 0762 753f 5e21 b93f
00000020: 33a3 a03f 57c7 7d3f 9148 a73f 16a3 9b3f
00000030: d92d 973f e903 a13f 444f a23f 72d2 b93f
00000040: c817 893f a78b 823f d98e 953f a1b2 593f
00000050: 7cd6 943f 232c 903f 7301 aa3f c446 9d3f
00000060: ff30 9a3f 2d4b b23f d83d a13f 9dbe a83f
00000070: 1722 a13f 0e41 7e3f 82d2 9e3f bb15 ac3f
1.172879 1.0926852 1.2262838 1.3053265 0.99651647 1.1240921 0.958527 1.4463308
1.2549804 0.99132293 1.306902 1.2159145 1.1810867 1.2579318 1.268044 1.4517348
1.0710382 1.0198869 1.1684219 0.8503819 1.1627955 1.126347 1.3281692 1.2287221
1.2046202 1.3929192 1.2596998 1.318317 1.2588528 0.99318016 1.2407992 1.3444132

layer2.bn2.bias f4 [32]
00000000: a85d 20bb 7bd1 ccbd 78d0 303e 8d51 cfbe
00000010: 350a dabd 5183 81bd 9622 6b3d 7d3d abbe
00000020: e7df 41be 128a babd 92dc 2d3d f220 d4bd
00000030: e7ba 9abd 2377 8ebd 424c 99bc 7769 093d
00000040: dcc3 c3bd d6bd 913e af8a 21bc d6c4 8cbd
00000050: 271c e4bc 38f6 66be 141e 48be 3d9d 39bd
00000060: bfdb 6c3c 751f 2dbc 1fec ff3c af3d 5c3e
00000070: b012 583c 0254 7b3e fd46 13bd 77de 2cbe
-0.0024469886 -0.10000893 0.17267025 -0.40491906 -0.10646478 -0.06323875 0.05740603 -0.3344535
-0.18933068 -0.09108366 0.04244668 -0.10357846 -0.0755518 -0.06956317 -0.01871312 0.033547845
-0.095588416 0.28465146 -0.009859725 -0.06873481 -0.027845455 -0.22554862 -0.19542724 -0.04531597
0.014456688 -0.010566582 0.031240521 0.21507905 0.013188049 0.24543765 -0.03595637 -0.16881739

layer2.bn2.running_mean f4 [32]
00000000: 277f b6bf 9b6e b7bf 563e abbf 0571 a3bf
00000010: 2404 b0be 59d1 bbbe 4c14 473f f048 92bf
00000020: 3814 7a3f 7f07 9fbf f534 e6bf 9495 babe
00000030: 374e 7fbe 06cb 8fbf a9ed a53e 6325 cebf
00000040: ea46 39be ddf2 9cbf 610a 1fc0 ef12 e43e
00000050: f345 0fbf f722 13bf bcf9 d0be 28c7 53bf
00000060: 53a4 553e 7248 7ec0 841f 9abe 2212 f43f
00000070: 7601 dcbe 4fc5 82c0 4ed4 97bf 8fa8 8dbf
-1.4257554 -1.4330629 -1.3378398 -1.2768866 -0.3437816 -0.36683157 0.77765346 -1.1428509
0.976871 -1.2424163 -1.7984911 -0.36442244 -0.2493218 -1.1233833 0.32407883 -1.610516
-0.18093458 -1.2261616 -2.4850085 0.44545695 -0.5596611 -0.5747523 -0.40815532 -0.82725763
0.20863466 -3.9731717 -0.3010217 1.9068034 -0.42969865 -4.0865855 -1.1861665 -1.1067065

layer2.bn2.running_var f4 [32]
00000000: 032d 6140 b146 db3f ee83 5240 1566 b03f
00000010: 6a26 1d40 0787 0740 5d43 1f40 6616 2f40
00000020: 88e6 f43f a12c 3340 8691 5040 9c3e f23f
00000030: 0b9f e63f 9a49 3c40 e771 0040 736a 4640
00000040: 7711 2740 6ff5 4e40 908c 3840 8c4c 1740
00000050: ead1 0340 a9e4 5240 f5b7 fd3f a3e4 fa3f
00000060: 4c25 6140 2f7c 4240 e92a 7c40 5f8d 7340
00000070: 1c60 4940 c9c9 4540 b74a 4d40 43da 2340
3.5183723 1.7130948 3.2893023 1.3781153 2.4554696 2.1176164 2.4884865 2.735742
1.9132853 2.799599 3.258882 1.8925357 1.8017286 2.9419923 2.006952 3.1002471
2.610441 3.23373 2.8835793 2.364047 2.0596871 3.2952063 1.9821764 1.9601024
3.5179014 3.0388296 3.940119 3.8055036 3.146491 3.090441 3.2076852 2.5601966

layer2.downsample.0.weight f4 [32, 16, 1, 1]
00000000: 0166 01bb 8180 3dbe 2a3f 23bc d629 7abd
00000010: 94c8 8bbe 228b 513e 1c45 41be 16cc aabe
00000020: 81e3 ddbe e4d9 40be 2c75 91bd 40e1 10be
00000030: e636 733e edcf babd b84a b7bd 8495 f73d
00000040: 678d 873e da84 3c3e 6c6d 36be 1ff8 41be
00000050: ed3d c03d 3af8 cdbe 9c59 783e e39b 943d
00000060: 955c c03d 9d92 a5be a950 c03c cc2c 333e
00000070: 8c89 6fbe 7294 4abe 3f93 d2bd ed0a 0abe
00000080: 59f4 04be bef8 f8be 6e8c 573e fabe a6bd
00000090: 273b 0d3e 3e06 1cbe e4fb 4f3d b58a fabd
000000a0: b494 6ebe 0bdb a7be ddee 493e 11c3 6bbe
000000b0: 0ee9 833e 426d 13be bb94 36be e44b 233d
000000c0: d923 33be 12b0 183d 873b 5cbe a3ae 5b3e
000000d0: a2a0 92bd a54b 793e bb5f 2ebd 234f 8cbe
000000e0: 5217 083d 7426 57be 8534 43be 415b 493e
000000f0: eff2 953d 91e5 e9be cc05 1dbe 5c12 f73d
00000100: 8d4b fd3c fb2d bc3d 2f9c 3cbe 9e5a 06bf
00000110: 43d3 6ebe 813d 9a3e e462 8abc 5da7 bfbd
00000120: 2e8e 26be 5850 d9be aacc 69be 357e 923c
00000130: 08f0 653d 40b6 21be 6c32 bebd cb01 39bb
00000140: 069a 0cbe 6c97 bb3c 17d4 b6be e0c1 5b3e
00000150: 9bd6 473e 844f 063e 1806 91be 799c cc3e
00000160: d862 2d3e bc9a 153e 7950 283d ecbd ea3a
00000170: 0889 88be c5a9 073d 1219 983c c5da 963c
00000180: a0c1 45be 653b e73e 0b4b 6a3e 7da6 853e
00000190: c8d0 a43e d183 e03d 1b89 26be 88c0 4ebd
000001a0: 113e 7fbe 03e9 2cbe 8d66 2c3d 0cc4 0b3d
000001b0: 6f08 72bc e7fc b0bd c799 b3be 5956 a0bd
000001c0: cec6 22bf 71ae 36be 6618 863c 4f01 b9bd
000001d0: 8d4b 2bbe 4565 9f3c fb87 0dbe 283b 2cbe
000001e0: aedf d33c fabc 53be e433 3ebe cbd5 bcbe
000001f0: f7de b1bd 8846 adbd cfe2 1dbd 66fa c4bd
00000200: bc69 1dbe 452a a23c 5055 873d 6759 093d
00000210: 29de 87be 6b65 0a3e 3034 573e fbe9 5bbe
00000220: 5bdb d8be 5902 e1bd cc87 0d3e 0488 97bc
00000230: 9c97 a93d 17c8 29bd ed87 f0be 30b5 e7bd
00000240: f25e c3be ed27 0fbd 6d60 c8bd feae e9be
00000250: cb89 0bbe ab40 0e3e a4f2 fdbd d38f 62be
00000260: f685 133e 9c5a 1ebe 05e6 b63b 8af8 3dbc
00000270: 931c 4b3e 886b 143e ea3d c9bd 6d42 a13d
00000280: 4891 783e cd75 b3bd 0f15 5e3e 133e a8be
00000290: 0de9 9b3c 4729 5e3e 9da9 063d a66e 5d3d
000002a0: 4d13 0ebe 6d49 ebbe a1a8 07be a3ac 46bd
000002b0: 46f0 dc3c c18b f9bc 8de9 923e 906f 083d
000002c0: 70ea 39be 47be 90be 3dbe 17be 8634 c13d
000002d0: 1b50 c8bc be7d 073e 59a7 ddbe 018f 13be
000002e0: 5bc5 bf3e f76c 723a 2baa d0bd 5adb 65be
000002f0: eeae 03be e37b b0be 1a56 b2be 77c1 13bc
00000300: 59cf a3bd 8494 ccbd e131 b93e f2af d0be
00000310: 7d90 8a3e e6e7 553c 0d99 073e b5df 99bd
00000320: b627 723e 6086 21be 8c22 27be c286 54be
00000330: dea0 cebd 6778 98bc 7240 863e 2acc 0cbe
00000340: f511 233e 3d18 1abd 92e1 723d 3fe8 cebe
00000350: 041e 623e dab4 03be 6959 313e 4616 2fbe
00000360: 2be4 20bd a15c dcbd e987 03be 4411 2b3e
00000370: 0ef0 96be 429b aa3e 487e d1bd dacc 58bd
00000380: f835 a43b 07b1 4c3d 738d d23d 81a2 283e
00000390: 4e76 bcbc 1f07 07be 0877 8bbe 5b5c 16bc
000003a0: a403 a03e b481 253f 00b1 0e3e 697d 49bd
000003b0: 7438 103c 714d 42bd 68ff dd3d 3851 20bc
000003c0: ecd5 293c 8881 cbbb 611f fc3d 1f40 f13e
000003d0: 0d5c f0bd 00f5 9dbe 0dcc a7bd d5ed be3d
000003e0: 083d 35be 5458 743e 4ee6 dd3d d8c3 5b3d
000003f0: e5e2 303d bebb 8fbe 6283 b43d 5ef7 5cbc
-0.0019744637 -0.18506052 -0.00996379 -0.061075054 -0.27301466 0.20463231 -0.1887402 -0.3335883
-0.43337634 -0.18833119 -0.07102427 -0.14148426 0.23751411 -0.0912169 -0.08949798 0.12089065
0.2647507 0.18410054 -0.17815179 -0.18942307 0.093868114 -0.40228444 0.24252933 0.072562955
0.093926586 -0.3233842 0.023475962 0.17497557 -0.23392314 -0.1978319 -0.10281991 -0.1348073
-0.12983836 -0.48627275 0.21049663 -0.08141895 0.13792096 -0.15236756 0.05077733 -0.122334875
-0.23298913 -0.32784304 0.19720025 -0.2302363 0.25763744 -0.14397147 -0.17830174 0.039867297
-0.17494144 0.03727729 -0.21507083 0.21453337 -0.071595445 0.24345262 -0.042571764 -0.27404127
0.033225365 -0.21010762 -0.19063003 0.19663717 0.073217265 -0.45682958 -0.15334243 0.12064049
0.030919814 0.091884576 -0.18418954 -0.5248202 -0.23322777 0.3012505 -0.016892858 -0.09358094
-0.16265175 -0.4244411 -0.2283198 0.017882446 0.056137115 -0.15792179 -0.09286961 -0.0028229828
-0.1373063 0.022899352 -0.35708687 0.21460676 0.19515459 0.1311627 -0.28324962 0.3996313
0.16932237 0.14609808 0.04109237 0.0017909384 -0.26667047 0.03312089 0.018566642 0.018414864
-0.19312143 0.45162502 0.22880189 0.26103583 0.32190537 0.10962642 -0.16263239 -0.05047658
-0.2492602 -0.16885762 0.042089988 0.03412251 -0.014772519 -0.08641987 -0.3507826 -0.078289695
-0.635846 -0.17839982 0.016369056 -0.09033453 -0.16728039 0.019457469 -0.13821404 -0.16819441
0.025863495 -0.20677558 -0.18574482 -0.3688186 -0.08685105 -0.084607184 -0.03854638 -0.09618072
-0.15372366 0.019795546 0.06608069 0.033532526 -0.26536682 0.1351525 0.21016002 -0.21475975
-0.42354855 -0.10986776 0.13821334 -0.018497474 0.0828087 -0.041450586 -0.46978703 -0.11313856
-0.38158375 -0.034950186 -0.09784017 -0.4564132 -0.13626783 0.13891856 -0.12399796 -0.22125177
0.14406571 -0.15464252 0.0055816197 -0.011594901 0.19835119 0.14494145 -0.09826262 0.07873998
0.2427417 -0.08762703 0.2168772 -0.3285986 0.019032026 0.21695434 0.0328766 0.0540606
-0.1387455 -0.45954457 -0.1324792 -0.048504483 0.02697004 -0.030462148 0.2869381 0.03330952
-0.18155837 -0.2827017 -0.14818664 0.09433846 -0.02445226 0.1323156 -0.4329174 -0.1441002
0.37455258 0.00092478044 -0.10188707 -0.22446957 -0.12859699 -0.34469518 -0.34831315 -0.009018294
-0.07998533 -0.099892646 0.36170867 -0.40759236 0.2706336 0.013055777 0.13241978 -0.07513372
0.23647961 -0.15773916 -0.16321772 -0.20754531 -0.10089277 -0.0186121 0.26221043 -0.13749757
0.15924819 -0.03762077 0.059297152 -0.40411565 0.22081763 -0.12861958 0.17319264 -0.1709834
-0.039280098 -0.10759855 -0.12844814 0.16705805 -0.29480022 0.33321577 -0.10229164 -0.052929737
0.0050113164 0.049973514 0.102808855 0.1646824 -0.02300563 -0.1318631 -0.2723925 -0.009177293
0.31252778 0.64651036 0.13934708 -0.049191866 0.008802522 -0.047437135 0.108397305 -0.009784989
0.010365944 -0.0062105097 0.123106726 0.47119233 -0.11736307 -0.30850983 -0.081932165 0.093227066
-0.17699063 0.2386182 0.10834943 0.053653568 0.043185133 -0.28072923 0.08814122 -0.013486711

layer2.downsample.1.weight f4 [32]
00000000: d184 853e 3ffa 003f 7c73 983e 98f3 d73e
00000010: 68cc 303f d1e4 a03e 1bd3 9c3e cf8f d83e
00000020: de3b 123f 6ae4 f83e d4c8 423e e9ec d33e
00000030: 72e4 8f3e ee34 713e f7e8 c63e 57db ff3e
00000040: 7533 133f c8b6 ba3e ee36 d23e e34d 143f
00000050: 5e4b d53e 61fe 1b3f 17a3 df3d af7c af3e
00000060: 941a 003f 1d47 f13e 2595 ae3e 0d48 533e
00000070: b89b 453e 63ba 073f 6048 ec3e 50fe f13e
0.26077893 0.50381845 0.29775608 0.42178035 0.690619 0.31424573 0.3062981 0.42297217
0.571226 0.48611766 0.19021922 0.41391686 0.28103977 0.23555347 0.38849613 0.4997203
0.5750039 0.36467576 0.41057533 0.57931346 0.41659063 0.60935026 0.10919779 0.34274814
0.50040555 0.47124568 0.34098163 0.20632954 0.19297683 0.5301878 0.46148968 0.47264338

layer2.downsample.1.bias f4 [32]
00000000: a85d 20bb 7bd1 ccbd 78d0 303e 8d51 cfbe
00000010: 350a dabd 5183 81bd 9622 6b3d 7d3d abbe
00000020: e7df 41be 128a babd 92dc 2d3d f220 d4bd
00000030: e7ba 9abd 2377 8ebd 424c 99bc 7769 093d
00000040: dcc3 c3bd d6bd 913e af8a 21bc d6c4 8cbd
00000050: 271c e4bc 38f6 66be 141e 48be 3d9d 39bd
00000060: bfdb 6c3c 751f 2dbc 1fec ff3c af3d 5c3e
00000070: b012 583c 0254 7b3e fd46 13bd 77de 2cbe
-0.0024469886 -0.10000893 0.17267025 -0.40491906 -0.10646478 -0.06323875 0.05740603 -0.3344535
-0.18933068 -0.09108366 0.04244668 -0.10357846 -0.0755518 -0.06956317 -0.01871312 0.033547845
-0.095588416 0.28465146 -0.009859725 -0.06873481 -0.027845455 -0.22554862 -0.19542724 -0.04531597
0.014456688 -0.010566582 0.031240521 0.21507905 0.013188049 0.24543765 -0.03595637 -0.16881739

layer2.downsample.1.running_mean f4 [32]
00000000: a760 92bf 0245 f5be e200 6bbf d628 1dbf
00000010: 2fd7 a0bf f749 cc3d a22f 5f3e b02e edbf
00000020: 005b 2cbf 8887 60bf e53c dfbc 2a37 c8bf
00000030: 2f5d 36bc 94ac a5be 93b6 383f d0bb 503e
00000040: c2c5 653f bd85 5fbf 674a 92bf 1d15 33bf
00000050: 4576 eebf cea2 8ebf ec6d 79be 50f6 9bbd
00000060: 43c8 213f 6f77 ca3f d921 8b3c 9008 193f
00000070: 2d3a 73bf 84fd 80bf d861 bd3e 3707 2ebf
-1.1435746 -0.4790421 -0.9179822 -0.61390436 -1.2565669 0.09975045 0.21795514 -1.8529873
-0.67326355 -0.87706804 -0.027250716 -1.5641835 -0.011130615 -0.3235823 0.72153586 0.20384145
0.8975488 -0.87313443 -1.1428956 -0.6995409 -1.8629843 -1.1143434 -0.24358338 -0.0761534
0.631962 1.5817698 0.016983913 0.5977869 -0.95010644 -1.0077367 0.3698871 -0.6797976
