Checkpoints/ResNet8_tckd_0.5_ResNet18_0.8476.pth (torch, 334858 bytes, 47 tensors)

conv1.weight f4 [16, 3, 3, 3]
0	0xbd10abbc	-0.03532003
1	0x3e995646	0.29948634
2	0x3e313a1f	0.17307328
3	0xbea267c9	-0.31719807
4	0x3d3201b5	0.04345866
5	0x3e63b227	0.22235928
6	0xbe733119	-0.23749198
7	0x3d47cc1e	0.048778646
8	0xbd97910e	-0.07400714
9	0xbe82cbdb	-0.25546154
10	0x3e3beb92	0.18351582
11	0xbe3b3dd3	-0.18285303
12	0xbece3ecc	-0.40282285
13	0x3d40a04a	0.047027864
14	0x3e75d835	0.24008258
15	0xbe483088	-0.19549763
16	0x3e88745d	0.26651278
17	0x3e4f6a42	0.20255378
18	0x3da001a9	0.07812817
19	0x3ccd34f1	0.025049658
20	0xbe2fd100	-0.17169571
21	0xbdba8286	-0.091069266
22	0xbcb3d575	-0.02195237
23	0x3d94e78c	0.072707266
24	0xbdcf9b12	-0.10136999
25	0x3e66e461	0.22548057
26	0xbca903e6	-0.020631742
27	0x3e0560b5	0.13025172
28	0x3cfbba50	0.03072849
29	0x3eab6a3b	0.33479485
30	0xbbc313ac	-0.005953273
31	0x3eca0a15	0.39460817
32	0x3dce63a0	0.10077596
33	0xbd8914a9	-0.06693394
34	0x3e7f31a7	0.24921285
35	0xbe9af0df	-0.30261895
36	0xbe63166a	-0.22176519
37	0xbe1c07b7	-0.15237318
38	0xbcf16b5d	-0.02947014
39	0xbdb604c7	-0.0888763
40	0xbdc973b6	-0.09836523
41	0xbeb9f408	-0.36318994
42	0xbe318fd1	-0.17340018
43	0xbbfdc975	-0.007744963
44	0xbda3f64a	-0.0800596
45	0x3dbc410b	0.091920935
46	0xbe341ec5	-0.17589863
47	0x3d67cfc7	0.056594636
48	0x3d9f97cc	0.07792625
49	0x3d4620bd	0.048371065
50	0xbe52f262	-0.20600274
51	0x3e32bdbb	0.17455189
52	0x3e7bcbc9	0.24589457
53	0x3ba71e93	0.0051000803
54	0x3e79395a	0.24338284
55	0xbd036b4d	-0.032084752
56	0x3e03a9ec	0.12857789
57	0xbe1feb26	-0.15617046
58	0x3d49fb47	0.049311902
59	0xbe9a5fb5	-0.30151144
60	0xbd9a945e	-0.0754783
61	0xbe2e3881	-0.17013742
62	0xbea0c466	-0.3139984
63	0xbd7a3c69	-0.061092768
64	0x3ce9cecd	0.028540993
65	0x3d7a90ef	0.061173376
66	0xbc93381d	-0.017971093
67	0x3d800d95	0.062525906
68	0xbde1f1e2	-0.110324636
69	0x3df48a9e	0.11940502
70	0xbe14efc9	-0.14544596
71	0xbdb0928c	-0.086217016
72	0xbe171b29	-0.14756455
73	0xbe609111	-0.21930338
74	0xbe77bbff	-0.24192809
75	0x3d351016	0.044204794
76	0x3ec78913	0.38971767
77	0x3ead8956	0.33893842
78	0x3c80d29f	0.015725432
79	0x3ea1265d	0.3147458
80	0x3eb58759	0.35454825
81	0x3ec0df65	0.37670437
82	0xbdc2bee7	-0.09509068
83	0x3d57e0bf	0.05270457
84	0xbe1bf262	-0.1522918
85	0xbeff69cb	-0.498854
86	0xbdd44676	-0.10365002
87	0x3e4af09b	0.19818346
88	0xbd0c23da	-0.03421388
89	0x3e24b73c	0.16085523
90	0x3e6b7390	0.22993302
91	0xbd9f713f	-0.07785272
92	0x3cffac9a	0.031210233
93	0xbe9bcb48	-0.3042853
94	0xbf52e4c5	-0.82380325
95	0xbdd60a5e	-0.10451196
96	0x3ddbcb4f	0.107321374
97	0xbdf1324d	-0.11777172
98	0x3d15ccfb	0.036572438
99	0xbce37b53	-0.027768767
100	0x3de46559	0.11152143
101	0x3e07798b	0.13229959
102	0x3df5383b	0.11973616
103	0xbdab5718	-0.08366221
104	0xb81f1610	-3.79291e-05
105	0xbcd6c7aa	-0.026218254
106	0x3d6047f9	0.05475614
107	0x3be412c5	0.0069602453
108	0xbe7c52b7	-0.24640928
109	0x3e0166c3	0.12636857
110	0x3df4ec97	0.119591884
111	0x3ddf4646	0.109020755
112	0x3df4c47c	0.11951539
113	0xbe8ab87e	-0.2709388
114	0x3dfcdae5	0.12346438
115	0x3e23936c	0.15974206
116	0xbe6cf1a2	-0.2313905
117	0x3e3f2dcc	0.18669814
118	0xbddc9296	-0.107701465
119	0xbe9ab02d	-0.30212536
120	0x3ec76ebd	0.38951674
121	0x3db63ad3	0.088979386
122	0xbeee9a63	-0.46602163
123	0x3dea6fdd	0.114471175
124	0xbd2545ec	-0.040349886
125	0xbcf9ba95	-0.030484477
126	0x3e684071	0.22680832
127	0xbc5953af	-0.013264581
128	0x3d97bd3a	0.07409139
129	0x3e452779	0.19253339
130	0x3c86cb21	0.016454281
131	0xbe79f4fb	-0.24409859
132	0xbdaab5dd	-0.08335469
133	0x3d9a4987	0.075335555
134	0xbdc9bf0b	-0.09850892
135	0xbe002ea6	-0.12517795
136	0xbc04e530	-0.008111283
137	0x3e0cbefd	0.13744731
138	0xbe7fe9ce	-0.24991533
139	0xbed5decc	-0.41771543
140	0x3b084d48	0.0020798016
141	0x3ae71225	0.0017629309
142	0x3e6cdceb	0.23131149
143	0x3ea75522	0.3268214
144	0x3d92ad81	0.071619995
145	0x3e8c9557	0.27457687
146	0x3e3cb92c	0.18430012
147	0x3dbd9f0c	0.092588514
148	0xbeb9545f	-0.36197183
149	0x3d592f10	0.053023398
150	0xbd8cc43b	-0.068733655
151	0x3dd85305	0.1056271
152	0xbe318dbf	-0.17339228
153	0x3daa1c5c	0.0830619
154	0x3d0c1e55	0.034208614
155	0xbe1ddf2b	-0.15417163
156	0x3e0d717d	0.13812824
157	0xbebaa660	-0.3645506
158	0xbd00e400	-0.031467438
159	0x3d0e0dfe	0.034681313
160	0x3e977639	0.29582384
161	0xbdeddb18	-0.116140544
162	0xbc0a6164	-0.008446071
163	0xbdc384d5	-0.0954682
164	0xbe440bfa	-0.19145194
165	0xbe28d517	-0.16487537
166	0x3ee23459	0.44180563
167	0x3d7b455a	0.061345436
168	0xbe7360fa	-0.23767462
169	0x3d1b7a99	0.037958715
170	0x3d71ab71	0.05900139
171	0xbe075fe7	-0.13220178
172	0x3d94a307	0.072576575
173	0xbe614d6a	-0.22002187
174	0xbd4bcccf	-0.049755868
175	0x3f18c779	0.5967937
176	0xbdcd8cd1	-0.10036624
177	0x3e230ce7	0.1592289
178	0xbe5122bb	-0.20423405
179	0x3aa96949	0.0012925054
180	0x3d12cd8c	0.035840556
181	0xbc9a13ef	-0.018808333
182	0x3d83e304	0.06439784
183	0xbe4ae532	-0.19813994
184	0x3ee0d6f4	0.43913996
185	0xbe054019	-0.13012733
186	0x3dd14e42	0.102200046
187	0xbe280d4a	-0.1641132
188	0xbe1b166f	-0.15145276
189	0x3e507905	0.20358665
190	0xbe5c611f	-0.21521424
191	0x3cf24083	0.029571777
192	0xbd639a9a	-0.05556736
193	0xbe449efe	-0.19201276
194	0x3de9613d	0.113955
195	0xbdd56c8f	-0.104210965
196	0x3ee3d05a	0.44494897
197	0x3ec4a29d	0.38405314
198	0x3e7e34b9	0.248248
199	0xbeac3ac0	-0.33638573
200	0xbe5046fe	-0.20339581
201	0xbe2ec6e7	-0.17068063
202	0xbe955e7c	-0.29173648
203	0xbdeb6812	-0.11494459
204	0xbe1973a0	-0.14985514
205	0xbe14f491	-0.1454642
206	0x3d77fe26	0.06054511
207	0x3cb6158b	0.02222707
208	0x3cd9658d	0.026537681
209	0x3dec99f2	0.115528
210	0x3e75038d	0.23927136
211	0xbe6d4b06	-0.2317315
212	0x3df8da90	0.121510625
213	0x3d185dc8	0.03719881
214	0x3da6c2c0	0.08142614
215	0x3deec8ed	0.11659417
216	0xbe364d65	-0.17802961
217	0xbdc96609	-0.09833915
218	0x3e544bd7	0.20732056
219	0x3e4f812f	0.20264123
220	0xbe007123	-0.12543158
221	0x3e32531d	0.17414518
222	0xbca8efb3	-0.02062211
223	0x3e8a4d24	0.2701198
224	0x3cd8c3c1	0.02646053
225	0xbe0f6d02	-0.14006427
226	0x3d79cba5	0.060985226
227	0x3db54ad7	0.08852165
228	0x3d04c6ef	0.03241628
229	0xbf01aecc	-0.50657344
230	0xbeb2d3d1	-0.34927228
231	0xbcad4842	-0.02115262
232	0xbd3c36b8	-0.04595062
233	0xbdb5a710	-0.08869755
234	0x3d169b3b	0.036769133
235	0x3ea11cbb	0.31467232
236	0x3ea1fef7	0.31639835
237	0x3e4806f5	0.19533904
238	0xbd865c76	-0.06560604
239	0xbcab781b	-0.020931294
240	0xbc5fecdd	-0.013667312
241	0xbe87b1d4	-0.2650286
242	0xbea5b17b	-0.3236197
243	0x3e523297	0.20527111
244	0xbe80a5dc	-0.2512654
245	0xbe718df1	-0.23589303
246	0x3d50fe4d	0.05102377
247	0xbe2ce597	-0.16884457
248	0xbd678f99	-0.05653343
249	0x3da58a8c	0.08083066
250	0x3e658eea	0.22417799
251	0xbe3c2435	-0.18373187
252	0x3db57cba	0.0886168
253	0x3d95b5cc	0.073100656
254	0x3ee47300	0.44618988
255	0xbd7918f6	-0.06081482

bn1.weight f4 [16]
0	0x3f5777f9	0.8416744
1	0x3eec883b	0.46197686
2	0x3eed3cb5	0.46335378
3	0x3f838efd	1.0278012
4	0x3f470cc0	0.7775383
5	0x3f4cebed	0.80047494
6	0x3fa3a916	1.2785976
7	0x3f39dc2e	0.7260159
8	0x3f154acb	0.5831725
9	0x3f11fd72	0.5702735
10	0x3f0390d8	0.5139289
11	0x3ef97301	0.48720554
12	0x3f188971	0.5958472
13	0x3f17392b	0.59071606
14	0x3f2d6b73	0.6774208
15	0x3f52f38a	0.8240286

bn1.bias f4 [16]
0	0x3e891f8f	0.2678189
1	0x3e80bb08	0.25142694
2	0x3e4e5d41	0.20152761
3	0xbf0fc06c	-0.5615299
4	0x3eeed5ce	0.46647495
5	0x3f04a008	0.5180669
6	0x3f2b207e	0.66846454
7	0x3e48f054	0.19622928
8	0x3dfeec93	0.12447467
9	0x3f37c438	0.7178378
10	0x3e7d65bf	0.24745844
11	0x3eb10c1e	0.34579557
12	0xbe7a7f69	-0.24462666
13	0x3ea696bd	0.3253688
14	0x3e5eedaf	0.21770357
15	0x3ec2ef99	0.38073424

bn1.running_mean f4 [16]
0	0xbd08b8bc	-0.0333793
1	0x3be62eb8	0.0070246123
2	0xbce29a4e	-0.027661469
3	0x3eb10ebb	0.3458155
4	0xbc1cbede	-0.009566991
5	0x3d38b3d3	0.04509337
6	0xbd937d5a	-0.07201643
7	0x3d66d5fc	0.056356415
8	0x3e09084c	0.13382071
9	0x3ba46239	0.005016592
10	0xbc832984	-0.016011007
11	0x3ac5480e	0.0015051381
12	0x3e5125e1	0.20424606
13	0xbdce5ad8	-0.10075921
14	0xbdba7477	-0.09104245
15	0xbd4f6c76	-0.050640546

bn1.running_var f4 [16]
0	0x3f97d474	1.186171
1	0x3e9f9815	0.31170717
2	0x3ed8c4aa	0.42337543
3	0x402ac50a	2.6682763
4	0x3fad4e5f	1.3539542
5	0x3ec3db76	0.38253373
6	0x3f072626	0.52792585
7	0x3f204f5b	0.62621087
8	0x3f3728c7	0.71546596
9	0x3e25f931	0.1620834
10	0x3f096d5f	0.5368251
11	0x3e141ee8	0.14464915
12	0x400b46c9	2.1761954
13	0x3f2df2f7	0.6794886
14	0x405653e6	3.3488708
15	0x3f0b46b4	0.5440476

layer1.conv1.weight f4 [16, 16, 3, 3]
0	0x3d9759e6	0.07390194
1	0x3ee3a8fc	0.44464862
2	0x3e09f589	0.1347257
3	0xbe9d87b4	-0.30767596
4	0x3e4fb9d8	0.20285738
5	0x3e939682	0.28825766
6	0xbe8da363	-0.27663717
7	0xbe217313	-0.15766554
8	0x3de7456d	0.11292539
9	0xbdbd11a5	-0.09231881
10	0x3e2873e8	0.16450465
11	0x3e8c0a8d	0.273518
12	0xbded2c7b	-0.115807496
13	0xbdce1671	-0.10062874
14	0x3e40b8af	0.18820451
15	0xbe6676de	-0.22506282
16	0xbe1b24ae	-0.15150711
17	0xbe9066ae	-0.28203338
18	0xbd8ff092	-0.07028307
19	0x3e22cc62	0.15898278
20	0xbe817bbb	-0.2528971
21	0xbe4b389a	-0.1984581
22	0x3d852787	0.0650168
23	0xbcb6f3a4	-0.022332974
24	0x3c2953cf	0.010334923
25	0xbcd02643	-0.02540887
26	0x3be4757b	0.0069720126
27	0x3e4f3cf1	0.20238091
28	0xbe82a97a	-0.25519925
29	0xbe7c22cb	-0.24622647
30	0x3ede4131	0.43409112
31	0x3e70ae42	0.23503974
32	0x3e930294	0.28712904
33	0xbe3b81b7	-0.18311201
34	0x3d76da8b	0.060267013
35	0x3e038778	0.12844646
36	0xbea3739d	-0.31924143
37	0x3e366d40	0.17815113
38	0xbe9671d4	-0.2938372
39	0xbe6bdb16	-0.23032793
40	0x3e320890	0.17386079
41	0x3c481fe4	0.012214635
42	0x3de86db2	0.11349048
43	0x3df61256	0.12015216
44	0xbdd492cc	-0.10379562
45	0x3e33b30c	0.1754877
46	0xbe060427	-0.13087521
47	0x3cdb8fd4	0.026801981
48	0x3e47658f	0.19472335
49	0x3c48a47d	0.012246248
50	0x3d802734	0.062574774
51	0xbe1e8860	-0.1548171
52	0x3d82bab9	0.06383271
53	0x3d7239c9	0.05913714
54	0x3e96bba8	0.29440045
55	0xbc9a7440	-0.01885426
56	0xbde817fa	-0.11332698
57	0x3d84f36d	0.06491742
58	0x3d3a81ac	0.04553382
59	0xbd879777	-0.066206865
60	0xbd9d7581	-0.07688428
61	0x3d516eb9	0.051130984
62	0x3e5db747	0.21651946
63	0x3c6d5771	0.01448618
64	0xbdf6ba01	-0.12047196
65	0xbd02c884	-0.031929508
66	0x3c9fb297	0.019494338
67	0xbe0079da	-0.12546483
68	0x3e0a2cfc	0.13493723
69	0x3cfba450	0.030717999
70	0xbd063f76	-0.032775365
71	0xbd44a4a4	-0.048008576
72	0xbde7324f	-0.112888925
73	0xbe8e76ad	-0.27824917
74	0xbdd25658	-0.10270375
75	0x3ce0d1d2	0.0274438
76	0x3e286be1	0.16447403
77	0x3c9c7f29	0.019103603
78	0xbed5d3ae	-0.4176306
79	0x3dbb157c	0.09134957
80	0x3e5bb86f	0.21457075
81	0xbe1e329e	-0.15448996
82	0x3d1611a1	0.036637906
83	0x3ddb3a10	0.10704434
84	0xbdde6bc1	-0.10860396
85	0xbdbc370d	-0.091901876
86	0xbd53b950	-0.0516904
87	0xbd8c84d4	-0.068612725
88	0xbc41b275	-0.011822333
89	0xbde6e3ed	-0.11273942
90	0x3d6c6ea0	0.057722688
91	0x3ec5adee	0.3860926
92	0x3e0b977e	0.13632008
93	0xbe93c9a8	-0.2886479
94	0x3e141b5e	0.14463565
95	0x3ec01909	0.375191
96	0x3d430582	0.047612675
97	0xbe37f2fa	-0.17963782
98	0x3dc240e6	0.09485035
99	0x3f009c30	0.50238323
100	0x3ee60c71	0.44931367
101	0x3e5c877f	0.21536063
102	0x3db23a33	0.08702507
103	0x3e301697	0.17196117
104	0x3e1122c6	0.14173421
105	0xbe97ed51	-0.29673246
106	0xbc9aaf4d	-0.018882418
107	0x3e482cf5	0.195484
108	0xbe1fcf47	-0.15606414
109	0xbc92b39b	-0.017907908
110	0xbe1b9548	-0.15193665
111	0xbdabc9bf	-0.083880894
112	0xbe2974a5	-0.16548403
113	0xbe25bbc2	-0.16184905
114	0x3e84cc18	0.2593696
115	0x3eba49e3	0.36384496
116	0x3d2863a6	0.041110657
117	0xbd712e2d	-0.058881927
118	0x3d1256f4	0.035727456
119	0xbc49f2dd	-0.0123259695
120	0xbd94072e	-0.07227932
121	0xbcaaeb31	-0.020864101
122	0xbc705b23	-0.014670166
123	0xbde2064c	-0.11036357
124	0xbcd8e3ef	-0.026475875
125	0xbe519696	-0.204676
126	0x3cd32d2e	0.02577838
127	0x3e87d431	0.26529077
128	0xbe79462c	-0.24343175
129	0xbeb286c7	-0.34868452
130	0xbd9a3430	-0.07529485
131	0xbb68b08b	-0.0035505618
132	0xbe3373f8	-0.17524707
133	0x3c815a01	0.015789988
134	0x3daea006	0.08526616
135	0xbe7e2f94	-0.24822837
136	0x3db7e713	0.08979621
137	0xbc8ebd92	-0.017424379
138	0xbde88bce	-0.11354791
139	0x3d0d5f1e	0.03451454
140	0x3e4098f9	0.18808354
141	0xbe584e28	-0.21123564
142	0x3e42f1cf	0.19037555
143	0x3e82d6ce	0.25554508
144	0x3d521ed3	0.051298928
145	0xbe0c9e81	-0.1373234
146	0x3cbdc0cd	0.023163224
147	0xbbb61c87	-0.0055576
148	0xbcb37aaa	-0.021909077
149	0x3e0cc121	0.13745548
150	0x3dd2eb45	0.1029878
151	0xbd871fae	-0.06597839
152	0xbdc8c483	-0.09803107
153	0x3e3ce10d	0.18445225
154	0x3e93b989	0.2885249
155	0x3df3337a	0.11875053
156	0x3e3a9343	0.18220238
157	0x3e1dbdd7	0.1540445
158	0xbd42e1e8	-0.047578722
159	0xbe3f9f58	-0.18713129
160	0xbc023804	-0.0079479255
161	0xbd8b9f60	-0.06817508
162	0xbdb8f0da	-0.09030314
163	0x3c380a49	0.011232921
164	0xbc4489a6	-0.011995709
165	0xbe270d4e	-0.16313669
166	0xbdf8bf39	-0.12145848
167	0xbe2076c5	-0.15670307
168	0x3dd066ff	0.10175895
169	0x3e48d3e8	0.19612086
170	0x3e9ef78e	0.31048244
171	0xbbd4eb63	-0.006497787
172	0xbd21fe0a	-0.03954891
173	0x3e10fbf3	0.14158611
174	0xbe28ebb5	-0.16496165
175	0xbe0917df	-0.13388012
176	0x3ce177c8	0.027522936
177	0x3e72a1b7	0.23694502
178	0x3cdf2dd6	0.027243536
179	0x3e81d4fc	0.25357807
180	0x3e058740	0.13039875
181	0x3d8bf3cb	0.06833609
182	0x3d113814	0.03545387
183	0x3d82edae	0.0639299
184	0x3dad40ec	0.084596485
185	0xbe516f03	-0.20452504
186	0xbb49517a	-0.003071873
187	0xbe00d24f	-0.12580226
188	0xbd9bb78b	-0.076033674
189	0xbe464abc	-0.19364446
190	0xbed993ff	-0.42495725
191	0xbef8510e	-0.4849934
192	0x3df26601	0.11835862
193	0x3ed1b4df	0.40958306
194	0x3ed4e05c	0.41577423
195	0x3cd4cce2	0.025976602
196	0x3c000d6e	0.007815702
197	0xbdf4a7ee	-0.119460925
198	0x3e70d43d	0.23518462
199	0x3ec00657	0.37504837
200	0x3e2a1d41	0.16612722
201	0xbe8febbf	-0.28109547
202	0xbed16c4b	-0.40902933
203	0xbecff201	-0.40614322
204	0x3d57148e	0.052509837
205	0x3e6f3d2e	0.23363182
206	0x3eaabd95	0.33347765
207	0xbda93461	-0.082619436
208	0xbe09eaa9	-0.13468422
209	0xbe945558	-0.28971362
210	0xbe00ee55	-0.12590916
211	0x3d80e30a	0.06293304
212	0x3c9a3b8c	0.018827222
213	0xbd1f0d43	-0.038831007
214	0x3acd5030	0.0015664157
215	0xbcd75ebb	-0.026290288
216	0x3e38ff8a	0.1806623
217	0x3d5637fd	0.05229949
218	0x3d8e26e5	0.06941012
219	0x3df4a219	0.1194498
220	0x3d9fde15	0.07806031
221	0xbe05883b	-0.13040249
222	0xbddefa0d	-0.10887537
223	0xbe76377f	-0.24044608
224	0xbe53d681	-0.20687295
225	0x3e4e8572	0.20168093
226	0x3dde2d9d	0.10848544
227	0xbd93255c	-0.0718486
228	0xbe3b4ec8	-0.18291771
229	0xbe708d1c	-0.23491329
230	0xbca0689b	-0.01958113
231	0x3cd793dd	0.026315624
232	0x3e32a5d7	0.17446075
233	0xbc1c4baf	-0.009539529
234	0xbcc09cc4	-0.023512252
235	0xbd335220	-0.043779492
236	0x3e667c6f	0.22508405
237	0xbcfbd8b5	-0.030742982
238	0xbd29964c	-0.0414031
239	0x3e15a812	0.14614895
240	0xbd2472d2	-0.040148564
241	0xbe6048f9	-0.21902837
242	0xbdceecdd	-0.10103772
243	0xbcd2c7b5	-0.025729993
244	0xbea945af	-0.33060977
245	0x3d1078b4	0.03527136
246	0x3d8273f0	0.063697696
247	0x3e80de4f	0.25169608
248	0x3ed62806	0.4182741
249	0x3d991fa3	0.07476737
250	0x3db98c10	0.09059918
251	0xbdff9d9f	-0.12481236
252	0xbe120aba	-0.14261904
253	0xbdb610bb	-0.0888991
254	0xbdbde4c7	-0.092721514
255	0xbd2293fd	-0.039691914

layer1.bn1.weight f4 [16]
0	0x3f2bfb26	0.671801
1	0x3f96d854	1.1784768
2	0x3f6753f9	0.9036251
3	0x3f6161a7	0.8803963
4	0x3f76b80b	0.9637458
5	0x3f8fe0ea	1.1240513
6	0x3f307fcd	0.6894501
7	0x3f6c7aa9	0.92374665
8	0x3f8cd341	1.100197
9	0x3f8d7cea	1.1053746
10	0x3f6f817e	0.93556964
11	0x3f94bcd0	1.1620121
12	0x3f6061b5	0.8764909
13	0x3f9fdb11	1.2488729
14	0x3f38eb6f	0.72234243
15	0x3f79711d	0.9743822

layer1.bn1.bias f4 [16]
0	0xbc6ec87e	-0.014574168
1	0xbd7d8596	-0.061894976
2	0x3c23f792	0.010007756
3	0xbc491617	-0.012273333
4	0x3cc05c26	0.02348144
5	0xbd8f6cff	-0.07003211
6	0xbcf000dc	-0.029297285
7	0x3e898896	0.2686202
8	0xbe04d728	-0.129727
9	0xbe4c46af	-0.19948839
10	0x3e412a5b	0.18863814
11	0xbe168ce3	-0.14702182
12	0xbe0c63f5	-0.13710006
13	0x3ed58255	0.41700998
14	0x3d4549ea	0.048166193
15	0xbe4e3072	-0.20135668

layer1.bn1.running_mean f4 [16]
0	0x3f0c4e5b	0.5480706
1	0x3dc01594	0.09379116
2	0xbf6efba0	-0.933527
3	0xbed8ca48	-0.42341828
4	0x3f53d248	0.8274274
5	0xbf457a91	-0.77140146
6	0xbf362e6a	-0.7116457
7	0xbfcea328	-1.6143541
8	0xbf13afd9	-0.576902
9	0xbf4f5036	-0.8098177
10	0xbf82d4f4	-1.0221238
11	0xbeab12c4	-0.33412755
12	0xbf824e8b	-1.018022
13	0xbf35852b	-0.70906323
14	0x3e8f4a9f	0.2798662
15	0xbf64c823	-0.89367884

layer1.bn1.running_var f4 [16]
0	0x3f94a86b	1.1613897
1	0x40c3fb3c	6.1244183
2	0x3fac2374	1.344832
3	0x3f836283	1.0264438
4	0x406f116a	3.7354379
5	0x40d42c9d	6.630446
6	0x3f9721ca	1.1807187
7	0x3ff0daa8	1.8816729
8	0x40246197	2.5684564
9	0x3fa8064c	1.3126922
10	0x400f78d8	2.2417507
11	0x408dae1c	4.4275036
12	0x3f93a0e5	1.1533476
13	0x40220f00	2.5321655
14	0x3ff51734	1.9147706
15	0x4084b84f	4.1474986

layer1.conv2.weight f4 [16, 16, 3, 3]
0	0xbdac9f21	-0.08428789
1	0x3d9e7f02	0.077390686
2	0x3dfe8258	0.12427205
3	0x3ce19089	0.02753474
4	0xbd85273f	-0.06501626
5	0x3e2ee4d8	0.17079484
6	0x3e1ab944	0.15109736
7	0xbd11e476	-0.035618268
8	0x3c69558b	0.014241586
9	0x3d23ea0d	0.04001813
10	0xbe3acc5a	-0.18242016
11	0xbe78476c	-0.24245995
12	0xbec23f00	-0.3793869
13	0xbdce7713	-0.10081305
14	0xbcbd255f	-0.023089109
15	0xbdedf66d	-0.116192676
16	0xbd8b70f7	-0.06808656
17	0xbdebd95f	-0.115160696
18	0x3e231818	0.1592716
19	0x3ea35d30	0.31907034
20	0xbe026624	-0.12734276
21	0x3dc325a1	0.095286615
22	0x3f07ff57	0.5312399
23	0x3e160871	0.14651658
24	0xbe042aa1	-0.12906887
25	0x3ea19a59	0.3156307
26	0x3ea9b67b	0.33147034
27	0x3d89f1f0	0.06735599
28	0xbd7e5588	-0.062093288
29	0x3c096a4a	0.008387158
30	0xbdf891f5	-0.12137214
31	0xbe9a41c0	-0.30128288
32	0xbc1581fe	-0.009125231
33	0xbe8c7e60	-0.27440166
34	0xbe84ea09	-0.25959805
35	0x3dce2642	0.10065891
36	0xbe8931a7	-0.26795694
37	0xbe2ec91b	-0.17068903
38	0xbdc9d1bb	-0.09854456
39	0xbe5fed43	-0.21867852
40	0xbe17de7c	-0.14830965
41	0xbe1e1b1a	-0.15440026
42	0xbe78be3b	-0.24291317
43	0xbe7af06b	-0.24505775
44	0xbe132b0a	-0.14371887
45	0xbd415a61	-0.047205333
46	0xbbb64789	-0.005562727
47	0xbc142613	-0.009042281
48	0xbe2a4cdb	-0.1663088
49	0x3d5dfba2	0.054195054
50	0x3e0ea1b4	0.13928872
51	0xbe7110e0	-0.23541594
52	0x3cac0843	0.021000033
53	0x3d50bfd6	0.0509642
54	0xbdc8fcfe	-0.098138794
55	0xbdf37e96	-0.11889379
56	0x3b29d9c7	0.002591716
57	0xbbb7696b	-0.0055972836
58	0xbe0ed945	-0.13950069
59	0xbe47f314	-0.1952632
60	0x3d897486	0.06711678
61	0xbe2ff38d	-0.17182751
62	0xbdf6efb2	-0.12057437
63	0x3e0028b5	0.12515529
64	0x3ee5f4bd	0.44913283
65	0x3e82651d	0.25467768
66	0xbda9aaad	-0.08284507
67	0x3e796640	0.24355412
68	0x3e7a265e	0.24428698
69	0xbd8ab826	-0.06773405
70	0xbd728547	-0.059209134
71	0xbd42c4e4	-0.04755105
72	0x3e0a5389	0.13508429
73	0xbe083404	-0.13301092
74	0xbe1c51bb	-0.15265553
75	0x3dea199b	0.11430665
76	0x3d15f082	0.03660632
77	0xbdb6f0d7	-0.08932655
78	0x3e1ad97b	0.15122025
79	0x3e2c7435	0.16841204
80	0x3cf01ebd	0.029311532
81	0x3e24b0c1	0.16083051
82	0xbca7e1cc	-0.02049341
83	0xbe21a54f	-0.15785716
84	0x3c8930d0	0.016746908
85	0x3dee9cde	0.11651014
86	0x3b2f5cf5	0.0026758288
87	0x3d96824a	0.073490694
88	0x3dfc70a9	0.12326176
89	0x3e05a79f	0.13052224
90	0x3dea9fdb	0.11456271
91	0xbe3c5a3a	-0.18393794
92	0xbd8ecb6e	-0.06972395
93	0x3db22d5f	0.0870006
94	0xbe66eabd	-0.22550483
95	0x3c900b8e	0.017583635
96	0x3e98a9b7	0.29816982
97	0x3c78651e	0.015160827
98	0xbd8f2f19	-0.06991405
99	0x3ea55f03	0.3229905
100	0x3ea1c094	0.31592238
101	0xbe1644c9	-0.14674677
102	0x3e502f83	0.20330624
103	0x3e5ac243	0.21363167
104	0x3e487fec	0.19580048
105	0x3e1652d9	0.14680041
106	0x3e666b55	0.22501881
107	0x3ecb56b2	0.3971458
108	0xbdbba77d	-0.09162805
109	0x3d4167f6	0.047218286
110	0x3e868dbe	0.26280016
111	0xbd90d8b4	-0.07072583
112	0xbcd7fe8e	-0.026366498
113	0x3db90042	0.09033252
114	0xbd94726a	-0.07248385
115	0xbcd73707	-0.026271356
116	0xbc2b264e	-0.010446144
117	0x3e2b999f	0.1675782
118	0x3ea062b3	0.31325302
119	0x3de5ec2e	0.11226688
120	0x3e2c4d2c	0.16826314
121	0x3e9b84f4	0.30374873
122	0x3ea9dd17	0.3317649
123	0xbd7096fe	-0.058737747
124	0x3e05a1af	0.13049959
125	0x3db17c2a	0.086662605
126	0x3e2bbe82	0.16771892
127	0x3e0cd3cd	0.1375267
128	0xbdad8176	-0.08471958
129	0x3c725b37	0.014792255
130	0x3de60e41	0.112331875
131	0xbc8837f2	-0.01662824
132	0xbe230313	-0.15919141
133	0xbc35d104	-0.0110971965
134	0x3da355fb	0.07975384
135	0x3e27ed59	0.16399135
136	0x3da1c2e5	0.07898501
137	0x3e5d222c	0.21595067
138	0x3dc0a486	0.0940638
139	0x3e1a10be	0.15045449
140	0x3e29a047	0.16565047
141	0x3e14353d	0.14473434
142	0x3ea16341	0.31521037
143	0x3e225553	0.15852861
144	0x3d4d0792	0.050056048
145	0xbd6aa332	-0.05728454
146	0x3e17574e	0.14779398
147	0x3dbca31d	0.09210799
148	0x3e3d5493	0.18489294
149	0x3ea43ec0	0.32079124
150	0x3de39c4a	0.11113794
151	0x3ded3c55	0.11583773
152	0x3e3fd461	0.1873336
153	0xbeb5ccc3	-0.35507783
154	0xbebc356b	-0.36759505
155	0xbe9895f2	-0.298019
156	0xbf20bdd3	-0.6278965
157	0xbed67fed	-0.41894475
158	0xbe38025a	-0.17969647
159	0xbec89c78	-0.39181876
160	0xbea727b1	-0.3264747
161	0x3d831f2d	0.06402431
162	0xbe58bf39	-0.21166696
163	0xbe09a3e5	-0.13441427
164	0x3e32905a	0.17437878
165	0xbae74bf7	-0.0017646541
166	0x3cd60807	0.026126875
167	0x3db8fe5a	0.09032889
168	0x3db38062	0.087647215
169	0x3cfe0934	0.031010248
170	0x3d99e0b5	0.075135626
171	0xbe382f82	-0.17986873
172	0xbe979f65	-0.29613796
173	0xbe527783	-0.20553403
174	0x3c8d026a	0.017213065
175	0xbe3a8ed5	-0.18218549
176	0xbda54e58	-0.080715835
177	0x3d1a81eb	0.037721556
178	0xbeba757a	-0.36417753
179	0xbe9e771e	-0.30950254
180	0xbe048d50	-0.12944531
181	0xbe544ff1	-0.2073362
182	0xbe9d358e	-0.3070492
183	0x3db88cbb	0.09011217
184	0x3d5e3c86	0.05425694
185	0x3e0ef742	0.13961509
186	0xbabee942	-0.0014565366
187	0xbd7e1c77	-0.062038865
188	0x3d992330	0.074774146
189	0x3e3efcd9	0.18651141
190	0x3e31acdc	0.17351097
191	0x3e0bd383	0.13654904
192	0x3ca304fb	0.019899836
193	0xbad6eeb3	-0.0016398042
194	0x3e8b47e7	0.27203295
195	0x3e2d6aa5	0.16935213
196	0xbc269213	-0.010166663
197	0x3cb59116	0.022163909
198	0xbe429c37	-0.19004904
199	0xbd7c8af4	-0.061655954
200	0x3de987a3	0.11402824
201	0xbe12c922	-0.14334539
202	0xbde2a9b1	-0.11067522
203	0x3d9f676c	0.07783398
204	0xbe6e821a	-0.23291817
205	0xbe1d3795	-0.15353234
206	0xbd7bda2a	-0.061487354
207	0x3e1f4e9e	0.15557334
208	0xbec8f168	-0.39246678
209	0xbe88aa01	-0.26692203
210	0x3e337670	0.17525649
211	0xbe5f0cb6	-0.21782193
212	0xbebec6ab	-0.37260947
213	0x3da1bbf5	0.07897178
214	0xbd54d63a	-0.051962115
215	0xbe8249e7	-0.25447008
216	0x3d9c467e	0.07630633
217	0xbd10374a	-0.035208978
218	0xbc5dc8fb	-0.013536687
219	0x3c3b7771	0.011442051
220	0x3cb98e14	0.022650756
221	0x3d32ce62	0.043653853
222	0xbd3d33a7	-0.046191838
223	0xbcef3900	-0.029201984
224	0x3dfa928c	0.12234983
225	0x3d7fd4b8	0.062458724
226	0x3e1d0c24	0.15336663
227	0x3dc1cb5e	0.09462617
228	0x3e328bdf	0.17436169
229	0x3d8ea496	0.06964986
230	0x3df0a1f8	0.11749643
231	0x3d922d7e	0.07137583
232	0x3e4dde70	0.20104384
233	0x3da7fbb6	0.08202307
234	0xbe8d7a9a	-0.276326
235	0xbe3f59f0	-0.18686652
236	0xbbc4687f	-0.005993902
237	0x3bea9379	0.0071586934
238	0x3da4dd0a	0.08049972
239	0x3d125ed0	0.03573495
240	0x3dcfa25e	0.10138391
241	0x3e780dd0	0.24224019
242	0x3dc4f51a	0.09617062
243	0xbe2fa05e	-0.17151019
244	0x3d79c3ce	0.06097775
245	0x3ead8a47	0.3389456
246	0xbd8c8836	-0.06861918
247	0xbeb8a017	-0.3605964
248	0x3dd2397d	0.10264871
249	0xbe5ed833	-0.21762161
250	0xbec56cd2	-0.38559586
251	0xbd2032f4	-0.039111093
252	0x3dc6f662	0.097149625
253	0xbe3d5d31	-0.18492581
254	0xbe59dca4	-0.21275574
255	0x3e69b7e1	0.2282405

layer1.bn2.weight f4 [16]
0	0x3f661e88	0.89890337
1	0x3f8c2078	1.0947409
2	0x3faa1575	1.3287798
3	0x3f472cb1	0.7780257
4	0x3f852056	1.0400493
5	0x3f7a7056	0.9782766
6	0x3fb516ba	1.4147561
7	0x3f6a5313	0.9153301
8	0x3f577274	0.84159017
9	0x3f85a432	1.0440733
10	0x3f7a347c	0.97736335
11	0x3fdf3a70	1.7439709
12	0x3f976c66	1.1829956
13	0x3fa545bb	1.2911905
14	0x3f4de5a2	0.80428517
15	0x3f910d1f	1.1332129

layer1.bn2.bias f4 [16]
0	0xbd755b6c	-0.05990164
1	0x3ecee59a	0.40409547
2	0x3ea7b47a	0.3275488
3	0x3efb3c3c	0.49069393
4	0x3d46261c	0.048376188
5	0x3e95b401	0.29238895
6	0x3eb59928	0.3546841
7	0x3d3fe0e5	0.046845336
8	0x3d88213f	0.06646966
9	0xbd7cca69	-0.06171647
10	0x3f0860a8	0.53272486
11	0xbec308c7	-0.38092634
12	0x3e7a7e82	0.24462321
13	0xbb807ac3	-0.0039208843
14	0x3efc6e49	0.4930289
15	0xbefba3b1	-0.49148324

layer1.bn2.running_mean f4 [16]
0	0x3fe9b19c	1.8257327
1	0xbfc1532d	-1.5103508
2	0xbedb57f0	-0.42840528
3	0xbf182ca5	-0.5944312
4	0xbe7ce057	-0.24694954
5	0xbec90619	-0.39262465
6	0xbefe1929	-0.4962857
7	0x3f32a15c	0.69777465
8	0x3f13be15	0.5771192
9	0x3fd9f5c5	1.7028128
10	0xbfb7b9e7	-1.4353608
11	0xbe18e967	-0.14932786
12	0xbdd9a965	-0.106280126
13	0xc0137746	-2.3041549
14	0xbe804b41	-0.25057414
15	0x3dd9357e	0.10605906

layer1.bn2.running_var f4 [16]
0	0x4009ef5f	2.155235
1	0x40275d5a	2.6150727
2	0x40347f38	2.8202648
3	0x400e570d	2.2240632
4	0x40156499	2.334265
5	0x3fffe2e9	1.9991122
6	0x4082881b	4.0791144
7	0x3fe44a32	1.7835143
8	0x3ff4d7c9	1.9128352
9	0x4087cc57	4.243694
10	0x400fe0aa	2.2480874
11	0x405ce7eb	3.4516551
12	0x40799963	3.899987
13	0x40b90e76	5.7830153
14	0x40381ce0	2.8767624
15	0x3fb8cb99	1.4437133

layer2.conv1.weight f4 [32, 16, 3, 3]
0	0x3d85a207	0.06525045
1	0xbc37ac2b	-0.011210482
2	0xbe36475b	-0.17800657
3	0x3df6ab64	0.12044409
4	0xbdf6ca81	-0.12050343
5	0xbe7739cb	-0.2414314
6	0x3e6d0c9d	0.23149343
7	0xbd896c64	-0.06710127
8	0xbea12e99	-0.31480864
9	0x3d0193e9	0.0316352
10	0x3e2c73cb	0.16841047
11	0x3eeb6bfa	0.45980817
12	0x3dd2b5d7	0.102885894
13	0x3e5fae4f	0.21843837
14	0x3ed42855	0.4143702
15	0xbdaea894	-0.085282475
16	0x3e0f4007	0.13989268
17	0x3dbad3a1	0.09122396
18	0xbe164c8d	-0.1467764
19	0x3cf15cd5	0.029463211
20	0x3bfe8ec4	0.007768484
21	0x3b990d48	0.0046707727
22	0x3c23a41a	0.009987855
23	0xbe454088	-0.19262898
24	0x3d477e82	0.04870463
25	0x3e03bb10	0.12864327
26	0xbe388e13	-0.18022947
27	0x3e2d89f1	0.16947152
28	0x3d1a8a1e	0.037729375
29	0x3d5f179b	0.05446587
30	0x3d8d0866	0.068863675
31	0xbd6a95ee	-0.05727189
32	0x3bc15263	0.005899714
33	0x3e5107da	0.20413151
34	0xbe086507	-0.13319789
35	0xbdc08c8e	-0.09401809
36	0x3ddae729	0.106886216
37	0x3dfdb803	0.12388613
38	0x3e979478	0.2960546
39	0x3e0c4264	0.13697201
40	0x3e164ac5	0.1467696
41	0xbce07409	-0.02739908
42	0x3da697ef	0.08134448
43	0xbd65c4b4	-0.056095794
44	0xbe268844	-0.16262919
45	0xbd4eda6d	-0.050501276
46	0x3e65f180	0.22455406
47	0x3e77f572	0.24214724
48	0xbd80873f	-0.06275796
49	0x3e3d5740	0.18490314
50	0x3edd2787	0.4319422
51	0x3e8ad4d9	0.27115515
52	0x3e4de70b	0.20107667
53	0x3e8d424f	0.27589652
54	0x3bea0751	0.0071419855
55	0x3db26c5e	0.08712076
56	0x3ddf78d0	0.10911715
57	0x3db6a9aa	0.089190796
58	0x3e1c4add	0.15262933
59	0x3d45b2cf	0.04826623
60	0x3d2e3fe9	0.04254142
61	0xbd53d32c	-0.05171506
62	0xbdeb4c4a	-0.1148916
63	0xbe622deb	-0.22087829
64	0x3cfc3d18	0.03079085
65	0x3e55225c	0.20813888
66	0xbea76ec5	-0.32701698
67	0x3b6d8ecd	0.0036248446
68	0x3e0531d6	0.13007292
69	0xbe3cd268	-0.18439639
70	0xbdd4e3c3	-0.103950046
71	0xbb8babb0	-0.00426241
72	0x3e9e4f5e	0.30919927
73	0x3e3bb706	0.18331537
74	0xbd80c84f	-0.06288206
75	0x3d2205c1	0.03955627
76	0x3e23124f	0.15924953
77	0xbddc1731	-0.10746611
78	0xbe212915	-0.15738328
79	0xbc02b1aa	-0.007976929
80	0xbd5cf7a7	-0.053947117
81	0x3dfd20f8	0.12359804
82	0x3d8e69d6	0.0695378
83	0x3e367cd0	0.1782105
84	0xbe0bf9af	-0.13669465
85	0xbdc1fdbf	-0.09472226
86	0x3c90e885	0.017688999
87	0xbebc742a	-0.36807376
88	0xbec3f5ad	-0.38273373
89	0xbe36e19f	-0.17859505
90	0xbe785f2f	-0.2425506
91	0xbe1a264b	-0.1505367
92	0x3c31ba4c	0.010847639
93	0xbe5b824a	-0.2143642
94	0xbc5839b2	-0.013197349
95	0x3d7e1b9b	0.062038045
96	0xbdf32d9b	-0.11873933
97	0xbe251810	-0.1612246
98	0x3cc14c6f	0.023596017
99	0x3c818a93	0.015813148
100	0x3e07b77a	0.13253585
101	0x3e436675	0.19082053
102	0x3d74cdb8	0.0597665
103	0x3e2c906c	0.16851968
104	0x3da048b4	0.07826367
105	0x3de4a9fb	0.11165234
106	0x3d1c17d7	0.038108673
107	0xbd90caf1	-0.07069958
108	0xbd8754cd	-0.06607971
109	0x3e702298	0.23450696
110	0x3e0e82de	0.1391711
111	0xbe0fa4d1	-0.14027716
112	0x3d1e8ce2	0.038708575
113	0x3b8c128a	0.004274671
114	0xbe460666	-0.19338378
115	0x3d85dcc7	0.065362506
116	0xbd3a7916	-0.045525633
117	0xbe4e3d25	-0.20140512
118	0xbedb1ff1	-0.42797807
119	0xbde53ee2	-0.111936346
120	0xbe10f786	-0.14156923
121	0xbeb32494	-0.34988844
122	0xbdc05b3d	-0.09392402
123	0xbe1091f7	-0.14118181
124	0xbdc45989	-0.0958739
125	0xbcc8b8ac	-0.02450212
126	0xbe455847	-0.19271956
127	0xbec0fe9f	-0.3769426
128	0x3c8d8c8c	0.017278932
129	0xbe0f97f2	-0.14022806
130	0xbedcf24e	-0.43153614
131	0xbe65489a	-0.22390977
132	0x3dcf339a	0.10117264
133	0xbe8fa44b	-0.28055033
134	0xbe9bf331	-0.30458978
135	0x3e68247b	0.22670166
136	0x3edbd182	0.4293328
137	0x3e274d50	0.16338086
138	0x3e16a231	0.14710309
139	0x3e8ea436	0.27859658
140	0x3d204132	0.039124675
141	0x3bbe07f3	0.0057992875
142	0x3b91c2e9	0.004448284
143	0xbd115feb	-0.035491865
144	0xbece62c8	-0.4030974
145	0xbd950c4e	-0.072777376
146	0xbcb4fb55	-0.0220925
147	0xbec8c305	-0.39211288
148	0xbcc5ec92	-0.024160657
149	0x3e31cfa8	0.17364371
150	0xbe668bbd	-0.22514243
151	0x3db58708	0.08863646
152	0x3def07f4	0.11671439
153	0xbd5f5fc9	-0.054534707
154	0x3b802286	0.0039103655
155	0xbdb7245f	-0.08942484
156	0xbca7bb24	-0.020474978
157	0x3d93f00a	0.07223518
158	0xbd6da069	-0.058014307
159	0xbb42b30f	-0.0029708778
160	0x3be9ee03	0.007138969
161	0x3d8ae1bf	0.06781339
162	0x3e431ba6	0.19053516
163	0xbb01201b	-0.0019702974
164	0x3debf029	0.11520416
165	0x3dd1ef5c	0.10250732
166	0xbe08dc67	-0.13365327
167	0x3e10b397	0.14131008
168	0xbb73e24f	-0.0037213748
169	0xbe3e2522	-0.18568853
170	0x3c1238fc	0.008924719
171	0xbe320c14	-0.1738742
172	0xbe09270a	-0.13393798
173	0xbe280825	-0.16409357
174	0x3dbde66a	0.092724636
175	0x3dc53d87	0.09630876
176	0xbd936b65	-0.07198218
177	0x3e8ba4d8	0.27274203
178	0x3e93c37e	0.28860086
179	0x3c4c547f	0.012471317
180	0xbd83c252	-0.06433548
181	0xbd9d10a6	-0.07669191
182	0x3c033fde	0.008010833
183	0x3cda431c	0.026643328
184	0x3e49496d	0.19656916
185	0x3e8f3703	0.27971658
186	0x3cb4b9bc	0.022061221
187	0x3e48919d	0.19586797
188	0x3e99268d	0.29912224
189	0xbe17f1a6	-0.14838275
190	0x3e0f6952	0.1400502
191	0x3de7bacc	0.113149256
192	0xbd4c0775	-0.0498118
193	0x3df0974a	0.11747606
194	0x3e0570e6	0.13031349
195	0x3dba6b8b	0.091025434
196	0x3da6e343	0.081488155
197	0xbd264b9a	-0.040599443
198	0x3e076e58	0.13225687
199	0x3e11454c	0.14186591
200	0xbd92dd42	-0.07171108
201	0x3e0c2612	0.13686398
202	0x3e4c8bc0	0.19975185
203	0x3c6556f8	0.013997786
204	0x3e82664b	0.25468668
205	0x3e07b9b1	0.1325443
206	0x3cea4259	0.02859609
207	0xbdd1b759	-0.10240049
208	0x3c71dc04	0.0147619285
209	0x3c04b78d	0.008100403
210	0xbd9760dc	-0.07391521
211	0x3de9c955	0.11415354
212	0x3e4a45de	0.19753215
213	0xbdb47a26	-0.088123605
214	0x3d22aaf9	0.039713833
215	0x3e1a3594	0.15059501
216	0xbdb8dda6	-0.09026651
217	0x3d890078	0.066895425
218	0x3d8201cb	0.06347998
219	0x3dfd4b95	0.12367932
220	0x3e5fccf3	0.21855526
221	0x3e7ccc53	0.24687319
222	0x3ead2bbb	0.33822426
223	0x3ea3b7d0	0.31976175
224	0x3eaec018	0.3413093
225	0xbcdbb581	-0.026819946
226	0xbde36725	-0.11103658
227	0xbdeaa63c	-0.11457488
228	0xbabe72c4	-0.0014530052
229	0xbd1227ee	-0.03568261
230	0xbbbba109	-0.005725984
231	0xbe077c08	-0.13230908
232	0x3cee4a6d	0.029088223
233	0x3dd7c63c	0.10535857
234	0xbd9ebcef	-0.0775088
235	0xbdc04e65	-0.093899526
236	0x3d5bfff9	0.05371091
237	0x3b0ac7ad	0.0021176145
238	0xbd01f5b3	-0.031728458
239	0x3d21cc58	0.039501518
240	0x3d43ca38	0.047800273
241	0x3cf0590b	0.029339334
242	0x3e10618c	0.14099711
243	0xbeb24c9a	-0.34824067
244	0xbf094c7f	-0.5363235
245	0xbeb6cb65	-0.35702053
246	0xbf01d147	-0.50709957
247	0xbf3ef9c0	-0.7459984
248	0xbf013c61	-0.50482756
249	0xbe9969c1	-0.29963496
250	0xbeea3272	-0.45741612
251	0xbe91525e	-0.28383154
252	0x3c9caaa5	0.019124338
253	0x3dfc87a1	0.12330557
254	0x3da05490	0.07828629
255	0x3d9670ae	0.07345711

layer2.bn1.weight f4 [32]
0	0x3f67b0e7	0.90504307
1	0x3f7087b8	0.9395709
2	0x3f52e165	0.82375175
3	0x3f83deca	1.0302365
4	0x3f6317ab	0.8870799
5	0x3f9eab1d	1.239597
6	0x3f64ad13	0.8932659
7	0x3f4c9b8a	0.79924834
8	0x3f74c129	0.9560724
9	0x3f90df70	1.1318188
10	0x3f5058b5	0.81385356
11	0x3f804c40	1.002327
12	0x3f697709	0.9119726
13	0x3f4cec7f	0.80048364
14	0x3fa3db93	1.2801384
15	0x3f5e55b9	0.8684955
16	0x3f945324	1.1587873
17	0x3f56d9d5	0.83926135
18	0x3fa0143c	1.2506175
19	0x3f57fa72	0.84366524
20	0x3f59d39e	0.8508853
21	0x3f5a463b	0.85263413
22	0x3fa3af16	1.2787807
23	0x3f94cd69	1.1625186
24	0x3f4ee6a9	0.8082071
25	0x3f65e428	0.89801264
26	0x3f757b82	0.9589158
27	0x3f62e4a9	0.8863016
28	0x3f6c63f6	0.9234003
29	0x3f7628bf	0.96155924
30	0x3f5086a8	0.8145547
31	0x3f615747	0.880238

layer2.bn1.bias f4 [32]
0	0xbd3bed5c	-0.04588066
1	0x3df61df8	0.12017435
2	0xbdfce876	-0.12349026
3	0xbe411574	-0.1885584
4	0xbeb15a31	-0.34639123
5	0xbe96873f	-0.2940006
6	0x3d83d88d	0.06437788
7	0xbe83aa11	-0.25715688
8	0xbeb05060	-0.3443632
9	0x3d61e783	0.055152427
10	0xbcf9d2ea	-0.03049608
11	0xbe502729	-0.20327438
12	0xbe20c979	-0.15701856
13	0xbeb0aac3	-0.3450528
14	0xbe0e7f9e	-0.1391587
15	0xbe9336c1	-0.2875271
16	0xbe2e9b5f	-0.17051457
17	0xbe3314ad	-0.17488356
18	0xbe556387	-0.20838748
19	0xbe0f1eeb	-0.13976638
20	0xbdc35284	-0.09537223
21	0xbad531b1	-0.001626542
22	0xbe558275	-0.20850547
23	0xbd0b1002	-0.033950813
24	0xbdd9c319	-0.10632915
25	0xbe7fbc86	-0.2497426
26	0xbe744314	-0.23853713
27	0xbe07e186	-0.13269624
28	0xbe7de5b3	-0.24794655
29	0xbceb5c15	-0.028730432
30	0xbd9563da	-0.07294436
31	0xbe8953b6	-0.2682168

layer2.bn1.running_mean f4 [32]
0	0x3ebe9d38	0.37229323
1	0x3f7b7bb9	0.9823566
2	0xc0800c95	-4.001536
3	0xc08ca959	-4.3956723
4	0x406778a0	3.6167374
5	0xbe88614c	-0.26636732
6	0xc0cd0f53	-6.4081206
7	0x40030acb	2.0475338
8	0xc09cdf28	-4.9022408
9	0xc0afe6fe	-5.4969473
10	0xbf3dc41b	-0.7412736
11	0xc05418a0	-3.314003
12	0xc01ed5e9	-2.481806
13	0x3e80e528	0.25174832
14	0xc0333536	-2.8001227
15	0x3e738f24	0.23785073
16	0xbf286d6f	-0.6579198
17	0xc0a31531	-5.096337
18	0xc0507433	-3.2570922
19	0xbffbf88c	-1.9685225
20	0xc02ac25e	-2.6681132
21	0xc092d2f3	-4.5882506
22	0xc04acb7b	-3.1686695
23	0xc01bfc7d	-2.4372857
24	0xbff35556	-1.9010417
25	0xc07acb12	-3.9186444
26	0x3fe8d345	1.8189474
27	0xbfa675ba	-1.3004677
28	0xbfbf9797	-1.4968137
29	0xc0fadc08	-7.8393593
30	0xc04185b4	-3.0237856
31	0xbee7e940	-0.45295143

layer2.bn1.running_var f4 [32]
0	0x410df9fb	8.87353
1	0x40fe587b	7.948301
2	0x40dfeacf	6.997413
3	0x4138e07c	11.554806
4	0x40d03906	6.506961
5	0x4167b211	14.480973
6	0x413ab562	11.669283
7	0x4101ed6a	8.120462
8	0x40e0f2a4	7.029619
9	0x41547ab5	13.279958
10	0x40d06abb	6.5130286
11	0x4119c964	9.611668
12	0x416034a7	14.012855
13	0x40f63345	7.6937585
14	0x413bda91	11.740861
15	0x40f2d35b	7.5883
16	0x4121c162	10.109713
17	0x40cc74a9	6.3892407
18	0x411626e6	9.384497
19	0x40e0a90d	7.020636
20	0x40da1603	6.815187
21	0x40b91334	5.783594
22	0x4140e9f2	12.057116
23	0x417bbfdf	15.734344
24	0x409187d3	4.54783
25	0x408daa4d	4.4270387
26	0x40b324f3	5.5982604
27	0x40cf3b35	6.4759774
28	0x402ef1dd	2.7335122
29	0x40fd56ac	7.91683
30	0x410b3770	8.701035
31	0x40a3031a	5.0941286

layer2.conv2.weight f4 [32, 32, 3, 3]
0	0xbdb76c82	-0.08956243
1	0x3c5b01d9	0.01336714
2	0x3a19e586	0.00058706885
3	0x3d8c9107	0.06863599
4	0xbb81a8ee	-0.0039569056
5	0xbc697036	-0.014247945
6	0x3b7c8ee7	0.0038537325
7	0x3df8f826	0.121567056
8	0xbd578a38	-0.05262205
9	0x3e2974d9	0.1654848
10	0x3e953d61	0.2914839
11	0x3dbc8f32	0.09207
12	0xbcc5a107	-0.024124635
13	0x3ddfab55	0.10921351
14	0xbd7370b2	-0.059433647
15	0x3e292ac8	0.16520226
16	0xbd943986	-0.07237534
17	0xbec80521	-0.39066413
18	0x3dfb7a08	0.12279135
19	0x3da7dcc0	0.081964016
20	0x3e03718d	0.12836285
21	0xbd392bf2	-0.045207925
22	0xbdc8444a	-0.0977865
23	0xbbbe366b	-0.005804827
24	0xbe83a290	-0.25709963
25	0xbe4d21d5	-0.20032437
26	0xbe58522b	-0.21125095
27	0x3e317d3c	0.1733293
28	0xbd538be8	-0.051647097
29	0xbe21eee0	-0.1581378
30	0x3d1cbd94	0.038266733
31	0xbe1bf5a3	-0.15230422
32	0xbdd0a49d	-0.101876475
33	0x3d82d1a1	0.0638764
34	0xbe8d1f0f	-0.27562758
35	0xbe853bed	-0.26022282
36	0xbe072480	-0.13197517
37	0xbe8c3108	-0.27381158
38	0xbdc8a5f8	-0.09797281
39	0xbee2ab7e	-0.44271463
40	0xbec19e37	-0.3781602
41	0xbeb31b26	-0.3498165
42	0xbe48f144	-0.19623286
43	0xbe37cff7	-0.17950426
44	0xbe4de5c0	-0.20107174
45	0xbe9afea5	-0.30272403
46	0x3de5ce5e	0.11221002
47	0x3e82e282	0.25563437
48	0xbead628f	-0.33864257
49	0x3c443611	0.011975781
50	0x3c30aad6	0.010782918
51	0xbe41305f	-0.18866108
52	0xbbcf1146	-0.006319198
53	0x3d5ba9e5	0.05362882
54	0x3e473eb7	0.19457518
55	0xbd736cb7	-0.05942985
56	0xbe800417	-0.2500312
57	0x3e33b478	0.17549312
58	0xbd479a3a	-0.048731066
59	0xbe5689a0	-0.20950937
60	0x3e5426ac	0.20717877
61	0x3d9f7852	0.07786621
62	0xbe4c98ae	-0.19980118
63	0xbe7ed785	-0.24886902
64	0xbe9310bc	-0.28723705
65	0xbe9af9b5	-0.30268636
66	0xbe01239a	-0.12611237
67	0xbc49944f	-0.012303426
68	0xbdba7634	-0.09104577
69	0x3e3572c4	0.17719561
70	0xbd919d02	-0.07110025
71	0xbd5f738a	-0.054553546
72	0x3c4a01c1	0.01232952
73	0x3c9c3597	0.019068522
74	0xbdb4bffa	-0.08825679
75	0xbd5e81f5	-0.054323155
76	0x3e583b17	0.21116291
77	0x3e538d59	0.20659389
78	0x3e40de6b	0.18834846
79	0x3e8adbf7	0.27120945
80	0x3e11c5cf	0.14235614
81	0x3e81d264	0.25355828
82	0x3d382222	0.044954427
83	0xbea84d8d	-0.32871667
84	0x3e227818	0.15866125
85	0x3e5d1d36	0.21593174
86	0xbdae2b22	-0.08504321
87	0xbe648ddf	-0.22319745
88	0xbd1064a6	-0.035252236
89	0x3c7e983b	0.015539224
90	0x3e85b87e	0.2611732
91	0xbdd3fd9b	-0.10351106
92	0xbee48271	-0.4463077
93	0x3e8fb584	0.28068173
94	0x3d7512fa	0.05983255
95	0xbcc6e78d	-0.024280334
96	0x3ea7d6e2	0.3278113
97	0x3e431175	0.19049628
98	0x3e5fbb1d	0.21848722
99	0xbb1ff5ee	-0.002440806
100	0xbda6e752	-0.081495896
101	0xbeb49513	-0.35269985
102	0xbcc6618e	-0.02421644
103	0xbd70a6de	-0.058752887
104	0xbe8f2f31	-0.27965692
105	0xbd0e4a9e	-0.03473913
106	0xbe4484be	-0.19191262
107	0xbe3a32cd	-0.18183441
108	0x3d1b1eff	0.037871357
109	0x3e352135	0.17688449
110	0xbd0b7475	-0.03404661
111	0xbd556b3d	-0.052104224
112	0x3d9f0f46	0.07766585
113	0xbe0e4c32	-0.13896254
114	0xbc9731f2	-0.018456433
115	0x3db32ffe	0.08749388
116	0xbe290bed	-0.16508456
117	0x3d1f5af9	0.038905118
118	0x3e3b98b8	0.18319976
119	0x3dfdcd1e	0.123926386
120	0xbccc731a	-0.024957228
121	0x3e5eeb59	0.21769466
122	0xbd5f0c54	-0.054455116
123	0xbdb2759a	-0.08713837
124	0x3d739542	0.059468515
125	0xbe6d3cac	-0.23167676
126	0xbe378274	-0.17920858
127	0xbe124185	-0.14282806
128	0xbe7bb7af	-0.24581788
129	0xbddd5e5b	-0.108090125
130	0xbe5a5be6	-0.21324119
131	0xbe47315e	-0.19452426
132	0xbeb59df2	-0.35472065
133	0xbe778393	-0.24171285
134	0x3dd338f6	0.10313599
135	0xbec6766f	-0.38762233
136	0xbe990716	-0.2988822
137	0xbe0503b0	-0.12989688
138	0xbe104682	-0.14089397
139	0xbc6434bf	-0.013928591
140	0xbdac6611	-0.08417905
141	0x3c8ec6aa	0.017428715
142	0x3e0cace0	0.13737822
143	0x389d0ba3	7.488511e-05
144	0xbdb76a0c	-0.08955774
145	0x3dcf49dc	0.101215094
146	0x3eabef54	0.3358103
147	0xbe01ecc7	-0.1268798
148	0x3cc95748	0.024577752
149	0x3dd627de	0.10456823
150	0xbf0217de	-0.5081767
151	0xbef66af9	-0.4812849
152	0xbe08a1d0	-0.13342977
153	0xbc5e8cf5	-0.013583411
154	0x3e117ee0	0.14208555
155	0x3e705c55	0.23472722
156	0xbda6cfe5	-0.081451215
157	0x3e10f965	0.14157636
158	0x3e28c332	0.16480711
159	0xbdbbda52	-0.09172501
160	0x3d9a3136	0.075289175
161	0x3de64917	0.112444095
162	0x3d0257bd	0.031821955
163	0xbcda7ccd	-0.026670838
164	0xbcbfe5fa	-0.023425091
165	0xbdad9684	-0.08475974
166	0xbd8bc352	-0.06824364
167	0xbe0866f0	-0.13320518
168	0xbb2b0eec	-0.0026101423
169	0xbdc16b28	-0.094442666
170	0xbd979de0	-0.07403159
171	0x3e2ea790	0.17056108
172	0x3e41ee04	0.18938452
173	0x3e3641fc	0.17798609
174	0xbc57e2ff	-0.013176679
175	0x3dfbb726	0.12290792
176	0x3e419fdd	0.18908639
177	0xbd4234be	-0.04741358
178	0x3c5c155d	0.013432828
179	0x3df91932	0.12163009
180	0x3c2a542a	0.010396043
181	0xbcd427ad	-0.025897825
182	0xbe8251f3	-0.25453147
183	0xbe06e2c2	-0.13172439
184	0x3e0acfd7	0.13555847
185	0x3dd724a9	0.10505039
186	0xbe6997eb	-0.22811858
187	0x3e245829	0.16049255
188	0x3eaeb514	0.34122527
189	0xbe2f7284	-0.17133528
190	0xbe44dfe3	-0.19226031
191	0xbe9c07ba	-0.30474645
192	0xbb57b400	-0.0032913685
193	0xbe4d0c33	-0.20024185
194	0xbed921d2	-0.42408615
195	0x3ec05390	0.37563753
196	0xbbc2a68c	-0.005940264
197	0xbe22e0bf	-0.15906046
198	0x3e8c5d4d	0.27414933
199	0x3dec1587	0.115275435
200	0xbe191ad6	-0.14951643
201	0x3de14c1b	0.11000844
202	0x3dbf57a1	0.09342886
203	0xbe8a8aac	-0.27058923
204	0x3e02783b	0.12741177
205	0x3d8f22e7	0.06989079
206	0xbe839b42	-0.2570439
207	0xbcc4c5d6	-0.024020117
208	0xbd953a5a	-0.0728652
209	0xbc235668	-0.009969331
210	0xbdb0fbe9	-0.08641798
211	0xbd7afd4b	-0.061276715
212	0xbcd77007	-0.026298536
213	0xbed539ab	-0.4164556
214	0xbeff7fc1	-0.49902156
215	0xbeb120e5	-0.3459541
216	0xbe8e36ad	-0.2777609
217	0xbcefafa4	-0.029258557
218	0xbc0af47f	-0.008481144
219	0xbe96e14f	-0.29468772
220	0xbd8a1e9c	-0.067441195
221	0xbd0b201f	-0.03396618
222	0xbda3e562	-0.08002736
223	0xbdd9ad07	-0.106287055
224	0x3c87121f	0.016488133
225	0x3e2c81c2	0.16846374
226	0x3e138ba3	0.14408736
227	0x3e407349	0.18793978
228	0xbd0798c1	-0.03310466
229	0x3d1dacc2	0.038494833
230	0x3e1e1bce	0.15440294
231	0xbe93d71f	-0.28875062
232	0xbe677703	-0.22603993
233	0x3cfe97cb	0.03107824
234	0xbdea6801	-0.114456184
235	0xbdf554fe	-0.119791016
236	0x3e26469d	0.16237874
237	0xbe3d4a45	-0.18485363
238	0xbe072215	-0.13196595
239	0xbd17e0db	-0.037079673
240	0xbe1e344f	-0.15449642
241	0xbe5f11a2	-0.2178407
242	0xbd930889	-0.07179362
243	0x3ceb9f10	0.02876237
244	0x3e5aa184	0.21350676
245	0xbc200deb	-0.009768943
246	0x3dbc0cbf	0.091821186
247	0x3dee8d41	0.11648036
248	0xbe2f0aaf	-0.17093919
249	0x3e08c1b2	0.13355139
250	0x3de96319	0.113958545
251	0xbd5a7e70	-0.053343236
252	0x3dee1ded	0.11626802
253	0x3dc3d99d	0.09562991
254	0x3e3227f5	0.17398055
255	0x3d36a557	0.044591274

layer2.bn2.weight f4 [32]
0	0x3f8afabd	1.0857769
1	0x3f805bdd	1.0028034
2	0x3f97237e	1.1807706
3	0x3f9a12c2	1.2036974
4	0x3f848286	1.0352333
5	0x3f9271b8	1.1440954
6	0x3f81e437	1.0147771
7	0x3fae9f53	1.3642372
8	0x3faaf110	1.3354816
9	0x3f90bc40	1.1307449
10	0x3fb24bab	1.3929342
11	0x3fae04ab	1.3595175
12	0x3f96edb7	1.1791295
13	0x3f9aa4d4	1.2081552
14	0x3fa71b64	1.3055234
15	0x3fbde2b7	1.4834813
16	0x3f894cf0	1.0726604
17	0x3f8ad705	1.0846869
18	0x3fa0660f	1.2531146
19	0x3f77169d	0.9651888
20	0x3fa65e9a	1.299762
21	0x3f833126	1.0249374
22	0x3faa4b70	1.3304272
23	0x3fa0002b	1.2500051
24	0x3f917f8c	1.1367049
25	0x3fb1134b	1.3834013
26	0x3fa71f48	1.3056421
27	0x3fa4ebda	1.2884476
28	0x3fa7d9a7	1.3113297
29	0x3f857f61	1.0429498
30	0x3f99e0ed	1.2021767
31	0x3fa4e153	1.2881263

layer2.bn2.bias f4 [32]
0	0x3db26091	0.08709825
1	0xbe379f83	-0.17931943
2	0xbd4059d7	-0.046960678
3	0xbe94bb3e	-0.29049104
4	0xbdccc9a5	-0.09999398
5	0xbe20a0fa	-0.15686408
6	0xbd912503	-0.070871376
7	0xbeda1e1f	-0.42601106
8	0xbe3d9eb9	-0.18517579
9	0xbdef9da6	-0.11699991
10	0xbdaf3ff2	-0.085571185
11	0xbeb915bb	-0.36149392
12	0xbd8605e5	-0.06544093
13	0xbe36d954	-0.17856342
14	0xbe11f0ad	-0.14251967
15	0x3c576cb1	0.013148473
16	0xbe3969ab	-0.18106715
17	0x3d12beb7	0.03582641
18	0xbe19e601	-0.15029146
19	0xbdd4301c	-0.10360739
20	0xbe0f726c	-0.14008492
21	0xbe3e8813	-0.18606596
22	0xbea1a7b1	-0.3157325
23	0xbe56daf8	-0.20981967
24	0xbe1fec94	-0.15617591
25	0x3df40fde	0.11917089
26	0xbe18c9f3	-0.14920788
27	0x3e1dc8fe	0.15408704
28	0xbcf10a2a	-0.029423792
29	0x3dc3295a	0.095293716
30	0xbe11a2bc	-0.14222234
31	0xbe14aabf	-0.1451826

layer2.bn2.running_mean f4 [32]
0	0xc023a847	-2.5571458
1	0xbf965b38	-1.1746588
2	0xc01bd40f	-2.434818
3	0xbfe1387d	-1.7595364
4	0xc009a80f	-2.1508825
5	0xbf075406	-0.52862585
6	0x401b5c3f	2.4275053
7	0xbfb7ab3f	-1.4349135
8	0x3e43444e	0.19069025
9	0xc0184828	-2.379404
10	0xbfb74c47	-1.4320153
11	0xbf93ee61	-1.1557122
12	0xbf29765d	-0.66196233
13	0xbfc462a7	-1.5342606
14	0x3df221c4	0.118228465
15	0xc0122691	-2.283604
16	0x3e6adf0c	0.22936648
17	0xbf8453e6	-1.0338104
18	0xc0728a9c	-3.78971
19	0x3f5dae9c	0.8659456
20	0xbf82c69a	-1.0216858
21	0x40171d02	2.3611455
22	0xbfc02efe	-1.5014341
23	0xbf0e11b2	-0.5549575
24	0x3ed514df	0.41617486
25	0xc098e375	-4.7777658
26	0xbf803640	-1.0016556
27	0x40042851	2.0649607
28	0xbf8b41e0	-1.0879478
29	0xc03a4b3c	-2.910842
30	0xbfba7708	-1.4567575
31	0xbfddf344	-1.7339864

layer2.bn2.running_var f4 [32]
0	0x4089e370	4.3090134
1	0x400860ab	2.1309001
2	0x40b0e32d	5.5277314
3	0x40187c2c	2.3825788
4	0x406af0c4	3.6709452
5	0x4033318b	2.7998989
6	0x405d8b44	3.461625
7	0x404428f8	3.0650005
8	0x4045642c	3.084239
9	0x40aed1fb	5.4631324
10	0x406cc9a8	3.6998081
11	0x404e6b9b	3.2253177
12	0x40615fc1	3.5214694
13	0x409bfa50	4.8743057
14	0x405a74dd	3.4133828
15	0x40a9c133	5.304834
16	0x402863ee	2.6310992
17	0x40a2ebdf	5.091293
18	0x40a058d2	5.0108423
19	0x408fd746	4.4950285
20	0x406f2d60	3.7371445
21	0x407c541d	3.9426339
22	0x40353d1a	2.8318543
23	0x40145a94	2.3180285
24	0x408a9b03	4.3314223
25	0x4097ac6b	4.739797
26	0x40a88086	5.265689
27	0x409bf0f1	4.873162
28	0x409313b8	4.596157
29	0x40663bfd	3.5974114
30	0x40647104	3.569398
31	0x40811175	4.033381
