Checkpoints/ResNet8_nckd_2.0_ResNet18_0.8506.pth (torch, 334858 bytes, 47 tensors)

conv1.weight f4 [16, 3, 3, 3]
0.018866964 0.2525302 0.14462453 -0.28788924 0.021484487 0.240451 -0.19097722 0.005391661
-0.08095896 -0.2195934 0.15274207 -0.18311602 -0.39147314 0.04336688 0.277523 -0.191036
0.2178599 0.201897 0.029270094 -0.01676509 -0.1309677 -0.15841654 -0.030105265 0.16240816
-0.115457855 0.2492743 0.041223146 0.08123924 0.022329006 0.31452727 -0.041124918 0.41909245
0.2479394 -0.13190503 0.16596384 -0.26012176 -0.18419293 -0.14282237 -0.06608069 -0.06832886
-0.10175352 -0.3176419 -0.13939396 -0.04124222 -0.05101265 0.10275062 -0.17359142 0.07300119
0.043319188 -0.0030407493 -0.20723936 0.17629217 0.19666609 0.050775904 0.27466872 -0.037457
0.10401365 -0.15471573 0.032955397 -0.30437756 -0.10044156 -0.12625007 -0.2977444 -0.06642719
0.02429269 0.046340957 -0.021641364 0.077928804 -0.09585142 0.106004536 -0.06683894 -0.110522464
-0.14935265 -0.22071886 -0.23091777 0.07089253 0.39972112 0.34054154 0.0036684899 0.30795205
0.25437889 0.37489378 0.069368206 0.14376813 -0.0712844 -0.56915855 -0.1363999 0.14609493
-0.16533361 0.062727205 0.11600817 -0.03588724 0.01972887 -0.2339096 -0.7406973 -0.03206438
0.11133373 -0.05866689 0.0877172 -0.12429212 0.06377814 0.05366838 0.18544817 -0.15073435
-0.021613544 0.054833096 0.07816096 0.06309866 -0.24429664 0.15814573 0.08786202 0.09678334
0.15637653 -0.28779596 0.121960886 0.18689857 -0.23685645 0.1428402 -0.09394519 -0.27413622
0.31021106 0.11542589 -0.42128265 0.07175945 0.006332226 0.0170244 0.21493146 0.010437461
0.029052503 0.19008674 0.027866416 -0.29189864 -0.10186884 0.10585484 -0.095720544 -0.13522594
-0.00977659 0.13961053 -0.18104556 -0.42731628 0.019583378 -0.052765857 0.20266227 0.34444258
0.065952614 0.25726363 0.14935409 0.15840591 -0.3493432 -0.0038500067 -0.051069096 0.08812061
-0.21663368 0.021732867 0.034885973 -0.12639421 0.15046656 -0.3371273 -0.002323131 0.025277175
0.3040948 -0.075583205 0.05293327 -0.14222345 -0.11447416 -0.13594149 0.4479384 0.0774688
-0.22594489 -0.025001325 0.010567422 -0.10584282 -0.041154638 -0.18059404 -0.036991406 0.54157865
-0.079581484 0.09463317 -0.19487102 0.02606517 0.019075051 -0.05934766 0.08248326 -0.13910088
0.5050577 -0.17774372 0.11214683 -0.1153735 -0.17528906 0.14518772 -0.25150448 -0.004929917
-0.0033447635 -0.15537176 0.07509993 -0.11061692 0.5101379 0.3697356 0.20231701 -0.30919266
-0.14592297 -0.12291837 -0.22138369 -0.13159996 -0.20771007 -0.14149567 0.0101949135 -0.035415832
-0.0056796814 0.12113078 0.2530765 -0.1724909 0.11401071 -0.03056911 0.12289896 0.14679354
-0.19500604 -0.0943443 0.09111279 0.16940156 -0.13134961 0.16277702 -0.07117938 0.25249615
0.028419835 -0.10903467 0.122717194 0.01935836 0.06218914 -0.40573663 -0.31145182 -0.0054978123
0.02001418 -0.0009808821 0.07218173 0.39891493 0.32209423 0.14887953 -0.095879965 -0.072796635
-0.011186077 -0.29070497 -0.3299887 0.12315578 -0.16889822 -0.1808501 0.048329484 -0.20136969
-0.04907953 0.08135319 0.24167533 -0.122837536 0.0058629927 0.06929288 0.4505633 -0.04078955
00000000: e48e 9a3c a34b 813e 7418 143e 3866 93be
00000010: 3c00 b03c c938 763e 888f 43be 88ac b03b
00000020: d0cd a5bd 18dd 60be 6b68 1c3e c482 3bbe
00000030: 2b6f c8be 78a1 313d 7f17 8e3e f19e 43be
00000040: aa16 5f3e 16be 4e3e d6c7 ef3c f156 89bc
00000050: 661c 06be f237 22be 519f f6bc 534e 263e
00000060: 2b75 ecbd c341 7f3e 9ad9 283d c260 a63d
00000070: 52eb b63c b809 a13e 9a72 28bd 4993 d63e
00000080: d3e3 7d3e 1d12 07be 6df2 293e ae2e 85be
00000090: 129d 3cbe 0740 12be 5055 87bd 00f0 8bbd
000000a0: 2664 d0bd f6a1 a2be 4abd 0ebe 9aed 28bd
000000b0: a4f2 50bd eb6e d23d f3c1 31be a681 953d
000000c0: 766f 313d 4f47 47bb 8e36 54be ef85 343e
000000d0: d662 493e 65fa 4f3d 61a1 8c3e 836c 19bd
000000e0: 1c05 d53d cd6d 1ebe 3dfc 063d 60d7 9bbe
000000f0: 4eb4 cdbd b347 01be f471 98be fb0a 88bd
00000100: 7701 c73c 04d0 3d3d 3b49 b1bc 2399 9f3d
00000110: c04d c4bd e818 d93d dbe2 88bd 9a59 e2bd
00000120: e7ef 18be 2004 62be b575 6cbe 1a30 913d
00000130: 3fa8 cc3e 765b ae3e 0c6b 703b e4ab 9d3e
00000140: f33d 823e 14f2 bf3e eb10 8e3d f437 133e
00000150: 8efd 91bd 60b4 11bf 6aac 0bbe e999 153e
00000160: 374d 29be 1f77 803d b195 ed3d 80fe 12bd
00000170: 709e a13c 0086 6fbe 579e 3dbf f055 03bd
00000180: f002 e43d b14c 70bd 13a5 b33d de8c febd
00000190: 1d9e 823d 60d3 5b3d 20e6 3d3e 1b5a 1abe
000001a0: e30e b1bc ab98 603d da12 a03d df39 813d
000001b0: e628 7abe f4f0 213e 01f1 b33d 5836 c63d
000001c0: 2b21 203e fe59 93be a1c6 f93d 5762 3f3e
000001d0: 7f8a 72be b444 123e 5666 c0bd 955b 8cbe
000001e0: fcd3 9e3e 6964 ec3d 5cb2 d7be 9ef6 923d
000001f0: 907e cf3b c176 8b3c fe16 5c3e e201 2b3c
00000200: 84ff ed3c 19a6 423e 1c48 e43c bd73 95be
00000210: 9ca0 d0bd 6cca d83d 2209 c4bd ab78 0abe
00000220: fe2d 20bc 10f6 0e3e 0264 39be 33c9 dabe
00000230: 526d a03c 0321 58bd b386 4f3e c75a b03e
00000240: 2a12 873d 0fb8 833e 47f0 183e 2935 223e
00000250: 1ddd b2be 6550 7cbb d42d 51bd 9478 b43d
00000260: 38d5 5dbe 2009 b23c 98e4 0e3d 7c6d 01be
00000270: e813 1a3e f39b acbe ac3f 18bb 1412 cf3c
00000280: 50b2 9b3e 5ecb 9abd 8ed0 583d 06a3 11be
00000290: 6e71 eabd 3f34 0bbe 2f58 e53e f6a7 9e3d
000002a0: 195e 67be 94cf ccbc fb22 2d3c 1fc4 d8bd
000002b0: c491 28bd a5ed 38be 4d84 17bd e6a4 0a3f
000002c0: 9efb a2bd 09cf c13d 458c 47be a086 d53c
000002d0: 4843 9c3c 8816 73bd fcec a83d 7670 0ebe
000002e0: 764b 013f 7302 36be 3dad e53d f148 ecbd
000002f0: fa7e 33be 17ac 143e 32c5 80be 248b a1bb
00000300: d233 5bbb c619 1fbe fecd 993d 208b e2bd
00000310: 6698 023f fc4d bd3e 312c 4f3e 804e 9ebe
00000320: d56c 15be a0bc fbbd 68b2 62be 24c2 06be
00000330: f3b1 54be 3ee4 10be 9108 273c 3110 11bd
00000340: 9f1c babb 6a13 f83d 3e93 813e 74a1 30be
00000350: 727e e93d 126c fabc 73b2 fb3d 0c51 163e
00000360: aaaf 47be 9637 c1bd 5899 ba3d 9a77 2d3e
00000370: 8380 06be 05af 263e 7fc6 91bd 2d47 813e
00000380: b7d0 e83c 924d dfbd 2753 fb3d 6c95 9e3c
00000390: 0aba 7e3d b6bc cfbe 9d76 9fbe fe26 b4bb
000003a0: c7f4 a33c f190 80ba 04d4 933d 943e cc3e
000003b0: 89e9 a43e e073 183e b75c c4bd 6716 95bd
000003c0: cf45 37bc 48d7 94be 47f4 a8be 1939 fc3d
000003d0: a8f3 2cbe c530 39be 23f5 453d db33 4ebe
000003e0: 9e07 49bd 809c a63d bd79 773e 3f92 fbbd
000003f0: 591e c03b 6de9 8d3d 3cb0 e63e f112 27bd

bn1.weight f4 [16]
0.86723304 0.40305454 0.44499364 1.08803 0.7972057 0.86675864 1.3314123 0.6069084
0.6662733 0.5516721 0.5207413 0.3640128 0.6771172 0.45018685 0.62396437 0.7839902
00000000: fc02 5e3f 2a5d ce3e 35d6 e33e 9144 8b3f
00000010: ac15 4c3f e5e3 5d3f b86b aa3f 595e 1b3f
00000020: e390 2a3f 623a 0d3f 4d4f 053f e35f ba3e
00000030: 8e57 2d3f e47e e63e 21bc 1f3f 95b3 483f

bn1.bias f4 [16]
0.28180823 0.2689857 0.19219504 -0.44835764 0.47907177 0.6016752 0.6330172 0.17024414
0.21182305 0.7169969 0.29055 0.15364565 -0.40842193 0.32353345 0.29497015 0.40892836
00000000: 2b49 903e 7eb8 893e c7ce 443e 228f e5be
00000010: e548 f53e 6307 1a3f 6a0d 223f 7b54 2e3e
00000020: 24e8 583e 1c8d 373f f8c2 943e 4955 1d3e
00000030: ae1c d1be 2da6 a53e 5406 973e 0f5f d13e

bn1.running_mean f4 [16]
-0.03918087 0.007945626 -0.031341694 0.29817867 -0.01998729 0.044030964 -0.071106546 0.044505715
0.09779687 0.0051794024 -0.008522297 0.007830829 0.20796975 -0.11890582 -0.08362574 -0.066739775
00000000: 1f7c 20bd 5f2e 023c 2660 00bd e0aa 983e
00000010: 63bc a3bc d059 343d 4fa0 91bd a04b 363d
00000020: ba49 c83d fab7 a93b 1ba1 0bbc e14c 003c
00000030: 06f6 543e e584 f3bd f943 abbd ddae 88bd

bn1.running_var f4 [16]
1.2494522 0.20144004 0.42831352 2.2231443 1.234778 0.30621886 0.49430034 0.55881435
0.5278653 0.11003753 0.5771841 0.15438764 2.1866255 0.4921293 2.6205924 0.5617997
00000000: 0dee 9f3f 4c46 4e3e e94b db3e ff47 0e40
00000010: 350d 9e3f b8c8 9c3e ef14 fd3e 750e 0f3f
00000020: 2e22 073f 5b5b e13d 56c2 133f cb17 1e3e
00000030: acf1 0b40 5ff8 fb3e c9b7 2740 1bd2 0f3f

layer1.conv1.weight f4 [16, 16, 3, 3]
0.12764122 0.55446136 0.08657486 -0.23097631 0.19949515 0.10876748 -0.26518363 0.0070663695
-0.02873411 -0.08819136 0.074710496 0.17555743 -0.19884206 -0.16130783 0.1778392 -0.045145612
-0.02457108 -0.23655099 0.058284685 0.21189694 -0.12732778 -0.1688341 0.0029810725 0.015628375
0.021150894 -0.11645599 0.031148419 0.04193238 -0.07552932 -0.22360285 0.4389725 0.34043628
0.2543678 -0.35964772 -0.088736534 0.071075276 0.023011655 0.20196337 -0.29958045 -0.13436057
0.17264822 0.08320235 -0.04224425 0.04184909 -0.049592063 -0.07502382 -0.006920026 0.10198552
0.074584104 0.082994886 0.032332443 -0.096523166 0.22619833 -0.12697652 0.16092253 0.24504834
0.06382638 -0.25437367 -0.027123755 -0.08883991 0.09782174 0.004309569 0.2174249 0.06713442
-0.13801208 -0.017170537 -0.0730359 -0.09235722 0.1602026 -0.05490426 -0.05441874 0.08220597
-0.06118175 -0.38203207 -0.030692045 0.25374234 0.15698734 0.0413594 -0.07458074 0.2168867
0.13643171 -0.2298651 0.045545153 0.19672634 -0.028867176 -0.06547294 -0.0008172137 -0.09739648
-0.08017468 -0.28166378 0.028659346 0.27393615 -0.011840465 -0.17758425 0.14809002 0.30720872
0.011478069 -0.12794039 0.08171411 0.4810039 0.5328554 0.071957335 -0.092311904 0.18937032
-0.04646718 -0.44626328 0.09963879 0.18352565 -0.011777807 0.13144167 -0.03319847 -0.06583279
-0.14972892 -0.21546918 0.113358736 0.36796725 0.09537673 -0.024254728 -0.09187966 -0.15071547
-0.034889646 -0.03923004 -0.1870157 0.18605526 0.15370454 -0.21027601 0.0048350985 0.043640193
-0.42188028 -0.05542199 0.047783013 0.018916171 -0.10302157 0.011834157 0.06275848 -0.17454326
0.108327694 -0.24306732 -0.27954468 0.138277 0.22354265 -0.07365521 0.21166918 0.12439007
0.090874255 -0.1938858 0.019307353 -0.038815614 -0.024334632 0.10144525 -0.01736965 0.0029388152
-0.069632694 0.18366255 0.23248564 0.1361981 0.16948324 0.06707664 -0.038269766 -0.27130616
-0.11007813 -0.0702819 -0.19026944 -0.10803106 -0.084653914 -0.15488829 -0.088367805 -0.01941364
0.11756976 0.2052289 0.38576543 -0.057623405 -0.029309053 0.026947653 -0.0050277817 0.09794327
0.11198181 0.18991086 -0.07411708 -0.009417313 0.07786405 0.041111995 0.105015114 0.004637355
-0.021734942 -0.16969511 0.04201007 -0.10514776 0.037004057 -0.11572455 -0.35527954 -0.32398635
0.10240574 0.47551462 0.38446283 -0.050092675 -0.066420995 -0.057157826 0.15652733 0.46880654
0.19236057 -0.22187218 -0.50631166 -0.52927816 0.100578405 0.20452534 0.36367667 -0.016015194
-0.10966749 -0.25057822 -0.0929176 0.035009407 -0.06214841 -0.036718648 0.07679343 0.043867435
0.094790325 -0.011450085 0.07547632 0.042007733 0.10822229 -0.030441971 -0.08461951 -0.29810116
-0.12201557 0.21797565 0.08181612 -0.05401963 -0.22306024 -0.17104848 -0.0040860283 0.08610232
0.19943087 -0.06379227 -0.06198501 -0.09456879 0.088780746 -0.009580668 -0.018632865 0.13078873
-0.03695772 -0.1298464 -0.053498335 -0.017226247 -0.29887307 -0.054793116 -0.018953701 0.2750942
0.31769633 -0.0150331 -0.057151914 -0.2644539 -0.111853346 -0.071580924 -0.19116227 0.06980481
00000000: 61b4 023e 2ef1 0d3f 294e b13d 0e85 6cbe
00000010: 7548 4c3e 7cc1 de3d 26c6 87be 018d e73b
00000020: cc63 ebbc ac9d b4bd d101 993d 54c5 333e
00000030: 419d 4bbe e12d 25be 7b1b 363e 9bea 38bd
00000040: 4a49 c9bc 6c3a 72be ecbb 6e3d 83fb 583e
00000050: 3762 02be d9e2 2cbe 195e 433b 1407 803c
00000060: a444 ad3c 7a80 eebd f82a ff3c 4ac1 2b3d
00000070: 1eaf 9abd 25f8 64be 01c1 e03e aa4d ae3e
00000080: 7f3c 823e bf23 b8be 80bb b5bd ea8f 913d
00000090: f082 bc3c 7ccf 4e3e 9c62 99be d195 09be
000000a0: b2ca 303e fe65 aa3d 4f08 2dbd f469 2b3d
000000b0: 0c21 4bbd 17a6 99bd 63c1 e2bb c9dd d03d
000000c0: 8dbf 983d 39f9 a93d 066f 043d f0ad c5bd
000000d0: 89a0 673e 2206 02be e0c8 243e f4ed 7a3e
000000e0: 68b7 823d 443d 82be a332 debc b3f1 b5bd
000000f0: c456 c83d 4937 8d3b a2a4 5e3e c57d 893d
00000100: 0a53 0dbe 3aa9 8cbc d993 95bd c825 bdbd
00000110: 260c 243e 4ae3 60bd 2fe6 5ebd 9b5b a83d
00000120: b799 7abd b599 c3be e26d fbbc 84ea 813e
00000130: 4ac1 203e 7968 293d c9bd 98bd 8c17 5e3e
00000140: c1b4 0b3e c261 6bbe 8e8d 3a3d a172 493e
00000150: db7a ecbc ad16 86bd 483a 56ba ce77 c7bd
00000160: 9f32 a4bd 3c36 90be 01c7 ea3c 5c41 8c3e
00000170: 82fe 41bc a5d8 35be e9a4 173e 764a 9d3e
00000180: 830e 3c3c ce02 03be ba59 a73d 2546 f63e
00000190: 3669 083f 5e5e 933d 060e bdbd 4bea 413e
000001a0: 5f54 3ebd 9f7c e4be 6c0f cc3d 26ee 3b3e
000001b0: b4f7 40bc a598 063e 1efb 07bd 58d3 86bd
000001c0: 8a52 19be f4a3 5cbe a028 e83d 3466 bc3e
000001d0: e054 c33d dab1 c6bc 672b bcbd 2855 1abe
000001e0: 72e8 0ebd aeaf 20bd 0b81 3fbe 4585 3e3e
000001f0: b964 1d3e 9852 57be bf6f 9e3b 0fc0 323d
00000200: b100 d8be 2b02 63bd 1fb8 433d 16f6 9a3c
00000210: f9fc d2bd 0de4 413c 8587 803d 78bb 32be
00000220: e9da dd3d a4e6 78be 7b20 8fbe 7c98 0d3e
00000230: 5de8 643e 8bd8 96bd cebf 583e 39c0 fe3d
00000240: 481c ba3d 008a 46be 742a 9e3c 1ffd 1ebd
00000250: 6c59 c7bc 87c2 cf3d cc4a 8ebc 2399 403b
00000260: 969b 8ebd 0912 3c3e b710 6e3e 8477 0b3e
00000270: 048d 2d3e 7a5f 893d c2c0 1cbd a4e8 8abe
00000280: a570 e1bd f5ef 8fbd fed5 42be 633f ddbd
00000290: 085f adbd 099b 1ebe 2efa b4bd 5b09 9fbc
000002a0: 6ac8 f03d 8627 523e 0c83 c53e 8506 6cbd
000002b0: 8a19 f0bc 53c1 dc3c 17c0 a4bb 7b96 c83d
000002c0: b856 e53d fe77 423e b2ca 97bd 134b 1abc
000002d0: 3077 9f3d 0d65 283d 2a12 d73d f4f4 973b
000002e0: 7a0d b2bc 8ec4 2dbe c012 2c3d b557 d7bd
000002f0: 9191 173d fe00 edbd 33e7 b5be 8ae1 a5be
00000300: 1aba d13d a776 f33e 50d8 c43e fa2d 4dbd
00000310: bb07 88bd 531e 6abd b348 203e 6907 f03e
00000320: 2bfa 443e 7632 63be a49d 01bf c67e 07bf
00000330: 0dfc cd3d 176f 513e d433 ba3e 4c32 83bc
00000340: 5999 e0bd ca4b 80be 954b bebd 0666 0f3d
00000350: 558f 7ebd 4b66 16bd e045 9d3d 57ae 333d
00000360: 6e21 c23d 2399 3bbc 5493 9a3d 4d10 2c3d
00000370: a6a3 dd3d 7161 f9bc fe4c adbd b7a0 98be
00000380: 4de3 f9bd 0235 5f3e 368f a73d b043 5dbd
00000390: e769 64be 5527 2fbe 17e4 85bb 6a56 b03d
000003a0: 9b37 4c3e 86a5 82bd fee3 7dbd 48ad c1bd
000003b0: aed2 b53d 3cf8 1cbc f3a3 98bc 7bed 053e
000003c0: fa60 17bd 74f6 04be 1221 5bbd 0f1e 8dbc
000003d0: e405 99be bf6e 60bd cb44 9bbc 26d9 8c3e
000003e0: 18a9 a23e 644d 76bc 2018 6abd 8066 87be
000003f0: 5e13 e5bd 0599 92bd 0bc0 43be d3f5 8e3d

layer1.bn1.weight f4 [16]
0.75345314 1.1998159 0.91701776 0.8522551 0.9114105 1.1527294 0.7217069 0.89121974
1.0676922 1.1403018 0.99650514 1.1163489 0.81150806 1.2507657 0.6909682 0.98451954
00000000: 4ee2 403f 9193 993f adc1 6a3f 642d 5a3f
00000010: 3352 693f a38c 933f c9c1 383f fa26 643f
00000020: 23aa 883f 69f5 913f f61a 7f3f 85e4 8e3f
00000030: febe 4f3f 1719 a03f 4be3 303f 7909 7c3f

layer1.bn1.bias f4 [16]
-0.013727531 -0.042251535 0.052950326 0.0081308475 0.10769717 -0.06897429 -0.017064331 0.31174734
-0.05365157 -0.14841746 0.23575932 -0.06011389 -0.13272814 0.14944226 0.025936922 -0.1498464
00000000: 70e9 60bc f20f 2dbd 71e2 583d 3f37 053c
00000010: 5590 dc3d 6442 8dbd 7fca 8bbc 599d 9f3e
00000020: c0c1 5bbd bffa 17be e46a 713e fb39 76bd
00000030: e3e9 07be 6407 193e ab79 d43c 5671 19be

layer1.bn1.running_mean f4 [16]
0.57448995 -0.048058573 -0.7473874 -0.25660923 0.43063888 -0.3151149 -0.39621753 -1.2538968
-0.107273996 -0.68147516 -1.4406933 -0.24730928 -1.3340347 -0.7069452 0.8313877 -0.31256703
00000000: c611 133f 11d9 44bd c854 3fbf 4962 83be
00000010: b37c dc3e bd56 a1be 06dd cabe b17f a0bf
00000020: 78b2 dbbd 2875 2ebf a368 b8bf a53e 7dbe
00000030: a6c1 aabf 5cfa 34bf d3d5 543f c908 a0be

layer1.bn1.running_var f4 [16]
1.4866676 6.4181323 1.0966914 0.7021184 3.1298711 5.4087677 0.92280537 1.5833697
2.5176117 1.2348397 2.7241938 4.2760615 1.0498214 3.0761921 2.404137 4.1865034
00000000: 204b be3f 5761 cd40 6260 8c3f 08be 333f
00000010: cf4f 4840 a014 ad40 f93c 6c3f dcab ca3f
00000020: 8d20 2140 3a0f 9e3f 3159 2e40 7fd5 8840
00000030: 8c60 863f 55e0 4440 61dd 1940 d6f7 8540

layer1.conv2.weight f4 [16, 16, 3, 3]
-0.0654322 -0.0461782 0.14315982 0.09785859 -0.053572696 0.21909434 0.12821251 0.05370779
0.18220922 0.036590505 -0.10706864 0.0046308143 -0.2745946 -0.11698571 -0.028494969 -0.20469129
-0.054136984 -0.076433994 0.24640805 0.19943164 -0.23730733 0.12359084 0.3803622 0.18872301
-0.15120761 0.26168877 0.48657 0.10594719 -0.08939042 -0.24631298 -0.09814625 -0.16585487
0.024227148 -0.24233231 -0.11700378 0.09945188 -0.29333332 -0.06548254 -0.10474177 -0.25283876
0.008912196 -0.06669987 -0.40059096 -0.23410839 -0.19774173 -0.11900391 0.041326437 0.019666959
-0.17726286 0.16088283 0.18688264 -0.117238134 0.29437193 0.12162172 -0.099751085 -0.20212573
-0.061065387 -0.006584035 -0.2859471 -0.20759162 0.02755041 -0.102640435 0.042850494 -0.02307892
0.31539574 0.358219 -0.087105505 0.27925497 0.3032862 -0.11873427 0.042866573 0.059524328
0.2447619 0.0152531825 -0.05476546 0.22057664 0.15124099 -0.06280176 0.090241335 0.23365726
0.17206709 0.16326183 -0.0014482761 -0.17934635 0.10269336 0.07991012 -0.041563682 -0.061000593
-0.0841547 -0.06599362 0.11267011 -0.13995671 -0.03936642 0.13176768 -0.15606844 -0.023221053
0.061442513 0.030443339 0.0053520044 0.29290876 0.07058106 -0.27646998 0.10578368 0.107582
0.045521338 0.06417909 0.29623243 0.34112743 -0.20130041 0.14578407 0.14970312 -0.04040755
0.07426346 0.12168781 0.13092032 0.1879723 0.34893045 0.08685881 0.09664553 0.060369182
0.122864135 0.2748168 0.2365628 0.037744448 0.09151674 0.007793759 0.1296433 0.09563231
0.070981055 0.050411068 0.17715725 0.08280914 -0.07265866 -0.07571885 0.069381446 0.03967782
0.028539907 0.07868144 -0.08767419 -0.046100423 0.2134085 -0.039272796 0.1426705 0.31879473
0.02434981 0.07079578 0.1706212 0.020093286 0.23116231 0.101654336 0.09109451 0.17828968
0.034959223 -0.39837134 -0.40566388 -0.25761238 -0.5235897 -0.366157 -0.23598608 -0.34606725
-0.24830304 -0.055953234 -0.18672031 -0.13866639 0.09581337 -0.03977311 0.041274592 0.13045567
0.31752264 0.15730822 0.093785405 -0.10761328 -0.180566 -0.11444181 -0.15343373 -0.3113434
-0.13374466 -0.065754704 -0.3670798 -0.14246577 -0.059299406 -0.17793712 -0.27258727 0.030067451
0.030792229 0.05566206 -0.010422972 -0.027339404 0.034407496 0.19974971 0.080321975 0.039957352
0.105547406 0.0035663638 0.11287855 0.08470735 0.017303895 -0.041774757 -0.18478681 -0.015060513
0.32044882 -0.26295137 -0.22987822 0.19844912 -0.18341047 -0.2951542 -0.13041134 -0.1339527
-0.45092264 -0.038060404 -0.17642352 -0.43287978 -0.42100838 -0.014333778 -0.19847496 -0.39032084
0.022051929 -0.041108128 0.045008797 -0.019978924 0.052269302 0.112889916 -0.05514128 -0.028583426
0.09992342 0.03138928 0.11874352 0.035122115 0.14336377 0.16570441 0.103821 0.12682448
0.17676729 0.14313102 -0.086252764 -0.15365812 -0.071560696 0.12448734 -0.027142141 -0.053969335
0.1585949 0.28586528 0.07088479 -0.17474973 0.08778776 0.2757592 -0.033194877 -0.09531569
0.14975716 -0.12020354 -0.19925497 -0.0441117 -0.035923257 -0.20736998 -0.11425701 0.094166815
00000000: 5101 86bd 5a25 3dbd 7d98 123e 166a c83d
00000010: 0b6f 5bbd 445a 603e 244a 033e b3fc 5b3d
00000020: 0e95 3a3e eddf 153d ce46 dbbd 16be 973b
00000030: aa97 8cbe 3496 efbd 486e e9bc 989a 51be
00000040: bebe 5dbd 6d89 9cbd 6452 7c3e cf37 4c3e
00000050: b100 73be 321d fd3d d6be c23e 9b40 413e
00000060: 2bd6 1abe 12fc 853e b41f f93e d7fa d83d
00000070: 5312 b7bd 7839 7cbe e700 c9bd dcd5 29be
00000080: 0378 c63c f625 78be ae9f efbd 6dad cb3d
00000090: c92f 96be b61b 86bd da82 d6bd 1574 81be
000000a0: 7604 123c f199 88bd 421a cdbe 1cba 6fbe
000000b0: cf7c 4abe 52b8 f3bd e945 293d 9a1c a13c
000000c0: 6584 35be 78be 243e 2a5e 3f3e 8c1a f0bd
000000d0: ebb7 963e cf14 f93d 4c4a ccbd 0cfa 4ebe
000000e0: b31f 7abd e4be d7bb a967 92be e692 54be
000000f0: 66b1 e13c 2635 d2bd 0084 2f3d 0110 bdbc
00000100: 8d7b a13e 7b68 b73e 5f64 b2bd 82fa 8e3e
00000110: 5448 9b3e f42a f3bd dc94 2f3d c8cf 733d
00000120: dda2 7a3e 7ce8 793c bf51 60bd d8de 613e
00000130: ebde 1a3e 369e 80bd 73d0 b83d d943 6f3e
00000140: 5b32 303e 1c2e 273e 15d4 bdba 92a6 37be
00000150: e550 d23d eba7 a33d ae3e 2abd c2db 79bd
00000160: 4d59 acbd aa27 87bd 96bf e63d d050 0fbe
00000170: af3e 21bd 1bee 063e 68d0 1fbe 143a bebc
00000180: 25ab 7b3d 4f64 f93c de5f af3b 23f8 953e
00000190: ce8c 903d 798d 8dbe 1da5 d83d f453 dc3d
000001a0: 9574 3a3d 5470 833d c7ab 973e 41a8 ae3e
000001b0: b221 4ebe 6b48 153e c64b 193e 6382 25bd
000001c0: 7117 983d 7537 f93d fa0f 063e d07b 403e
000001d0: 03a7 b23e 08e3 b13d 17ee c53d ad45 773d
000001e0: 31a0 fb3d cab4 8c3e 853d 723e ec99 1a3d
000001f0: 216d bb3d ca62 ff3b 37c1 043e dfda c33d
00000200: 845e 913d d67b 4e3d b668 353e d797 a93d
00000210: 10ce 94bd 7c12 9bbd dc17 8e3d 3685 223d
00000220: 86cc e93c bc23 a13d 878e b3bd ccd3 3cbd
00000230: c287 5a3e 83dc 20bd 3718 123e 1039 a33e
00000240: 4179 c73c 61fd 903d 53b7 2e3e ad9a a43c
00000250: d0b5 6c3e 2630 d03d c28f ba3d 9291 363e
00000260: 6731 0f3d 54f7 cbbe 2db3 cfbe c5e5 83be
00000270: f909 06bf ee78 bbbe 56a6 71be ba2f b1be
00000280: 2743 7ebe 382f 65bd 9c33 3fbe 90fe 0dbe
00000290: cd39 c43d 21e9 22bd 8c0f 293d 2c96 053e
000002a0: 5492 a23e 6815 213e 9012 c03d 5a64 dcbd
000002b0: 4be6 38be 7860 eabd bb1d 1dbe 6768 9fbe
000002c0: 5cf4 08be 67aa 86bd e2f1 bbbe 8ce2 11be
000002d0: efe3 72bd 2635 36be 8f90 8bbe 0450 f63c
000002e0: fc3f fc3c e6fd 633d 1dc5 2abc e3f6 dfbc
000002f0: e0ee 0c3d 308b 4c3e d97f a43d 52aa 233d
00000300: 3d29 d83d a8b9 693b df2c e73d 0c7b ad3d
00000310: e6c0 8d3c 021c 2bbd c138 3dbe 5fc0 76bc
00000320: de11 a43e 90a1 86be 3265 6bbe 3f36 4b3e
00000330: f4cf 3bbe 741e 97be 8d8a 05be e62a 09be
00000340: 55df e6be 3ae5 1bbd 5ea8 34be 6ba2 ddbe
00000350: 698e d7be 39d8 6abc 053d 4bbe 22d8 c7be
00000360: 3fa6 b43c ff60 28bd 255b 383d d7aa a3bc
00000370: 5618 563d d432 e73d d3db 61bd ca27 eabc
00000380: a6a4 cc3d 0c92 003d cd2f f33d 35dc 0f3d
00000390: f4cd 123e 6bae 293e 1ba0 d43d 47de 013e
000003a0: 7c02 353e f090 123e 4aa5 b0bd 8e58 1dbe
000003b0: 6a8e 92bd 38f3 fe3d 3259 debc f30e 5dbd
000003c0: b466 223e ef5c 923e 0b2c 913d 98f1 32be
000003d0: 12ca b33d 4f30 8d3e 5af7 07bd df34 c3bd
000003e0: f159 193e 462d f6bd 7f09 4cbe 78ae 34bd
000003f0: 4424 13bd cc58 54be 94ff e9bd 88da c03d

layer1.bn2.weight f4 [16]
0.841949 1.1121534 1.2522852 0.7336723 1.0095798 1.0300652 1.4268037 0.84214765
0.8200096 0.97507244 0.9545191 1.710663 1.205743 1.4011638 0.8769548 1.1500307
00000000: f889 573f 0b5b 8e3f e24a a03f f3d1 3b3f
00000010: e939 813f 2dd9 833f 81a1 b63f fd96 573f
00000020: 26ec 513f 599e 793f 5d5b 743f 01f7 da3f
00000030: c955 9a3f 5659 b33f 1c80 603f 3534 933f

layer1.bn2.bias f4 [16]
0.04792025 0.44726583 0.21530996 0.58307743 0.19350213 0.3884988 0.24550918 0.0895802
0.039801 0.06941845 0.43139207 -0.21266854 0.3051288 -0.23439586 0.5443687 -0.44964954
00000000: 0648 443d 0700 e53e 377a 5c3e 9044 153f
00000010: 6c25 463e 51e9 c63e c266 7b3e d375 b73d
00000020: 6006 233d 432b 8e3d 6cdf dc3e c8c5 59be
00000030: d839 9c3e 7805 70be bf5b 0b3f 7738 e6be

layer1.bn2.running_mean f4 [16]
1.594715 -1.8421177 -0.4842821 -0.8446651 -0.019383367 0.09212819 -0.65621454 0.6122506
0.39193487 0.96948826 -1.2665169 -0.019669486 -0.79918414 -2.0521104 0.28569382 -0.08134976
00000000: 9f1f cc3f 83ca ebbf d3f3 f7be f93b 58bf
00000010: dec9 9ebc b4ad bc3d adfd 27bf 75bc 1c3f
00000020: b0ab c83e 6230 783f 3a1d a2bf e721 a1bc
00000030: 5597 4cbf c755 03c0 7646 923e b49a a6bd

layer1.bn2.running_var f4 [16]
1.9016998 2.380573 2.667533 2.799857 2.195508 2.1418622 3.7560391 2.1622558
1.5568236 2.8418245 2.5013385 3.4279492 2.9846404 4.9694757 2.7636397 1.3395189
00000000: e66a f33f 4f5b 1840 dcb8 2a40 db30 3340
00000010: 3483 0c40 4514 0940 f262 7040 6662 0a40
00000020: ff45 c73f 74e0 3540 ee15 2040 8563 5b40
00000030: 5904 3f40 f205 9f40 79df 3040 5b75 ab3f

layer2.conv1.weight f4 [32, 16, 3, 3]
0.18164602 0.1009722 -0.1365078 0.28801766 -0.043059256 -0.18687594 0.25441867 -0.099732466
-0.31228808 -0.08157349 0.03260234 0.4647883 -0.11760136 0.026305541 0.29736504 -0.21475558
0.06960991 0.11800665 -0.12230848 0.0033851543 -0.03827318 -0.119747706 0.016245846 -0.13786195
-0.11248854 0.01805769 -0.2008411 0.3594942 0.29750007 0.3128153 0.25617936 0.03416675
0.05048126 0.34710124 -0.14057298 -0.16152863 -0.102169506 -0.039453942 0.52966636 0.06513988
0.14576715 0.22744837 0.21590908 0.055229224 -0.145941 -0.120778956 0.1089607 0.2126394
-0.08159427 0.15484786 0.37019148 0.44293103 0.38717747 0.37656185 -0.049017284 -0.03588844
0.118599065 0.008337415 0.14309964 0.20527433 0.0587744 0.05554519 0.03209392 -0.17115854
0.20689064 0.10845375 -0.20512737 0.16511303 0.1164907 -0.20065013 -0.0674803 0.122088976
0.3499488 0.098914236 -0.13086389 0.113677785 0.043889597 -0.17655294 -0.119776785 -0.15541066
-0.02112988 -0.019251494 -0.050466467 0.06944639 -0.16801217 -0.013463346 0.13532962 -0.2960073
-0.19584927 0.01757698 -0.17414069 -0.018290872 0.13333377 -0.2605964 0.017300792 0.09782694
-0.24739023 0.04219926 0.23471323 0.02478028 0.08153658 0.08548799 0.07100373 0.20221956
0.08264314 0.12332858 -0.013679422 -0.024695959 0.10348119 0.004499897 -0.0035264972 0.15514672
-0.07210355 -0.10416205 -0.048862994 -0.087530404 -0.10899781 0.043497995 -0.10400959 -0.10532097
-0.037077483 -0.18084845 -0.15920185 -0.02339616 -0.1416133 -0.13246024 -0.20831412 -0.16729397
0.26691824 -0.08192455 -0.2055719 0.0024421967 0.03039516 -0.18314368 -0.20951027 0.21620959
0.19832714 -0.016899535 0.09538199 0.26630053 0.05536952 -0.05378062 -0.052221492 -0.094414614
-0.35366336 -0.020028055 0.14595126 -0.37986022 -0.113036126 0.09577019 -0.23426159 -0.020148838
-0.048181966 0.07320516 0.077148214 0.009136771 -0.05155261 0.026418021 -0.0025030929 -0.1991357
-0.14214148 0.0558166 0.032837547 -0.057308458 -0.05743926 0.0073881876 -0.087668315 0.10298903
-0.0019174225 -0.07300775 0.12020308 -0.21909675 -0.033631306 -0.13123865 -0.019378318 0.12359061
-0.08492789 0.19605707 0.32293183 -0.029783815 -0.15696286 -0.1431743 0.015154325 -0.20126298
0.08691919 0.14075555 -0.16502833 0.103772424 0.21427654 -0.107898526 0.14698702 0.119525135
-0.03666674 0.11281219 0.07986846 0.029526861 0.053212438 -0.04556409 0.077092424 0.13595864
-0.06897968 0.12913227 0.19218327 0.03754065 0.19575976 0.16197091 0.044971168 -0.15206122
-0.058830485 0.061899718 -0.03477108 0.02805477 0.121810295 0.003197883 0.07673972 0.084219754
-0.113967404 0.06871733 0.13070033 0.13035865 0.25859082 0.2685725 0.4440872 0.49597588
0.28957343 -0.09376468 -0.07083438 0.07249766 -0.07328854 -0.09422254 -0.03496181 -0.12982368
0.042445272 0.20335339 -0.07064402 -0.068102546 0.0455892 0.022234801 -0.018419603 0.023793261
0.07809119 0.053872243 0.028877744 -0.21239957 -0.40081337 -0.25150523 -0.41153812 -0.5423895
-0.3578157 -0.30760905 -0.3803488 -0.18368281 -0.068803966 -0.014643939 -0.016449926 0.023761595
00000000: 6a01 3a3e 83ca ce3d b3c8 0bbe 0d77 933e
00000010: e75e 30bd 685c 3fbe 2a43 823e 8940 ccbd
00000020: 39e4 9fbe 0010 a7bd 088a 053d bbf8 ed3e
00000030: fbd8 f0bd b87e d73c 3b40 983e e3e8 5bbe
00000040: a48f 8e3d 78ad f13d de7c fabd 77d9 5d3b
00000050: 57c4 1cbd 493e f5bd 0216 853c af2b 0dbe
00000060: 6460 e6bd b8ed 933c 4aa9 4dbe a00f b83e
00000070: ee51 983e 5429 a03e f129 833e 6ff2 0b3d
00000080: 70c5 4e3d 41b7 b13e 5df2 0fbe c367 25be
00000090: 3f3e d1bd 759a 21bd 3798 073f 0f68 853d
000000a0: fc43 153e 3ae8 683e 4517 5d3e 0a38 623d
000000b0: 8f71 15be f55a f7bd ca26 df3d 25be 593e
000000c0: e61a a7bd 7090 1e3e bd89 bd3e dbc7 e23e
000000d0: 203c c63e b7cc c03e 59c6 48bd c2ff 12bd
000000e0: 11e4 f23d a799 083c b688 123e 6f33 523e
000000f0: 6dbd 703d 5a83 633d ea74 033d 2f44 2fbe
00000100: 24db 533e 001d de3d e90c 52be 6413 293e
00000110: ad92 ee3d 3a77 4dbe 1d33 8abd c909 fa3d
00000120: 7d2c b33e 8c93 ca3d 2f01 06be e6cf e83d
00000130: 94c5 333d 4bca 34be 884d f5bd f923 1fbe
00000140: 9218 adbc 4fb5 9dbc edb5 4ebd e939 8e3d
00000150: 620b 2cbe 5e95 5cbc d993 0a3e 458e 97be
00000160: b68c 48be 99fd 8f3c f051 32be bdd6 95bc
00000170: a688 083e e46c 85be 64ba 8d3c 7e59 c83d
00000180: dd53 7dbe 22d9 2c3d aa58 703e 0400 cb3c
00000190: a7fc a63d 5414 af3d 676a 913d a512 4f3e
000001a0: ce40 a93d b293 fc3d a81f 60bc 2e4f cabc
000001b0: f2ed d33d df73 933b ce1c 67bb c8de 1e3e
000001c0: 07ab 93bd ea52 d5bd 9024 48bd 2443 b3bd
000001d0: 3e3a dfbd f42a 323d fb02 d5bd 85b2 d7bd
000001e0: 8fde 17bd 5630 39be cf05 23be 4ea9 bfbc
000001f0: 1403 11be a8a3 07be 4c50 55be 1c4f 2bbe
00000200: 82a9 883e 0fc8 a7bd 7181 52be 430d 203b
00000210: 45ff f83c 048a 3bbe dc89 56be 0c66 5d3e
00000220: 4516 4b3e e570 8abc a257 c33d 8b58 883e
00000230: 26cb 623d 1149 5cbd 34e6 55bd 735c c1bd
00000240: 5d13 b5be e011 a4bc 3f74 153e 0a7d c2be
00000250: 7c7f e7bd 2923 c43d 45e2 6fbe 2d0f a5bc
00000260: 745a 45bd 96ec 953d e2ff 9d3d 65b2 153c
00000270: d428 53bd 9b6a d83c ee0a 24bb 3bea 4bbe
00000280: 898d 11be f29f 643d aa80 063d 46bc 6abd
00000290: 6e45 6bbd 9c18 f23b 728b b3bd eaeb d23d
000002a0: 0652 fbba 1685 95bd 082d f63d e65a 60be
000002b0: fbc0 09bd 6d63 06be 47bf 9ebc 131d fd3d
000002c0: acee adbd 2fc3 483e 5257 a53e 30fd f3bc
000002d0: dfba 20be 499c 12be d949 783c e217 4ebe
000002e0: b002 b23d 3922 103e 30fd 28be a386 d43d
000002f0: 4f6b 5b3e e7f9 dcbd c483 163e 98c9 f43d
00000300: dd2f 16bd 140a e73d 1392 a33d 51e2 f13c
00000310: 49f5 593d 69a1 3abd a2e2 9d3d be38 0b3e
00000320: 3845 8dbd 403b 043e b1cb 443e 3ac4 193d
00000330: 3f75 483e b4db 253e b033 383d f0b5 1bbe
00000340: 3cf8 70bd 8f8a 7d3d 1f6c 0ebd 1ed3 e53c
00000350: ad77 f93d 9393 513b b729 9d3d 687b ac3d
00000360: be67 e9bd acbb 8c3d 4fd6 053e bd7c 053e
00000370: 0466 843e 5682 893e 665f e33e 8df0 fd3e
00000380: f842 943e b207 c0bd 9e11 91bd a779 943d
00000390: 4d18 96bd bff7 c0bd 1d34 0fbd 80f0 04be
000003a0: 18db 2d3d df3b 503e d0ad 90bd 5979 8bbd
000003b0: bebb 3a3d c225 b63c b5e4 96bc 16ea c23c
000003c0: 46ee 9f3d 24a9 5c3d 0591 ec3c 467f 59be
000003d0: 6937 cdbe 4bc5 80be 20b5 d2be 0ada 0abf
000003e0: 9f33 b7be ef7e 9dbe 14bd c2be 5917 3cbe
000003f0: 18e9 8cbd 22ed 6fbc ffc1 86bc ada7 c23c

layer2.bn1.weight f4 [32]
0.8017391 0.92085916 0.7987537 1.0735722 0.84597796 1.0259565 0.8926943 0.79870516
0.8762401 1.0989685 0.86203706 1.0479414 0.8865729 0.8158709 1.1593965 0.8944149
1.1265059 0.8723523 1.2329326 0.8410758 0.81123996 0.85575134 1.3545731 1.2513461
0.8806203 0.8763609 0.9350645 1.0180068 0.9054123 1.0106819 0.7905664 0.9853428
00000000: c63e 4d3f 6dbd 6b3f 1f7b 4c3f d06a 893f
00000010: 0392 583f 8b52 833f 9d87 643f f177 4c3f
00000020: 4551 603f 00ab 8c3f 76ae 5c3f f222 863f
00000030: 71f6 623f eadc 503f 1b67 943f 60f8 643f
00000040: 5831 903f 7b52 5f3f bcd0 9d3f be50 573f
00000050: 6cad 4f3f 8512 5b3f a762 ad3f 1c2c a03f
00000060: 5570 613f 3059 603f 6360 6f3f 0c4e 823f
00000070: 1ac9 673f 065e 813f 8f62 4a3f 6d3f 7c3f

layer2.bn1.bias f4 [32]
0.02952805 0.010579968 -0.09574245 -0.07272685 -0.3015928 -0.034125928 0.09602006 -0.051727425
-0.22779801 0.032899883 -0.1601819 -0.16611846 -0.011406136 -0.33129993 -0.07965083 -0.36307728
-0.2709162 -0.23762748 -0.2836453 -0.24131884 -0.07013564 0.05239859 -0.24864823 -0.19044761
-0.14827202 -0.1910035 -0.1413601 -0.07447691 -0.2963448 -0.055895235 -0.31395248 -0.2518499
00000000: cfe4 f13c 9a57 2d3c 9e14 c4bd d1f1 94bd
00000010: 5f6a 9abe a1c7 0bbd 2aa6 c43d 23e0 53bd
00000020: e243 69be 07c2 063d b906 24be f51a 2abe
00000030: cde0 3abc 25a0 a9be f91f a3bd 44e5 b9be
00000040: 87b5 8abe 9e54 73be f539 91be 491c 77be
00000050: 46a3 8fbd e79f 563d a49d 7ebe b304 43be
00000060: 9fd4 17be 6c96 43be b4c0 10be 5a87 98bd
00000070: 81ba 97be 67f2 64bd 61be a0be 78f2 80be

layer2.bn1.running_mean f4 [32]
3.455581 -0.0030996553 -3.8814266 -4.640024 0.4985637 -2.4016619 -10.450911 0.11024066
-3.5553184 -5.707001 -3.387915 -4.6439066 -1.6883285 1.1253647 -1.1759229 -0.40855482
-0.6761783 -5.9456635 -2.792425 0.8743809 -1.4704157 -3.8512185 -4.5062413 -0.54065305
-1.9958388 -4.664572 1.833068 -0.83147246 -1.9575716 -6.854745 -4.81406 -0.06433856
00000000: 3d28 5d40 9623 4bbb 4b69 78c0 147b 94c0
00000010: be43 ff3e d4b4 19c0 ee36 27c1 dbc5 e13d
00000020: 568a 63c0 c19f b6c0 99d3 58c0 e29a 94c0
00000030: 261b d8bf f30b 903f a484 96bf 192e d1be
00000040: 051a 2dbf e042 bec0 17b7 32c0 6dd7 5f3f
00000050: 9536 bcbf 5d7a 76c0 2133 90c0 3d68 0abf
00000060: a577 ffbf 2c44 95c0 f9a1 ea3f 61db 54bf
00000070: b591 fabf 125a dbc0 c80c 9ac0 efc3 83bd

layer2.bn1.running_var f4 [32]
7.7191024 7.069341 4.575764 12.172257 5.2812147 11.770272 10.792315 8.547193
4.5334597 10.986313 4.6343493 11.521653 13.4172535 8.238965 10.59414 6.9057055
7.7173476 4.9138255 8.243244 5.171599 3.63812 6.606022 11.512945 12.849355
6.3673286 3.6191313 4.3537936 7.343568 2.624172 8.909288 9.013243 6.004369
00000000: e302 f740 0b38 e240 a96c 9240 91c1 4241
00000010: b6ff a840 0953 3c41 52ad 2c41 4dc1 0841
00000020: 1a12 9140 f0c7 2f41 974c 9440 b158 3841
00000030: 12ad 5641 cdd2 0341 9981 2941 8afb dc40
00000040: 83f4 f640 0f3e 9d40 54e4 0341 bd7d a540
00000050: f5d6 6840 8864 d340 0635 3841 f596 4d41
00000060: 28c1 cb40 d99f 6740 4752 8b40 82fe ea40
00000070: 6ff2 2740 728c 0e41 3e36 1041 ca23 c040

layer2.conv2.weight f4 [32, 32, 3, 3]
-0.41405517 -0.13593253 0.07652846 0.078469254 0.18793522 0.10246638 -0.013565841 0.14077646
0.11377906 -0.05835692 0.03688986 0.013366064 -0.14458431 0.069754064 0.04535263 -0.08288588
0.029484201 -0.19879298 -0.073499426 -0.122581184 0.026299773 -0.039406106 -0.15567566 -0.010575529
-0.06347151 -0.051419336 -0.046349213 0.048985388 -0.09584148 -0.27176607 0.14304994 0.0012090115
-0.29288226 0.017906062 -0.033963338 -0.29425085 -0.30087727 -0.1844006 -0.1488765 -0.40697512
-0.12804858 -0.11091985 -0.2453391 -0.08034638 -0.18719937 -0.1239731 -0.019555163 0.1964394
-0.124146186 -0.11463503 0.028567085 -0.038631808 -0.03675031 0.09763456 0.3131047 0.08130175
-0.16862994 0.15062031 0.040051933 -0.25809467 0.12378173 0.07513816 -0.29281065 -0.26490372
-0.28796446 -0.027579835 0.075151734 0.13864088 0.061800066 -0.10810985 -0.071028724 0.03153892
0.01301346 0.22079462 -0.19828145 -0.03952712 0.19581133 0.103744954 -0.063324794 0.044450123
0.030426746 0.17969953 0.07450414 -0.094104216 0.12112304 0.066529185 -0.11948369 -0.11156902
0.0067638876 -0.13501193 0.19904207 -0.04427614 -0.2991759 0.22894259 0.07387037 -0.07907339
0.31265017 0.15614532 0.16159143 0.0010904405 -0.026352908 -0.10806797 0.13177386 0.16197735
0.012350686 0.0068977615 -0.090950675 -0.11789103 -0.004000579 0.1294848 -0.11780271 -0.03470297
0.0056889947 -0.14807302 -0.013181458 0.0015197558 -0.15625226 -0.23451199 0.015132705 0.10021852
0.15599178 0.35178107 0.16205467 0.16014463 0.24995011 -0.11894808 0.20486215 0.05789013
-0.21334298 0.21956201 0.12674831 -0.21846369 -0.04910957 -0.0992229 0.04812126 -0.33917314
-0.26612985 -0.015653146 0.090340555 0.1173129 0.17290807 0.16773432 0.02822685 0.1091643
-0.23689091 -0.033442993 0.30201054 -0.21641228 -0.024173373 0.06673241 -0.13840456 -0.22492008
-0.25158525 0.06635046 0.11086216 0.23141326 0.07746172 0.23590243 0.26042286 -0.11657821
0.2581798 0.26508695 -0.059726696 -0.16004963 -0.07538846 0.19166502 -0.081881166 -0.017679716
0.027555509 -0.14547838 -0.08871921 0.22353882 0.23739128 -0.1530943 0.11481499 0.22691359
-0.017774561 -0.12832387 0.061110444 0.19593555 -0.042490296 -0.045235056 -0.39814812 -0.10344079
0.053704306 0.011141099 -0.037513744 0.2501785 0.31532317 -0.07164076 -0.12489159 -0.31460944
0.012898209 0.007424401 -0.13555513 0.34295425 0.11140097 -0.1911481 0.27368397 0.21938741
-0.19112505 -0.0051128683 0.0605652 -0.2560522 -0.040535513 -0.13640217 -0.4792954 -0.17924981
-0.09168293 0.22593516 -0.19802131 -0.09258086 0.14729027 -0.65245974 -0.64620984 -0.51370394
-0.34464118 -0.15014507 0.044622287 -0.25609335 -0.24448508 -0.13463418 -0.10731655 -0.3136161
-0.11588266 0.03220375 0.00042301966 0.11832985 -0.077904895 0.08566764 0.053324524 -0.40699112
-0.1962765 -0.049135167 -0.12238145 -0.082268596 0.102768965 -0.15178156 0.014889407 0.0852208
-0.2157369 -0.3401345 -0.20987211 0.07404788 0.052766614 -0.19152884 0.15617384 0.021146674
-0.12879674 0.11862532 -0.07598081 -0.118082695 0.03254794 0.039008155 0.25453544 -0.051880177
00000000: 0aff d3be e631 0bbe f4ba 9c3d 7db4 a03d
00000010: 1772 403e e5d9 d13d 4343 5ebc b427 103e
00000020: ff04 e93d aa07 6fbd d219 173d 56fd 5a3c
00000030: e90d 14be 38db 8e3d aec3 393d 12c0 a9bd
00000040: da88 f13c 6390 4bbe de86 96bd d80b fbbd
00000050: 9f72 d73c 4c68 21bd 7169 1fbe fc44 2dbc
00000060: 5afd 81bd 159d 52bd acd8 3dbd e7a4 483d
00000070: 8a48 c4bd ec24 8bbe af7b 123e b277 9e3a
00000080: aaf4 95be bcaf 923c 241d 0bbd 0ca8 96be
00000090: 960c 9abe 83d3 3cbe 1573 18be 0b5f d0be
000000a0: 2b1f 03be f229 e3bd 2c3a 7bbe a58c a4bd
000000b0: 31b1 3fbe 9ce5 fdbd 2632 a0bc 6927 493e
000000c0: 5b40 febd c5c5 eabd 8505 ea3c 633c 1ebd
000000d0: 7e87 16bd a1f4 c73d 424f a03e 8881 a63d
000000e0: 54ad 2cbe 363c 1a3e 7f0d 243d fc24 84be
000000f0: 4781 fd3d 09e2 993d 47eb 95be 76a1 87be
00000100: 1470 93be 1bef e1bc 27e9 993d e0f7 0d3e
00000110: 1122 7d3d b268 ddbd 8277 91bd f42e 013d
00000120: 6836 553c fc17 623e 4b0a 4bbe 30e7 21bd
00000130: c482 483e 3c78 d43d 6eb0 81bd 5511 363d
00000140: 8341 f93c 2703 383e a095 983d b6b9 c0bd
00000150: 5b0f f83d 7440 883d ddb3 f4bd 4c7e e4bd
00000160: 9aa3 dd3b 9140 0abe afd1 4b3e e65a 35bd
00000170: 952d 99be ed6f 6a3e 5949 973d 3bf1 a1bd
00000180: af13 a03e 8fe4 1f3e 3978 253e 1ded 8e3a
00000190: 0ee2 d7bc bd52 ddbd baef 063e 64dd 253e
000001a0: 885a 4a3c 9e06 e23b 5944 babd da70 f1bd
000001b0: 4a17 83bb aa97 043e 8c42 f1bd b424 0ebd
000001c0: bf6a ba3b 74a0 17be 0bf7 57bc 8b32 c73a
000001d0: 9800 20be e923 70be 2aef 773c 5e3f cd3d
000001e0: 4fbc 1f3e a61c b43e a9f1 253e f4fc 233e
000001f0: ecf2 7f3e 0d9b f3bd 62c7 513e 331e 6d3d
00000200: 9576 5abe ddd4 603e 4fca 013e f2b4 5fbe
00000210: 1e27 49bd 6035 cbbd cc1a 453d 1aa8 adbe
00000220: 2c42 88be 073b 80bc 7804 b93d bf41 f03d
00000230: d00e 313e 8cc2 2b3e ff3b e73c 8891 df3d
00000240: 8893 72be 85fb 08bd 20a1 9a3e 2e9b 5dbe
00000250: 3d07 c6bc 00ab 883d edb9 0dbe 7351 66be
00000260: c8cf 80be c0e2 873d b30b e33d 99f7 6c3e
00000270: 40a4 9e3d 6890 713e 2556 853e 8ec0 eebd
00000280: 2530 843e 7ab9 873e fba3 74bd 0de4 23be
00000290: 4465 9abd d643 443e 50b1 a7bd 0dd5 90bc
000002a0: 17bc e13c 49f8 14be 6bb2 b5bd 5ce7 643e
000002b0: b316 733e c1c4 1cbe 1f24 eb3d 095c 683e
000002c0: f59b 91bc 5567 03be f24e 7a3d 54a3 483e
000002d0: 4e0a 2ebd 6548 39bd 12da cbbe c4d8 d3bd
000002e0: 0cf9 5b3d 2889 363c 03a8 19bd 6517 803e
000002f0: 0a72 a13e 64b8 92bd 29c7 ffbd 7d14 a1be
00000300: 0253 533c 6448 f33b f7ce 0abe b397 af3e
00000310: 3126 e43d 54bc 43be 4e20 8c3e 18a7 603e
00000320: 49b6 43be d989 a7bb 3713 783d 4619 83be
00000330: 9108 26bd 03ad 0bbe 3566 f5be 438d 37be
00000340: 43c4 bbbd 8c5b 673e 19c6 4abe 099b bdbd
00000350: 43d3 163e 9a07 27bf 026e 25bf 1a82 03bf
00000360: cf74 b0be a1bf 19be dcc5 363d ab1e 83be
00000370: 4c5a 7abe 8bdd 09be c8c8 dbbd 4a92 a0be
00000380: e353 edbd 14e8 033d bdc8 dd39 ec56 f23d
00000390: 9a8c 9fbd 8472 af3d d16a 5a3d 2461 d0be
000003a0: b5fc 48be f541 49bd 20a3 fabd 707c a8bd
000003b0: 8978 d23d a06c 1bbe b3f2 733c 3e88 ae3d
000003c0: 22ea 5cbe 1c26 aebe b7e8 56be 6aa6 973d
000003d0: ce21 583d 2320 44be 09ec 1f3e ca3b ad3c
000003e0: 4be3 03be d5f1 f23d d49b 9bbd 57d5 f1bd
000003f0: fd50 053d 04c7 1f3d 7852 823e 4f80 54bd

layer2.bn2.weight f4 [32]
1.1064428 1.0794827 1.2413262 1.2641948 0.979071 1.1286103 0.9896946 1.4281615
1.2855091 1.0839999 1.3577579 1.2414349 1.2089717 1.2071259 1.2784775 1.5413289
1.0741093 1.1056281 1.1641917 0.8388216 1.2309016 1.097241 1.3683368 1.2790854
1.2467891 1.4006546 1.2908462 1.313745 1.2393316 0.9752469 1.2674472 1.3494341
00000000: eb9f 8d3f 7d2c 8a3f c7e3 9e3f 23d1 a13f
00000010: 66a4 7a3f 4d76 903f a05c 7d3f ffcd b63f
00000020: 908b a43f 82c0 8a3f 03cb ad3f 57e7 9e3f
00000030: 96bf 9a3f 1a83 9a3f 27a5 a33f 444a c53f
00000040: 6a7c 893f 3985 8d3f 3c04 953f 03bd 563f
00000050: 2f8e 9d3f 6572 8c3f a925 af3f 12b9 a33f
00000060: c996 9f3f a648 b33f 733a a53f cc28 a83f
00000070: 6ba2 9e3f c8a9 793f b63b a23f 42ba ac3f

layer2.bn2.bias f4 [32]
-0.011457638 -0.083088025 0.121056795 -0.34703022 -0.07052405 -0.08891796 0.059073728 -0.35062575
-0.201361 -0.12061704 0.08332545 -0.19756353 -0.016409341 -0.0019332494 -0.101229966 0.06302756
-0.07679979 0.25764564 0.0066702585 -0.1113472 -0.10833084 -0.14256032 -0.2231889 -0.13792048
-0.0034835346 -0.03426813 0.011285003 0.18882342 0.05234067 0.23360944 -0.072527036 -0.101526916
00000000: d1b8 3bbc 0e2a aabd a0ec f73d f2ad b1be
00000010: ea6e 90bd 9f1a b6bd 4bf7 713d 3885 b3be
00000020: 9431 4ebe 1106 f7bd 89a6 aa3d 184e 4abe
00000030: e26c 86bc 1665 fdba a851 cfbd 9814 813d
00000040: 3549 9dbd 21ea 833e 2f92 da3b 000a e4bd
00000050: 8fdc ddbd 55fb 11be a28b 64be 073b 0dbe
00000060: 034c 64bb bd5c 0cbd bce4 383c ed5a 413e
00000070: 2c63 563d 5037 6f3e 0e89 94bd 58ed cfbd

layer2.bn2.running_mean f4 [32]
-2.2010202 -1.5668917 -1.2990558 -1.38594 -1.3715602 -0.46552667 1.565585 -1.3451743
0.7103284 -1.3992409 -1.6205436 -0.72893304 -0.107195504 -0.95723873 0.12767157 -2.0215452
-0.29445195 -1.8515544 -2.8810818 0.4841099 -0.49394077 0.22322457 -1.0266635 -1.0414797
0.54844534 -4.230016 -0.08917998 2.9380746 -0.14009517 -4.3637815 -1.0559603 -2.059368
00000000: 84dd 0cc0 e88f c8bf 7647 a6bf 7b66 b1bf
00000010: 498f afbf 8359 eebe 1765 c83f ac2e acbf
00000020: 15d8 353f 531a b3bf f96d cfbf 5b9b 3abf
00000030: 5189 dbbd 990d 75bf 56bc 023e ff60 01c0
00000040: 68c2 96be bcff ecbf a563 38c0 41dd f73e
00000050: cee5 fcbe fb94 643e b669 83bf 354f 85bf
00000060: ea66 0c3f 4b5c 87c0 fea3 b6bd 6a09 3c40
00000070: 1c75 0fbe 19a4 8bc0 b529 87bf afcc 03c0

layer2.bn2.running_var f4 [32]
4.102496 2.3633037 4.1663594 1.7675487 3.1917539 2.8477411 2.959609 3.053088
2.6049485 3.9978156 4.1403294 2.4850287 2.7798245 3.4960396 2.4984148 4.696777
3.5889747 4.7510514 3.392978 3.2308862 2.8212497 4.105469 2.754499 2.3523817
4.391952 4.2093167 5.5256004 5.030549 4.0672317 3.8371942 4.064225 3.8992035
00000000: a647 8340 5e40 1740 d152 8540 093f e23f
00000010: b245 4c40 6441 3640 3c6a 3d40 cb65 4340
00000020: 7ab7 2640 36dc 7f40 947d 8440 b60a 1f40
00000030: a5e8 3140 1dbf 5f40 07e6 1f40 ff4b 9640
00000040: c3b1 6540 9d08 9840 8d26 5940 d7c6 4e40
00000050: 5b8f 3440 0160 8340 b649 3040 6c8d 1640
00000060: df8a 8c40 b9b2 8640 b8d1 b040 42fa a040
00000070: c326 8240 9794 7540 220e 8240 8d8c 7940

layer2.downsample.0.weight f4 [32, 16, 1, 1]
-0.104824506 -0.10883222 0.028239274 -0.010381025 -0.39491022 0.13105327 -0.06270844 -0.5317314
-0.3817266 -0.16216804 -0.22254793 -0.1315845 0.17029329 -0.1308665 -0.14896111 0.052196305
0.27862537 0.25769234 -0.19526981 -0.23686902 0.1471284 -0.44631383 0.24741068 0.092184305
0.072914004 -0.19942734 -0.002609969 0.17349671 -0.30649024 -0.07366253 -0.20741196 -0.13691115
-0.092519514 -0.2938738 0.11136152 -0.17414218 0.21066816 -0.21066327 0.003357639 0.10196286
-0.21711683 -0.27921876 0.4718319 -0.15104254 0.24161139 -0.16645616 -0.3252765 -0.009648837
-0.37009788 -0.012123467 -0.2223152 0.31818378 -0.13412492 0.17886214 -0.06478951 -0.3153564
0.030942302 -0.13554096 -0.2309044 0.086959906 0.0993879 -0.45543626 -0.03222081 0.07845668
0.07640724 0.18668914 -0.17560387 -0.52400583 -0.23304053 0.26929006 0.10505625 -0.05537943
-0.19955012 -0.5956055 -0.11028527 -0.017867057 0.13003069 0.049976837 -0.043580163 -0.035151757
-0.1996067 -0.16807768 -0.4276029 0.10106494 0.17152087 0.14410447 -0.3025136 0.3553636
0.10686778 0.16296044 0.022321623 0.009403352 -0.369779 -0.07177759 -0.010655667 -0.024426593
-0.07230488 0.22001477 0.1954052 0.26275817 0.5263211 0.1098774 -0.17553717 -0.043740015
-0.44570896 -0.08632523 0.15973692 0.0030470355 0.08336383 -0.08766066 -0.3445581 -0.124685526
-0.7040021 -0.17306763 -0.019733442 -0.19532338 -0.15924044 -0.04259438 -0.1218077 -0.1534283
-0.02937944 -0.2572756 -0.2176139 -0.3499287 -0.07409601 -0.05678134 -0.06406141 -0.096346766
-0.021107042 0.037739143 0.09489893 0.06988994 -0.2571487 0.12290837 0.21865813 -0.30400613
-0.3882642 0.029938368 0.22451176 -0.071591675 0.062248636 -0.06316374 -0.5241518 -0.23042251
-0.3825044 0.01045408 0.0047167037 -0.615095 -0.16240714 0.15344144 -0.16093054 -0.1787524
0.2101699 -0.06902229 0.032698944 -0.032863278 0.063942716 0.20118037 -0.10582608 0.07071653
0.18748873 -0.18008067 0.25479513 -0.2774314 0.13261802 0.16661605 0.03761681 0.0825568
-0.080912 -0.49604368 -0.13188997 -0.16987498 -0.0107623115 0.026841871 0.36638513 0.059161533
-0.05588388 -0.2690663 -0.23064639 -0.0024093585 -0.12963498 0.15882972 -0.517724 -0.17261165
0.34866706 0.021579657 -0.12458261 -0.16234504 -0.18531258 -0.37114513 -0.3456236 -0.031451456
-0.065233916 -0.10592691 0.41255382 -0.4167976 0.21072777 0.1487708 0.05135597 -0.0025711555
0.302511 -0.20300916 -0.14074929 -0.16264935 -0.003449713 -0.0991046 0.3255408 -0.12067047
0.3763371 0.02099682 0.07356658 -0.24661753 0.36264193 -0.16042967 0.21471694 0.01640651
0.020063357 -0.07624242 -0.11364861 0.19112545 -0.23249832 0.3431246 -0.07345183 -0.046579435
-0.080704 0.05271397 0.12041791 0.21076968 -0.034962 -0.15580824 -0.2523485 -0.0149186095
0.29540268 0.700558 0.14033869 -0.014154248 -0.030214842 -0.21094564 0.056029707 -0.007463842
-0.033092875 0.06858715 0.15761371 0.52436393 -0.06538231 -0.3160529 -0.09912586 0.085220456
-0.20804875 0.2555159 0.129316 0.02967816 0.004061067 -0.30376267 0.048959974 -0.08448188
00000000: 3bae d6bd 6de3 debd 0d56 e73c 2d15 2abc
00000010: ac31 cabe d432 063e 486d 80bd 8d1f 08bf
00000020: ab71 c3be 610f 26be 9be3 63be 16be 06be
00000030: 5d61 2e3e de01 06be 4389 18be cbcb 553d
00000040: fca7 8e3e 40f0 833e cff4 47be cb8d 72be
00000050: d4a8 163e 3f83 e4be 3a59 7d3e 20cb bc3d
00000060: f053 953d ae36 4cbe 030c 2bbb 1fa9 313e
00000070: 4aec 9cbe 61dc 96bd cd63 54be 7032 0cbe
00000080: df7a bdbd a076 96be 8211 e43d 5452 32be
00000090: 65b9 573e 1db8 57be d60b 5c3b e7d1 d03d
000000a0: e053 5ebe c3f5 8ebe f393 f13e e5aa 1abe
000000b0: fa68 773e 7c73 2abe a48a a6be 2816 1ebc
000000c0: 787d bdbe 82a1 46bc 99a6 63be fce8 a23e
000000d0: 0b58 09be a327 373e 5db0 84bd 6576 a1be
000000e0: b67a fd3c 40cb 0abe 3472 6cbe 0918 b23d
000000f0: e28b cb3d f12e e9be f8f9 03bd e5ad a03d
00000100: 667b 9c3d 702b 3f3e 80d1 33be 3f25 06bf
00000110: 2da2 6ebe 63e0 893e bb27 d73d 8bd5 62bd
00000120: de56 4cbe 9a79 18bf 3edd e1bd ef5d 92bc
00000130: c426 053e 83b4 4c3d 1d81 32bd 4afb 0fbd
00000140: b365 4cbe 8e1c 2cbe c4ee dabe 23fb ce3d
00000150: 2ba3 2f3e 1f90 133e 10e3 9abe 38f2 b53e
00000160: 7fdd da3d 1adf 263e d6db b63c 8410 1a3c
00000170: ac53 bdbe 2100 93bd 1b95 2ebc 471a c8bc
00000180: 9514 94bd 8d4b 613e 4d18 483e 3d88 863e
00000190: fbbc 063f 6707 e13d 04c0 33be bb28 33bd
000001a0: f733 e4be 48cb b0bd 1392 233e c6b0 473b
000001b0: a8ba aa3d 6f87 b3bd eb69 b0be 205b ffbd
000001c0: 7b39 34bf a438 31be 07a8 a1bc da02 48be
000001d0: ed0f 23be 7277 2ebd 5176 f9bd 4f1c 1dbe
000001e0: 27ad f0bc a1b9 83be 2ed6 5ebe db29 b3be
000001f0: a6bf 97bd 8d93 68bd a132 83bd 7451 c5bd
00000200: ade8 acbc 5c94 1a3d 5f5a c23d 7522 8f3d
00000210: ffa8 83be 62b7 fb3d ebe7 5f3e b1a6 9bbe
00000220: 91ca c6be 4f41 f53c 69e6 653e a89e 92bd
00000230: 6df8 7e3d fe5b 81bd d02e 06bf e1f3 6bbe
00000240: 9ed7 c3be 9747 2b3c 948e 9a3b de76 1dbf
00000250: 0f4e 26be c11f 1d3e faca 24be df0a 37be
00000260: c736 573e 8f5b 8dbd 54ef 053d a59b 06bd
00000270: 66f4 823d 3a02 4e3e 58bb d8bd d4d3 903d
00000280: 0cfd 3f3e 1167 38be 8274 823e 7d0b 8ebe
00000290: 05cd 073e 669d 2a3e 1614 1a3d 8a13 a93d
000002a0: 31b5 a5bd 70f9 fdbe 2a0e 07be b5f3 2dbe
000002b0: 6854 30bc 7ce3 db3c d596 bb3e 5d53 723d
000002c0: 7fe6 64bd 0fc3 89be 912e 6cbe 54e6 1dbb
000002d0: 08bf 04be 42a4 223e 8f89 04bf 1cc1 30be
000002e0: 7d84 b23e d2c7 b03c 2b25 ffbd c73d 26be
000002f0: 95c2 3dbe bc06 bebe 94f5 b0be 3ed3 00bd
00000300: 5c99 85bd 35f0 d8bd 413a d33e 7f66 d5be
00000310: 05c9 573e 5f57 183e a35a 523d d580 28bb
00000320: b9e2 9a3e a2e1 4fbe 9520 10be 8d8d 26be
00000330: 9514 62bb 5af7 cabd 49ad a63e 1422 f7bd
00000340: 42af c03e 8601 ac3c 13aa 963d 4e89 7cbe
00000350: 34ac b93e ad47 24be c2de 5b3e f266 863c
00000360: e95b a43c fc24 9cbd 9ac0 e8bd 64b6 433e
00000370: 0a14 6ebe 07ae af3e ea6d 96bd 14ca 3ebd
00000380: 2448 a5bd 9bea 573d aa9d f63d 02d4 573e
00000390: 5034 0fbd 328c 1fbe d333 81be 2f6d 74bc
000003a0: 053f 973e c557 333f f2b4 0f3e 38e7 67bc
000003b0: 1e85 f7bc 2202 58be 687f 653d 3f93 f4bb
000003c0: 658c 07bd 6b77 8c3d 7d65 213e b73c 063f
000003d0: 29e7 85bd b0d1 a1be 8002 cbbd 1088 ae3d
000003e0: bb0a 55be fbd2 823e 6a6b 043e 9d1f f33c
000003f0: b312 853b c886 9bbe 418a 483d d604 adbd

layer2.downsample.1.weight f4 [32]
0.259399 0.51705736 0.32738152 0.42876482 0.60797846 0.29146153 0.23884095 0.4511416
0.5754078 0.5524147 0.20161927 0.41131213 0.23164833 0.19755423 0.34824294 0.484219
0.550505 0.29966614 0.42369968 0.6042513 0.5148837 0.5825565 0.10960583 0.35920906
0.4704343 0.47399953 0.2997211 0.20677021 0.21318378 0.53411853 0.33823043 0.4087652
00000000: f2cf 843e df5d 043f 8d9e a73e 1087 db3e
00000010: 7aa4 1b3f 723a 953e b992 743e 08fc e63e
00000020: ed4d 133f 0d6b 0d3f 4875 4e3e 8197 d23e
00000030: 3835 6d3e a84b 4a3e e64c b23e 8eeb f73e
00000040: e5ed 0c3f d76d 993e 2aef d83e 37b0 1a3f
00000050: 6bcf 033f 6c22 153f 0579 e03d 40ea b73e
00000060: c4dc f03e 11b0 f23e 0b75 993e 92bb 533e
00000070: d94c 5a3e febb 083f 8a2c ad3e ac49 d13e

layer2.downsample.1.bias f4 [32]
-0.011457638 -0.083088025 0.121056795 -0.34703022 -0.07052405 -0.08891796 0.059073728 -0.35062575
-0.201361 -0.12061704 0.08332545 -0.19756353 -0.016409341 -0.0019332494 -0.101229966 0.06302756
-0.07679979 0.25764564 0.0066702585 -0.1113472 -0.10833084 -0.14256032 -0.2231889 -0.13792048
-0.0034835346 -0.03426813 0.011285003 0.18882342 0.05234067 0.23360944 -0.072527036 -0.101526916
00000000: d1b8 3bbc 0e2a aabd a0ec f73d f2ad b1be
00000010: ea6e 90bd 9f1a b6bd 4bf7 713d 3885 b3be
00000020: 9431 4ebe 1106 f7bd 89a6 aa3d 184e 4abe
00000030: e26c 86bc 1665 fdba a851 cfbd 9814 813d
00000040: 3549 9dbd 21ea 833e 2f92 da3b 000a e4bd
00000050: 8fdc ddbd 55fb 11be a28b 64be 073b 0dbe
00000060: 034c 64bb bd5c 0cbd bce4 383c ed5a 413e
00000070: 2c63 563d 5037 6f3e 0e89 94bd 58ed cfbd

layer2.downsample.1.running_mean f4 [32]
-1.5017245 -0.53213024 -0.67876226 -0.75775975 -0.92646116 -0.5197669 0.34994572 -2.1635616
-0.4698882 -0.9363192 -0.043811563 -1.8703634 0.18065849 0.383981 0.6249578 0.26014742
1.0219802 -1.3049792 -1.407588 -0.432279 -2.05978 -1.5176315 -0.65158087 -0.33402744
0.8065692 1.8205124 0.18187119 0.19778143 -0.74624604 -1.3335586 0.29269326 -0.38086396
00000000: 8238 c0bf b039 08bf 5dc3 2dbf 8bfc 41bf
00000010: 8f2c 6dbf 720f 05bf 162c b33e cb77 0ac0
00000020: 3095 f0be 9db2 6fbf c173 33bd 1168 efbf
00000030: 8afe 383e 2899 c43e 3cfd 1f3f 0b32 853e
00000040: 3fd0 823f 8f09 a7bf d82b b4bf ac53 ddbe
00000050: 6fd3 03c0 c041 c2bf 01ce 26bf a505 abbe
00000060: 527b 4e3f 8d06 e93f 713c 3a3e 3787 4a3e
00000070: fb09 3fbf 0cb2 aabf e4db 953e 9a00 c3be
