Checkpoints/ResNet8_0.8014.pth (torch, 333650 bytes, 47 tensors)

conv1.weight f4 [16, 3, 3, 3]
0	0xbd6f0f0f	-0.05836397
1	0x3e264822	0.16238454
2	0x3e16404f	0.1467297
3	0xbdee6f20	-0.11642289
4	0xbc234b50	-0.009966686
5	0x3da35f2f	0.07977139
6	0xbdbf0acb	-0.093282305
7	0x3ca7d7fe	0.020488735
8	0xbdcd5817	-0.100265674
9	0xbe2b7919	-0.16745414
10	0x3e309475	0.17244132
11	0xbe14f321	-0.14545871
12	0xbe3a355c	-0.18184417
13	0x3d689cad	0.056790043
14	0x3de56525	0.112009324
15	0xbe1e6db7	-0.1547154
16	0x3e2ef4c2	0.17085555
17	0x3d9ed7d5	0.077560104
18	0x3d210254	0.03930886
19	0xbd0af02f	-0.033920463
20	0xbd6e10c8	-0.058121473
21	0xbc98ef6e	-0.018668856
22	0xbd7fa87f	-0.06241655
23	0x3d6637d9	0.056205604
24	0xbda2a065	-0.07940749
25	0x3e568fc2	0.20953277
26	0xbcef6e5d	-0.02922743
27	0x3df0cdf7	0.11758035
28	0xbda71007	-0.08157354
29	0x3e3e7641	0.18599798
30	0xbdbd24f4	-0.09235564
31	0x3e1ce7b3	0.15322761
32	0x3dbc6bbd	0.09200237
33	0xbb907275	-0.0044081756
34	0x3e2554df	0.16145657
35	0xbe14ccd7	-0.14531265
36	0xbe020043	-0.12695412
37	0xbd236bac	-0.039897606
38	0xbd4c3546	-0.049855493
39	0xbc87fc58	-0.016599819
40	0xbcb43846	-0.02199949
41	0xbe6af77e	-0.22945973
42	0xbdbd7046	-0.0924993
43	0xbd2376e7	-0.039908316
44	0xbd03ff65	-0.032225985
45	0x3dd52138	0.104067266
46	0xbe1c2a7e	-0.15250584
47	0x3ded3e33	0.11584129
48	0xbbb6dbf2	-0.0055804187
49	0x3c9e2b36	0.019307714
50	0xbdbd4ee4	-0.09243563
51	0x3df9d106	0.12198071
52	0x3dca20d4	0.09869543
53	0xbc471792	-0.012151616
54	0x3e1206ee	0.14260456
55	0xbb556efc	-0.0032567373
56	0x3d786e94	0.06065233
57	0xbdead890	-0.11467087
58	0x3e2d66db	0.16933767
59	0xbe48ba90	-0.19602418
60	0xbd9995d2	-0.07499279
61	0xbba6753c	-0.0050798934
62	0xbe1e74cb	-0.1547424
63	0xbe224ba4	-0.15849167
64	0x3d7c1bf9	0.061550114
65	0x3d66e6a3	0.056372296
66	0xbca9dee1	-0.02073616
67	0x3d67abfc	0.0565605
68	0xbd7d95a4	-0.061910287
69	0x3ddc40fc	0.10754582
70	0xbe089608	-0.13338482
71	0xbd2b7ef2	-0.04186911
72	0xbce2e1dd	-0.02769559
73	0xbe088bfc	-0.1333465
74	0xbe5225f8	-0.20522296
75	0x3d63ade2	0.05558575
76	0x3e369a49	0.17832293
77	0x3e460b65	0.19340284
78	0xbc1bdff1	-0.009513841
79	0x3da65b5c	0.08122894
80	0x3e4777fa	0.19479361
81	0x3eaaea7a	0.33382016
82	0xbd08a28a	-0.033358134
83	0x3d0b2065	0.03396644
84	0xbdc43ff8	-0.095825136
85	0xbe376185	-0.17908294
86	0xbcdab445	-0.026697287
87	0xbc8d36c5	-0.01723803
88	0xbe11ddf0	-0.14244819
89	0x3e1b11ce	0.1514351
90	0x3e2b4999	0.16727294
91	0xbb672306	-0.0035268678
92	0xbd593474	-0.05302854
93	0xbe22dfda	-0.15905705
94	0xbeb2ea85	-0.3494455
95	0xbd479b60	-0.04873216
96	0x3dad1d07	0.08452802
97	0xbd1ad9a6	-0.037805222
98	0x3d4a44f8	0.04938218
99	0xbdbace6c	-0.09121403
100	0x3db6e692	0.089306965
101	0xbcb502ff	-0.022096155
102	0x3e1c5830	0.15268016
103	0x3d652133	0.055939864
104	0xbdfdb98d	-0.12388907
105	0xbd9085d0	-0.07056773
106	0x3d0f39ed	0.03496735
107	0x3bd5ae7a	0.0065210434
108	0xbe42b92e	-0.19015953
109	0x3e155d61	0.14586402
110	0x3e15f96c	0.14645928
111	0xbc9ce54f	-0.019152312
112	0x3cfebe82	0.0310967
113	0xbdbc6590	-0.09199059
114	0x3dd731c4	0.10507539
115	0x3dc1f34e	0.09470235
116	0xbe2f990f	-0.17148231
117	0x3db9f2d9	0.09079523
118	0xbde0773d	-0.10960243
119	0xbe41a44d	-0.18910332
120	0x3e439d53	0.19102983
121	0x3d467433	0.04845066
122	0xbe397b7f	-0.18113516
123	0x3d25fb81	0.040523056
124	0xbdd4598a	-0.10368641
125	0x3cf16471	0.02946684
126	0x3e4383e9	0.19093288
127	0xbd999bae	-0.07500397
128	0x3ca88c16	0.02057461
129	0x3dd60f30	0.104521155
130	0xbc8222fa	-0.015885819
131	0xbde23220	-0.11044717
132	0xbd9afcf3	-0.075677775
133	0x3dc1f2ed	0.094701625
134	0xbd00524c	-0.031328484
135	0xbe1ed1d4	-0.1550973
136	0xbc574b90	-0.013140574
137	0x3e13ebd0	0.14445424
138	0xbe18da6d	-0.14927073
139	0xbdf60e32	-0.12014426
140	0xbda6a97b	-0.081377946
141	0x3d219b8d	0.039454985
142	0x3e0e0a1a	0.13871041
143	0x3e05f338	0.13081062
144	0xbbaac16a	-0.005211045
145	0x3e231502	0.15925983
146	0x3e0c8773	0.13723545
147	0x3d8a9fec	0.06768784
148	0xbe28eee9	-0.16497387
149	0xbbe96cc4	-0.0071235616
150	0x3cbd9755	0.02314345
151	0x3de8e2c1	0.11371375
152	0xbe4d7124	-0.20062691
153	0x3da0dbf6	0.07854454
154	0xbcbe7cc5	-0.023252854
155	0xbde761ee	-0.112979755
156	0x3de44e9d	0.11147807
157	0xbe598ab8	-0.21244323
158	0xbb8c0521	-0.0042730724
159	0xbd42ab38	-0.04752657
160	0x3e607e3b	0.21923153
161	0xbdeb5980	-0.1149168
162	0x3d1f65fe	0.038915627
163	0xbc1a1b42	-0.009405913
164	0xbe14dc52	-0.1453717
165	0xbc7053b0	-0.01466839
166	0x3e33a89f	0.17544793
167	0x3dcfb500	0.10141945
168	0xbe771586	-0.24129304
169	0x3dec1347	0.11527114
170	0xbc1238f1	-0.008924709
171	0xbdd5a9ec	-0.10432801
172	0x3d7e054b	0.062016767
173	0xbe5398fc	-0.20663828
174	0x3db5ca05	0.08876423
175	0x3e7d3af8	0.24729526
176	0xbd388530	-0.045048892
177	0x3e3dd5b0	0.18538547
178	0xbe1d5abf	-0.15366648
179	0xbc1b8ebc	-0.00949448
180	0xbc118451	-0.008881644
181	0x3ce7f707	0.028316034
182	0x3dad078e	0.084487066
183	0xbe4d3d54	-0.20042926
184	0x3e71f53e	0.23628709
185	0xbdb2a1a7	-0.08722239
186	0x3dde3427	0.10849791
187	0xbddc6f20	-0.10763383
188	0xbdced8e7	-0.100999646
189	0x3e66b804	0.22531134
190	0xbda5e8c0	-0.08101034
191	0x3d91ebcc	0.07125053
192	0xbdc28c4d	-0.094994165
193	0xbe17e0af	-0.14831804
194	0xbccc85b4	-0.024966098
195	0xbdd0b8fe	-0.101915345
196	0x3e6f2f96	0.23357996
197	0x3e45397b	0.19260208
198	0x3e05ac61	0.13054039
199	0xbe4b5d3e	-0.19859788
200	0xbdcb12c8	-0.099156916
201	0xbe4c09ef	-0.19925664
202	0xbd1c9cc6	-0.03823545
203	0xbd88df07	-0.06683164
204	0xbd7f691d	-0.062356103
205	0xbdffe7c9	-0.124953814
206	0x3d28032d	0.041018654
207	0xbd3a08db	-0.0454186
208	0x3c01b6f6	0.007917156
209	0x3cfe220c	0.031022094
210	0x3dfea23e	0.12433289
211	0xbe2656cf	-0.16244052
212	0x3d868ddb	0.065700255
213	0x3d8df49e	0.06931423
214	0x3d854b4e	0.06508504
215	0x3e3428f0	0.17593741
216	0xbdf56e82	-0.11983968
217	0xbdd524ae	-0.10407387
218	0x3e1379c8	0.14401925
219	0x3e2942f9	0.16529454
220	0xbdbd8431	-0.09253729
221	0x3dfd6a94	0.12373844
222	0xbd8a026c	-0.06738743
223	0x3e36abef	0.17839025
224	0x3af4f551	0.0018688833
225	0xbe1e729f	-0.15473412
226	0x3de9223b	0.11383482
227	0x3dc89047	0.09793144
228	0x3d65621b	0.056001764
229	0xbe45a673	-0.19301777
230	0xbe48f9c6	-0.19626531
231	0xbdd35076	-0.10318081
232	0xbc5cf638	-0.0134864375
233	0xbd3fd703	-0.04683591
234	0xbdaf740d	-0.08567057
235	0x3e10e2bd	0.14148994
236	0x3e60a2ff	0.21937178
237	0x3def4861	0.11683727
238	0xbd045e5f	-0.03231656
239	0xbd66dce9	-0.05636302
240	0x3d525165	0.051347155
241	0xbe015490	-0.12629914
242	0xbe1371d6	-0.14398894
243	0x3e35684a	0.17715564
244	0xbe1c043a	-0.15235987
245	0xbdc50e21	-0.096218355
246	0xbb975c3f	-0.004619151
247	0xbd9c11a0	-0.07620549
248	0xbd3a11a4	-0.04542698
249	0x3c94df6d	0.018172944
250	0x3e00496d	0.1252801
251	0xbe04e331	-0.12977292
252	0x3e32c491	0.17457797
253	0xbce8655d	-0.028368646
254	0x3e85c79d	0.26128855
255	0x3d520a9a	0.05127964

bn1.weight f4 [16]
0	0x3f857af0	1.0428143
1	0x3f4965ef	0.78671163
2	0x3f4848ff	0.78236383
3	0x3f6e6882	0.93128216
4	0x3f5d2458	0.8638358
5	0x3f58c3ec	0.84673953
6	0x3f99f8c2	1.202904
7	0x3f5fcbc5	0.874203
8	0x3f52ad26	0.82295454
9	0x3f51c31d	0.81938344
10	0x3f577a92	0.841714
11	0x3f4297df	0.76012987
12	0x3f2ff0b8	0.6872668
13	0x3f458300	0.77153015
14	0x3f46b5ee	0.7762135
15	0x3f62e5d6	0.8863195

bn1.bias f4 [16]
0	0x3bc7f5dc	0.006102307
1	0x3dcb780e	0.09935008
2	0x3e0625e7	0.13100396
3	0xbe857ddb	-0.26072583
4	0x3ea120de	0.31470388
5	0x3e316ee7	0.17327462
6	0x3ee869db	0.4539326
7	0x3e247f42	0.1606417
8	0x3e015398	0.12629545
9	0x3ee7e92e	0.4529509
10	0x3e23e8e9	0.16006817
11	0x3e011baf	0.12608217
12	0xbe2375c4	-0.15962893
13	0x3e59876c	0.21243066
14	0x3e6de943	0.23233514
15	0x3e5db126	0.21649608

bn1.running_mean f4 [16]
0	0xbca54e28	-0.02017887
1	0x3c8d40be	0.017242786
2	0xbcb0785e	-0.02154177
3	0x3e02dead	0.12780257
4	0x3c3e9953	0.011633235
5	0x3cdfb77e	0.027309176
6	0xbd25a8fa	-0.04044435
7	0x3d43f5d6	0.04784187
8	0x3d521e45	0.0512984
9	0xbb3388f9	-0.0027394874
10	0x3b8a6566	0.0042235134
11	0x3bd5549d	0.006510331
12	0x3da9ac12	0.08284773
13	0xbd396b7e	-0.04526853
14	0xbceda6b5	-0.029010156
15	0xbccc4850	-0.024936825

bn1.running_var f4 [16]
0	0x3e9d045a	0.30667382
1	0x3d8ef9ad	0.069812156
2	0x3dc671cd	0.096896745
3	0x3edbd58f	0.4293637
4	0x3e70064f	0.23439907
5	0x3ddd4de8	0.10805875
6	0x3e28d6ea	0.16488233
7	0x3e7f6549	0.24940981
8	0x3e2eee43	0.17083077
9	0x3e555918	0.20834768
10	0x3e122b52	0.14274338
11	0x3da21137	0.0791344
12	0x3ecdce9f	0.40196702
13	0x3e011354	0.1260503
14	0x3f492d15	0.78584415
15	0x3e30701f	0.17230271

layer1.conv1.weight f4 [16, 16, 3, 3]
0	0x3dce8452	0.10083832
1	0x3e67af84	0.22625548
2	0x3da336bc	0.07969424
3	0xbda89bd0	-0.08232844
4	0x3e104ae1	0.14091064
5	0x3e0c8c5e	0.13725421
6	0xbd8c906b	-0.06863483
7	0x3dc8058a	0.097666815
8	0x3d69bd26	0.05706515
9	0xbd394188	-0.04522851
10	0x3d25fea4	0.040526047
11	0x3dd2fff2	0.10302724
12	0xbd43476d	-0.04767554
13	0xbd5df0bb	-0.054184657
14	0x3ca72f49	0.02040829
15	0xbdbd84a4	-0.09253815
16	0xbac7559e	-0.0015208011
17	0xbdaf7b48	-0.08568436
18	0x3dce18fd	0.1006336
19	0x3debbc68	0.11510545
20	0xbd2a9a6f	-0.041651186
21	0xbd985437	-0.07437938
22	0xbce3d218	-0.027810141
23	0x3d87eb87	0.0663672
24	0x3c317c40	0.010832846
25	0xbd857e49	-0.065182276
26	0x3d6fe974	0.058572248
27	0x3c933d7f	0.01797366
28	0x3d4a4570	0.049382627
29	0xbd883d99	-0.06652374
30	0x3dd1c2c1	0.102422245
31	0x3ca44107	0.020050539
32	0x3dca5600	0.098796844
33	0x3ceabf94	0.028655805
34	0x3bd84856	0.00660042
35	0xbcec22b1	-0.028825136
36	0xbc44e6cf	-0.01201792
37	0x3ddfeaec	0.1093348
38	0xbd7c3590	-0.06157452
39	0xbdf46860	-0.119339705
40	0x3dcd3fb8	0.10021919
41	0x3d6f3922	0.058404095
42	0xbc9654d1	-0.01835099
43	0x3d378a1b	0.044809442
44	0xbde190d2	-0.110139504
45	0xbd0edd58	-0.03487906
46	0xbc9383c1	-0.018007161
47	0xbbc7b9d3	-0.00609515
48	0x3d0abdb2	0.033872314
49	0x3d66408d	0.056213904
50	0x3d9a2cff	0.075281136
51	0x3c009723	0.007848534
52	0x3de8c3e0	0.11365485
53	0xbd05b7e3	-0.03264607
54	0x3d5f3bf8	0.05450055
55	0xbcde570e	-0.02714112
56	0x3d33f4ca	0.04393462
57	0xbd40230d	-0.046908427
58	0xbd8535c7	-0.06504398
59	0xbe22af52	-0.15887192
60	0xbcc13179	-0.02358316
61	0x3d694dec	0.056959078
62	0x3dbcb9b2	0.09215106
63	0xbcc28201	-0.023743631
64	0xbdbee3d6	-0.093208
65	0x3d183700	0.037161827
66	0x3d447743	0.0479653
67	0xbd8cd5be	-0.068767056
68	0x3dea40af	0.11438119
69	0x3ca91d89	0.020643966
70	0xbd0d1392	-0.03444249
71	0x3c6fad82	0.01462877
72	0xbd12291b	-0.035683732
73	0xbd8eb89d	-0.06968806
74	0x3b78803a	0.0037918226
75	0xbd460237	-0.048341956
76	0x3d9bda1f	0.07609963
77	0xbd1c8736	-0.038214885
78	0xbd5b4eaf	-0.053541835
79	0xbaa4f3c3	-0.0012584854
80	0x3df074b5	0.1174101
81	0xbdc14e63	-0.09438779
82	0x3da313f6	0.079627916
83	0x3dc0036e	0.09375654
84	0xbdf85ae6	-0.121267125
85	0xbcd9ebf0	-0.026601762
86	0x3d2bb461	0.04192007
87	0xbd1261f1	-0.035737935
88	0x3dbd0d4a	0.0923105
89	0x3d9b1429	0.075722046
90	0x3d63e0f2	0.055634446
91	0x3dcd840d	0.10034952
92	0x3cd549c1	0.026036145
93	0xbdee365b	-0.11631461
94	0x3dab4586	0.0836287
95	0x3da5262e	0.08063923
96	0xbd5774b8	-0.052601546
97	0x3a25fc1a	0.00063318165
98	0x3dbddde7	0.0927084
99	0x3dd5be68	0.10436708
100	0x3df0b8e1	0.11754013
101	0x3df63706	0.12022214
102	0x3d8be86a	0.06831439
103	0x3d0f4b4e	0.034983926
104	0x3d374adb	0.044749122
105	0xbd01ed0e	-0.031720214
106	0xbbcdbe1f	-0.0062787677
107	0x3c08f47c	0.008359071
108	0x3c83f85d	0.01610964
109	0x3cb6d852	0.022319946
110	0xbced4f57	-0.028968496
111	0xbd7256fb	-0.059164982
112	0xbd7abef8	-0.06121728
113	0x3c1563e2	0.009118052
114	0x3dc87df6	0.0978965
115	0x3dfa2e17	0.12215822
116	0x3dc3bae1	0.09557129
117	0x3c8f12c0	0.017464995
118	0xbde3a73b	-0.11115881
119	0xbddc5abe	-0.10759495
120	0x39590d69	0.00020699728
121	0xbd0b36c2	-0.033987768
122	0x3d119685	0.035543937
123	0xbc20bfe6	-0.009811377
124	0x3d389326	0.045062207
125	0xbd8055fe	-0.06266402
126	0xbda38a95	-0.07985417
127	0x3d36e46a	0.044651426
128	0xbd2fdaef	-0.0429334
129	0xbd6785c8	-0.056524068
130	0xbcb6daed	-0.022321189
131	0xbd081c9e	-0.033230416
132	0x3c0a6d00	0.008448839
133	0x3d52df8e	0.05148273
134	0xbd0a1462	-0.033710845
135	0xbdd7f0b4	-0.10543957
136	0x3d58da4a	0.05294255
137	0xbc8c2c64	-0.01711101
138	0xbca40079	-0.020019757
139	0x3e114c8b	0.14189355
140	0xbcf7ca61	-0.030247869
141	0xbd21795f	-0.03942239
142	0x3e323781	0.17403986
143	0x3dc6b447	0.09702354
144	0xbb7e092a	-0.0038762786
145	0xbda1850a	-0.07886703
146	0x3b8484c6	0.004044148
147	0xbc5f5ac6	-0.013632482
148	0xbd614505	-0.054997463
149	0x3b44626e	0.0029965895
150	0x3d76cce2	0.060253985
151	0x3ba16d95	0.0049263933
152	0x3d124239	0.035707686
153	0x3dab0ec3	0.08352425
154	0x3dc70b28	0.09718925
155	0x3d35bf6a	0.044372
156	0x3d77a8ad	0.060463596
157	0x3d90e7e4	0.070754796
158	0xbba1399b	-0.004920197
159	0xbde3cb48	-0.11122757
160	0xbd1778b7	-0.036980357
161	0xbd8d3170	-0.06894195
162	0x3c9173c2	0.017755393
163	0x3d5afe36	0.05346509
164	0x3d0b1ce6	0.033963107
165	0xbd759ed8	-0.05996594
166	0xbd4c2821	-0.049842957
167	0xbdb994ed	-0.090616085
168	0xbcaf81a5	-0.021424124
169	0x3c573383	0.01313484
170	0x3ddb9fbf	0.107238285
171	0x3bd0bbaa	0.0063700275
172	0x3c43d85f	0.011953442
173	0xbd10fe8a	-0.035398997
174	0xbce58bb2	-0.028020713
175	0xbc9d1757	-0.019176168
176	0xbd03c469	-0.032169733
177	0x3d7c1f46	0.061553262
178	0x3d601118	0.054703802
179	0x3e027b7e	0.12742421
180	0x3c98678d	0.018604064
181	0xbc98a53f	-0.018633483
182	0x3dc7d2f2	0.097570315
183	0xbbde5b94	-0.0067858193
184	0x3da5e713	0.081007145
185	0xbd8556ef	-0.06510722
186	0x3caad84c	0.020855092
187	0xbdb2f642	-0.08738376
188	0x3c88fbb6	0.016721588
189	0xbe1d553e	-0.15364549
190	0xbe35684f	-0.17715572
191	0xbe5ecda7	-0.21758138
192	0xbcc3d03f	-0.02390301
193	0x3e0e2785	0.13882263
194	0x3dc93d22	0.09826113
195	0x3c8b007f	0.01696801
196	0x3d801f44	0.062559634
197	0x3b6a4ef8	0.0035752635
198	0x3d45dbd3	0.048305344
199	0x3e488ebb	0.19585697
200	0x3d9dd032	0.07705726
201	0xbddb8101	-0.10717965
202	0xbe4e8af4	-0.20170194
203	0xbe5bd3f9	-0.2146758
204	0x3d614a20	0.05500233
205	0x3d801254	0.06253496
206	0x3e278fdb	0.1636347
207	0xbcfca52f	-0.030840484
208	0xbda80fe9	-0.082061596
209	0xbe030d6b	-0.12798087
210	0x3d29ea19	0.04148302
211	0x3d7e63d8	0.062106937
212	0x3ce3f9bb	0.027829042
213	0xbc882729	-0.016620236
214	0xbd71374d	-0.05889063
215	0xbc14d22a	-0.00908331
216	0x3d7731ce	0.06035023
217	0xbcdc64be	-0.026903506
218	0x3db1cbb0	0.086814284
219	0x3da940a5	0.08264283
220	0x3d76619f	0.060151692
221	0x3a336fd4	0.0006844972
222	0xbcd807c5	-0.026370892
223	0xbdd8feba	-0.1059546
224	0xbe0a076b	-0.13479392
225	0x3db2b3c9	0.087256975
226	0x3d358170	0.044312894
227	0xbccfc535	-0.02536259
228	0x3c19fab9	0.009398156
229	0x3c921eac	0.017836891
230	0x3d0ac401	0.03387833
231	0x3d742fd0	0.05961591
232	0xbc017664	-0.007901762
233	0xbcaf01fb	-0.021363249
234	0x3d142c53	0.036175083
235	0xbd44d463	-0.04805411
236	0x3de9fff5	0.11425773
237	0x3c9690a2	0.018379513
238	0x3cf46d0a	0.02983715
239	0x3d99971f	0.07499527
240	0xbc2f3974	-0.01069485
241	0xbd8b0bc8	-0.067893565
242	0xbdbfeee7	-0.09371739
243	0xbd28987b	-0.04116104
244	0xbdbf19fa	-0.093311265
245	0xbd569408	-0.052387267
246	0x3d894637	0.067028455
247	0x3ca14e3b	0.019690624
248	0x3d24b269	0.040209208
249	0x3d67ca7d	0.056589592
250	0x3db81a14	0.08989349
251	0x3dec0207	0.11523824
252	0xbcdf2eaf	-0.02724394
253	0x3befc1ef	0.00731682
254	0x3c899bf5	0.016797999
255	0x3d3672f1	0.04454321

layer1.bn1.weight f4 [16]
0	0x3f562a6d	0.83658487
1	0x3f873170	1.0561962
2	0x3f81576d	1.0104805
3	0x3f83f758	1.0309858
4	0x3f7e304f	0.99292463
5	0x3f81d353	1.0142616
6	0x3f5462df	0.82963365
7	0x3f72c008	0.94824266
8	0x3f806659	1.0031234
9	0x3f803d88	1.0018778
10	0x3f77c152	0.9677936
11	0x3f7c2a6d	0.98502237
12	0x3f642306	0.8911594
13	0x3f969f7e	1.1767423
14	0x3f6140d1	0.87989527
15	0x3f5a0b74	0.85173726

layer1.bn1.bias f4 [16]
0	0xbce2baac	-0.027676903
1	0xbd722762	-0.05911959
2	0x3d51da81	0.051233772
3	0xbd2b47c8	-0.041816503
4	0xbc6eee1c	-0.014583137
5	0xbd95c470	-0.07312858
6	0x3ab41a3d	0.001374073
7	0x3cac5b37	0.021039588
8	0xbdd142bd	-0.102178074
9	0xbe030fdc	-0.12799019
10	0x3d643934	0.055718616
11	0xbdc87273	-0.097874545
12	0xbe2d08d5	-0.168979
13	0x3d8f3e1e	0.0699427
14	0x3be945bb	0.007118908
15	0xbd473763	-0.048636805

layer1.bn1.running_mean f4 [16]
0	0x3f098a63	0.53726786
1	0xbd72793a	-0.059197642
2	0xbe9e9ffb	-0.3098143
3	0xbd3184d5	-0.04333957
4	0x3df920b1	0.121644385
5	0xbd8d6768	-0.06904489
6	0xbe734c31	-0.23759533
7	0xbf3ca04d	-0.736821
8	0xbe01c9f4	-0.12674695
9	0xbe272595	-0.1632293
10	0xbeec2720	-0.461236
11	0xbe86aef6	-0.2630536
12	0xbeb87f88	-0.360348
13	0xbecf6580	-0.40507126
14	0xbe5288bd	-0.20559974
15	0x3e9a8991	0.3018308

layer1.bn1.running_var f4 [16]
0	0x3efa3e39	0.48875597
1	0x3f85cdc8	1.0453424
2	0x3ed93a5c	0.42427337
3	0x3eac0535	0.33597723
4	0x3f467bd0	0.7753267
5	0x3f72073d	0.94542295
6	0x3ec304d2	0.38089615
7	0x3f29ec65	0.66376334
8	0x3ea550dd	0.32288256
9	0x3e5f325f	0.21796559
10	0x3f14466c	0.57919955
11	0x3f4ec324	0.8076651
12	0x3ea60402	0.32424933
13	0x3f04fad5	0.5194524
14	0x3ecfb911	0.40570882
15	0x3f0cff29	0.55076844

layer1.conv2.weight f4 [16, 16, 3, 3]
0	0xbda2ac6b	-0.07943042
1	0x3d4162e9	0.04721347
2	0x3c8cb387	0.017175449
3	0xbd043665	-0.032278437
4	0xbdad4107	-0.084596686
5	0x3d34ec5d	0.044170726
6	0x3ce19f49	0.027541773
7	0xbc90482d	-0.017612541
8	0xbc2d23f1	-0.010567651
9	0xbda22e01	-0.07918931
10	0xbdfd4647	-0.1236692
11	0xbd95c384	-0.07312682
12	0xbdd66c59	-0.104698844
13	0xbcf2c8a4	-0.029636689
14	0xbd1bc574	-0.038030103
15	0x3b858e3a	0.0040757926
16	0xbcc1a115	-0.02363638
17	0xbd1b4654	-0.037908867
18	0x3d4b2f31	0.049605552
19	0x3da30ab7	0.07961028
20	0xbb96c90b	-0.004601603
21	0xbb73eb68	-0.003721917
22	0x3e1ff008	0.15618908
23	0x3dd4eebb	0.10397097
24	0x3d77dcce	0.06051331
25	0x3d92fc85	0.071770705
26	0x3de98818	0.11402911
27	0xbc160d4b	-0.009158443
28	0xb9cb5a9a	-0.0003878668
29	0xbd208384	-0.039187923
30	0xbd146a3c	-0.036234125
31	0xbdc98e57	-0.09841602
32	0x3a46750c	0.0007570542
33	0xbdadfe1c	-0.08495733
34	0xb890590a	-6.88304e-05
35	0x3caa733d	0.020806903
36	0xbdbb3130	-0.09140241
37	0xbd362e8d	-0.044477988
38	0xbdcd4848	-0.10023552
39	0xbd41ab41	-0.04728246
40	0x3cbf4df5	0.023352602
41	0xbdb3b518	-0.08774775
42	0xbdc0c479	-0.09412474
43	0xbd6c3aab	-0.057673138
44	0x3bf43b03	0.007453324
45	0xbd5f8f7a	-0.05458019
46	0x3d3494fb	0.04408739
47	0x3c11a577	0.008889548
48	0xbdf66505	-0.12030987
49	0x3cd00015	0.025390664
50	0x3dacbb1c	0.08434126
51	0xbb7856dc	-0.003789357
52	0x3cfac27a	0.030610312
53	0xbc30787c	-0.010770913
54	0xbc4b6cdb	-0.01241609
55	0xbdc0bec4	-0.09411386
56	0xbdeac39d	-0.114630915
57	0xbc575d2f	-0.013144775
58	0xbd9ea09e	-0.07745479
59	0xbde75ce3	-0.112970136
60	0x38700730	5.7227153e-05
61	0xbd3ec509	-0.046574626
62	0xbd51995f	-0.051171657
63	0xbcd95a3d	-0.026532287
64	0x3ded5104	0.11587718
65	0x3e1a3472	0.15059069
66	0xbc8f4915	-0.017490903
67	0x3de0e3cb	0.10980948
68	0x3e025ae2	0.12729982
69	0xbd88df89	-0.06683261
70	0xbbdc0b23	-0.006715195
71	0xbcfa5d33	-0.030562019
72	0x3dabaf53	0.0838305
73	0xbd129ef7	-0.035796132
74	0xbdae8c7a	-0.085228875
75	0x3d21b87e	0.039482586
76	0x3d1e0625	0.03858008
77	0xbd8e54d6	-0.06949775
78	0x3c97c355	0.018525759
79	0x3e2d768f	0.16939758
80	0x3d065ad1	0.032801453
81	0x3d8c6536	0.06855242
82	0xbd0b0627	-0.033941414
83	0x3d2996c6	0.041403554
84	0x3cc863bb	0.024461618
85	0x3d953e99	0.0728733
86	0x3d10523a	0.035234667
87	0xbcd19d1b	-0.025587609
88	0x3d03f3de	0.03221499
89	0x3c7597d0	0.014989808
90	0x3d373f93	0.044738363
91	0x3d0042b5	0.031313617
92	0x3c30f323	0.010800156
93	0x3d877276	0.066136286
94	0xbd666dc4	-0.056257024
95	0x3d0b9ace	0.03408318
96	0x3dd8bc11	0.10582746
97	0xbbcfcb6b	-0.006341388
98	0xbdc74946	-0.09730773
99	0x3e149e07	0.14513408
100	0x3d03892b	0.032113235
101	0xbdabdf7a	-0.08392234
102	0x3e00acd6	0.12565932
103	0x3d814e0c	0.063137144
104	0x3ddb776c	0.10716137
105	0x3d1d013f	0.038331266
106	0x3dfa1403	0.12210848
107	0x3e221abf	0.15830515
108	0xbd83aa98	-0.064290226
109	0x3d0fbb65	0.035090823
110	0x3dd618d9	0.10453958
111	0x39e35f62	0.0004336788
112	0xbcace855	-0.021106878
113	0xbcacd031	-0.021095367
114	0xbc83d4f8	-0.016092762
115	0x3cbee938	0.023304567
116	0x3c9b3fc7	0.01895131
117	0x3d8c5242	0.06851627
118	0x3dc68cda	0.09694834
119	0x3d4c5f13	0.049895357
120	0x3dc26275	0.094914354
121	0x3e028d58	0.12749231
122	0x3dba7685	0.09104637
123	0x3b9d05b8	0.0047919415
124	0x3d6e5c43	0.058193456
125	0x3c6535b4	0.013989855
126	0x3da1583d	0.07878158
127	0x3b4fbb4a	0.0031697326
128	0xbdcd8cbe	-0.1003661
129	0x3da8b982	0.08238508
130	0x3d4b3e26	0.049619816
131	0xbd28e097	-0.04122981
132	0x3d9c6e60	0.0763824
133	0xbd61ca3a	-0.0551245
134	0xbd018ed1	-0.03163034
135	0x3d97cdfb	0.074123345
136	0x3de3e06b	0.11126789
137	0x3db1ae26	0.08675794
138	0xbcf27a99	-0.029599475
139	0x3d5143a2	0.05108989
140	0x3d02ff4d	0.031981755
141	0xbb335191	-0.002736185
142	0x3dc83cfa	0.09777255
143	0x3e0e74da	0.13911763
144	0x3d64713d	0.055772055
145	0xbcecab54	-0.02889029
146	0x3da59e64	0.08086851
147	0xbb46685d	-0.0030274608
148	0x3d8d0632	0.06885947
149	0x3cf37766	0.02972002
150	0x3daf3d4a	0.08556612
151	0x3d519643	0.05116869
152	0x3c00a1e2	0.007851096
153	0xbde4b565	-0.11167411
154	0xbe10bd6c	-0.14134759
155	0xbdcb8cb1	-0.09938944
156	0xbe164fa6	-0.14678821
157	0xbdc9ad42	-0.098474994
158	0x3cd93683	0.026515251
159	0xbe1cfdb0	-0.15331149
160	0xbde16650	-0.11005843
161	0x3cf5ed16	0.030020278
162	0xbd99b572	-0.07505311
163	0xbd95955d	-0.073038794
164	0xbc67fe93	-0.014159816
165	0xbd9584f7	-0.07300752
166	0xbcf01904	-0.029308803
167	0x3bd985f9	0.0066382852
168	0x3ceb2981	0.028706314
169	0x3d2f9095	0.042862494
170	0x3c4ba0a8	0.01242844
171	0xbe1891d5	-0.1489938
172	0xbe1ae27e	-0.15125462
173	0xbddde478	-0.108345926
174	0xbd76d40d	-0.06026082
175	0xbdefaaec	-0.11702523
176	0xbce76462	-0.028246108
177	0xbd8df45c	-0.069313735
178	0xbe149bd8	-0.14512575
179	0xbd36bdad	-0.044614483
180	0x3c45f771	0.01208292
181	0xbd7bc94e	-0.061471276
182	0xbe145b4f	-0.14487956
183	0xbb17a4f5	-0.0023139094
184	0xbd302f71	-0.043013994
185	0x3d3fc32f	0.046817
186	0xbc6bcd81	-0.014392258
187	0xbd2b8339	-0.04187319
188	0x3d19ecd4	0.037579373
189	0x3e1175f1	0.14205147
190	0x3d221ba3	0.039577138
191	0x3c1d91e1	0.0096173
192	0xbc56808b	-0.0130921705
193	0xbd0b826d	-0.03405993
194	0x3da115e0	0.078655005
195	0x3dc04f80	0.093901634
196	0x3c4f664d	0.012658668
197	0x3cec9b8d	0.028882766
198	0xbdc3c1f0	-0.09558475
199	0xbd650185	-0.055909652
200	0xbc84939e	-0.01618367
201	0xbced5fc1	-0.028976323
202	0x3ac4e953	0.0015023149
203	0x3b50a98d	0.0031839341
204	0xbdeb5aba	-0.11491914
205	0xbcca7f1b	-0.024718812
206	0xbcacecfa	-0.021109093
207	0x3d89ee4e	0.06734906
208	0xbe28cbc4	-0.1648398
209	0xbd96e9e1	-0.073688276
210	0x3c95fbd8	0.018308565
211	0xbe0dbc64	-0.13841397
212	0xbe1da8af	-0.15396379
213	0xbd4fafe1	-0.05070484
214	0xbd8d07fc	-0.068862885
215	0xbe1838f6	-0.14865479
216	0x3bc1d37a	0.0059151025
217	0xbcf355d3	-0.02970401
218	0xbd694828	-0.05695358
219	0xbc9fcdae	-0.019507255
220	0x3c8eec18	0.017446563
221	0x3c12490f	0.008928551
222	0xbccbdad1	-0.024884613
223	0xba06dce3	-0.0005144609
224	0x3c898c7d	0.016790623
225	0x3d87bf3f	0.06628274
226	0x3dba027d	0.09082506
227	0x3b149eca	0.0022677653
228	0x3d535caf	0.05160206
229	0x3d1921ad	0.03738563
230	0x3ce9a0a9	0.028518992
231	0x3d31ce92	0.04340989
232	0x3d614669	0.05499879
233	0x3aae6675	0.0013305681
234	0xbd9efe98	-0.07763404
235	0xbd7dbcab	-0.061947506
236	0x3ba24727	0.0049523297
237	0x3abb9969	0.0014312688
238	0xbda4c4d8	-0.080453575
239	0xbd3a9629	-0.04555336
240	0x3d474ee9	0.04865924
241	0x3d296b8b	0.041362327
242	0xbbf3aa21	-0.0074360524
243	0xbe1c2e04	-0.15251929
244	0xbda910d5	-0.082551636
245	0x3db49b48	0.0881868
246	0xbc82e853	-0.015979921
247	0xbe15f362	-0.14643624
248	0x3aeaf833	0.0017926752
249	0xbccd1492	-0.025034223
250	0xbd927038	-0.0715031
251	0x3cfe4f1b	0.03104358
252	0xbb778c8d	-0.0037772984
253	0x3d6286bd	0.055304278
254	0xbd4b64e2	-0.049656756
255	0x3d5bf32b	0.0536987

layer1.bn2.weight f4 [16]
0	0x3f78ec14	0.97235227
1	0x3f86e312	1.0538046
2	0x3f8a85ef	1.0822123
3	0x3f79601d	0.9741228
4	0x3f8535ce	1.0407045
5	0x3f7ac56d	0.979575
6	0x3f8cd010	1.1000996
7	0x3f73aeb7	0.9518847
8	0x3f558d9c	0.83419204
9	0x3f77d747	0.9681286
10	0x3f767cb7	0.9628405
11	0x3fb4b5a4	1.4117932
12	0x3f8f6a58	1.1204329
13	0x3f9310af	1.1489466
14	0x3f667066	0.90015256
15	0x3f77f511	0.96858317

layer1.bn2.bias f4 [16]
0	0x3dd7fd16	0.10546319
1	0x3d77ea15	0.060525972
2	0x3dda85f1	0.106700785
3	0x3e6450d9	0.22296466
4	0xbdd1672c	-0.102247566
5	0x3dc5164b	0.09623393
6	0x3d705e0e	0.058683448
7	0x3dcce3ef	0.100044124
8	0x3d2f2e02	0.042768486
9	0x3c8b51de	0.01700681
10	0x3e2d4363	0.16920237
11	0xbe5b82c9	-0.2143661
12	0xbd73277f	-0.05936384
13	0xbd0a8e13	-0.0338269
14	0x3e3d743d	0.18501373
15	0xbe60ee58	-0.21965921

layer1.bn2.running_mean f4 [16]
0	0x3f031823	0.51208705
1	0xbf5bfacb	-0.85929555
2	0xbe7f9e34	-0.24962693
3	0xbf16caa8	-0.5890298
4	0x3dc29536	0.09501116
5	0xbe181aa7	-0.14853917
6	0xbef263ec	-0.4734186
7	0x3f1af164	0.6052458
8	0x3ea5729f	0.3231401
9	0x3f4393c2	0.76397336
10	0xbed7653f	-0.42069432
11	0x3dea6715	0.114454426
12	0xbe1e9515	-0.15486558
13	0xbf5307aa	-0.8243357
14	0xbe878257	-0.2646663
15	0x3d0a90ff	0.033829685

layer1.bn2.running_var f4 [16]
0	0x3ed4f0cc	0.41589963
1	0x3ec35dfb	0.3815764
2	0x3ee01010	0.43762255
3	0x3ee92209	0.4553378
4	0x3e96feda	0.2949131
5	0x3eb36df9	0.3504484
6	0x3f11004c	0.5664108
7	0x3ee0ff9d	0.43945017
8	0x3ea81e3d	0.3283557
9	0x3f016f73	0.50560683
10	0x3ea75a2f	0.32685992
11	0x3f05d2cc	0.52274776
12	0x3f0cb5a7	0.5496468
13	0x3f4e9d3d	0.80708677
14	0x3eccaa77	0.39973804
15	0x3e5badb1	0.21452977

layer2.conv1.weight f4 [32, 16, 3, 3]
0	0x3ce77a1e	0.028256472
1	0xbd046dda	-0.032331325
2	0xbdbffad1	-0.09374011
3	0x3d49706d	0.049179483
4	0xbde6939f	-0.11258625
5	0xbca4c146	-0.020111691
6	0x3c5d0925	0.01349095
7	0xbdaf208e	-0.08551131
8	0xbe15fcb4	-0.1464718
9	0xbcb8c1c3	-0.02255333
10	0x3d5325f0	0.051549852
11	0x3e687dbf	0.22704218
12	0x3d2cad32	0.04215736
13	0x3d2d651a	0.042332746
14	0x3d4777af	0.048698124
15	0xbd390eed	-0.04518025
16	0x3d1c4225	0.038149018
17	0xbd14ae55	-0.03629907
18	0xbd93ee18	-0.07223147
19	0x39c4ecf0	0.00037560565
20	0x3deb9880	0.115036964
21	0x3b7bccf8	0.0038421731
22	0x3d3e70a2	0.046494134
23	0x3d429b47	0.047511365
24	0x3dbd8398	0.09253615
25	0x3e045c49	0.12925829
26	0x3d10054e	0.03516131
27	0x3dce8f2e	0.10085903
28	0x3d9c0ef2	0.07620038
29	0xb9b253da	-0.0003401328
30	0x3ca65a92	0.02030686
31	0x3db6042e	0.08887516
32	0x3e1bfbe7	0.15232812
33	0x3df3d2d8	0.1190545
34	0x3c02a8c7	0.00797481
35	0x3dbe12a3	0.092808984
36	0x3c9ec048	0.019378796
37	0x3cae8753	0.021304762
38	0x3de9e47c	0.11420533
39	0x3cc8a094	0.024490632
40	0x3dd5bcf4	0.104364306
41	0x3c905984	0.01762081
42	0x3b5bb626	0.0033525317
43	0xbce57a6a	-0.028012473
44	0xbca3d7ac	-0.020000301
45	0x3dd0581a	0.10173054
46	0x3cbcfcc0	0.02306974
47	0xbc341672	-0.0109916795
48	0x3ce7ed64	0.028311439
49	0xbc0b5c33	-0.008505869
50	0x3e0a35ef	0.13497137
51	0x3df81e10	0.12115109
52	0x3cf48eef	0.029853312
53	0x3c816023	0.015792912
54	0xbd8d542b	-0.069008194
55	0x3d9ec516	0.07752435
56	0x3d7dc89d	0.061958898
57	0x3ce06cf3	0.027395701
58	0x3e0403da	0.12892094
59	0x3cddf572	0.027094577
60	0x3dbf17ca	0.09330709
61	0x3d7bdd97	0.06149062
62	0xbd0a4b40	-0.03376317
63	0xbcc0b7fc	-0.02352523
64	0xbd31a2d7	-0.043368187
65	0x3c17b6e7	0.009259916
66	0xbd7ff07b	-0.0624852
67	0xbb73e5a5	-0.0037215736
68	0x3db7cd79	0.08974738
69	0xbd9f5ee2	-0.07781769
70	0x3a0dedb6	0.0005414145
71	0x3d909459	0.07059545
72	0x3cee2946	0.029072415
73	0x3978eb84	0.0002373886
74	0x3dcf561d	0.10123847
75	0xbd52eac0	-0.051493406
76	0x3da20782	0.07911588
77	0x3d98cb7a	0.07460685
78	0xbe23c376	-0.15992531
79	0x3cdc3b3c	0.026883714
80	0xbd4b16de	-0.049582355
81	0xbd3f627a	-0.046724774
82	0xbd6bd531	-0.057576362
83	0x3c405ef8	0.011741392
84	0xbdb35c0e	-0.087577924
85	0x3c59b538	0.013287835
86	0xbd2b881d	-0.041877855
87	0xbdef37d6	-0.11680572
88	0xbdd9f196	-0.10641782
89	0xbd2f6ad4	-0.04282649
90	0xbd929066	-0.07156448
91	0x3c7cc1dc	0.015427079
92	0x3e19696c	0.14981622
93	0xbdaeff62	-0.08544804
94	0xbd0fa808	-0.035072356
95	0xbcfe1e22	-0.031020228
96	0xbd47c2f6	-0.048769914
97	0xbd8fe4fb	-0.070260964
98	0xbc7c976d	-0.015416962
99	0x3d062f21	0.03275979
100	0x3dbf5993	0.09343257
101	0x3e10f9a0	0.14157724
102	0x3d991a5f	0.07475733
103	0x3e0dd5c5	0.13851078
104	0x3e01d46d	0.1267869
105	0x3d6165cf	0.055028733
106	0x3daad51e	0.0834143
107	0xbba9df53	-0.005184093
108	0xbda469e5	-0.0802801
109	0xbbb1f356	-0.005430619
110	0x3d899406	0.06717686
111	0xbd9162bf	-0.070989124
112	0xbd081809	-0.033226047
113	0x3d9b922b	0.07596239
114	0xbc2a865e	-0.010408012
115	0x3dc32435	0.0952839
116	0x3ddf3328	0.10898429
117	0xbd1d1e95	-0.038359243
118	0xbdd1896a	-0.10231288
119	0x3d65fafb	0.056147557
120	0xbcb8fb2c	-0.022580706
121	0xbd948d8f	-0.07253563
122	0xbd98320c	-0.07431421
123	0x3ca15abd	0.019696588
124	0x3d1033ff	0.035205837
125	0x3b441848	0.00299217
126	0xbdd6af89	-0.104826994
127	0xbe2d5313	-0.16926222
128	0xbce06a25	-0.027394364
129	0xbde4d769	-0.11173899
130	0xbdf9a466	-0.1218956
131	0xbca983c8	-0.020692721
132	0xbc037892	-0.008024352
133	0xbd9441c5	-0.07239107
134	0xbd993ae5	-0.07481936
135	0x3d60b72a	0.05486218
136	0x3e1b0e67	0.15142213
137	0x3dce7f3e	0.10082863
138	0x3d5a8fea	0.053359903
139	0x3e094f3c	0.13409132
140	0x3df6e4c9	0.12055356
141	0xbc395744	-0.01131231
142	0x3c72aedb	0.014812197
143	0x3d28b41a	0.041187383
144	0xbdea1334	-0.11429444
145	0x3d27b836	0.04094716
146	0x3d887b62	0.066641584
147	0xbda5ba4c	-0.08092174
148	0xbcf216ee	-0.02955195
149	0x3df30fc2	0.1186824
150	0xbcc44104	-0.023956783
151	0x3d95bbf6	0.07311241
152	0x3cf7dd42	0.030256871
153	0xbd6d59b3	-0.057946872
154	0xbcca5081	-0.02469659
155	0xbd59fa7e	-0.053217404
156	0xbd474851	-0.04865295
157	0x3d490dd3	0.04908545
158	0xbc8bc36e	-0.017060962
159	0xbdb40cdf	-0.087915175
160	0xbc9eafa8	-0.019370869
161	0x3b96da9c	0.004603697
162	0x3ce102dc	0.027467184
163	0xbd37537b	-0.044757348
164	0xbd108c52	-0.03529007
165	0x3c599de8	0.013282277
166	0x3c2b52fa	0.010456795
167	0x3d32d8b3	0.04366369
168	0x3ca65e76	0.020308714
169	0xbd601aa9	-0.054712925
170	0xbbad0245	-0.0052798116
171	0xbd8bd515	-0.068277515
172	0xbd1dd60c	-0.03853421
173	0x3c1e3d8e	0.0096582305
174	0x3db62942	0.08894588
175	0x3d76d168	0.0602583
176	0x3cf9e3ea	0.030504186
177	0x3db7c503	0.08973124
178	0x3e1934e8	0.14961588
179	0x3dba68cf	0.09102022
180	0x3c29804b	0.010345529
181	0x3cb6b9ae	0.022305336
182	0x3d9a3ea0	0.07531476
183	0x3d9857f8	0.07438654
184	0x3dc852cb	0.097814165
185	0x3de9aa52	0.11409439
186	0x3dba02e8	0.090825856
187	0x3d8690a3	0.06570556
188	0x3d99f2d2	0.075170174
189	0xbd67dd7d	-0.056607712
190	0x3d340f21	0.04395974
191	0x3da1e415	0.07904831
192	0x3ce5226a	0.027970511
193	0x3b39f52c	0.0028374894
194	0x3d8b0081	0.067872055
195	0x3d963987	0.07335191
196	0x3cfc6ea0	0.030814469
197	0x3d85d791	0.06535257
198	0x3d976878	0.07392973
199	0x3dee9fe6	0.11651592
200	0xbd0f33e3	-0.034961592
201	0x3cf17157	0.02947299
202	0x3db3b613	0.08774962
203	0x3cb29f01	0.021804335
204	0x3d89079e	0.06690906
205	0x3db8452d	0.08997569
206	0x3d4523e9	0.04812995
207	0xbccf4099	-0.025299357
208	0xbd07c55f	-0.033147212
209	0xbc413147	-0.011791534
210	0xbb9f6c17	-0.0048651802
211	0x3cd87034	0.02642069
212	0xba74a614	-0.0009332609
213	0x3c2fa09b	0.010719444
214	0x3da75e96	0.08172338
215	0x3dae6232	0.08514823
216	0xbd1585c5	-0.036504526
217	0x3c079995	0.008276363
218	0xbb49fce4	-0.00308209
219	0x3d4d52bc	0.05012773
220	0xbbe1cb25	-0.006890672
221	0x3d3be811	0.045875613
222	0x3dc74d9d	0.097316004
223	0x3deb081c	0.11476156
224	0x3dbfb9d4	0.09361616
225	0xbd1be77e	-0.038062565
226	0xbd8ea038	-0.06964153
227	0xbd2e7052	-0.042587586
228	0x3d16994b	0.036767285
229	0xbcbff96a	-0.02343436
230	0xbdc32edc	-0.09530422
231	0xbdab5286	-0.083653495
232	0x391c9f23	0.00014936602
233	0x3cf91784	0.030406721
234	0xbdb9dc4a	-0.0907522
235	0xbd552719	-0.05203924
236	0x3c021acd	0.00794096
237	0xbcfdc9a9	-0.030979948
238	0xbc92b8f4	-0.017910458
239	0xbcabe789	-0.020984428
240	0x3c5147d3	0.012773472
241	0x3c73602d	0.014854473
242	0x3c6a34aa	0.014294783
243	0xbe3dd574	-0.18538457
244	0xbe8c7c82	-0.27438742
245	0xbe5030ee	-0.20331165
246	0xbe83f63f	-0.25773808
247	0xbe94c010	-0.29052782
248	0xbe408d9c	-0.1880402
249	0xbe2ab2ce	-0.16669771
250	0xbde481ac	-0.111575454
251	0xbc36e2b8	-0.011162452
252	0x3d14981b	0.03627787
253	0x3a91c131	0.0011120198
254	0x3d2e1463	0.04249991
255	0x3dd54617	0.10413759

layer2.bn1.weight f4 [32]
0	0x3f6a7e27	0.91598743
1	0x3f71bd56	0.9442953
2	0x3f586090	0.8452234
3	0x3f697eeb	0.91209286
4	0x3f65c775	0.8975747
5	0x3f834821	1.0256387
6	0x3f76dafe	0.96427906
7	0x3f5e23de	0.8677348
8	0x3f692983	0.91078967
9	0x3f8014da	1.0006363
10	0x3f604239	0.8760105
11	0x3f80810d	1.0039383
12	0x3f79d52b	0.97590894
13	0x3f5edfb6	0.87060106
14	0x3f871828	1.0554247
15	0x3f61d5e8	0.8821702
16	0x3f861b4d	1.0477082
17	0x3f5b4e94	0.85666776
18	0x3f8c446b	1.095838
19	0x3f62bb90	0.8856745
20	0x3f6ea7e1	0.9322491
21	0x3f69cc7b	0.9132764
22	0x3f863b94	1.0486932
23	0x3f7ccef5	0.9875329
24	0x3f73f072	0.95288765
25	0x3f5e8c14	0.8693249
26	0x3f716d8a	0.9430777
27	0x3f7b5f94	0.98192716
28	0x3f6624f3	0.8990013
29	0x3f744221	0.95413405
30	0x3f6268ba	0.8844105
31	0x3f768441	0.96295553

layer2.bn1.bias f4 [32]
0	0xbdb0bebd	-0.086301304
1	0xbdcc4bb5	-0.099753775
2	0xbdcf38d7	-0.10118263
3	0xbd65ea05	-0.05613138
4	0xbe5e79b7	-0.21726118
5	0xbe2bce20	-0.16777849
6	0x3b26de92	0.0025462252
7	0xbe123552	-0.14278153
8	0xbe130f36	-0.14361271
9	0xbabb688f	-0.0014298129
10	0xbe19b2f2	-0.15009668
11	0xbe20568b	-0.15658014
12	0xbcc0ad7d	-0.023520226
13	0xbe0054a0	-0.12532282
14	0x3d230b36	0.039805613
15	0xbe3f33b9	-0.18672074
16	0xbda2758d	-0.07932577
17	0xbe3f5aac	-0.18686932
18	0xbded8717	-0.11598032
19	0xbd600f31	-0.054701988
20	0x3b89ba07	0.0042030844
21	0x3bd0262e	0.0063522076
22	0xbe0ab79a	-0.13546601
23	0xbd432961	-0.047646884
24	0xbdc4de7f	-0.0961275
25	0xbdc5827d	-0.09644029
26	0xbd608cf3	-0.05482192
27	0xbd8cfcad	-0.068841316
28	0xbe566d67	-0.20940171
29	0xbb730d9b	-0.0037086967
30	0xbda7d9d8	-0.08195847
31	0xbdbb02af	-0.09131371

layer2.bn1.running_mean f4 [32]
0	0x3f8fc4ab	1.1231893
1	0x3eba4f8e	0.3638882
2	0xbf80561f	-1.0026282
3	0xbf85c1d8	-1.0449781
4	0x3f0cabe5	0.5494979
5	0xbf16c357	-0.58891815
6	0xbfb7042b	-1.4298147
7	0x3f88b21e	1.0679357
8	0xbf8bf7bf	-1.0934981
9	0xbfeee932	-1.8664916
10	0xbf15ff76	-0.5859293
11	0xbf7ecca0	-0.9953098
12	0xbe0bde26	-0.13658962
13	0x3dd0dbde	0.10198186
14	0xbfd3c0f4	-1.654326
15	0x3f41aaa4	0.75651
16	0xbe8e7c4b	-0.27829203
17	0xbfb4ef7f	-1.4135588
18	0xbfab8a2b	-1.340154
19	0xbf14d2e6	-0.58134305
20	0xbf71c177	-0.9443583
21	0xbf93ab84	-1.1536717
22	0xbffa576c	-1.9557929
23	0xbf06ed00	-0.52705383
24	0xbedcc83c	-0.43121517
25	0xbf86001f	-1.0468787
26	0xbe03b103	-0.12860493
27	0xbf2aeaac	-0.6676433
28	0x3d4dbcde	0.050228946
29	0xc01f136c	-2.4855604
30	0xbfe1c215	-1.7637354
31	0xbf461bf5	-0.7738641

layer2.bn1.running_var f4 [32]
0	0x3f97fc94	1.1873956
1	0x3f92993e	1.1453016
2	0x3f3bc5f6	0.7334894
3	0x3fd7f24a	1.6870816
4	0x3f84352c	1.0328727
5	0x3fe12da7	1.7592057
6	0x3fd3825f	1.6524161
7	0x3f852ff7	1.0405263
8	0x3f76b7a1	0.96373945
9	0x3ff0bade	1.8807027
10	0x3f7f69dd	0.9977091
11	0x3fe3dca7	1.7801713
12	0x3fe7ce18	1.810977
13	0x3f80fe8f	1.0077685
14	0x3fd83c19	1.689334
15	0x3fa4cb01	1.2874452
16	0x3fd09887	1.6296548
17	0x3f3cf10f	0.73805326
18	0x3f90d2ca	1.1314328
19	0x3f78e1ae	0.9721936
20	0x3f26a38d	0.6509331
21	0x3f6b2391	0.91851145
22	0x3fdf5510	1.7447834
23	0x3fba17ed	1.4538552
24	0x3fa2ac24	1.2708783
25	0x3f4d9165	0.8029998
26	0x3f3c1dd3	0.7348301
27	0x3ff42016	1.9072292
28	0x3ec8b774	0.39202464
29	0x3f962f80	1.1733246
30	0x3fbde8e6	1.48367
31	0x3f68285e	0.90686595

layer2.conv2.weight f4 [32, 32, 3, 3]
0	0xbe4245d5	-0.18971951
1	0xbdd9890a	-0.10621841
2	0xbd33c3ba	-0.04388783
3	0x3d06fc1d	0.032955278
4	0xbd851617	-0.06498354
5	0xbc40e613	-0.011773604
6	0x3d9c09f6	0.076190874
7	0x3d268764	0.040656462
8	0x3cb2f8a8	0.021847084
9	0x3d1a230b	0.037631076
10	0x3df2b357	0.118506126
11	0x3c8cce6d	0.017188275
12	0xbced3159	-0.028954195
13	0x3c3478e7	0.0110151535
14	0x3c98e1b2	0.018662307
15	0x3c172e88	0.0092274025
16	0xbcee260c	-0.029070877
17	0xbe0bf5ef	-0.13668035
18	0x3d0ffacb	0.035151284
19	0xbc832672	-0.016009543
20	0xbda767c7	-0.08174091
21	0x3d815bc7	0.06316333
22	0x3c60775a	0.013700331
23	0x3bddaafc	0.0067647677
24	0xbd5520d8	-0.052033275
25	0xbd658275	-0.056032617
26	0xbe0341d4	-0.1281808
27	0x3dc1b109	0.09457595
28	0x3d72425b	0.059145313
29	0xbd6d4adb	-0.057932716
30	0x3cb3feec	0.021972142
31	0x3d1ed6dd	0.03877913
32	0x3d2eb470	0.042652547
33	0xbd880b25	-0.06642751
34	0xbcc44975	-0.023960808
35	0xbd9b82d8	-0.07593316
36	0x3c7620eb	0.015022497
37	0xbd0d3554	-0.034474686
38	0xbd30573f	-0.043051954
39	0xbe102772	-0.14077547
40	0xbd517edb	-0.05114637
41	0xbd81632d	-0.063177444
42	0xbc42796c	-0.01186977
43	0xbd4d5017	-0.050125208
44	0xbd24c4a2	-0.040226586
45	0xbdfaf548	-0.12253815
46	0x3c65b571	0.01402031
47	0x3db0ddd5	0.08636061
48	0xbdbd6a61	-0.09248806
49	0xbc14d9e4	-0.009085152
50	0x3cec347a	0.028833617
51	0x3d37fdf9	0.04491994
52	0x3cb309a4	0.021855183
53	0x3daafde4	0.08349207
54	0x3d882a51	0.06648696
55	0x3c09cda5	0.008410846
56	0xbd1d7b64	-0.038447753
57	0x3ccadc45	0.024763236
58	0xbc335e0c	-0.0109477155
59	0xbd1fa7c9	-0.03897837
60	0x3db1ef84	0.08688262
61	0x3d924b43	0.07143261
62	0xbd54a587	-0.05191567
63	0xbd2d225f	-0.042269107
64	0xbd877c7e	-0.06615542
65	0xbd3defeb	-0.04637138
66	0x3d3f0a2a	0.046640553
67	0x3c66495e	0.014055578
68	0xbd60217e	-0.05471944
69	0xbc79eca1	-0.015254171
70	0xbcb730e2	-0.022362176
71	0xbb5d2fd8	-0.003375044
72	0x3b8f0fa8	0.00436588
73	0xbd54b015	-0.051925737
74	0xbd3efb71	-0.046626512
75	0xbb431113	-0.0029764816
76	0x3d8b83a6	0.06812219
77	0x3d93c6d3	0.07215657
78	0x3c8e381c	0.01736074
79	0x3dda28eb	0.10652336
80	0x3d0a6703	0.033789646
81	0x3e02fa59	0.12790813
82	0x3d5cfd83	0.053952705
83	0xbd812a20	-0.06306863
84	0x3db64edc	0.0890176
85	0x3ccb300a	0.02480318
86	0xbdc6d5e5	-0.09708766
87	0xbd6c74d1	-0.057728592
88	0xbd543e32	-0.051817127
89	0xbdb24f03	-0.087064765
90	0x3d826440	0.063667774
91	0xbc346ea0	-0.011012703
92	0xbd684088	-0.056702167
93	0x3dd5638f	0.1041938
94	0x3cc6983d	0.024242515
95	0x3cb666ea	0.02226587
96	0x3e12e626	0.14345607
97	0x3d9d5363	0.076819204
98	0x3d9671f7	0.07345956
99	0x3d1d3f05	0.03839018
100	0x3bf9d715	0.0076245167
101	0xbd82e955	-0.06392161
102	0xbd416ee6	-0.0472249
103	0x3a74aea6	0.0009333886
104	0xbd84cb44	-0.06484082
105	0xbde1d442	-0.11026813
106	0xbdac4211	-0.08411039
107	0xbdc36095	-0.09539906
108	0xbdd1b30e	-0.1023923
109	0xbc761f67	-0.015022135
110	0xbda045d5	-0.078258194
111	0xbdaff133	-0.08590927
112	0x3d052910	0.032509863
113	0x3c2a4a04	0.010393623
114	0xbdb14c9c	-0.0865719
115	0xbc86b6ae	-0.01644453
116	0xbbcffb84	-0.0063471217
117	0x3d929477	0.07157224
118	0x3d4f908c	0.05067496
119	0x3db14e8f	0.08657562
120	0x3d8cd12a	0.068758324
121	0x3d945818	0.07243365
122	0xba562258	-0.000816857
123	0x3dc0e0c0	0.09417868
124	0xbccbf426	-0.024896692
125	0xbdc8f189	-0.09811694
126	0xbdf1a80f	-0.11799633
127	0xbdf3d39f	-0.11905598
128	0xbe0c252d	-0.13686056
129	0xbcf102b0	-0.029420227
130	0xbda740c1	-0.08166648
131	0xbdcde3f5	-0.10053245
132	0x3da41fd4	0.08013883
133	0x398cc563	0.00026849945
134	0x3d898e91	0.067166455
135	0xbdac5577	-0.084147386
136	0xbd55cb1a	-0.052195646
137	0x3cc4ad60	0.024008453
138	0x3cfaeb2b	0.030629715
139	0x3d9cd8bb	0.076585256
140	0x3d658376	0.056033574
141	0x3d8601d2	0.06543316
142	0xbc4e0752	-0.0125749875
143	0x3d1f4810	0.038887084
144	0x3b816fa8	0.003950078
145	0x3d91aeda	0.071134284
146	0x3e170298	0.14747083
147	0xbdbe6e49	-0.09298379
148	0xbce4d3d2	-0.027933035
149	0xbc6b17ba	-0.014348919
150	0xbd9351cf	-0.07193338
151	0xbde0f871	-0.109848864
152	0xbd4f3de9	-0.05059615
153	0xba8f374b	-0.0010926513
154	0x3c98893f	0.018620132
155	0x3d86ddc7	0.065852694
156	0xbcf8bdf1	-0.030364009
157	0xbbde19fd	-0.0067780004
158	0x3bfbff84	0.007690372
159	0xbd7a0ad6	-0.06104549
160	0x3c75395e	0.014967291
161	0x3cc986f5	0.024600485
162	0x3b99990a	0.004687433
163	0xbc1b51ac	-0.009479921
164	0xbd45d9cf	-0.04830342
165	0x3ab10aef	0.0013507287
166	0xbcdea2fc	-0.027177326
167	0xbcf217f9	-0.029552447
168	0xbd9b8308	-0.075933516
169	0xbdf3e22c	-0.11908373
170	0xbd4ed448	-0.050495416
171	0x3d0e3ec3	0.034727823
172	0x3cc8c7ac	0.024509273
173	0x3ce44b97	0.027868075
174	0xbcdd39c0	-0.027005076
175	0x3caeb96e	0.021328654
176	0x3d31de16	0.04342469
177	0x3ccbe0ef	0.02488753
178	0xbcf8e1e0	-0.030381143
179	0x3c9bee32	0.019034479
180	0xbc30dd41	-0.010794939
181	0xbd9ba718	-0.0760023
182	0xbdac6f14	-0.08419624
183	0x3c348af4	0.011019457
184	0x3d568f51	0.05238277
185	0x3d413885	0.04717304
186	0x3d0ddd3f	0.034634825
187	0x3d00ef4f	0.031478222
188	0x3de6b9f4	0.112659365
189	0x3ca7022d	0.02038678
190	0xbd5ba956	-0.05362829
191	0xbe24f34c	-0.16108435
192	0x3d26718f	0.04063564
193	0xbc0f7172	-0.008755075
194	0xbe23a137	-0.15979467
195	0x3e15e16e	0.14636776
196	0x3c8cf234	0.017205335
197	0xbc2616ee	-0.010137303
198	0x3dfe4dc0	0.124171734
199	0x3d9ef86a	0.07762225
200	0x3c75e689	0.015008577
201	0xbc3f3024	-0.011669192
202	0x3d97b7c1	0.07408095
203	0xbcb100a1	-0.021606745
204	0xbdcfca7b	-0.10146042
205	0xbd21ff66	-0.039550208
206	0xbdfe7a39	-0.12425656
207	0xbcd22dcd	-0.025656605
208	0xbd9eef60	-0.07760501
209	0xbc83f26c	-0.016106807
210	0xbdc9c4cc	-0.09851989
211	0xbdf561e5	-0.119815625
212	0xbd2e5036	-0.042556964
213	0xbde2cdd5	-0.110744156
214	0xbe10231d	-0.14075895
215	0xbddaf6bc	-0.10691592
216	0xbe195ac7	-0.14976035
217	0xbda8ed4f	-0.08248388
218	0x3d144d71	0.036206666
219	0xbd55b4ed	-0.052174497
220	0xbdad4cc6	-0.08461909
221	0xbcd30eb4	-0.025763847
222	0x3d58ce32	0.05293102
223	0x3cafd853	0.021465456
224	0x3c8315f3	0.016001677
225	0xbccd909e	-0.025093373
226	0x3d12ec41	0.03586984
227	0xbcdfcf19	-0.027320432
228	0x3cf9477c	0.030429594
229	0x3d6ac414	0.0573159
230	0x3d80a12e	0.062807426
231	0xbd49b96e	-0.049249105
232	0xbce901ba	-0.028443206
233	0x3db2936f	0.08719527
234	0xbd6f60af	-0.058441814
235	0xbda19137	-0.07889026
236	0xbd1f9e9d	-0.038969625
237	0xbd105135	-0.035233695
238	0xbc071690	-0.008245125
239	0x3d080a83	0.03321315
240	0xbd9873dc	-0.074439734
241	0xbd7b2f40	-0.061324358
242	0xbc0db6df	-0.008649557
243	0xbd10b52c	-0.03532903
244	0xbd273c9f	-0.040829297
245	0xbc057616	-0.00814583
246	0x3ce3779d	0.027766997
247	0x3dfac27c	0.12244126
248	0x3d491e29	0.04910103
249	0x3b0ab47b	0.0021164704
250	0xbc57bec0	-0.013168037
251	0xbcb4f327	-0.0220886
252	0x3cfd5728	0.030925348
253	0x3e0664d0	0.13124394
254	0x3db8846e	0.09009634
255	0x3c759c5b	0.014990891

layer2.bn2.weight f4 [32]
0	0x3f8e1b84	1.1102147
1	0x3f88490e	1.0647295
2	0x3f88e885	1.0695959
3	0x3f92f9e6	1.1482513
4	0x3f73d84b	0.9525191
5	0x3f8ae660	1.0851555
6	0x3f790e67	0.972876
7	0x3f964282	1.1739047
8	0x3f9a8130	1.2070675
9	0x3f8713c0	1.0552902
10	0x3f9b083b	1.2111887
11	0x3f99d4aa	1.2018025
12	0x3f8f6c42	1.1204913
13	0x3f918b2b	1.1370596
14	0x3f8a155c	1.0787768
15	0x3f96432e	1.1739252
16	0x3f882e83	1.0639194
17	0x3f8bad59	1.0912277
18	0x3f839935	1.028113
19	0x3f792354	0.9731953
20	0x3f897e12	1.0741599
21	0x3f828809	1.0197765
22	0x3f983ee3	1.1894192
23	0x3f93399f	1.150196
24	0x3f8bc791	1.0920278
25	0x3f9a9cdc	1.207912
26	0x3f8b57c4	1.0886159
27	0x3f94ec00	1.1634521
28	0x3f88ae19	1.067813
29	0x3f7bcf45	0.98363143
30	0x3f8f472b	1.1193594
31	0x3f9d4545	1.2286764

layer2.bn2.bias f4 [32]
0	0xbda33016	-0.07968156
1	0xbdc30758	-0.09522885
2	0xbd081193	-0.033219885
3	0xbe0a6b4c	-0.13517493
4	0xbdf6b5f0	-0.120464206
5	0xbdca4b6b	-0.09877666
6	0xbdefe5b0	-0.11713731
7	0xbe826013	-0.25463924
8	0xbdfca3b3	-0.12335911
9	0xbde8e813	-0.1137239
10	0xbe689030	-0.22711253
11	0xbe63c95e	-0.22244784
12	0xbddce062	-0.10784985
13	0xbda6aa51	-0.08137954
14	0xbdaa42e7	-0.08313542
15	0xbd606a97	-0.054789152
16	0xbe15578a	-0.14584175
17	0xbc32c2b0	-0.010910675
18	0xbdf9acb7	-0.12191146
19	0xbe0050e3	-0.12530856
20	0xbd9cb556	-0.076517746
21	0xbe3459e7	-0.1761242
22	0xbe0fe443	-0.14051919
23	0xbe21f2d0	-0.15815282
24	0xbd9df5a9	-0.077128716
25	0x3d903b21	0.07042528
26	0xbe19e9ca	-0.1503059
27	0xbd1a8d8e	-0.037732653
28	0xbd614ac7	-0.055002954
29	0xbb2729de	-0.0025507133
30	0xbdddf729	-0.10838158
31	0xbdc0de28	-0.09417373

layer2.bn2.running_mean f4 [32]
0	0xbf595ae2	-0.849043
1	0xbf08f14f	-0.5349321
2	0xbf1d147f	-0.613594
3	0xbf4a0d16	-0.7892622
4	0xbf07be02	-0.53024304
5	0xbde45e7b	-0.11150833
6	0x3f3e5a19	0.7435623
7	0xbed92b95	-0.42416063
8	0x3e1e6d50	0.15471387
9	0xbeb582de	-0.35451406
10	0xbea92afe	-0.33040613
11	0xbe83f83d	-0.25775328
12	0x3d6b4e10	0.057447493
13	0xbf0ebeff	-0.55760187
14	0xbec655af	-0.38737246
15	0xbf8353a0	-1.0259895
16	0xbdac5a4b	-0.084156595
17	0xbf58e65a	-0.8472649
18	0xbf48436a	-0.78227866
19	0x3f2ecc9a	0.6828095
20	0x3d0beed0	0.034163296
21	0x3ed34d06	0.41269702
22	0xbf6a36e6	-0.9149002
23	0xbecbad25	-0.39780536
24	0xbd1b066f	-0.037847932
25	0xbfb27839	-1.3942939
26	0xbe8a5b33	-0.27022704
27	0x3f3fbe98	0.749002
28	0xbe898d03	-0.26865396
29	0xbf7b8f15	-0.982652
30	0xbf6693d8	-0.9006934
31	0xbef8d761	-0.4860182

layer2.bn2.running_var f4 [32]
0	0x3efa1e6c	0.48851335
1	0x3ece22ab	0.40260825
2	0x3f1c4bb7	0.6105303
3	0x3ef8c67b	0.4858893
4	0x3ee74e6b	0.45177016
5	0x3f02ce14	0.510957
6	0x3f020cdf	0.5080089
7	0x3ef88b1d	0.48543635
8	0x3ef52a11	0.47883657
9	0x3f42672a	0.75938666
10	0x3eec3e55	0.46141306
11	0x3efcc971	0.49372438
12	0x3ef9a60a	0.4875949
13	0x3f223869	0.63367325
14	0x3ec9e39b	0.39431462
15	0x3f29cff7	0.66332954
16	0x3ee10a54	0.43953192
17	0x3f15e650	0.58554554
18	0x3f1bbfb1	0.6083937
19	0x3ef050d8	0.4693668
20	0x3ecf31f6	0.40467805
21	0x3f1f2a4e	0.62173927
22	0x3f0f2685	0.5591815
23	0x3ea7973a	0.32732564
24	0x3f2124d3	0.62946814
25	0x3f11e0c5	0.56983596
26	0x3f1bb82d	0.60827905
27	0x3f1f0e31	0.6213103
28	0x3f131e2c	0.57467914
29	0x3ee7830f	0.45217177
30	0x3f06f890	0.52723026
31	0x3f03788f	0.5135583
