Checkpoints/ResNet8_nckd_2.0_ResNet18_0.85.pth (torch, 334674 bytes, 47 tensors)

conv1.weight f4 [16, 3, 3, 3]
0.019175505 0.25245154 0.14434285 -0.28792375 0.021412963 0.24039733 -0.19032621 0.0059747426
-0.08112921 -0.2193057 0.1530756 -0.18285236 -0.39170608 0.043440063 0.2777178 -0.19052514
0.21856782 0.20193413 0.029461231 -0.016690016 -0.13102007 -0.15861747 -0.030269194 0.16220897
-0.11504309 0.24963473 0.041026242 0.08142138 0.022636829 0.31580403 -0.040851086 0.42004406
0.2500755 -0.13238126 0.16611081 -0.25860474 -0.18388744 -0.14272483 -0.06481203 -0.06835599
-0.10159504 -0.31614187 -0.1400237 -0.041547537 -0.049951073 0.10210164 -0.17433538 0.07315389
0.042415462 -0.0039336155 -0.20724884 0.17494571 0.19547622 0.050507557 0.27439898 -0.037444785
0.10466995 -0.15555061 0.032247897 -0.30429044 -0.10142339 -0.12716947 -0.2978072 -0.06622396
0.02459029 0.046758182 -0.021844458 0.07783728 -0.09570388 0.10564022 -0.06697953 -0.110338315
-0.14965929 -0.22048728 -0.23046938 0.070251025 0.3996778 0.3407534 0.0026636533 0.30755487
0.25427428 0.37404087 0.06803886 0.14328183 -0.07059525 -0.5698149 -0.13542631 0.14735037
-0.16455865 0.06417495 0.11553542 -0.0368848 0.020131273 -0.23284772 -0.74060607 -0.030019464
0.11251332 -0.05769378 0.089689575 -0.12512091 0.062351186 0.053718638 0.18620206 -0.15094468
-0.020118076 0.055894837 0.078840055 0.06459758 -0.24513377 0.15778634 0.08698262 0.09518031
0.1554424 -0.28914016 0.120420896 0.18575324 -0.23766163 0.14298843 -0.09346645 -0.2741767
0.3096848 0.11543185 -0.42172813 0.07158563 0.006464256 0.017430004 0.21515302 0.011067112
0.028936148 0.19006282 0.028274179 -0.29210928 -0.10139128 0.10645444 -0.0951423 -0.13446842
-0.009596088 0.13937914 -0.18006508 -0.4270002 0.020387562 -0.051367227 0.20390114 0.34577325
0.065993465 0.2567133 0.1488665 0.15875347 -0.34948805 -0.0034156311 -0.050125275 0.088800564
-0.21551569 0.021375285 0.034161713 -0.12696919 0.15054733 -0.33703002 -0.0017109922 0.026087416
0.3047313 -0.07456419 0.05170804 -0.14352325 -0.11435213 -0.13672715 0.44736618 0.07739009
-0.22627027 -0.025559513 0.0106641315 -0.10708043 -0.041947793 -0.17964359 -0.037376497 0.5417515
-0.078846894 0.09477308 -0.19417207 0.027183542 0.017932806 -0.059464205 0.08375155 -0.13918796
0.5059637 -0.17690907 0.112469815 -0.11382399 -0.17409474 0.14563745 -0.25163344 -0.00600958
-0.0032809402 -0.15587191 0.07410427 -0.11133022 0.5095644 0.3684543 0.2032486 -0.30897167
-0.14660503 -0.1226135 -0.22183663 -0.13258544 -0.20847192 -0.14235963 0.008720128 -0.034139078
-0.004544166 0.121501274 0.25399262 -0.17186269 0.11393615 -0.030897541 0.122632645 0.14572285
-0.19565213 -0.0946343 0.090846546 0.16884744 -0.131526 0.16289365 -0.07271812 0.25130928
0.02752702 -0.109309055 0.12279204 0.019880768 0.061817795 -0.40559468 -0.31041357 -0.0071007386
0.01891796 -0.00093181815 0.07204893 0.39939877 0.32294956 0.14888373 -0.09509947 -0.07145611
-0.01225717 -0.29125294 -0.3298103 0.12358919 -0.16890934 -0.18105508 0.048422325 -0.20198101
-0.04912626 0.08139089 0.2411285 -0.12294076 0.00643314 0.06962347 0.45085356 -0.040849753
00000000: f315 9d3c 5441 813e 9dce 133e be6a 93be
00000010: 3d6a af3c b82a 763e e0e4 42be c6c7 c33b
00000020: 1227 a6bd ac91 60be dabf 1c3e a63d 3bbe
00000030: b38d c8be 35ee 313d 0731 8e3e 0619 43be
00000040: 3ed0 5f3e d2c7 4e3e ae58 f13c 80b9 88bc
00000050: 202a 06be 9e6c 22be 1af7 f7bc 1c1a 263e
00000060: b69b ebbd 3fa0 7f3e 220b 283d 41c0 a63d
00000070: df70 b93c 11b1 a13e 7853 27bd 0410 d73e
00000080: e509 803e f48e 07be f418 2a3e d767 84be
00000090: fd4c 3cbe 7526 12be 2bbc 84bd 3afe 8bbd
000000a0: 0f11 d0bd 59dd a1be 5f62 0fbe c02d 2abd
000000b0: 7f99 4cbd aa1a d13d f984 32be b5d1 953d
000000c0: d6bb 2d3d 8fe5 80bb 0a39 54be f824 333e
000000d0: eb2a 483e 03e1 4e3d 067e 8c3e b45f 19bd
000000e0: 335d d63d a948 1fbe 5f16 043d f5cb 9bbe
000000f0: 11b7 cfbd b738 02be 2f7a 98be 6da0 87bd
00000100: 9371 c93c 8285 3f3d 26f3 b2bc 2769 9f3d
00000110: 6500 c4bd e659 d83d 902c 89bd 0ef9 e1bd
00000120: 4940 19be 6bc7 61be 2a00 6cbe c5df 8f3d
00000130: 92a2 cc3e 3b77 ae3e b090 2e3b d577 9d3e
00000140: 3d30 823e 4982 bf3e f557 8b3d 79b8 123e
00000150: 3e94 90bd 64df 11bf 32ad 0abe 04e3 163e
00000160: 1082 28be 286e 833d d69d ec3d 8414 17bd
00000170: 57ea a43c a26f 6ebe 5c98 3dbf 61eb f5bc
00000180: 626d e63d 5050 6cbd 2baf b73d b21f 00be
00000190: f563 7f3d 1308 5c3d c1ab 3e3e 3e91 1abe
000001a0: aace a4bc fcf1 643d e576 a13d bc4b 843d
000001b0: 5904 7bbe be92 213e f223 b23d e5ed c23d
000001c0: 4b2c 1f3e 2e0a 94be 3b9f f63d 1936 3e3e
000001d0: 925d 73be 8f6b 123e 576b bfbd e360 8cbe
000001e0: 028f 9e3e 8967 ec3d c0ec d7be 7d9b 923d
000001f0: 1cd2 d33b 5ec9 8e3c 1351 5c3e d552 353c
00000200: 800b ed3c d49f 423e 409f e73c 598f 95be
00000210: 3ba6 cfbd c904 da3d f7d9 c2bd 17b2 09be
00000220: e938 1dbc 68b9 0e3e fb62 38be c59f dabe
00000230: d103 a73c 7166 52bd 76cb 503e 3109 b13e
00000240: 9527 873d ed6f 833e 7670 183e 4590 223e
00000250: 19f0 b2be c8d8 5fbb 2950 4dbd 12dd b53d
00000260: 25b0 5cbe 391b af3c 27ed 0b3d 3604 02be
00000270: 1429 1a3e 338f acbe 5f43 e0ba 47b5 d53c
00000280: be05 9c3e 1cb5 98bd cfcb 533d c2f7 12be
00000290: 7331 eabd 3402 0cbe 2e0d e53e b27e 9e3d
000002a0: 65b3 67be 2f62 d1bc 9cb8 2e3c fc4c dbbd
000002b0: 73d1 2bbd 7df4 37be 1918 19bd 3ab0 0a3f
000002c0: 7b7a a1bd 6318 c23d 0bd5 46be 05b0 de3c
000002d0: d2e7 923c bd90 73bd ef85 ab3d 4a87 0ebe
000002e0: d686 013f a727 35be 9356 e63d 8d1c e9bd
000002f0: e445 32be fc21 153e 19d6 80be 03ec c4bb
00000300: 0b05 57bb e39c 1fbe fbc3 973d 1901 e4bd
00000310: d072 023f 0ba6 bc3e 6720 503e 8931 9ebe
00000320: a11f 16be c91c fbbd 2429 63be 7ac4 07be
00000330: aa79 55be b9c6 11be dede 0e3c 6bd5 0bbd
00000340: 3ae7 94bb a9d5 f83d 520b 823e c6fc 2fbe
00000350: 5b57 e93d d71c fdbc d326 fb3d 5f38 153e
00000360: 0859 48be a1cf c1bd c10d ba3d 58e6 2c3e
00000370: c0ae 06be 98cd 263e 3ded 94bd 9cab 803e
00000380: 5880 e13c 6ddd dfbd 657a fb3d fedc a23c
00000390: a834 7d3d 1baa cfbe 87ee 9ebe 50ad e8bb
000003a0: d6f9 9a3c 4245 74ba 648e 933d ff7d cc3e
000003b0: a559 a53e fa74 183e 83c3 c2bd 9557 92bd
000003c0: 4cd2 48bc 1b1f 95be e5dc a8be 541c fd3d
000003d0: 92f6 2cbe 8166 39be 7d56 463d 1cd4 4ebe
000003e0: 9e38 49bd 44b0 a63d 64ea 763e 5dc8 fbbd
000003f0: 17cd d23b c096 8e3d 47d6 e63e 1252 27bd

bn1.weight f4 [16]
0.8701831 0.40776265 0.4470294 1.0864458 0.7948787 0.86594903 1.330569 0.60840833
0.6658708 0.55170566 0.5248442 0.3666474 0.6775278 0.45070398 0.6252001 0.782885
00000000: 52c4 5e3f 44c6 d03e 0ae1 e43e a810 8b3f
00000010: 2c7d 4b3f d6ae 5d3f 1650 aa3f a6c0 1b3f
00000020: 8276 2a3f 953c 0d3f 315c 063f 35b9 bb3e
00000030: 7672 2d3f acc2 e63e 1d0d 203f 276b 483f

bn1.bias f4 [16]
0.27953243 0.26719183 0.19246458 -0.4505651 0.47608805 0.600078 0.63108194 0.16930069
0.21207902 0.7189446 0.28976712 0.15740971 -0.4081963 0.32449162 0.2937616 0.40962225
00000000: e01e 8f3e 5ecd 883e 6f15 453e 78b0 e6be
00000010: d0c1 f33e b69e 193f 968e 213f 295d 2d3e
00000020: 3e2b 593e c10c 383f 5b5c 943e 0330 213e
00000030: 1bff d0be c423 a63e ec67 963e 02ba d13e

bn1.running_mean f4 [16]
-0.043389484 0.005038275 -0.025676902 0.30462798 -0.017813787 0.0403567 -0.071536586 0.044096768
0.102436684 0.0062279305 -0.004815057 0.0068863137 0.21507473 -0.12171137 -0.08910044 -0.06429161
00000000: 2cb9 31bd 1d18 a53b 5e58 d2bc 33f8 9b3e
00000010: 38ee 91bc 114d 253d c681 92bd d09e 343d
00000020: 53ca d13d ab13 cc3b a0c7 9dbb 96a6 e13b
00000030: 8d3c 5c3e d043 f9bd 4b7a b6bd 52ab 83bd

bn1.running_var f4 [16]
1.2296218 0.22371528 0.4223524 2.1467164 1.2106262 0.2991187 0.4866899 0.56397396
0.52614945 0.11457409 0.5624499 0.15277593 2.1336226 0.48136407 2.5475721 0.5510634
00000000: 3f64 9d3f 9e15 653e 933e d83e cd63 0940
00000010: cdf5 9a3f 1626 993e 6b2f f93e 9960 103f
00000020: bbb1 063f d2a5 ea3d b7fc 0f3f 4b71 1c3e
00000030: 468d 0840 5a75 f63e 6c0b 2340 7e12 0d3f

layer1.conv1.weight f4 [16, 16, 3, 3]
0.12849341 0.55583274 0.08586322 -0.229432 0.20063458 0.10828378 -0.26339325 0.008321916
-0.028844971 -0.08812875 0.074689806 0.17530237 -0.19920458 -0.16169693 0.17816432 -0.044054814
-0.023979135 -0.2360514 0.05428542 0.20789719 -0.13114807 -0.17253284 -0.0009141312 0.011978399
0.01844321 -0.119889215 0.027975924 0.043124825 -0.075375736 -0.2232438 0.43986225 0.34040952
0.2534563 -0.35923362 -0.088851675 0.070313856 0.024741622 0.20202355 -0.29884514 -0.13303083
0.17249723 0.08411857 -0.04099365 0.041892126 -0.04868597 -0.07452301 -0.006263909 0.10175912
0.07365659 0.08245474 0.030284852 -0.09626173 0.22614302 -0.12975565 0.15898572 0.2440292
0.06148643 -0.2544501 -0.026399782 -0.0887174 0.100226164 0.0061074453 0.2191031 0.06636286
-0.13966206 -0.019450853 -0.07390508 -0.09328439 0.15859257 -0.056102034 -0.055688467 0.080846086
-0.060931653 -0.38209498 -0.030212574 0.25395912 0.15641586 0.041094296 -0.07412004 0.21741892
0.13671835 -0.2289137 0.0441626 0.19707839 -0.026638623 -0.065572254 -0.00044282115 -0.09504984
-0.079511225 -0.2812777 0.025685329 0.27103114 -0.015744282 -0.18090893 0.14431775 0.30321896
0.008594212 -0.13114129 0.07842458 0.481914 0.5332992 0.07241162 -0.09260735 0.18935302
-0.046460293 -0.4464579 0.09917136 0.18370764 -0.011094223 0.13133684 -0.034096364 -0.06433156
-0.14888173 -0.21588208 0.11406593 0.3686206 0.09473639 -0.025054567 -0.09324537 -0.15240856
-0.035408214 -0.040168073 -0.188162 0.18620782 0.15340608 -0.21063162 0.0040127016 0.042168528
-0.42330152 -0.054822825 0.04748396 0.018991172 -0.10273301 0.011321056 0.06217534 -0.17402077
0.10840317 -0.24486971 -0.27956697 0.13782364 0.22335345 -0.072166234 0.2124818 0.12565823
0.09062135 -0.19311674 0.020199051 -0.039244633 -0.023910983 0.101981305 -0.01765756 0.0026857012
-0.07013256 0.18350059 0.232415 0.13635544 0.16930169 0.06690247 -0.038496725 -0.27201033
-0.11049389 -0.07068061 -0.19030182 -0.108178996 -0.08456449 -0.15462437 -0.0880399 -0.01878389
0.11802004 0.20577681 0.38634488 -0.057651803 -0.02873666 0.028000029 -0.004965434 0.09887579
0.112803176 0.18968049 -0.07464585 -0.009658827 0.08084636 0.042716697 0.105564065 0.0067149485
-0.02069714 -0.16968656 0.042896952 -0.1040989 0.037215237 -0.11605636 -0.3566701 -0.32581553
0.10070821 0.47388032 0.38239127 -0.052554835 -0.06936548 -0.058980174 0.15791285 0.4693781
0.1937546 -0.22054572 -0.50642973 -0.52928215 0.10202424 0.2048021 0.3627329 -0.015086425
-0.1088106 -0.24942906 -0.09272814 0.035233434 -0.06177898 -0.036899343 0.07683794 0.044196427
0.09649539 -0.009427777 0.07762795 0.042901352 0.109871104 -0.028938077 -0.08373242 -0.29675773
-0.1201888 0.21813819 0.08221667 -0.054211594 -0.22336411 -0.17146847 -0.005091336 0.0867249
0.19936651 -0.06418513 -0.061312556 -0.09380789 0.08978859 -0.0093327 -0.01823868 0.13115904
-0.036039162 -0.1292054 -0.052801568 -0.01567203 -0.2973796 -0.055180307 -0.018371476 0.27595517
0.31736976 -0.015162903 -0.05734522 -0.26551315 -0.1119356 -0.07126256 -0.19112363 0.069217026
00000000: c793 033e 0e4b 0e3f 0ed9 af3d 39f0 6abe
00000010: 2773 4d3e e3c3 dd3d 7bdb 86be a558 083c
00000020: 4a4c ecbc d97c b4bd f8f6 983d 7782 333e
00000030: 49fc 4bbe e193 25be b570 363e d272 34bd
00000040: e46f c4bc 75b7 71be 635a 5e3d 00e3 543e
00000050: ae4b 06be 73ac 30be 4ea2 6fba 0c41 443c
00000060: 3716 973c 7a88 f5bd c42d e53c a8a3 303d
00000070: 985e 9abd 069a 64be a035 e13e 284a ae3e
00000080: 06c5 813e 78ed b7be def7 b5bd b600 903d
00000090: f1ae ca3c 43df 4e3e 3b02 99be 3c39 08be
000000a0: 1da3 303e 5b46 ac3d f5e8 27bd 1497 2b3d
000000b0: f16a 47bd 859f 98bd 7a41 cdbb 1667 d03d
000000c0: 44d9 963d 08de a83d f017 f83c df24 c5bd
000000d0: 0992 673e aade 04be 27cd 223e cae2 793e
000000e0: 32d9 7b3d 4947 82be 5b44 d8bc 78b1 b5bd
000000f0: 6043 cd3d f720 c83b 905c 603e 40e9 873d
00000100: 9203 0fbe 6557 9fbc 8c5b 97bd e30b bfbd
00000110: 1766 223e 3fcb 65bd 9719 64bd a292 a53d
00000120: 7893 79bd f4a1 c3be 5c80 f7bc ee06 823e
00000130: 7b2b 203e 7e52 283d 3fcc 97bd 11a3 5e3e
00000140: e5ff 0b3e 5a68 6abe d8e3 343d ebce 493e
00000150: 3e39 dabc bf4a 86bd 732a e8b9 7ea9 c2bd
00000160: c8d6 a2bd a103 90be 0a6a d23c 98c4 8a3e
00000170: 27fa 80bc 3140 39be 08c8 133e 843f 9b3e
00000180: bdce 0c3c e749 06be 119d a03d 6fbd f63e
00000190: 4c86 083f 8b4c 943d eca8 bdbd c2e5 413e
000001a0: 264d 3ebd 2196 e4be 5b1a cb3d db1d 3c3e
000001b0: 8bc4 35bc 2a7d 063e a1a8 0bbd 44c0 83bd
000001c0: 7474 18be 3110 5dbe 669b e93d d7bb bc3e
000001d0: 2705 c23d 3c3f cdbc 6ef7 bebd fd10 1cbe
000001e0: 3408 11bd 4787 24bd 8aad 40be 43ad 3e3e
000001f0: 7c16 1d3e d1af 57be fb7c 833b e8b8 2c3d
00000200: faba d8be e68d 60bd 8a7e 423d 6093 9b3c
00000210: af65 d2bd f37b 393c 92ab 7e3d 8032 32be
00000220: 7b02 de3d 20bf 7abe 6723 8fbe a421 0d3e
00000230: c4b6 643e e4cb 93bd d494 593e 8dac 003e
00000240: b097 b93d 65c0 45be 7b78 a53c fbbe 20bd
00000250: f7e0 c3bc 93db d03d 96a6 90bc 9702 303b
00000260: a9a1 8fbd 94e7 3b3e 33fe 6d3e c3a0 0b3e
00000270: 6c5d 2d3e 2a04 893d beae 1dbd f044 8bbe
00000280: 9f4a e2bd ffc0 90bd 7bde 42be f38c ddbd
00000290: 2630 adbd da55 1ebe 434e b4bd ace0 99bc
000002a0: 7eb4 f13d 28b7 523e ffce c53e 4c24 6cbd
000002b0: 2569 ebbc 5160 e53c 14b5 a2bb 647f ca3d
000002c0: 5a05 e73d 9a3b 423e ecdf 98bd 0f40 1ebc
000002d0: c792 a53d b4f7 2e3d f931 d83d 1209 dc3b
000002e0: 0c8d a9bc 50c2 2dbe b7b4 2f3d ce31 d5bd
000002f0: 016f 183d f5ae edbd 779d b6be 4bd1 a6be
00000300: 1b40 ce3d 71a0 f23e cac8 c33e bd43 57bd
00000310: 7d0f 8ebd 3295 71bd e8b3 213e 5452 f03e
00000320: 9b67 463e bdd6 61be 61a5 01bf 097f 07bf
00000330: 16f2 d03d a4b7 513e 20b8 b93e 0d2d 77bc
00000340: 18d8 debd 556a 7fbe 40e8 bdbd ef50 103d
00000350: f50b 7dbd c423 17bd 365d 9d3d 5007 353d
00000360: 609f c53d f676 1abc 67fb 9e3d 54b9 2f3d
00000370: 1a04 e13d 8c0f edbc e77b abbd a1f0 97be
00000380: 8c25 f6bd 9e5f 5f3e 3761 a83d fa0c 5ebd
00000390: 90b9 64be 6e95 2fbe 39d5 a6bb d39c b13d
000003a0: bc26 4c3e 7e73 83bd e022 7bbd 5a1e c0bd
000003b0: 15e3 b73d 2ee8 18bc 4969 95bc 8e4e 063e
000003c0: cd9d 13bd 6c4e 04be 7546 58bd a162 80bc
000003d0: 2442 98be bf04 62bd c77f 96bc ff49 8d3e
000003e0: 4a7e a23e d36d 78bc d2e2 6abd 57f1 87be
000003f0: 7e3e e5bd 1bf2 91bd eab5 43be a8c1 8d3d

layer1.bn1.weight f4 [16]
0.75504726 1.1986187 0.9196107 0.8506279 0.91449624 1.15193 0.72104686 0.89237934
1.0672725 1.1414895 0.99668425 1.1160547 0.8107486 1.2503215 0.6931256 0.9836937
00000000: c74a 413f 566c 993f 9b6b 6b3f c0c2 593f
00000010: 6d1c 6a3f 7172 933f 8796 383f f972 643f
00000020: 639c 883f 541c 923f b326 7f3f e1da 8e3f
00000030: 388d 4f3f 890a a03f ae70 313f 5ad3 7b3f

layer1.bn1.bias f4 [16]
-0.012543462 -0.041625794 0.053232785 0.008138704 0.108467594 -0.06659279 -0.017010856 0.31351614
-0.05115587 -0.1447986 0.23591997 -0.05789216 -0.13029584 0.14947738 0.028048482 -0.14751549
00000000: 1883 4dbc cf7f 2abd 9f0a 5a3d 3358 053c
00000010: 4224 de3d cd61 88bd 5a5a 8bbc 3085 a03e
00000020: d188 51bd 1646 14be 0195 713e 5420 6dbd
00000030: 466c 05be 9910 193e eec5 e53c 4d0e 17be

layer1.bn1.running_mean f4 [16]
0.5593882 -0.04723532 -0.7394489 -0.26164484 0.43078145 -0.33452597 -0.42093033 -1.2438375
-0.12883782 -0.6734735 -1.4333501 -0.2175978 -1.3826296 -0.692818 0.81163317 -0.3652515
00000000: 1134 0f3f d379 41bd 864c 3dbf 50f6 85be
00000010: 638f dc3e fd46 abbe 2e84 d7be 1136 9fbf
00000020: 10ee 03be c268 2cbf 0478 b7bf f5d1 5ebe
00000030: 02fa b0bf 855c 31bf 31c7 4f3f 3f02 bbbe

layer1.bn1.running_var f4 [16]
1.4756175 6.316021 1.1015604 0.7080594 3.1395743 5.387749 0.95704895 1.5599214
2.4835384 1.2222888 2.726978 4.257004 1.0722954 3.0414197 2.395856 4.155959
00000000: 09e1 bc3f d81c ca40 eeff 8c3f 6143 353f
00000010: c9ee 4840 7168 ac40 2901 753f 81ab c73f
00000020: 4bf2 1e40 f673 9c3f cf86 2e40 6039 8840
00000030: fa40 893f 9fa6 4240 b455 1940 9efd 8440

layer1.conv2.weight f4 [16, 16, 3, 3]
-0.06420934 -0.04521763 0.14404568 0.09835309 -0.053218048 0.21960013 0.12757005 0.051789124
0.18076688 0.036037143 -0.10841107 0.002936953 -0.27429175 -0.11766488 -0.029109333 -0.20655036
-0.05591896 -0.07715817 0.25050744 0.20293549 -0.23355038 0.124799795 0.3805975 0.18978143
-0.14972793 0.26306644 0.48757476 0.10624957 -0.08872954 -0.24467035 -0.09965432 -0.16762826
0.023676317 -0.24272685 -0.11806854 0.099550046 -0.29253107 -0.066151425 -0.105161704 -0.25299308
0.008112599 -0.06691828 -0.40113056 -0.23450924 -0.19716586 -0.117735386 0.04138732 0.019415779
-0.1778958 0.16006711 0.18475264 -0.11948974 0.2921176 0.119504295 -0.10096644 -0.20299636
-0.06086446 -0.006443716 -0.28558078 -0.20680666 0.027913727 -0.10152603 0.043167885 -0.020763272
0.31737497 0.3589963 -0.08386536 0.28078702 0.30545753 -0.116763785 0.043599773 0.06056294
0.24554071 0.016879056 -0.052910455 0.22092679 0.1501239 -0.06176137 0.091331795 0.23310211
0.17093925 0.16486098 0.00028670378 -0.17850865 0.10257671 0.07982864 -0.039176572 -0.05911298
-0.08410903 -0.06634211 0.11233751 -0.13828653 -0.03933393 0.13058342 -0.15440926 -0.023249222
0.05731726 0.028124215 0.0036427714 0.29367754 0.07070157 -0.27827594 0.10577279 0.10684282
0.044427283 0.06365439 0.29501784 0.33953935 -0.20117307 0.14487459 0.14849123 -0.04171674
0.07267831 0.120047115 0.12837964 0.1857602 0.3478889 0.089794956 0.09792409 0.059581246
0.123445585 0.2741328 0.2327474 0.036294322 0.08885476 0.00499814 0.1306518 0.0973191
0.07165712 0.05144785 0.1786888 0.08322101 -0.07399349 -0.07654057 0.06749471 0.03836425
0.0284511 0.081266165 -0.08828919 -0.046520006 0.21485014 -0.04163964 0.14262624 0.31938064
0.024927095 0.07021665 0.16895403 0.021227706 0.23036544 0.09922078 0.09313391 0.17966606
0.03276243 -0.398103 -0.4060872 -0.25994626 -0.5252463 -0.36909315 -0.2399304 -0.34341323
-0.24510647 -0.053325724 -0.18889894 -0.13935034 0.096499376 -0.041140933 0.0406973 0.12931754
0.3145191 0.15604678 0.091271915 -0.105920844 -0.17753531 -0.11459021 -0.15287334 -0.3096867
-0.13542221 -0.065740176 -0.36571229 -0.14513318 -0.059991375 -0.17786981 -0.2742458 0.030232806
0.032298002 0.05526668 -0.009645025 -0.025458772 0.03431452 0.19829294 0.080780625 0.042906627
0.1046294 0.0041448637 0.11696594 0.083659336 0.016340127 -0.038108848 -0.18430178 -0.01356619
0.3217075 -0.26291096 -0.2286173 0.19993725 -0.18384245 -0.2948357 -0.1304664 -0.13684937
-0.4524642 -0.03736101 -0.17671227 -0.43314353 -0.4184141 -0.015372961 -0.19955269 -0.3902099
0.02087145 -0.0428018 0.043852277 -0.018508209 0.05366007 0.11172965 -0.056339893 -0.028793385
0.09736985 0.02987801 0.11769312 0.035699293 0.14403136 0.16545905 0.10566318 0.1289489
0.17833744 0.14465678 -0.08729292 -0.15387373 -0.06870171 0.1221652 -0.02960319 -0.053058036
0.1577243 0.2832924 0.07339685 -0.17544487 0.086865306 0.27632588 -0.032659177 -0.095385626
0.15153022 -0.11882137 -0.20005836 -0.042165406 -0.036054123 -0.20777704 -0.11392959 0.0940336
00000000: 3080 83bd 1f36 39bd b680 133e 586d c93d
00000010: 2bfb 59bd dbde 603e b9a1 023e d520 543d
00000020: f41a 393e af9b 133d a006 debd e579 403b
00000030: f86f 8cbe 49fa f0bd b276 eebc f081 53be
00000040: 480b 65bd 1a05 9ebd 8342 803e 52ce 4f3e
00000050: d527 6fbe 0997 ff3d addd c23e 1056 423e
00000060: 4752 19be a5b0 863e 66a3 f93e 6099 d93d
00000070: d5b7 b5bd dd8a 7abe 9017 ccbd bea6 2bbe
00000080: d6f4 c13c 638d 78be ebcd f1bd e5e0 cb3d
00000090: a2c6 95be 667a 87bd 055f d7bd 4f88 81be
000000a0: b5ea 043c 740c 89bd fc60 cdbe 3123 70be
000000b0: d9e5 49be 401f f1bd c085 293d d70d 9f3c
000000c0: 512a 36be a2e8 233e cc2f 3d3e 09b7 f4bd
000000d0: 7090 953e abbe f43d 7ec7 cebd 47de 4fbe
000000e0: 034d 79bd cf25 d3bb a537 92be 20c5 53be
000000f0: 54ab e43c e1ec cfbd cfd0 303d bd17 aabc
00000100: f97e a23e 5dce b73e 9ac1 abbd 51c3 8f3e
00000110: ee64 9c3e da21 efbd ad95 323d d810 783d
00000120: 066f 7b3e f245 8a3c a2b8 58bd a23a 623e
00000130: 14ba 193e 7ef9 7cbd 2a0c bb3d 52b2 6e3e
00000140: b30a 2f3e 51d1 283e bb50 9639 f9ca 36be
00000150: bd13 d23d 337d a33d 9d77 20bd 7420 72bd
00000160: 5b41 acbd 5fde 87bd 3511 e63d fc9a 0dbe
00000170: 9d1c 21bd a9b7 053e 761d 1ebe 2775 bebc
00000180: 81c5 6a3d c164 e63c 90bb 6e3b e75c 963e
00000190: fccb 903d 2f7a 8ebe 689f d83d 69d0 da3d
000001a0: 62f9 353d 3c5d 823d 940c 973e 1ad8 ad3e
000001b0: 5000 4ebe 015a 143e 160e 183e 2cdf 2abd
000001c0: 5ed8 943d 43db f53d f475 033e ec37 3e3e
000001d0: 7e1e b23e 6be6 b73d 6d8c c83d 770b 743d
000001e0: 0ad1 fc3d 225b 8c3e 5655 6e3e 5ba9 143d
000001f0: 7cf9 b53d 70c7 a33b 96c9 053e 3c4f c73d
00000200: f8c0 923d fbba 523d 32fa 363e c76f aa3d
00000210: e689 97bd 4dc1 9cbd ab3a 8a3d d523 1d3d
00000220: 4812 e93c e06e a63d f6d0 b4bd c38b 3ebd
00000230: ad01 5c3e 548e 2abd 9d0c 123e dc85 a33e
00000240: e833 cc3c bfcd 8f3d 4902 2d3e bae5 ad3c
00000250: ebe4 6b3e 4434 cb3d febc be3d 61fa 373e
00000260: e631 063d 28d4 cbbe a9ea cfbe ad17 85be
00000270: 8b76 06bf c7f9 bcbe 51b0 75be dcd3 afbe
00000280: 31fd 7abe 136c 5abd b96e 41be dbb1 0ebe
00000290: 77a1 c53d 6583 28bd 36b2 263d d16b 043e
000002a0: a608 a13e baca 1f3e c5ec ba3d 07ed d8bd
000002b0: d1cb 35be 46ae eabd d48a 1cbe 418f 9ebe
000002c0: 1fac 0abe c9a2 86bd a43e bbbe cb9d 14be
000002d0: 84b9 75bd 8123 36be f269 8cbe caaa f73c
000002e0: e94a 043d 505f 623d 2b06 1ebc ea8e d0bc
000002f0: 628d 0c3d 4e0d 4b3e 5070 a53d dcbe 2f3d
00000300: f047 d63d a3d1 873b d78b ef3d 9655 ab3d
00000310: bbdb 853c 0618 1cbd 9bb9 3cbe ba44 5ebc
00000320: d8b6 a43e 449c 86be a71a 6abe 5abc 4c3e
00000330: 3241 3cbe b4f4 96be fc98 05be 3e22 0cbe
00000340: 63a9 e7be dc07 19bd 10f4 34be fdc4 ddbe
00000350: 5f3a d6be dfde 7bbc 8a57 4cbe 98c9 c7be
00000360: 9afa aa3c f150 2fbd 729e 333d 879e 97bc
00000370: a9ca 5b3d 84d2 e43d a9c4 66bd 1be0 ebbc
00000380: d869 c73d bac2 f43c 1709 f13d 6c39 123d
00000390: f57c 133e 196e 293e f065 d83d 2e0b 043e
000003a0: 179e 363e e820 143e a1c6 b2bd 1391 1dbe
000003b0: 7bb3 8cbd c031 fa3d 6482 f2bc 6253 59bd
000003c0: 7b82 213e b40b 913e 1651 963d d2a7 33be
000003d0: 70e6 b13d 967a 8d3e a1c5 05bd 8a59 c3bd
000003e0: bd2a 1b3e 9e58 f3bd 19dc 4cbe a2b5 2cbd
000003f0: 7dad 13bd 81c3 54be eb53 e9bd b094 c03d

layer1.bn2.weight f4 [16]
0.8425654 1.1109796 1.2529924 0.7340417 1.0085801 1.0305948 1.4246392 0.83913904
0.8219484 0.97476697 0.95513815 1.7118989 1.2050335 1.4020407 0.87528884 1.1495603
00000000: 5eb2 573f 9434 8e3f 0e62 a03f 28ea 3b3f
00000010: 2719 813f 88ea 833f 945a b63f d1d1 563f
00000020: 366b 523f 548a 793f ef83 743f 811f db3f
00000030: 8a3e 9a3f 1276 b33f ee12 603f cb24 933f

layer1.bn2.bias f4 [16]
0.050855003 0.44461793 0.21322294 0.58105034 0.1952439 0.3872774 0.24342737 0.090741046
0.042627074 0.07149299 0.42976052 -0.20682782 0.3039353 -0.23622283 0.54559153 -0.4484003
00000000: 564d 503d f6a4 e33e 1d57 5a3e b7bf 143f
00000010: 04ee 473e 3949 c63e 0645 793e 71d6 b93d
00000020: ba99 2e3d eb6a 923d 9209 dc3e acca 53be
00000030: 689d 9b3e 66e4 71be e3ab 0b3f b994 e5be

layer1.bn2.running_mean f4 [16]
1.6059072 -1.8370334 -0.464924 -0.84249663 -0.02476289 0.09863557 -0.6660024 0.6118863
0.4208606 1.0000812 -1.2615384 -0.05064729 -0.7994478 -2.0630767 0.2571439 -0.091625094
00000000: 5e8e cd3f e923 ebbf 850a eebe dcad 57bf
00000010: 8bdb cabc 7201 ca3d 227f 2abf 95a4 1c3f
00000020: 0a7b d73e a902 803f 177a a1bf 8873 4fbd
00000030: 9ca8 4cbf 7309 04c0 5ea8 833e f0a5 bbbd

layer1.bn2.running_var f4 [16]
1.9199916 2.4133873 2.6315355 2.7855637 2.19909 2.1472244 3.7611969 2.1767185
1.5627142 2.8826602 2.5177917 3.4181786 2.9715452 4.9907527 2.7557943 1.3404285
00000000: 49c2 f53f f074 1a40 146b 2840 ad46 3240
00000010: e4bd 0c40 206c 0940 73b7 7040 5b4f 0b40
00000020: 0507 c83f 817d 3840 8023 2140 70c3 5a40
00000030: cc2d 3e40 3fb4 9f40 ef5e 3040 2993 ab3f

layer2.conv1.weight f4 [32, 16, 3, 3]
0.18207328 0.10325658 -0.13438764 0.28910765 -0.040476322 -0.18432117 0.25596932 -0.097737305
-0.31018394 -0.08113847 0.03425932 0.4638837 -0.11564701 0.028962126 0.2965641 -0.21152481
0.07302094 0.117560275 -0.12280089 0.0012195563 -0.038243104 -0.119749896 0.015926937 -0.13752463
-0.11260696 0.017281365 -0.20100217 0.35904878 0.29650772 0.31158638 0.25547305 0.032048024
0.04832759 0.34666684 -0.14197887 -0.16290064 -0.10421381 -0.042110883 0.52918684 0.063522205
0.14295302 0.22607543 0.21551856 0.05422318 -0.14792597 -0.11781728 0.1109771 0.21448228
-0.07660304 0.1576346 0.37165734 0.44831833 0.38989756 0.37946388 -0.04968768 -0.03633798
0.11738231 0.0075799604 0.14308064 0.20523873 0.05896947 0.05605153 0.032037973 -0.17093432
0.20708196 0.10919469 -0.20487297 0.16291146 0.1141552 -0.20134252 -0.071181335 0.12031817
0.3484017 0.09753188 -0.13375878 0.11129562 0.04151548 -0.17985572 -0.12205855 -0.15722218
-0.022377845 -0.020850103 -0.051956516 0.06784451 -0.16920473 -0.014609979 0.13444974 -0.29651952
-0.19581501 0.017686576 -0.17232887 -0.017308392 0.1335129 -0.25923404 0.01921659 0.100414135
-0.24783327 0.043811865 0.2378931 0.028178496 0.07746309 0.086979836 0.07449724 0.19821632
0.08372632 0.12641747 -0.016367568 -0.023924425 0.10431894 0.005600289 -0.0019222352 0.15634492
-0.07019197 -0.10300257 -0.048088714 -0.0861072 -0.10902464 0.045248706 -0.101136275 -0.1036198
-0.03488833 -0.17854014 -0.15661845 -0.02315138 -0.14100808 -0.13276029 -0.2100178 -0.16876252
0.26569048 -0.082175285 -0.20559135 0.0024865156 0.03012249 -0.18356544 -0.20951803 0.21293846
0.19730017 -0.018694298 0.09328271 0.26703563 0.05568029 -0.05482806 -0.050773572 -0.094660334
-0.35371056 -0.019601516 0.14749363 -0.37938082 -0.11197363 0.09752278 -0.23356493 -0.019549392
-0.04797545 0.0720366 0.07564493 0.0081218 -0.05077053 0.026357235 -0.0019875308 -0.19905993
-0.14221148 0.056194194 0.034329887 -0.05702713 -0.05641044 0.008780837 -0.086197406 0.10530215
0.00029557227 -0.07143674 0.12248008 -0.21967328 -0.035314783 -0.13241795 -0.018769 0.12347289
-0.08493892 0.19678017 0.3228023 -0.030386936 -0.15683486 -0.14298785 0.015871685 -0.20037077
0.08813903 0.14232542 -0.16433479 0.104466565 0.21549185 -0.10776156 0.14534213 0.118213594
-0.035257142 0.11380551 0.07946891 0.031045917 0.05356207 -0.04681568 0.07653667 0.13449517
-0.071348645 0.13051265 0.19173577 0.036062635 0.19745673 0.16260163 0.044867307 -0.15030828
-0.056956228 0.06342384 -0.03271728 0.031175198 0.124027915 0.006741926 0.08007239 0.0862347
-0.11459259 0.06760835 0.13096334 0.13145944 0.2597194 0.26916417 0.4440782 0.49491364
0.2871974 -0.09547148 -0.07251855 0.07140565 -0.07431306 -0.09487879 -0.0350406 -0.13010639
0.042378604 0.20382798 -0.072789505 -0.07046596 0.04351561 0.021963025 -0.019068442 0.023861518
0.07600315 0.05232099 0.02810286 -0.21165982 -0.40135786 -0.2523969 -0.40963766 -0.54395664
-0.3588872 -0.3044791 -0.3816141 -0.18394667 -0.06705716 -0.014159515 -0.015020707 0.024524368
00000000: 6b71 3a3e 3078 d33d ea9c 09be eb05 943e
00000010: 80ca 25bd b0be 3cbe 690e 833e 7f2a c8bd
00000020: 6ed0 9ebe ed2b a6bd 8053 0c3d 2a82 ed3e
00000030: 57d8 ecbd fb41 ed3c 40d7 973e f699 58be
00000040: 018c 953d 71c3 f03d 087f fbbd 85d9 9f3a
00000050: cda4 1cbd 6f3f f5bd 3579 823c 42d3 0cbe
00000060: 7a9e e6bd a691 8d3c 83d3 4dbe 3ed5 b73e
00000070: dccf 973e 4088 9f3e 5dcd 823e ca44 033d
00000080: 27f3 453d 517e b13e e962 11be 6dcf 26be
00000090: 0d6e d5bd 767c 2cbd ca78 073f ee17 823d
000000a0: 4762 123e 5180 673e e6b0 5c3e 2019 5e3d
000000b0: e879 17be 304a f1bd f647 e33d 3ea1 5b3e
000000c0: 0ee2 9cbd f76a 213e df49 be3e fb89 e53e
000000d0: a7a0 c73e 1749 c23e 4f85 4bbd 22d7 14bd
000000e0: 2366 f03d 5161 f83b bb83 123e 1a2a 523e
000000f0: f989 713d 4a96 653d 403a 033d 6809 2fbe
00000100: 4b0d 543e 77a1 df3d 38ca 51be 43d2 263e
00000110: 34ca e93d bc2c 4ebe 85c7 91bd 5f69 f63d
00000120: b561 b23e cbbe c73d 10f8 08be f5ee e33d
00000130: 230c 2a3d 192c 38be d5f9 f9bd dafe 20be
00000140: be51 b7bc d6cd aabc 5bd0 54bd 10f2 8a3d
00000150: 0144 2dbe b25e 6fbc 31ad 093e 68d1 97be
00000160: bb83 48be 70e3 903c fb76 30be 54ca 8dbc
00000170: 9bb7 083e 53ba 84be 1c6c 9d3c eda5 cd3d
00000180: 01c8 7dbe 1274 333d 409a 733e 97d6 e63c
00000190: f8a4 9e3d 7c22 b23d 0292 983d 38f9 4a3e
000001a0: b478 ab3d 9573 013e 4715 86bc 28fd c3bc
000001b0: 2ba5 d53d a182 b73b 83f3 fbba e218 203e
000001c0: cfc0 8fbd 03f3 d2bd acf8 44bd f958 b0bd
000001d0: 4f48 dfbd b556 393d 8920 cfbd 9e36 d4bd
000001e0: 11e7 0ebd 3ad3 36be 9660 20be f6a7 bdbc
000001f0: 6c64 10be 50f2 07be e80e 57be 15d0 2cbe
00000200: 9508 883e 844b a8bd 8a86 52be cff4 223b
00000210: 71c3 f63c 94f8 3bbe e58b 56be 8a0c 5a3e
00000220: 0e09 4a3e c924 99bc 010b bf3d e5b8 883e
00000230: 0411 643d 6393 60bd f3f7 4fbd 47dd c1bd
00000240: 8d19 b5be 5c93 a0bc 9208 173e 343e c2be
00000250: 6e52 e5bd 06ba c73d a52b 6fbe 0c26 a0bc
00000260: e881 44bd ed87 933d bbeb 9a3d 4c11 053c
00000270: c2f4 4fbd 21eb d73c 3c41 02bb 5ed6 4bbe
00000280: e39f 11be e22b 663d 7f9d 0c3d 4895 69bd
00000290: a20e 67bd 80dd 0f3c 4488 b0bd a7a8 d73d
000002a0: 0af7 9a39 6d4d 92bd d6d6 fa3d 08f2 60be
000002b0: 3ca6 10bd 9298 07be 72c1 99bc 5bdf fc3d
000002c0: 75f4 adbd be80 493e 5846 a53e 06ee f8bc
000002d0: 5199 20be 686b 12be 5605 823c ff2d 4dbe
000002e0: 3c82 b43d c1bd 113e 6147 28be 91f2 d53d
000002f0: e5a9 5c3e 18b2 dcbd 91d4 143e f819 f23d
00000300: cb69 10bd dd12 e93d 99c0 a23d 0254 fe3c
00000310: e763 5b3d ccc1 3fbd 42bf 9c3d 1ab9 093e
00000320: 3d1f 92bd 1ca5 053e 6256 443e 6ab6 133d
00000330: 1932 4a3e 0b81 263e c8c6 373d 6aea 19be
00000340: ef4a 69bd 5ce4 813d 8e02 06bd 2163 ff3c
00000350: 5902 fe3d 60eb dc3b fefc a33d d29b b03d
00000360: 85af eabd 3f76 8a3d 411b 063e 4e9d 063e
00000370: f1f9 843e e3cf 893e 385e e33e 5265 fd3e
00000380: 8a0b 933e 8d86 c3bd 9b84 94bd 203d 923d
00000390: 7231 98bd d04f c2bd bb86 0fbd 9c3a 05be
000003a0: 3095 2d3d 48b8 503e aa12 95bd 7550 90bd
000003b0: 6d3d 323d cdeb b33c 6c35 9cbc 3b79 c33c
000003c0: 8aa7 9b3d 894e 563d f837 e63c 5abd 58be
000003d0: c77e cdbe 2b3a 81be 07bc d1be be40 0bbf
000003e0: 10c0 b7be afe4 9bbe ec62 c3be 845c 3cbe
000003f0: 4455 89bd 4ffd 67bc 6919 76bc 54e7 c83c

layer2.bn1.weight f4 [32]
0.80142534 0.92132914 0.7969219 1.0746135 0.84788734 1.0292859 0.89572483 0.79946786
0.8729245 1.097195 0.8611716 1.0484635 0.88725245 0.81780624 1.1601971 0.89357275
1.1256192 0.87368995 1.2319105 0.84080714 0.81230336 0.855578 1.354426 1.2519333
0.88130784 0.8756967 0.93561953 1.014685 0.9050946 1.0097287 0.7902109 0.9870205
00000000: 362a 4d3f 3adc 6b3f 1303 4c3f ef8c 893f
00000010: 250f 593f a4bf 833f 394e 653f eda9 4c3f
00000020: fb77 5f3f e370 8c3f be75 5c3f 0d34 863f
00000030: fa22 633f c05b 513f 5781 943f 2fc1 643f
00000040: 4a14 903f 25aa 5f3f 3eaf 9d3f 233f 573f
00000050: 1df3 4f3f 2907 5b3f d55d ad3f 5a3f a03f
00000060: 649d 613f a92d 603f c384 6f3f 33e1 813f
00000070: 48b4 673f ca3e 813f 434b 4a3f 60ad 7c3f

layer2.bn1.bias f4 [32]
0.030545758 0.010123754 -0.09642568 -0.0728282 -0.29821417 -0.030633835 0.09764539 -0.05026361
-0.22833404 0.031339195 -0.15884474 -0.16605003 -0.0107075805 -0.3291767 -0.080699086 -0.3635535
-0.27178726 -0.2342972 -0.28445435 -0.24216542 -0.06685194 0.050399207 -0.24979077 -0.19054163
-0.14794308 -0.18960436 -0.13955805 -0.07802729 -0.29531947 -0.056233473 -0.3151205 -0.2500804
00000000: 193b fa3c 1ade 253c d47a c5bd f426 95bd
00000010: 87af 98be cff3 fabc 4efa c73d 37e1 4dbd
00000020: 66d0 69be 875d 003d 32a8 22be 0509 2abe
00000030: d96e 2fbc d989 a8be 9045 a5bd af23 babe
00000040: b327 8bbe 9beb 6fbe 00a4 91be 36fa 77be
00000050: abe9 88bd 666f 4e3d 27c9 7fbe 581d 43be
00000060: 647e 17be a527 42be 4ee8 0ebe c6cc 9fbd
00000070: 1d34 97be 1255 66bd 7957 a1be 8a0a 80be

layer2.bn1.running_mean f4 [32]
3.4748461 0.0015310562 -3.8699174 -4.603993 0.4960798 -2.3516266 -10.432186 0.054143857
-3.5488913 -5.7315097 -3.3968003 -4.6998925 -1.6391191 1.1709044 -1.1683195 -0.36748785
-0.6765344 -5.941205 -2.7966242 0.85684776 -1.4464146 -3.8011827 -4.5513716 -0.5546118
-1.9937464 -4.65356 1.8252131 -0.88182193 -1.94119 -6.8587084 -4.7939005 -0.04517893
00000000: e163 5e40 b9ad c83a baac 77c0 e953 93c0
00000010: 2cfe fd3e 0d81 16c0 3cea 26c1 f3c5 5d3d
00000020: 0921 63c0 8768 b7c0 2d65 59c0 8565 96c0
00000030: a8ce d1bf 32e0 953f 7e8b 95bf 5e27 bcbe
00000040: 5c31 2dbf 5a1e bec0 e4fb 32c0 605a 5b3f
00000050: 1d24 b9bf 9446 73c0 d6a4 91c0 0afb 0dbf
00000060: 1533 ffbf f7e9 94c0 95a0 e93f 15bf 61bf
00000070: ea78 f8bf 8a7a dbc0 a267 99c0 8b0d 39bd

layer2.bn1.running_var f4 [32]
7.725535 6.9811893 4.712759 11.991427 5.335851 11.521225 10.832784 8.5425
4.472165 10.912491 4.6045914 11.36795 13.521668 8.222614 10.473467 6.934038
7.6188736 4.9152184 8.295783 5.2541866 3.733446 6.5819235 11.488842 12.758736
6.2000823 3.753478 4.4053116 7.422608 2.6207476 8.891558 9.005481 6.0009246
00000000: 9537 f740 e765 df40 ecce 9640 e3dc 3f41
00000010: 4bbf aa40 f056 3841 1553 2d41 14ae 0841
00000020: fa1b 8f40 9099 2e41 d058 9340 20e3 3541
00000030: c158 5841 d48f 0341 5293 2741 a4e3 dd40
00000040: d0cd f340 7849 9d40 87bb 0441 4c22 a840
00000050: c7f0 6e40 1e9f d240 4cd2 3741 c823 4c41
00000060: 1367 c640 fc38 7040 50f8 8c40 0186 ed40
00000070: 54ba 2740 d243 0e41 7316 1041 9307 c040

layer2.conv2.weight f4 [32, 32, 3, 3]
-0.41308206 -0.13373539 0.078664556 0.07936613 0.19008428 0.10402816 -0.013483755 0.1412884
0.113966115 -0.05925693 0.034943987 0.010605026 -0.14413765 0.06931493 0.043562442 -0.08388802
0.027669484 -0.20123267 -0.07385401 -0.121256694 0.028342498 -0.039048795 -0.15417036 -0.008678492
-0.063294776 -0.050488364 -0.04519791 0.048969746 -0.09664854 -0.2729693 0.14263223 0.0007758078
-0.293974 0.01593414 -0.03530125 -0.2952574 -0.3020702 -0.18589823 -0.14878388 -0.4091002
-0.13093413 -0.11182191 -0.24528755 -0.0804558 -0.18778996 -0.122905016 -0.018859295 0.1963285
-0.12307749 -0.11535922 0.02752817 -0.036121428 -0.03662921 0.09654967 0.31407997 0.08198559
-0.16849416 0.15108491 0.040637836 -0.2579248 0.12321445 0.07477085 -0.29343942 -0.26264235
-0.28719774 -0.026391316 0.07756766 0.14043565 0.06367616 -0.10673326 -0.06939744 0.03212702
0.012858431 0.22136943 -0.19814801 -0.039216317 0.1955716 0.10492825 -0.06341106 0.04531522
0.033969887 0.17849723 0.07327664 -0.09406113 0.12003462 0.06596455 -0.11950329 -0.112150915
0.0064774994 -0.13479802 0.19746679 -0.046076905 -0.29981506 0.22724749 0.07228494 -0.08106842
0.3141226 0.15708064 0.16371375 0.0011263235 -0.027657378 -0.10889344 0.12988421 0.15938383
0.010101821 0.0055058524 -0.09221183 -0.11903887 -0.003674227 0.13190517 -0.11660432 -0.035071805
0.0072719557 -0.1477197 -0.013829914 0.001859007 -0.15660283 -0.23529193 0.016115848 0.10153283
0.15487212 0.35223472 0.16337332 0.1589713 0.25027338 -0.11797806 0.20587173 0.058858514
-0.2130762 0.22146985 0.1276812 -0.2191698 -0.048703454 -0.09940618 0.047207315 -0.33873028
-0.266077 -0.015157921 0.09095679 0.11767912 0.17402658 0.16603433 0.026920378 0.109050885
-0.23870912 -0.033522952 0.30188945 -0.21720368 -0.024026534 0.06618105 -0.13791478 -0.22418664
-0.2527416 0.06475725 0.107500546 0.22798824 0.07624998 0.23333059 0.25780922 -0.11688842
0.25561148 0.26097175 -0.06232144 -0.1628791 -0.0778744 0.19041836 -0.08464153 -0.02110385
0.027268348 -0.14796898 -0.09242169 0.22521712 0.23856103 -0.1536803 0.11592034 0.22720969
-0.017968934 -0.1295315 0.059285216 0.19471395 -0.04580667 -0.045691416 -0.39571816 -0.106752224
0.05128731 0.010611297 -0.040477693 0.24806274 0.3131535 -0.071398705 -0.12428018 -0.31403008
0.014274243 0.009734755 -0.13321051 0.34413308 0.112520225 -0.19026272 0.27270773 0.21754487
-0.19327998 -0.004541345 0.06007971 -0.25644368 -0.040906955 -0.13746087 -0.47866955 -0.17927103
-0.09279859 0.22435205 -0.1977295 -0.092213444 0.14691742 -0.6541101 -0.64713067 -0.51497376
-0.3429894 -0.14893244 0.045344677 -0.2534338 -0.24332473 -0.13511696 -0.105775915 -0.315318
-0.11680374 0.033589505 0.0029933848 0.120604396 -0.07906327 0.08662575 0.053582873 -0.40634972
-0.19595003 -0.04815613 -0.12103135 -0.081345394 0.10456355 -0.15144175 0.016990105 0.08605406
-0.21614741 -0.33908227 -0.21043271 0.0731691 0.049664136 -0.1952788 0.1545361 0.017525297
-0.13216035 0.11739741 -0.07800088 -0.11950877 0.033528987 0.03991971 0.25275877 -0.054308172
00000000: 7e7f d3be eef1 08be e21a a13d b68a a23d
00000010: 74a5 423e b70c d53d f8ea 5cbc e8ad 103e
00000020: 1167 e93d 65b7 72bd 6d21 0f3d b4c0 2d3c
00000030: d298 13be fcf4 8d3d 886e 323d 7bcd abbd
00000040: 1dab e23c f00f 4ebe c540 97bd 6e55 f8bd
00000050: 872e e83c a1f1 1fbd d6de 1dbe 3c30 0ebc
00000060: b1a0 81bd e3cc 4ebd 7221 39bd 8094 483d
00000070: abef c5bd a2c2 8bbe 2f0e 123e 955f 4b3a
00000080: c383 96be 5088 823c 0b98 10bd fa2b 97be
00000090: f2a8 9abe 1b5c 3ebe cd5a 18be 9575 d1be
000000a0: 9913 06be e302 e5bd a92c 7bbe 03c6 a4bd
000000b0: 034c 40be a0b5 fbbd cf7e 9abc 570a 493e
000000c0: 0d10 fcbd 7441 ecbd c282 e13c 10f4 13bd
000000d0: 8308 16bd d5bb c53d 17cf a03e 10e8 a73d
000000e0: bc89 2cbe 01b6 1a3e dc73 263d b80e 84be
000000f0: dc57 fc3d 7621 993d b13d 96be 0f79 86be
00000100: 950b 93be 9a32 d8bc cbdb 9e3d 5dce 0f3e
00000110: a668 823d f896 dabd 3f20 8ebd 9f97 033d
00000120: 2bac 523c abae 623e 50e7 4abe 4aa1 20bd
00000130: ec43 483e 9fe4 d63d a8dd 81bd 749c 393d
00000140: 0224 0b3d fac7 363e 1012 963d 1fa3 c0bd
00000150: b6d4 f53d 6c18 873d 24be f4bd 61af e5bd
00000160: 3441 d43b 7e08 0abe bc34 4a3e 23bb 3cbd
00000170: 5c81 99be 91b3 683e 200a 943d 3307 a6bd
00000180: add4 a03e bfd9 203e 94a4 273e 25a1 933a
00000190: ba91 e2bc 8603 dfbd 5e00 053e 8435 233e
000001a0: 1c82 253c 706a b43b 8ed9 bcbd a7ca f3bd
000001b0: 4dcb 70bb 2612 073e 3fce eebd 74a7 0fbd
000001c0: 9649 ee3b d543 17be dd96 62bc eda9 f33a
000001d0: 7e5c 20be 5ef0 70be 6205 843c 72f0 cf3d
000001e0: cc96 1e3e 1c58 b43e 564b 273e 5fc9 223e
000001f0: d523 803e 7b9e f1bd 0ad0 523e a015 713d
00000200: a630 5abe fec8 623e dcbe 023e 0c6e 60be
00000210: 467d 47bd 7895 cbbd 755c 413d 0e6e adbe
00000220: 3f3b 88be ee58 78bc 8e47 ba3d c001 f13d
00000230: 0634 323e e704 2a3e 2088 dc3c 1256 df3d
00000240: 2a70 74be 5d4f 09bd 4191 9a3e a46a 5ebe
00000250: 4bd3 c4bc ee89 873d 8839 0dbe 2f91 65be
00000260: 5967 81be 739f 843d 3f29 dc3d c075 693e
00000270: f328 9c3d 37ee 6e3e 92ff 833e 3263 efbd
00000280: 82df 823e 179e 853e c444 7fbd c7c9 26be
00000290: 9d7c 9fbd 08fd 423e 8a58 adbd fbe1 acbc
000002a0: df61 df3c 2e85 17be 9547 bdbd 519f 663e
000002b0: 5849 743e 5e5e 1dbe a567 ed3d a8a9 683e
000002c0: 9633 93bc e8a3 04be 0ed5 723d 1863 473e
000002d0: c69f 3bbd ec26 3bbd 929b cabe e9a0 dabd
000002e0: a412 523d 01db 2d3c f0cb 25bd 2904 7e3e
000002f0: a855 a03e 7c39 92bd 9b86 febd 8dc8 a0be
00000300: 84de 693c 867e 1f3c 5668 08be 3632 b03e
00000310: 0171 e63d 3bd4 42be 59a0 8b3e 15c4 5e3e
00000320: 30eb 45be 90cf 94bb 2416 763d 964c 83be
00000330: 0d8e 27bd 8bc2 0cbe 2d14 f5be d392 37be
00000340: 300d bebd 8bbc 653e 9a79 4abe 67da bcbd
00000350: 8571 163e c273 27bf 5baa 25bf 52d5 03bf
00000360: 4e9c afbe bf81 18be 57bb 393d 13c2 81be
00000370: 1e2a 79be 1a5c 0abe 0ba1 d8bd 5c71 a1be
00000380: cd36 efbd 2695 093d aa2c 443b 70ff f63d
00000390: eceb a1bd d768 b13d b779 5b3d 120d d0be
000003a0: 20a7 48be 5d3f 45bd 49df f7bd 6a98 a6bd
000003b0: 6a25 d63d 8c13 1bbe d52e 8b3c 1c3d b03d
000003c0: bf55 5dbe 319c adbe ac7b 57be aed9 953d
000003d0: 9f6c 4b3d 2af7 47be b63e 1e3e 3691 8f3c
000003e0: 0b55 07be 0e6e f03d edbe 9fbd 04c1 f4bd
000003f0: b155 093d da82 233d 9969 813e 3f72 5ebd

layer2.bn2.weight f4 [32]
1.1037703 1.0814478 1.2397561 1.2645799 0.97856545 1.1307806 0.9898623 1.4280585
1.2853681 1.084823 1.3565124 1.242265 1.2063382 1.2074931 1.2814144 1.5412277
1.0731722 1.1029468 1.165686 0.8422328 1.2318519 1.0977213 1.3664404 1.2792491
1.2463069 1.4007763 1.2911152 1.3137197 1.2410413 0.9767142 1.2684847 1.34977
00000000: 5848 8d3f e26c 8a3f 54b0 9e3f c1dd a13f
00000010: 4483 7a3f 6bbd 903f 9e67 7d3f 9fca b63f
00000020: f186 a43f 7bdb 8a3f 33a2 ad3f 8a02 9f3f
00000030: 4a69 9a3f 228f 9a3f 6305 a43f f346 c53f
00000040: b55d 893f 5c2d 8d3f 3335 953f 929c 573f
00000050: 53ad 9d3f 2282 8c3f 85e7 ae3f 6fbe a33f
00000060: fc86 9f3f a34c b33f 4343 a53f f827 a83f
00000070: 71da 9e3f f109 7a3f b55d a23f 43c5 ac3f

layer2.bn2.bias f4 [32]
-0.013111801 -0.07940321 0.119677305 -0.34608197 -0.07089515 -0.086360835 0.05843321 -0.350207
-0.20145386 -0.12097317 0.08410784 -0.19566733 -0.016081113 -0.0015101784 -0.097884044 0.06126587
-0.078644045 0.25819257 0.009148379 -0.108324625 -0.10883138 -0.14288199 -0.22359131 -0.13546583
-0.0032029927 -0.033721566 0.013601803 0.19005409 0.053554237 0.23389292 -0.070188776 -0.10043798
00000000: e1d2 56bc 269e a2bd 6019 f53d a831 b1be
00000010: 7a31 91bd f3dd b0bd a957 6f3d 554e b3be
00000020: ec49 4ebe c8c0 f7bd bb40 ac3d 045d 48be
00000030: 8abc 83bc 2ef1 c5ba 6e77 c8bd ecf1 7a3d
00000040: 2110 a1bd d131 843e 15e3 153c 4dd9 ddbd
00000050: fde2 debd a84f 12be 1ff5 64be 8eb7 0abe
00000060: 4de9 51bb a01f 0abd 19da 5e3c 8a9d 423e
00000070: b05b 5b3d a081 6f3e 22bf 8fbd 6db2 cdbd

layer2.bn2.running_mean f4 [32]
-2.2150905 -1.5592315 -1.2729164 -1.381161 -1.382072 -0.4476154 1.5514652 -1.3222911
0.7107932 -1.3995324 -1.6449019 -0.72495353 -0.10728332 -0.93274343 0.16426204 -2.0161824
-0.33217603 -1.8662212 -2.869129 0.48096588 -0.49472758 0.2438292 -1.0318674 -1.0242339
0.5229249 -4.240334 -0.05716406 2.9370673 -0.09917411 -4.3835287 -1.044842 -2.0532265
00000000: 0bc4 0dc0 e694 c7bf edee a2bf e2c9 b0bf
00000010: bce7 b0bf d92d e5be 6996 c63f d640 a9bf
00000020: 8bf6 353f e123 b3bf 258c d2bf 8e96 39bf
00000030: 5bb7 dbbd 46c8 6ebf 4f34 283e 2209 01c0
00000040: fa12 aabe 56e0 eebf cf9f 37c0 2941 f63e
00000050: ef4c fdbe 5dae 793e 3b14 84bf 191a 83bf
00000060: 68de 053f d1b0 87c0 dd24 6abd e9f8 3b40
00000070: cc1b cbbd de45 8cc0 62bd 85bf 1068 03c0

layer2.bn2.running_var f4 [32]
4.0672283 2.3814523 4.147995 1.750612 3.2050166 2.8088229 2.9923337 3.0254698
2.607676 3.9634628 4.096618 2.4928935 2.7360628 3.4994993 2.4588752 4.7415147
3.56732 4.739451 3.418598 3.2096229 2.7874599 4.0159283 2.7587574 2.363118
4.2790384 4.24532 5.537862 5.0139413 4.0325713 3.8913586 4.070646 3.9144208
00000000: bc26 8240 b769 1840 60bc 8440 0e14 e03f
00000010: fe1e 4d40 c1c3 3340 6582 3f40 4ca1 4140
00000020: 2ae4 2640 60a9 7d40 7f17 8340 918b 1f40
00000030: a71b 2f40 ccf7 5f40 365e 1d40 7dba 9740
00000040: f94e 6440 95a9 9740 4fca 5a40 766a 4d40
00000050: be65 3240 7c82 8040 7b8f 3040 533d 1740
00000060: e2ed 8840 a9d9 8740 2a36 b140 3572 a040
00000070: d30a 8140 050c 7940 bb42 8240 df85 7a40

layer2.downsample.0.weight f4 [32, 16, 1, 1]
-0.10706484 -0.10761545 0.025528539 -0.010481399 -0.39616406 0.13111357 -0.06263039 -0.5315813
-0.38207301 -0.15943123 -0.22286941 -0.13159584 0.17018889 -0.13096753 -0.14762141 0.054114766
0.2786807 0.25554743 -0.19523689 -0.23712504 0.14809345 -0.4477112 0.24712668 0.09037237
0.07074257 -0.19890526 -0.0015621067 0.17360383 -0.30830848 -0.074794196 -0.20668903 -0.13714685
-0.09476342 -0.29305705 0.110731475 -0.17424944 0.20950066 -0.2097967 0.0038034997 0.10076046
-0.21829487 -0.28018808 0.471591 -0.14872517 0.24114187 -0.16720831 -0.32645902 -0.011072516
-0.3731188 -0.0120677715 -0.22124912 0.31765997 -0.13241802 0.17927432 -0.064634375 -0.31613746
0.028684013 -0.13521689 -0.23051874 0.086866654 0.09857022 -0.45406073 -0.031197688 0.07898596
0.07416014 0.18724124 -0.176195 -0.5243029 -0.23306312 0.27030924 0.10430618 -0.057463765
-0.1997207 -0.59417653 -0.10890359 -0.017909877 0.13270922 0.051690646 -0.042106926 -0.03497394
-0.19821611 -0.16999844 -0.42779258 0.099771224 0.17203505 0.14343864 -0.3026692 0.35552195
0.10426747 0.1619453 0.021841886 0.0074500227 -0.37058464 -0.07339584 -0.012874277 -0.024203317
-0.073749274 0.2245084 0.19397488 0.26074114 0.5281837 0.11091743 -0.17588829 -0.042909276
-0.44527736 -0.087999664 0.15912169 0.0035891787 0.082156815 -0.08640031 -0.3422292 -0.1219611
-0.7039179 -0.1731122 -0.019586453 -0.19400926 -0.15937315 -0.041504066 -0.12072327 -0.15504935
-0.030550828 -0.25625706 -0.21901692 -0.35224706 -0.07310326 -0.056195676 -0.06278399 -0.0934846
-0.020705577 0.037801802 0.09485665 0.07072592 -0.25695685 0.12404712 0.21906205 -0.30300835
-0.3888485 0.030752359 0.22495794 -0.07372054 0.062079076 -0.06250816 -0.5235279 -0.22878456
-0.38195553 0.011183181 0.0058486606 -0.6151929 -0.16157226 0.15490462 -0.16070282 -0.17697832
0.21121494 -0.06910571 0.032311052 -0.03235628 0.062575206 0.20107411 -0.10757968 0.07083083
0.18798104 -0.18049376 0.25328097 -0.2737414 0.13427967 0.16738021 0.040401485 0.08123932
-0.08178427 -0.4986434 -0.13167807 -0.16918449 -0.013117201 0.02634407 0.36544508 0.060565792
-0.056358982 -0.26789474 -0.23235893 0.0006040002 -0.12847716 0.15976164 -0.5173233 -0.17304744
0.34756994 0.021730375 -0.1230307 -0.16066608 -0.18610512 -0.37270358 -0.3465583 -0.031309705
-0.06539483 -0.10526403 0.4099872 -0.41608104 0.21089678 0.15198623 0.051559772 -0.0022977004
0.30304322 -0.20313334 -0.14516376 -0.16007178 -0.00284383 -0.09980179 0.32670185 -0.119234025
0.3772101 0.020838836 0.07423189 -0.24406044 0.36429384 -0.16159867 0.21555954 0.014479388
0.019605793 -0.077091254 -0.11207127 0.18928057 -0.23231784 0.3421529 -0.0745293 -0.04722335
-0.07924066 0.052220806 0.12209033 0.21156898 -0.036089372 -0.15613984 -0.2510944 -0.014718511
0.2956392 0.7010451 0.14135835 -0.017507182 -0.029014263 -0.2097327 0.053443722 -0.007804462
-0.03472229 0.06769149 0.15800887 0.5233474 -0.06736028 -0.31870154 -0.09687869 0.0855564
-0.20836452 0.25532675 0.12908627 0.030827207 0.0029225932 -0.30243495 0.049447916 -0.084439486
00000000: d044 dbbd 7d65 dcbd 3a21 d13c 2cba 2bbc
00000010: 04d6 cabe a342 063e 5d44 80bd b615 08bf
00000020: 139f c3be f141 23be e137 64be 0fc1 06be
00000030: ff45 2e3e 5a1c 06be 112a 17be 72a7 5d3d
00000040: 3daf 8e3e 1dd7 823e 2eec 47be e8d0 72be
00000050: cfa5 173e 673a e5be c70e 7d3e 2615 b93d
00000060: 7be1 903d d2ad 4bbe 9abf ccba 34c5 313e
00000070: 9cda 9dbe b32d 99bd 4aa6 53be 3970 0cbe
00000080: 5313 c2bd 930b 96be 2fc7 e23d 726e 32be
00000090: 5787 563e f2d4 56be 2344 793b 805b ce3d
000000a0: b188 5fbe d074 8fbe 6074 f13e 694b 18be
000000b0: e5ed 763e a838 2bbe a325 a7be 8069 35bc
000000c0: 6d09 bfbe e7b7 45bc 218f 62be 54a4 a23e
000000d0: 9798 07be b093 373e 075f 84bd c5dc a1be
000000e0: bcfa ea3c 4c76 0abe 1b0d 6cbe 25e7 b13d
000000f0: 2fdf c93d a67a e8be 4b92 ffbc 64c3 a13d
00000100: 45e1 973d 2bbc 3f3e 766c 34be b738 06bf
00000110: 19a8 6ebe f965 8a3e 7a9e d53d 205f 6bbd
00000120: 9583 4cbe f41b 18bf d808 dfbd bcb7 92bc
00000130: ede4 073e 92b9 533d 5078 2cbd d640 0fbd
00000140: 2af9 4abe 1214 2ebe a107 dbbe db54 cc3d
00000150: f529 303e 94e1 123e 75f7 9abe f906 b63e
00000160: 2f8a d53d fdd4 253e c1ed b23c 521f f43b
00000170: 45bd bdbe 8f50 96bd a2ee 52bc 0946 c6bc
00000180: dc09 97bd 88e5 653e 5aa1 463e dd7f 853e
00000190: 0c37 073f ad28 e33d 0f1c 34be a3c1 2fbd
000001a0: 65fb e3be 2b39 b4bd ccf0 223e 6d38 6b3b
000001b0: d541 a83d a5f2 b0bd aa38 afbe bec6 f9bd
000001c0: f733 34bf 5344 31be c573 a0bc 5daa 46be
000001d0: b732 23be 2b00 2abd c33d f7bd 42c5 1ebe
000001e0: bb45 fabc 2034 83be f945 60be ba59 b4be
000001f0: 29b7 95bd 702d 66bd e494 80bd db74 bfbd
00000200: be9e a9bc 10d6 1a3d 3444 c23d c0d8 903d
00000210: d98f 83be 6b0c fe3d cd51 603e e923 9bbe
00000220: 2717 c7be 5fec fb3c 605b 663e cbfa 96bd
00000230: a146 7e3d 4704 80bd ed05 06bf 8046 6abe
00000240: ad8f c3be a939 373c 1fa6 bf3b 487d 1dbf
00000250: 3373 25be 519f 1e3e 488f 24be ce39 35be
00000260: bb48 583e 4b87 8dbd 9858 043d 0588 04bd
00000270: 6e27 803d 5fe6 4d3e bc52 dcbd c10f 913d
00000280: 1a7e 403e 5bd3 38be 0bae 813e d527 8cbe
00000290: 9c80 093e b865 2b3e 077c 253d cd60 a63d
000002a0: 837e a7bd 304e ffbe 9ed6 06be b33e 2dbe
000002b0: 87e9 56bc 85cf d73c 9e1b bb3e d613 783d
000002c0: add8 66bd 8029 89be 80ef 6dbe c455 1e3a
000002d0: 848f 03be 8e98 233e 4d6f 04bf 5933 31be
000002e0: b0f4 b13e e603 b23c 85f7 fbbd a685 24be
000002f0: 5792 3ebe 01d3 bebe 1770 b1be 9b3e 00bd
00000300: baed 85bd ab94 d7bd d8e9 d13e 9308 d5be
00000310: 53f5 573e 47a2 1b3e 5730 533d 0495 16bb
00000320: 7b28 9b3e 3002 50be cfa5 14be dbe9 23be
00000330: 8d5f 3abb e264 ccbd 7745 a73e f830 f4bd
00000340: af21 c13e 35b6 aa3c e406 983d fbea 79be
00000350: b984 ba3e 1f7a 25be a4bb 5c3e f43a 6d3c
00000360: 549c a03c 05e2 9dbd 9f85 e5bd c4d2 413e
00000370: bae4 6dbe aa2e af3e d1a2 98bd 456d 41bd
00000380: ed48 a2bd 7ce5 553d 7f0a fa3d 8aa5 583e
00000390: 73d2 13bd 1fe3 1fbe 728f 80be e925 71bc
000003a0: 055e 973e b177 333f 3ec0 103e 396b 8fbc
000003b0: 52af edbc 2bc4 56be cee7 5a3d 93bc ffbb
000003c0: f638 0ebd d6a1 8a3d 14cd 213e 18fa 053f
000003d0: 30f4 89bd d92c a3be 5668 c6bd 3238 af3d
000003e0: 825d 55be 30ba 823e 312f 043e 5789 fc3c
000003f0: fa88 3f3b c1d8 9abe e689 4a3d 9cee acbd

layer2.downsample.1.weight f4 [32]
0.25801596 0.5169155 0.32610714 0.42740685 0.6090592 0.29242653 0.23814353 0.45065147
0.57518876 0.5507631 0.20164756 0.40976918 0.23318027 0.20017321 0.34707752 0.48372966
0.55050635 0.29735103 0.42504027 0.6037355 0.512903 0.58143675 0.1081325 0.36315262
0.46869662 0.47337288 0.3013803 0.20646046 0.21119894 0.5327302 0.33751744 0.40571898
00000000: ab1a 843e 9354 043f 84f7 a63e 12d5 da3e
00000010: 4eeb 1b3f eeb8 953e e6db 733e cabb e63e
00000020: 923f 133f cffe 0c3f b37c 4e3e 44cd d13e
00000030: cfc6 6e3e 35fa 4c3e 25b4 b13e 6aab f73e
00000040: fced 0c3f 653e 983e e19e d93e 698e 1a3f
00000050: 9c4d 033f 0ad9 143f 9274 dd3d 24ef b93e
00000060: 01f9 ef3e ee5d f23e 854e 9a3e 5f6a 533e
00000070: 8944 583e 0261 083f 16cf ac3e 66ba cf3e

layer2.downsample.1.bias f4 [32]
-0.013111801 -0.07940321 0.119677305 -0.34608197 -0.07089515 -0.086360835 0.05843321 -0.350207
-0.20145386 -0.12097317 0.08410784 -0.19566733 -0.016081113 -0.0015101784 -0.097884044 0.06126587
-0.078644045 0.25819257 0.009148379 -0.108324625 -0.10883138 -0.14288199 -0.22359131 -0.13546583
-0.0032029927 -0.033721566 0.013601803 0.19005409 0.053554237 0.23389292 -0.070188776 -0.10043798
00000000: e1d2 56bc 269e a2bd 6019 f53d a831 b1be
00000010: 7a31 91bd f3dd b0bd a957 6f3d 554e b3be
00000020: ec49 4ebe c8c0 f7bd bb40 ac3d 045d 48be
00000030: 8abc 83bc 2ef1 c5ba 6e77 c8bd ecf1 7a3d
00000040: 2110 a1bd d131 843e 15e3 153c 4dd9 ddbd
00000050: fde2 debd a84f 12be 1ff5 64be 8eb7 0abe
00000060: 4de9 51bb a01f 0abd 19da 5e3c 8a9d 423e
00000070: b05b 5b3d a081 6f3e 22bf 8fbd 6db2 cdbd

layer2.downsample.1.running_mean f4 [32]
-1.5023072 -0.5350902 -0.68358964 -0.7599769 -0.9221122 -0.52929276 0.3512467 -2.1611073
-0.4669906 -0.9303124 -0.03999503 -1.8659679 0.18442512 0.38960457 0.62590873 0.2529771
1.0224487 -1.2986469 -1.4058781 -0.4399799 -2.0598972 -1.5207301 -0.6507192 -0.3333648
0.8035123 1.8208064 0.18017736 0.19046557 -0.75375205 -1.3277812 0.290245 -0.37466297
00000000: 9a4b c0bf acfb 08bf bbff 2ebf d98d 42bf
00000010: 8c0f 6cbf bb7f 07bf 9cd6 b33e 954f 0ac0
00000020: 6419 efbe f428 6ebf d4d1 23bd 09d8 eebf
00000030: f0d9 3c3e 407a c73e 8e3b 203f 3786 813e
00000040: 99df 823f 103a a6bf d0f3 b3bf 0c45 e1be
00000050: 5bd5 03c0 49a7 c2bf 8995 26bf cbae aabe
00000060: fbb2 4d3f 2f10 e93f 6a80 383e 6809 433e
00000070: e5f5 40bf bcf4 a9bf fe9a 943e d3d3 bfbe
