Checkpoints/ResNet8_DKD_ResNet18_0.87.pth (torch, 334374 bytes, 47 tensors)

conv1.weight f4 [16, 3, 3, 3]
000000 1b 65 66 bd a1 5d 89 3e e8 59 0a 3e 12 59 c3 be
       -0.056248765 0.26829246 0.13510859 -0.38153893
000010 06 39 1d 3d c1 fc 68 3e 80 a9 5a be 0a 73 74 3d
       0.03838446 0.22752668 -0.21353722 0.059680022
000020 95 d8 96 bd 51 85 44 be ea b2 42 3e 09 98 49 be
       -0.073655285 -0.19191481 0.19013563 -0.19686903
000030 f9 80 de be d3 b6 86 3d d5 c5 8d 3e 1c 87 06 be
       -0.43457773 0.0657784 0.27689996 -0.13137478
000040 b5 a2 90 3e 5f bf 48 3e 61 e6 8d 3d 76 4c b5 3c
       0.28249136 0.19604252 0.06928707 0.022131186
000050 a5 21 3b be f1 76 13 be 86 bb 18 3d 43 7f ef 3d
       -0.18274553 -0.14400841 0.03728821 0.11694195
000060 e9 d5 00 be f7 6d 64 3e 78 8a a0 bd 7f cb a0 3d
       -0.125816 0.22307573 -0.07838911 0.07851314
000070 d2 be 63 3d 19 86 9f 3e 90 3c 07 bd a8 e9 eb 3e
       0.055601902 0.31156996 -0.03301674 0.46076703
000080 be 6c 3b 3e dc 5e c7 bd 71 86 82 3e a8 b8 90 be
       0.183032 -0.0973489 0.25493196 -0.28265882
000090 b4 c6 64 be 00 67 0e be a0 aa 62 bd 3b 3e de bd
       -0.22341424 -0.13906479 -0.055338502 -0.10851713
0000a0 ea 76 f0 bd ca 90 ba be 11 c7 45 be 92 05 2c bd
       -0.11741431 -0.3643859 -0.19314219 -0.0419975
0000b0 b3 38 a9 bd bd 84 11 3e f2 46 30 be a0 dd 2a 3d
       -0.08262768 0.14210792 -0.17214563 0.041715264
0000c0 05 d0 75 3d 46 0b ad 3c 15 1c 4c be d8 93 12 3e
       0.060012836 0.02112354 -0.19932587 0.1431421
0000d0 8d 2f 7c 3e 35 b4 b6 3d 7e ec 83 3e 5a 94 c4 bd
       0.24627514 0.089210905 0.25766367 -0.09598608
0000e0 af 97 2d 3e 78 7e 1d be d2 a7 ba 3c 44 88 a6 be
       0.16952394 -0.15380275 0.022785101 -0.32525837
0000f0 a4 56 77 3c 07 aa 2a be 2d e4 97 be 28 89 aa bc
       0.01509634 -0.16666423 -0.29666272 -0.020817354
000100 13 83 e6 3c ef 38 0a 3e 6c 8f 9b bd 16 c8 8b 3d
       0.028138673 0.13498281 -0.07595715 0.06825273
000110 40 92 f4 bd 30 81 9e 3d b6 db 1f be fa ff d3 bd
       -0.119419575 0.07739484 -0.15611157 -0.10351558
000120 55 c6 1a be 03 b3 62 be cb ee 7b be 7b 66 b5 bb
       -0.1511472 -0.221386 -0.24602811 -0.0055358983
000130 43 98 e4 3e 9c 7d a9 3e 24 db e5 bb e6 a9 a8 3e
       0.44647416 0.33103645 -0.007014649 0.32942122
000140 7d 3b a3 3e 00 82 a8 3e 77 0e 32 bd 2a e2 17 3d
       0.31881323 0.32911682 -0.043470826 0.03708092
000150 12 0a 63 bd df 06 1b bf 9a 72 da bd 39 f4 66 3e
       -0.055429526 -0.6055736 -0.1066639 0.22554101
000160 d2 04 af bc e5 1d 16 3e 2e 05 3e 3e f6 05 bd bc
       -0.021364603 0.14659841 0.18556663 -0.023074131
000170 dd 18 b0 3c 54 62 49 be 21 f3 68 bf b7 28 16 bd
       0.02149623 -0.19666415 -0.90995985 -0.036659922
000180 c3 61 72 3d 9e b1 0b be 77 69 de 3d 8c ef e1 bd
       0.059175264 -0.13641974 0.108599596 -0.11032018
000190 e4 1f 1e 3e a5 03 c4 3d 74 ab 47 3e 68 d6 27 be
       0.15441853 0.09571008 0.19498998 -0.16390383
0001a0 bd 4b de 3b 18 03 38 bd 6b bd f5 3b d1 72 a7 3c
       0.006783931 -0.044924825 0.007499387 0.02044049
0001b0 de ca 88 be a4 bc 17 3e 8e e4 08 3e 01 a4 46 3d
       -0.26717275 0.14818054 0.13368437 0.04849625
0001c0 6b 7f 1b 3e b1 52 84 be 12 d4 89 3d c6 e6 06 3e
       0.15185325 -0.2584434 0.06729902 0.1317397
0001d0 9a f8 49 be 85 73 63 3e 2f 3d d3 bd aa cf 9f be
       -0.1972374 0.22212036 -0.10314404 -0.31213123
0001e0 df bd d4 3e 44 47 fe 3d e9 d6 01 bf f0 b7 05 3e
       0.4155111 0.124159366 -0.5071855 0.13058448
0001f0 cf 4a 54 bc 88 90 cb bb 47 5c 50 3e f3 d1 d7 bc
       -0.012957289 -0.006212298 0.20347701 -0.026345229
000200 7c e4 40 3d d5 e5 3d 3e 13 b6 e1 3c 25 76 86 be
       0.0470929 0.18544705 0.02755264 -0.26262012
000210 9c 4c db bd 1f 04 bc 3d 46 14 65 bd 21 14 2a be
       -0.107079715 0.091804735 -0.055927537 -0.16609241
000220 c2 b8 6f bc 2b a8 1e 3e 20 6c 76 be 4b 96 d7 be
       -0.014631452 0.15493838 -0.24064684 -0.42106852
000230 cb 24 2f 3d 10 dc 5e bd 79 a1 65 3e f2 c7 ac 3e
       0.042759698 -0.054409087 0.22424878 0.33746296
000240 26 2d c8 3d 23 4d 94 3e 41 ee 09 3e 68 2d 48 3e
       0.097742364 0.289651 0.13469793 0.19548571
000250 42 9e b5 be ce 84 36 bc d4 f7 65 bc 25 84 ff 3d
       -0.35472304 -0.011140062 -0.014036138 0.124763764
000260 1a 31 6a be 60 fb 66 3d a2 8a 07 3d 85 4f 15 be
       -0.22870293 0.056392074 0.033091195 -0.14581116
000270 87 0f 15 3e 5d 02 c3 be 39 f8 06 3c 83 7a a4 3b
       0.14556704 -0.3808774 0.008237892 0.0050194873
000280 a3 90 80 3e 47 d8 8c bd ba 42 88 3d 98 b5 08 be
       0.2511035 -0.06877189 0.06653352 -0.13350523
000290 59 09 4b be 83 58 2c be 5a 5d ea 3e 4d b0 27 3d
       -0.19827785 -0.1683064 0.45774347 0.040939618
0002a0 73 f7 60 be a0 66 01 3d 84 0b 0e 3d e2 41 1f be
       -0.21969394 0.03159201 0.03467895 -0.15552476
0002b0 47 57 fe 3c 4a 8d e5 bd 56 06 f9 bd 65 6f 15 3f
       0.031047476 -0.112085894 -0.121594116 0.583731
0002c0 08 fa 63 bd 11 85 00 3e 1a e7 6e be a5 08 74 bc
       -0.05565837 0.12550761 -0.23330346 -0.014894639
0002d0 12 2c 11 bd e0 b7 58 bc 9c 25 1e 3d 1d eb e4 bd
       -0.03544242 -0.013227433 0.038610086 -0.11177657
0002e0 07 cf 07 3f 71 cc 13 be 35 c6 e1 3d 54 43 14 be
       0.53050274 -0.14433457 0.11024133 -0.14478809
0002f0 a4 5b 37 be c3 17 5a 3e a4 bc 51 be d8 25 b2 3c
       -0.17906052 0.21298127 -0.20482117 0.02174656
000300 4d f6 40 3c 5a dd 80 be a7 67 97 3d 07 b5 c8 bd
       0.011777473 -0.25168878 0.07392817 -0.09800153
000310 02 98 fd 3e b2 30 9b 3e 25 9e 76 3e 51 6e 94 be
       0.49530035 0.3031059 0.24083765 -0.28990415
000320 0f e7 27 be 04 3a 19 be 84 83 b9 be fe 86 f7 bd
       -0.16396736 -0.14963537 -0.3623315 -0.120862946
000330 43 d2 59 be 7e 31 07 be 3d c9 2f 3d e6 09 a5 bd
       -0.21271615 -0.13202474 0.042916525 -0.080585286
000340 37 a4 9f 3c b3 42 b4 3d 79 80 85 3e 97 b3 47 be
       0.019487483 0.08801784 0.2607458 -0.19502102
000350 ed a9 30 3e 6b 0c 2c 3c 2b 3e 42 3e de 09 10 3e
       0.17252322 0.010501008 0.18969028 0.14066264
000360 ac 53 5b be 29 eb 04 be ab 67 14 3e 34 ce 2a 3e
       -0.21418637 -0.12980331 0.14492671 0.16680223
000370 ba cb 10 be e2 4a 52 3e ec 0f b8 bd 34 df 94 3e
       -0.14140216 0.20536378 -0.08987412 0.2907654
000380 3a a4 b4 3d 78 5f d1 bd da 2d a9 3d e6 cb 30 3d
       0.08820386 -0.10223287 0.082606986 0.043163203
000390 9d 60 2c 3d 69 22 0a bf 17 c1 af be 85 e1 77 bb
       0.042084325 -0.53958756 -0.34327003 -0.003782363
0003a0 ab 2e 34 ba be c9 b2 3c 14 8e 60 3d 67 bd c0 3e
       -0.0006873409 0.021824714 0.054822996 0.37644503
0003b0 68 ed 8c 3e 0b f0 3b 3e 96 6a 70 bd 11 3d 38 bd
       0.27524877 0.18353288 -0.0586954 -0.044980112
0003c0 13 e4 93 3b 30 58 86 be b1 e9 a5 be ad 0e 45 3e
       0.0045132725 -0.26239157 -0.32404855 0.1924388
0003d0 19 be 54 be 1d c8 72 be 6a 46 9a 3d 8f 66 60 be
       -0.20775642 -0.2370915 0.07532962 -0.21914123
0003e0 dd be 88 bd a2 bd 03 3e 45 d5 83 3e be f2 f8 bd
       -0.06677029 0.12865308 0.2574865 -0.121556744
0003f0 e6 2c bb bc 3d 32 3e 3d 95 1f e5 3e d0 b3 a7 bd
       -0.022848558 0.04643463 0.44750658 -0.081885934

bn1.weight f4 [16]
000000 7f 80 54 3f 5d 80 c7 3e ec b5 d4 3e 72 98 8f 3f
       0.8300857 0.3896512 0.41545045 1.1218398
000010 ea a2 43 3f da d6 4f 3f 67 5d 92 3f 32 6d 15 3f
       0.7642046 0.8118721 1.1434754 0.58369744
000020 c9 47 05 3f a0 2a f9 3e 25 2a 04 3f 0f 42 b9 3e
       0.5206266 0.48665333 0.5162681 0.3618321
000030 f5 07 1e 3f 74 1d 0d 3f ca 21 17 3f 2c 7a 44 3f
       0.6173089 0.55123067 0.59035933 0.7674892

bn1.bias f4 [16]
000000 c3 bd 7b 3e 32 6c 6e 3e a3 1e 56 3e 61 34 13 bf
       0.24584107 0.2328346 0.20910124 -0.575018
000010 bb 72 f9 3e 88 bd 0a 3f f9 67 03 3f 2e ce fa 3d
       0.48720345 0.5419545 0.51330525 0.12246357
000020 2a 8c 2a 3e f2 ee 39 3f 75 fe 92 3e fa 80 3d 3e
       0.16655031 0.72630227 0.2870976 0.18506232
000030 39 1f 8c be 3d b3 a8 3e f2 b3 1a 3e 29 70 c8 3e
       -0.2736757 0.32949248 0.15107706 0.3914807

bn1.running_mean f4 [16]
000000 55 7d 14 bd bd 6d 2b ba b3 f6 57 bc 2d 36 b8 3e
       -0.03625234 -0.00065394846 -0.013181376 0.35978833
000010 69 96 96 bc b6 19 24 3d 11 28 99 bd 51 80 5c 3d
       -0.018382268 0.040063582 -0.07478345 0.05383331
000020 23 bc eb 3d bb d0 5b 3c 86 ce e0 bc 76 92 5c 3c
       0.115104936 0.013416464 -0.027442228 0.013462653
000030 e9 5f 36 3e f0 fb b4 bd 37 40 c0 bd 61 57 87 bd
       0.17810024 -0.08837116 -0.09387248 -0.06608463

bn1.running_var f4 [16]
000000 3c 85 a0 3f f9 25 9a 3e ae 76 b8 3e fb 6d 35 40
       1.254066 0.30107096 0.36028045 2.8348377
000010 cf b5 a1 3f 1e 03 a6 3e c0 f0 14 3f f8 5c 1d 3f
       1.2633609 0.32424253 0.58179855 0.61469984
000020 55 82 00 3f bb b6 0e 3e 5f 46 05 3f e3 8d 21 3e
       0.5019887 0.13936894 0.520605 0.15776782
000030 95 df 01 40 cd 5c 02 3f 8b 95 65 40 ff 34 34 3f
       2.0292714 0.5092285 3.5872524 0.70393366

layer1.conv1.weight f4 [16, 16, 3, 3]
000000 50 db 4c 3d 1d 62 08 3f 2a 63 d1 bd c5 ce 17 be
       0.05001384 0.5327471 -0.10223992 -0.1482497
000010 ab 90 b7 3e cd 8e a1 3d 7b 04 ed bd 1f 9a 0c 3d
       0.3585256 0.07888565 -0.1157312 0.03432667
000020 65 a6 b0 3d 84 59 cf 3d 82 9a 64 3e 30 b3 87 3e
       0.08625487 0.101244956 0.22324565 0.26503897
000030 b5 bf f8 3a c1 ad 88 bd 6d 41 0a 3d cf da 44 bc
       0.0018978032 -0.06673766 0.0337538 -0.012015059
000040 af f5 81 3d c3 1a aa be 20 d8 33 bd dc c0 86 3e
       0.063456886 -0.33223543 -0.043907285 0.26319015
000050 67 31 4b 3e 51 df 75 be 0d 6b 3c 3d a7 0c 33 3e
       0.19843064 -0.2401097 0.04600053 0.17485295
000060 7e 81 52 bd f1 34 c5 bd 8e 8a 07 be c8 64 dc bd
       -0.051393025 -0.096292384 -0.13236448 -0.1076141
000070 c2 d2 be bb ab 03 86 bd ef f7 00 3f 21 95 c3 3e
       -0.005823464 -0.06543668 0.50378317 0.38199714
000080 6f 83 b4 3e 83 fc dd be e4 b8 3d 3c c0 b4 c3 3d
       0.35256526 -0.43356714 0.011579726 0.0955596
000090 c5 08 11 bd d7 33 b4 3e 35 76 a1 bd 61 81 82 be
       -0.035408754 0.351958 -0.07883874 -0.25489333
0000a0 b7 43 4e 3e 9b 55 3f 3e c9 9d 90 bd 1f ab 5f bc
       0.20143019 0.18685 -0.07061345 -0.013651638
0000b0 83 e7 ba bc 9d a6 cd bd b0 64 a5 bd a4 1e 0c bd
       -0.022815472 -0.100415446 -0.08075845 -0.03420891
0000c0 9e 77 92 3e 3a 0a 38 3e 8b 56 2e 3e 8c 81 7b be
       0.28606886 0.17972651 0.17025201 -0.24561137
0000d0 e0 44 7f 3e 4f 28 35 3e f7 d3 1c 3e 59 0c a5 3c
       0.24928617 0.17691158 0.15315233 0.02014749
0000e0 05 11 86 bd b6 d4 74 3d 61 be c9 3d b3 28 50 bd
       -0.06546215 0.05977317 0.09850765 -0.050820064
0000f0 e7 76 c7 3d 92 5c 4a 3e 81 32 9f 3e 3f 62 6d 3d
       0.09739476 0.19761875 0.3109322 0.057955023
000100 5a 74 58 be df f5 4c 3e 9b a9 46 3e 4e cf 73 3b
       -0.21138135 0.20015667 0.19400637 0.003720242
000110 b4 19 73 3e 96 12 8b bd 58 b4 b7 bd 54 e8 8c bc
       0.23740274 -0.06790654 -0.08969945 -0.017200626
000120 fc 8a 09 bd 3d 67 1d be d1 5e f2 bb 9c f8 91 3d
       -0.03357981 -0.15371414 -0.007396557 0.071274966
000130 71 4c 24 3e ee 5e 1d 3e ae 0b bb be 84 90 7a bb
       0.16044785 0.15368244 -0.36532348 -0.003823311
000140 53 b5 ab 3d d5 6f 7f be 33 d3 fe bd 7c c6 24 3e
       0.08384194 -0.24945004 -0.12442627 0.16091341
000150 0c be 0c 3e b9 79 1b bd 4f 8d 70 3d ac 94 7b bd
       0.13744372 -0.03795788 0.058728512 -0.06142108
000160 a8 dc 29 be 59 e2 32 be 03 b0 8a bd 5d f9 33 3e
       -0.1658808 -0.17469157 -0.06771853 0.17575593
000170 24 30 7f 3d 20 a3 cc be 8d 8f fd bc 97 90 78 3e
       0.06230177 -0.39968204 -0.03095224 0.24273907
000180 de bd d0 bc 09 8d a1 be 94 f5 1a 3e 20 6d c2 3e
       -0.02548116 -0.31552914 0.15132743 0.3797388
000190 2f c2 88 3e 5b 07 fb bb fd 81 56 3e 54 25 0f be
       0.2671065 -0.007660789 0.20948024 -0.13979083
0001a0 b5 46 87 be 8c f5 fe 3d 56 2f 6a 3e aa c0 41 3e
       -0.26421133 0.12449178 0.2286962 0.18921152
0001b0 55 f2 9e bd 53 0a c7 3e cd 39 3d be 77 ad ff bd
       -0.07761065 0.38875064 -0.1847908 -0.12484258
0001c0 d0 dd 4a 3d 3e ac f2 bd 48 58 04 3e 34 78 7a 3e
       0.049527943 -0.11849259 0.12924302 0.24459916
0001d0 ca 7f 9b 3d 0a 66 ce 3c 24 04 b1 3d b8 3a 94 be
       0.07592733 0.02519514 0.08643368 -0.2895105
0001e0 51 01 0a bb a6 cc 4b 3e 38 a8 b4 3d a3 ea 08 bd
       -0.0021057914 0.19902286 0.08821148 -0.033426892
0001f0 48 5b b3 3d bd f5 09 be 8e 5c 99 bd d7 c7 f0 3d
       0.08757645 -0.13472648 -0.074883565 0.117568664
000200 e1 30 a9 be 85 a1 cd be 46 bf 23 be a9 6a 3c be
       -0.33045104 -0.40162292 -0.15990934 -0.18400063
000210 e9 fc 41 be bb 85 89 3d 7e d9 89 3c 7f c0 94 be
       -0.18944134 0.0671496 0.016827341 -0.29053113
000220 27 50 b0 3d 22 44 d6 bd e8 95 0e be c0 26 75 3e
       0.08609038 -0.10462214 -0.13924372 0.23940563
000230 8d b4 72 3e f1 6b 4a 3e e4 46 c1 3e 56 d7 1a 3e
       0.23701687 0.19767739 0.37749398 0.15121207
000240 e1 cc d4 3c 17 f1 8e be fd 75 84 bd fe 84 61 bd
       0.0259766 -0.27918312 -0.06467817 -0.05505847
000250 0f 20 08 3d 92 c0 2d 3e 7f 6b 4c 3d 29 de 05 3d
       0.0332337 0.16967991 0.049907204 0.03268257
000260 b8 c4 fc bd d5 1b 2c 3e 14 85 84 3e dd 67 fa 3d
       -0.123422086 0.16807492 0.2588278 0.122268416
000270 80 99 3b 3e ce 94 a2 3d 77 d8 9a bd 45 c5 63 be
       0.18320274 0.079385385 -0.07560819 -0.22243221
000280 e4 75 a3 bd 68 fb 98 bd bd 44 08 bd 6b 37 34 3d
       -0.0798147 -0.07469827 -0.03326868 0.043998163
000290 8d de 2a bd 37 cd e5 bd eb eb 66 be d8 2d 15 be
       -0.041716147 -0.11220782 -0.22550933 -0.14568269
0002a0 3c 40 bf 3d f7 b5 3b 3e 2e 60 b3 3e 05 62 9d bc
       0.093384236 0.18331133 0.35034317 -0.019211778
0002b0 72 a7 58 3b 5a 06 2a 3e ed 44 b1 bc f4 76 00 3b
       0.003305879 0.16603985 -0.021639312 0.0019602152
0002c0 c1 a2 b1 3d 0f 7f 37 3e be 6c d9 bd a5 12 c3 3b
       0.08673621 0.17919563 -0.10616444 0.0059531503
0002d0 94 24 05 3e 31 e9 53 3d 38 6f 06 3e df b1 47 bc
       0.13002235 0.05173606 0.13128364 -0.012188404
0002e0 7f eb 15 bd cd 9c 36 be 38 22 f9 bc e0 48 4c be
       -0.03660154 -0.17833252 -0.030411825 -0.19949675
0002f0 04 26 38 3d 18 91 00 be cd fb c9 be 13 bf c6 be
       0.04495813 -0.12555349 -0.3944992 -0.38817653
000300 e8 7d 2d 3d 4e c9 15 3f 90 24 cf 3e 5c a2 98 bd
       0.0423564 0.5851029 0.40457582 -0.074528426
000310 db cf 09 be 78 8d 50 bd 4d 88 69 3e 46 fa eb 3e
       -0.13458197 -0.050916165 0.22805901 0.4608938
000320 1c b6 f2 3d e0 83 91 be 71 5d f4 be b9 01 e5 be
       0.11851141 -0.28420925 -0.4772754 -0.44727877
000330 c2 53 1c 3e dc b8 a8 3e 43 de 81 3e 94 8f 13 3c
       0.15266326 0.32953537 0.25364885 0.0090064
000340 ca 0c 29 be 58 e4 a3 be 69 0c 01 be 68 32 42 3e
       -0.16508785 -0.3201015 -0.1260239 0.18964541
000350 a1 9b 58 bd c5 dc 45 3c d7 f2 1f 3d 4c bc f7 bd
       -0.052882794 0.012076561 0.03904995 -0.12096462
000360 66 75 09 3e 45 ff 1c bd 48 b7 f2 3c 54 1e b0 3d
       0.1342369 -0.03832938 0.029628411 0.08599535
000370 93 f6 24 3e 5f 31 7a bd 27 64 77 bd 86 67 3c be
       0.16109686 -0.06108224 -0.060398247 -0.18398866
000380 61 52 ba bd c4 c7 95 3e 57 d7 e1 3d 90 6f b0 bd
       -0.09097744 0.29253972 0.11027401 -0.08615029
000390 be 01 7d be f5 92 8d be a2 2d d6 3d 6f cc 81 3d
       -0.24707696 -0.27651182 0.104579225 0.06337821
0003a0 d6 1a 3f 3e ce 8c d0 bd c9 f1 98 bd b4 40 9e bd
       0.18662581 -0.10183106 -0.07467992 -0.07727185
0003b0 3f ae 40 3e 0b 89 ba bd 1f 29 83 bd b3 cf 2b 3e
       0.1881647 -0.0910817 -0.064043276 0.1677845
0003c0 d9 95 01 bd 1f 59 0e be d2 0e 9d 3b 4d 98 83 3c
       -0.031637046 -0.13901184 0.0047930265 0.016063834
0003d0 a5 14 c8 be cc d1 91 3c 2d 6f 77 3b aa d5 af 3e
       -0.3907825 0.017800234 0.0037755475 0.343427
0003e0 61 37 bf 3e 8a c1 a6 3d b8 5c 45 3d 37 30 17 be
       0.37346938 0.081423834 0.048184127 -0.14764486
0003f0 09 e2 92 be 79 3f 6d be 2c 4a 79 be 40 20 92 bd
       -0.28688076 -0.23168744 -0.243447 -0.071350574

layer1.bn1.weight f4 [16]
000000 d4 e7 42 3f c1 1a 95 3f 04 dc 65 3f fd 42 47 3f
       0.7613499 1.164879 0.8978884 0.7783659
000010 34 d6 6a 3f b9 b6 9f 3f 37 9c 36 3f b8 3f 72 3f
       0.917331 1.2477638 0.71332115 0.9462848
000020 2a ac 8b 3f b3 78 8c 3f 8a 3a 62 3f dc 6c 96 3f
       1.0911915 1.0974334 0.88370574 1.1751971
000030 7a 15 47 3f 72 71 9b 3f b9 13 3c 3f 98 c5 81 3f
       0.77767146 1.2143996 0.73467594 1.0138426

layer1.bn1.bias f4 [16]
000000 d9 fa 9b bd 8d 33 88 bc 0f 2b 31 bb aa c1 85 3d
       -0.07616205 -0.016626144 -0.0027033722 0.06531079
000010 7b 6b 00 3e be 7e 2b bd 2b 92 b9 bc db 2a a7 3e
       0.12541 -0.041868918 -0.022652706 0.32649884
000020 dc 3c 02 be 99 98 11 be 4a 3f e1 3d 57 a7 f9 bd
       -0.12718529 -0.14218368 0.109983996 -0.12190121
000030 23 e2 23 be 85 32 d1 3e 74 d8 3e 3d b2 63 4d be
       -0.16004233 0.40858856 0.046593145 -0.20057562

layer1.bn1.running_mean f4 [16]
000000 8b fd df 3f 90 ce 40 3e a2 2a 26 bf 50 e6 20 be
       1.749925 0.18828797 -0.649088 -0.15712857
000010 e4 ed 55 3d ec 78 ea be e2 fe 70 bf fe 14 56 bf
       0.052228823 -0.4579538 -0.9413892 -0.8362578
000020 3e 42 8d be 1e 6e 1a bf e1 28 73 bf c7 a5 b5 be
       -0.275896 -0.60324275 -0.9498425 -0.3547804
000030 b5 7b 80 bf 36 43 2f bf 57 a8 c9 3e 80 f5 09 bf
       -1.0037752 -0.6846193 0.39386246 -0.5389023

layer1.bn1.running_var f4 [16]
000000 fc cd b9 3f fc d1 b9 40 19 03 77 3f f5 2c 35 3f
       1.4515986 5.806883 0.964891 0.70771724
000010 7b c3 35 40 0f d0 b9 40 3c 1c 82 3f 2a e7 97 3f
       2.8400562 5.806648 1.0164866 1.1867421
000020 5a 84 01 40 20 d6 91 3f 74 91 c2 3f eb ee 5a 40
       2.023703 1.1393471 1.5200639 3.4208324
000030 cf ed 53 3f 04 b5 14 40 50 bc fc 3f e7 ac 8a 40
       0.8278474 2.3235483 1.9744968 4.3336062

layer1.conv2.weight f4 [16, 16, 3, 3]
000000 94 88 82 bd 70 86 4f bd 4e c1 02 3e dd b3 14 3c
       -0.063737065 -0.05066532 0.12769052 0.009076086
000010 54 b6 10 be eb cb cb 3c 52 06 51 3e 5e 69 84 bd
       -0.14132053 0.02487751 0.20412567 -0.0646541
000020 58 30 23 be 98 c4 42 bd bf 84 27 be 5e 4d 37 be
       -0.1593641 -0.047550768 -0.16359232 -0.17900607
000030 6c 5d 8b be e6 7e 02 be 62 fe a6 bd c6 8e 3c be
       -0.27219713 -0.1274372 -0.081539884 -0.18413839
000040 7d aa ce bd b2 ad 8d bd d7 9c 8a 3e ae df 99 3e
       -0.10091112 -0.069178954 0.27072784 0.30053467
000050 00 2b ff bd dc e9 d8 3d 8a d0 11 3f 10 ab 68 3e
       -0.124593735 0.1059148 0.5695883 0.22721505
000060 fa f3 2d be 3e 4e cb 3e 74 b6 8d 3e 7c 0d e9 bc
       -0.16987601 0.39708132 0.27678263 -0.028448813
000070 47 cc 79 3d 59 a5 ad bc e8 39 d2 bd 6b 6e 03 be
       0.06098583 -0.021197008 -0.10264951 -0.1283509
000080 98 c9 b6 bd 1e ca 7b be 82 11 45 bd 56 cd ca 3d
       -0.0892517 -0.2458882 -0.0481124 0.09902446
000090 5b 5a cb be 75 83 ca bd 37 1e 90 bd d9 f7 77 be
       -0.39717373 -0.09888355 -0.07037013 -0.2421564
0000a0 c9 e6 c7 3d 1d 45 61 bd 21 9e 60 be 24 2f 9b bd
       0.09760816 -0.054997552 -0.21935321 -0.07577351
0000b0 4e a1 18 be 98 54 1c be ab 21 a4 3c 2b 13 5e 3b
       -0.14905283 -0.15266645 0.020035585 0.0033885937
0000c0 53 a1 21 be 71 72 1b 3e a5 83 18 3e f5 d7 69 be
       -0.15784197 0.15180375 0.14893968 -0.22836287
0000d0 0a 9f ce 3d a5 39 4e 3d fa 50 f3 bd 61 d1 6d be
       0.10088928 0.050347943 -0.118806794 -0.23224403
0000e0 46 00 8b bd e1 8e 3b bd e6 07 96 be 2d fb 4e be
       -0.067871615 -0.045790557 -0.293029 -0.20213003
0000f0 92 5d 76 3d e5 e8 4a be 40 f1 0c be 2e 65 02 3e
       0.06014783 -0.19815405 -0.13763905 0.1273391
000100 2c 32 02 3f bc 5d 7d 3e fc 89 d0 3c 7c 53 a1 3e
       0.50857806 0.24742788 0.025456421 0.31509006
000110 37 05 6f 3e 33 27 0f be d4 60 c0 bd b2 1d c5 bd
       0.23341833 -0.13979797 -0.093934685 -0.096248046
000120 78 15 26 3e 35 b8 4e 3c 79 41 c2 bd b4 18 02 3e
       0.16219127 0.012617161 -0.09485144 0.12704736
000130 80 55 fe 3d 1a 4d b2 bd d4 d7 08 3e 49 98 a3 3d
       0.124186516 -0.08706112 0.13363582 0.079880305
000140 e0 1a 58 be a7 a2 47 3e 8e f2 d2 3b 50 61 0d be
       -0.21104002 0.1949564 0.006437606 -0.13806653
000150 d6 1b 80 3d 6b 3b 26 3e df f2 10 3c 63 cd 19 bd
       0.06255309 0.16233604 0.0088469675 -0.037549388
000160 1d e6 a6 3d 5e 70 c6 3d da 59 82 3e c9 17 29 be
       0.081493594 0.09689401 0.25459176 -0.1651298
000170 d9 84 81 be 24 75 90 3e 50 1b 39 be 37 14 ea bc
       -0.25296667 0.2821437 -0.18076825 -0.028574092
000180 24 4e 5c 3e 26 d4 bb 3c 03 f4 ec 3c e8 bb a5 3e
       0.21514183 0.022928309 0.028924948 0.32369924
000190 b6 99 5e 3e a3 35 ad be f0 7f 60 3e 98 09 39 3e
       0.21738324 -0.33829984 0.21923804 0.18070066
0001a0 83 4f ca bb 7d 31 5d 3e 6a 44 9f 3e 82 75 c2 3e
       -0.0061740293 0.2160091 0.31106883 0.37980276
0001b0 33 44 06 be 5a 77 e0 3c 26 60 7c 3e 64 39 59 bb
       -0.13111953 0.027400661 0.24646053 -0.003314578
0001c0 e9 2b 7f 3d 83 e2 ba 3d e3 07 a1 bc 87 e9 5e 3e
       0.062297735 0.09125235 -0.019657081 0.21768771
0001d0 3d 1e 08 3e 51 99 0e 3e d3 37 90 3e db 97 91 bd
       0.13292785 0.13925673 0.2816759 -0.07109042
0001e0 d3 38 7e 3e ae ac d8 3e b2 b2 ae 3e f2 05 b8 3d
       0.24826364 0.42319244 0.3412071 0.08985509
0001f0 3e 48 3a 3e 8f cb 04 3d 69 ac 1b 3e 1e 6b d2 3c
       0.1819162 0.03242069 0.15202488 0.025685843
000200 e5 ca 41 be 06 fa 04 3d a1 75 05 3e 91 a7 ee bc
       -0.18925054 0.032465003 0.13033153 -0.029132636
000210 1a 79 cb bd 48 bc fa 3d 91 2f 4e 3e d9 19 2c 3d
       -0.09935208 0.12242943 0.20135333 0.042016838
000220 5c 30 c5 3d 2c be 26 3e 40 8c d2 bd 8d ec 13 bd
       0.096283644 0.16283482 -0.10280657 -0.036114264
000230 ce e2 c8 3c 0e 9b 80 3d dc ea a2 3e 48 e5 08 3e
       0.024522211 0.06279574 0.31819808 0.13368714
000240 7e 1b 7f 3d bc 7a 31 be 35 83 f9 3c 21 37 fa 3d
       0.062282078 -0.17331976 0.030458072 0.12217546
000250 8e 53 b9 3d 22 92 2b 3e e6 c7 8a 3d dc 62 a7 bc
       0.0904914 0.16754964 0.06776409 -0.020432882
000260 be 75 af bc 12 7d af be d4 eb b5 be a7 ce e1 be
       -0.021418449 -0.3427511 -0.35531485 -0.44102976
000270 73 63 d0 be 17 28 ec be 24 d0 e6 be f9 cb ac be
       -0.40700874 -0.46124336 -0.45080674 -0.3374937
000280 34 6d 8c be 08 62 de bd 4d b8 8f be 30 e9 27 be
       -0.27427065 -0.10858542 -0.28070298 -0.16397548
000290 47 8c 21 3e 3b 20 82 bd 0d 34 7c bd 8d e4 e7 3d
       0.15776168 -0.06353804 -0.061573077 0.113228895
0002a0 11 0e ac 3e 88 ba 14 3e a2 35 4f 3d 09 dc 50 bd
       0.33604482 0.14524281 0.050588258 -0.050991092
0002b0 bc 3c a6 bd d3 d4 e2 bd 9e 15 fd bd be 51 ac be
       -0.08117053 -0.11075749 -0.12357639 -0.33656114
0002c0 38 37 ff bd 82 46 94 3c c8 43 92 be db 5d 65 be
       -0.12461704 0.018100027 -0.28567338 -0.22399084
0002d0 95 0f 0e be b8 05 10 be ed 15 83 be 90 cb 36 3c
       -0.13873132 -0.14064682 -0.25602666 0.0111569315
0002e0 35 3b 84 3d 7a 73 3c 3e 96 3b 58 bd b9 4c 05 bd
       0.06456605 0.18403426 -0.0527912 -0.03254387
0002f0 7c 04 ff 3d da 0d 45 3e c5 d6 23 3e bc 81 06 3e
       0.12452027 0.19243565 0.15999897 0.13135427
000300 8f c5 58 3d 89 4b 17 3d 75 1f 86 3e 58 ee a2 3d
       0.05292278 0.03693727 0.26195875 0.07955617
000310 0c 31 b4 bd 8b 3f 40 3d 60 49 64 be f2 1d a6 bd
       -0.087984174 0.0469356 -0.22293615 -0.0811118
000320 d7 cf 7f 3e 53 a2 59 be 20 b2 5f be 55 1c 2f 3e
       0.24981628 -0.21253328 -0.21845293 0.17100652
000330 2a c7 4f be 9c 75 89 be e5 52 a1 bd 9f fd e5 bd
       -0.20290819 -0.2684754 -0.07877139 -0.11230015
000340 b4 0f f2 be 6d 3c e6 bd c7 cb 18 bd f9 55 e2 be
       -0.47277606 -0.11241994 -0.037303712 -0.44206217
000350 ae ed e4 be 25 50 9c bb 95 53 2c be d0 8d ba be
       -0.44712585 -0.004770296 -0.16828759 -0.3643632
000360 91 34 ca bc 7e ee 80 3d 87 15 4a 3e f1 0e 99 3c
       -0.024683269 0.06295489 0.19734775 0.018683882
000370 e7 b9 16 3e 21 97 9e 3e c2 43 83 3d 10 f6 c2 3d
       0.14719354 0.30974677 0.06409408 0.09519589
000380 03 71 4c 3e 3c 89 be bd e6 d6 31 3d 29 15 db 3d
       0.19964986 -0.09303519 0.043417834 0.10697395
000390 e8 a7 1b 3e 43 41 aa 3d 0f 8b 18 3e 8a c6 f1 3d
       0.1520077 0.08313229 0.14896797 0.118054464
0003a0 86 92 e3 3d e2 69 5e 3e 2f b2 73 be ab 99 aa be
       0.111119315 0.21720079 -0.2379844 -0.33320364
0003b0 39 20 84 bd 18 85 ab 3d 4f 49 24 bd de 31 e9 bd
       -0.064514585 0.08374995 -0.040108975 -0.113864645
0003c0 cf 56 62 3e 75 6d 8e 3e db 20 53 3d d8 6e 83 bd
       0.22103427 0.27817884 0.051545005 -0.06417626
0003d0 53 4b 60 3e 0f 6f c4 3e 37 88 f6 bc 40 dd f1 bd
       0.21903734 0.3836598 -0.03009425 -0.11809778
0003e0 3c 18 33 3e 99 a0 2e be dd e6 7d be cb cc 24 bd
       0.17489713 -0.1705345 -0.24795099 -0.04023437
0003f0 aa b7 4b 3e c4 4c fe 3b 2d 21 3f be 8a 2f a4 3d
       0.19894281 0.007760616 -0.18665 0.0801688

layer1.bn2.weight f4 [16]
000000 0c 10 57 3f 22 a3 8c 3f 12 20 b7 3f 25 24 33 3f
       0.8400886 1.0987284 1.4306662 0.6997703
000010 40 c9 80 3f d5 64 7e 3f 58 ab c5 3f 65 19 73 3f
       1.0061417 0.9937261 1.5442915 0.94960624
000020 3b 10 60 3f 67 5c 92 3f f3 a9 85 3f 0e 2d e1 3f
       0.87524766 1.1434449 1.0442489 1.7591875
000030 b7 cd 96 3f 72 5e ad 3f f3 87 71 3f 0f 08 8c 3f
       1.1781529 1.3544447 0.9434807 1.0939959

layer1.bn2.bias f4 [16]
000000 72 89 18 3e da e4 13 3f 71 ad 97 3e 01 c7 36 3f
       0.14896181 0.57771075 0.29624513 0.71397406
000010 87 06 38 3e a9 c4 c0 3e 4f 59 d0 3d 60 ee d4 bd
       0.1797124 0.3765004 0.10173284 -0.10397029
000020 77 f6 b0 3d f7 81 58 3e 85 a4 1e 3f 85 72 28 be
       0.086407594 0.21143328 0.61969787 -0.16449936
000030 13 48 c9 3e 56 74 5a be be 88 30 3f 87 cb fa be
       0.393128 -0.21333441 0.6895865 -0.48983404

layer1.bn2.running_mean f4 [16]
000000 26 69 fa 3f a9 d1 13 c0 f7 fa 11 bf 3d 7c 81 bf
       1.9563339 -2.3096716 -0.57023567 -1.011604
000010 fd 82 81 bd aa 6f 6f be 3e 9f b2 be 5f 4e 3f 3e
       -0.06323812 -0.2338244 -0.34887117 0.1868224
000020 e9 fe 28 3e 89 17 ba 3f 47 e4 00 c0 27 a6 1e bd
       0.1650349 1.4538432 -2.013933 -0.038732674
000030 89 18 9c bd a2 f9 19 c0 d6 aa 0d 3f c5 e7 9c 3c
       -0.07621867 -2.4058614 0.553388 0.019153485

layer1.bn2.running_var f4 [16]
000000 71 ca 1f 40 94 0e 2d 40 63 e2 73 40 77 09 3d 40
       2.496731 2.7040148 3.8106925 2.9537027
000010 70 16 3f 40 4b d2 12 40 35 15 a9 40 40 ad 03 40
       2.9857445 2.2940853 5.2838387 2.0574493
000020 09 99 e5 3f 80 35 8b 40 3f c7 43 40 62 bc 49 40
       1.7937328 4.350281 3.059036 3.152123
000030 f7 e1 5d 40 06 16 b1 40 62 f4 6c 40 d5 9d d7 3f
       3.4669168 5.5339384 3.702416 1.6845042

layer2.conv1.weight f4 [32, 16, 3, 3]
000000 bd e8 bf bb 9f fc b3 3d e9 6f 42 bd 50 6d 2b 3e
       -0.005856602 0.08788418 -0.047470007 0.16740918
000010 99 38 1e bd 45 63 dc bd bd d5 82 3e e3 85 e2 bd
       -0.038628194 -0.10761122 0.25553694 -0.11060693
000020 d9 3f 73 be 9c 7c 94 bd e6 35 06 3e 28 27 16 3f
       -0.23754825 -0.0725033 0.13106498 0.586535
000030 e5 18 b1 bd 06 d8 95 3d 50 9a 9d 3e a8 e3 ff bd
       -0.086473264 0.07316594 0.30781794 -0.12494594
000040 18 e9 af 3d 56 47 74 3d e5 f5 90 be cc 24 06 3d
       0.08589381 0.059638344 -0.28312603 0.032749936
000050 30 7b 53 3d 43 51 cb bd 8e 9a 03 3e e0 e4 5e bd
       0.051631153 -0.09927609 0.12851927 -0.05441749
000060 f4 11 47 be 28 c9 4a 3d b2 cb 58 be 97 ef 10 bc
       -0.19440442 0.049508244 -0.21171454 -0.008846185
000070 e0 00 00 3e 2a 8d ac 3d a7 b6 55 bd 69 91 90 3d
       0.12500334 0.084253624 -0.052176144 0.07058985
000080 03 a5 20 3e b8 be 14 3d db b8 8c bd 05 b3 05 3d
       0.15687947 0.036314696 -0.06871196 0.03264143
000090 5c d5 09 3e f1 3e f3 3d 55 1a 08 3f 36 21 0a 3d
       0.13460296 0.118772395 0.5316518 0.03372308
0000a0 d8 86 6f 3d db 0f 8b 3d d2 a9 35 bd 96 4a e3 bd
       0.058478206 0.067901336 -0.044351406 -0.110982105
0000b0 07 21 1b be 99 31 e1 3c 9f 23 d6 3e e5 cc 5f 3e
       -0.15149318 0.02748947 0.41824052 0.21855505
0000c0 ea 55 e7 3c 03 01 85 3e 48 ce ad 3e f3 c0 c1 3e
       0.02823921 0.25977334 0.33946443 0.3784252
0000d0 61 c0 b5 3e 2b 25 b9 3e 8d 97 03 3c 73 77 77 3e
       0.35498336 0.3616117 0.008031738 0.2416666
0000e0 c9 e0 8f 3e 46 c5 07 3e 9f 31 9f 3e 13 d8 6b 3e
       0.28101185 0.13258848 0.31092545 0.23031645
0000f0 3f 82 57 3e f3 ad db 3d 89 1c c7 ba 44 24 fc bd
       0.21045779 0.107265376 -0.0015190999 -0.123116046
000100 69 6f 6f 3e 54 ae 9f 3e 44 eb 63 be f9 59 74 3d
       0.23382343 0.3118769 -0.22257715 0.059656117
000110 ef 0a 2b 3e 8c 1a 09 be 11 b0 89 bd 91 a2 8f 3d
       0.1670339 -0.13389033 -0.06723035 0.07013429
000120 9e 77 8c 3e 3e 48 03 3e 42 dd 1b be b2 54 47 3e
       0.2743501 0.12820527 -0.15221122 0.19465902
000130 88 52 75 3d be 7e 0c be 12 81 93 be fd ab 71 be
       0.05989316 -0.13720223 -0.2880941 -0.23600765
000140 d5 5e 5a bd 71 26 55 3d 2f 7b 9f bc f2 b9 1b 3b
       -0.053313095 0.052038614 -0.019467918 0.0023761955
000150 bb 4c 86 be 0a 84 ef bd bb 2e 59 bc 11 ec b0 be
       -0.26230416 -0.11695106 -0.01325577 -0.34555104
000160 68 0c 9d be fd 4b 09 be 73 79 05 be 0c 4c 0e bd
       -0.30673528 -0.13407893 -0.1303461 -0.034740493
000170 67 ec 30 3c 18 67 70 be 03 68 8a 3d 6f eb 4d 3e
       0.01079855 -0.23476827 0.0675812 0.20109342
000180 30 48 8b be 08 10 20 bc e2 c2 14 3e cc 0f 44 3e
       -0.27203512 -0.009769447 0.14527467 0.19146651
000190 15 c7 46 3e 4f d1 c2 3d e3 08 91 3d 1a 0c c7 3d
       0.19411881 0.09512579 0.07081773 0.09719105
0001a0 3a ff b5 3b 6d ec cb 3d 3b f9 e2 3d 6d c5 d2 bc
       0.005554107 0.09957204 0.11082693 -0.025728906
0001b0 5c bc 33 bd 68 02 15 3e 94 bc ad 3c b4 47 a3 bd
       -0.043880805 0.14551699 0.021208085 -0.07972661
0001c0 5e ad dc 3c 64 fd f3 bd 87 c3 1f 3d 42 cb c4 3c
       0.026938137 -0.11913565 0.03900483 0.024022702
0001d0 54 56 95 be 14 23 de bb 60 e8 54 be 6d 2a 0e bc
       -0.29167426 -0.006779084 -0.20791769 -0.008677107
0001e0 05 87 df bd c7 48 b9 be 1c ba 62 be fe 78 23 be
       -0.10914425 -0.36188337 -0.22141308 -0.15964124
0001f0 dc e2 71 be 7b 61 f7 bd 3c 51 3c be 71 d8 14 be
       -0.23621696 -0.1207914 -0.18390363 -0.14535691
000200 c0 ba 64 3e 0a 89 1a be 62 a9 cd be 28 74 11 be
       0.22336864 -0.15091339 -0.4016829 -0.14204466
000210 8e c2 4b 3d 4a 83 8c be 0e 6e 74 be 1a a4 97 3e
       0.04974609 -0.27443916 -0.23870108 0.29617387
000220 e9 ee b0 3e 72 3a a7 3d 4e ba 3e 3e fb 94 c3 3e
       0.34557274 0.081654444 0.18625757 0.381996
000230 e4 60 c5 3d 12 8c 81 bd 29 d9 9d bd 93 ba c3 bc
       0.09637621 -0.063255444 -0.07707436 -0.023892676
000240 d6 4f fe be ac 7d a5 bd 5d b3 d7 3c 64 24 d4 be
       -0.49670285 -0.08080611 0.026330644 -0.41434014
000250 85 04 35 bd 44 08 2c 3e a2 0e 57 be 28 ac 95 3d
       -0.044193763 0.16800028 -0.21001676 0.07308227
000260 d5 e2 a6 3d 96 10 df bd 74 fa 3b 3d a7 a8 78 3d
       0.081487335 -0.108918354 0.045893148 0.060707714
000270 a9 71 59 bd a6 29 5c 3d 86 ec 18 3d db b0 00 be
       -0.05308691 0.053750657 0.03733494 -0.12567465
000280 6d 59 87 bd 59 b3 63 bb 27 7d 00 3e 39 a9 80 3d
       -0.066088535 -0.003474435 0.12547742 0.06282277
000290 56 1a 6f 3d d3 eb fa 3d c7 64 d7 bd e7 a6 1a 3e
       0.058374725 0.12252011 -0.10517269 0.1510273
0002a0 a1 0c d5 bc ec b7 80 be 40 b2 89 bd fc ae 4d be
       -0.026006998 -0.2514032 -0.067234516 -0.20086282
0002b0 cc cf e8 bd bd a7 6f be 13 f5 d4 3c 6f 4b 25 3e
       -0.11367759 -0.23403831 0.025995767 0.16142057
0002c0 40 e6 cd bc f0 3d 44 3e d9 20 94 3e c2 c0 1c bd
       -0.025134206 0.19164252 0.2893131 -0.038269766
0002d0 aa 45 e2 bd 3f f4 3c be 17 f3 9f bd 32 9a a2 bd
       -0.110484436 -0.18452547 -0.078100376 -0.07939567
0002e0 60 ad f5 3d e4 d3 83 3e 7b 9d fd bd 69 40 8b 3d
       0.11995959 0.25747597 -0.12383553 0.06799395
0002f0 f9 77 4d 3e 31 7f af bd 6e 1c fb 3d 95 9b 59 3c
       0.20065297 -0.08569182 0.12261282 0.013281723
000300 cb 16 a1 3d 19 53 16 3e 63 d8 0c 3d 14 ba dd 3d
       0.078656755 0.14680137 0.03438605 0.10826507
000310 7a bb 44 3d 7f 15 f3 bd 46 7c b8 3d 25 11 31 3e
       0.048030354 -0.118693344 0.09008078 0.17291696
000320 f8 28 09 3d 3b 44 36 3e c6 28 50 3e 70 64 0f bb
       0.033486336 0.17799465 0.20328054 -0.0021879934
000330 ad 3f df 3e fd 37 58 3e 1f 26 47 3d bf cf 68 bc
       0.43603268 0.21115108 0.04862034 -0.014209687
000340 53 da db 3c fa c4 13 3e 39 0f 9b bc bb 6d 43 3d
       0.026837504 0.1443061 -0.018928157 0.04771207
000350 da 0d 4c 3e 94 b4 d9 3a b5 37 28 3d dd 3b 16 3e
       0.19927159 0.0016609603 0.04106875 0.14671274
000360 24 92 72 bc ad 66 03 3e 62 b0 0c 3e 21 f8 9d 3e
       -0.01480535 0.12832136 0.1373916 0.3085337
000370 6b 8f a8 3e a1 40 c0 3e ed aa e4 3e 74 b3 a6 3e
       0.3292192 0.37549308 0.44661656 0.32558787
000380 52 f6 8a 3e ef b0 20 3d 2b cd 96 bd b0 e5 51 bd
       0.27141052 0.039231237 -0.073633514 -0.051244438
000390 ff 49 12 3b 4b dd 2b be 4c 92 4a bd 4d d2 30 be
       0.0022321937 -0.16783635 -0.049455926 -0.17267723
0003a0 c7 63 5e bd 28 81 07 3e 1e 3d 41 be e8 fb 9b bd
       -0.054294374 0.13232863 -0.1887097 -0.07616407
0003b0 65 37 3a 3e bd eb 67 3c 91 c1 cc 3c 77 b9 31 3e
       0.18185194 0.0141553255 0.024994643 0.17355905
0003c0 cc b5 4a 3d e7 7d 8c 3c af 7b a1 3d 64 82 96 be
       0.04948978 0.017149879 0.07884919 -0.29396355
0003d0 6e 06 e8 be 01 14 86 be f2 6c ef be 7b 3a 2f bf
       -0.45317405 -0.26187137 -0.46762806 -0.6844861
0003e0 45 22 b8 be f7 73 ad be 7a f2 db be 2d c6 85 be
       -0.35963646 -0.33877537 -0.42958432 -0.2612776
0003f0 d1 5a 48 3d c6 df fa 3d 48 bf 8d bc b6 71 8f 3d
       0.048914734 0.12249713 -0.017303124 0.070041105

layer2.bn1.weight f4 [32]
000000 68 ea 6d 3f ff 7c 7a 3f e6 b7 46 3f df 13 8a 3f
       0.929358 0.9784698 0.77624357 1.0787314
000010 5a 3e 5e 3f d1 41 91 3f 19 38 6c 3f a2 e1 60 3f
       0.8681389 1.134821 0.922731 0.8784429
000020 44 83 5d 3f 7f fa 91 3f 93 7a 43 3f 23 73 8a 3f
       0.8652842 1.140457 0.7635891 1.0816387
000030 f1 f5 7e 3f b8 6a 57 3f b6 f4 99 3f db 5a 67 3f
       0.99594027 0.84147215 1.2027805 0.9037301
000040 04 0c 8b 3f ba 2f 56 3f ad af 95 3f b3 84 58 3f
       1.0863042 0.83666575 1.1694237 0.8457748
000050 1c e2 48 3f c4 6e 4c 3f d1 98 b8 3f d1 b9 9e 3f
       0.78470016 0.79856515 1.4421636 1.2400457
000060 62 bf 57 3f f0 4a 64 3f d1 bb 73 3f f5 8e 61 3f
       0.842764 0.89176846 0.9520846 0.8810876
000070 81 91 6c 3f c1 77 7d 3f 35 d1 4e 3f 49 1d 65 3f
       0.9240952 0.99010855 0.80787975 0.8949781

layer2.bn1.bias f4 [32]
000000 67 09 44 bd 74 c3 14 3e 04 8c 0e bd 8b 0a 76 bd
       -0.04786053 0.14527684 -0.034801498 -0.06006865
000010 7d 4d 92 be b0 71 d3 ba 61 ae 47 3e 99 0b 4a be
       -0.28574744 -0.0016131904 0.19500114 -0.19730987
000020 0b 32 62 be 2a b4 0e bd f9 b5 a7 bd 20 28 55 be
       -0.22089402 -0.034839787 -0.081890054 -0.20816088
000030 d4 dc f0 bd 03 8c 70 be ab a5 9c bd d9 ea 8d be
       -0.117608696 -0.2349091 -0.07648786 -0.27718237
000040 75 20 1b be b4 cd 31 be fa b8 9a be b6 f6 26 be
       -0.151491 -0.17363626 -0.3021925 -0.1630505
000050 65 62 ba bc c0 a7 15 3e b5 a0 cf be 68 c4 73 bd
       -0.022751996 0.14614773 -0.40552297 -0.05951348
000060 cb 68 10 be 94 75 2f be 40 aa 85 be a0 23 21 3d
       -0.14102475 -0.17134696 -0.26106453 0.039340615
000070 0c ab 77 be e2 ce 1c be 46 04 b7 bd 3d fc 89 be
       -0.24186343 -0.15313295 -0.08936362 -0.26950255

layer2.bn1.running_mean f4 [32]
000000 eb 01 39 40 a1 c1 5a 3f 79 22 b9 c0 49 31 df c0
       2.890742 0.85451704 -5.785458 -6.9747663
000010 77 bb 5c 3f 01 6f 8f bf 8c ab 21 c1 4f 32 eb bd
       0.8622355 -1.1205751 -10.104382 -0.11484205
000020 82 24 60 c0 a0 73 89 c0 c1 06 87 bf da 32 1a c0
       -3.5022283 -4.2953644 -1.0548936 -2.4093537
000030 8d a7 c2 bf 3f 3c 5d bf 62 40 36 c0 c0 01 6d 3f
       -1.5207382 -0.86420053 -2.8476796 0.92580795
000040 61 37 18 c0 8f ba b9 c0 82 00 2c c0 50 99 84 3f
       -2.37838 -5.8040233 -2.687531 1.0359287
000050 70 9d 02 c0 39 fb c3 c0 0b 16 ce c0 95 53 be 3f
       -2.0408592 -6.124417 -6.440191 1.4869257
000060 f9 f5 e1 bf 83 a3 c0 c0 59 0f 43 40 e6 ea 89 bf
       -1.765319 -6.01996 3.0478117 -1.077481
000070 81 85 c9 bf 0e d6 26 c1 4d 98 24 c0 21 68 38 c0
       -1.5743867 -10.427259 -2.5717957 -2.8813555

layer2.bn1.running_var f4 [32]
000000 dd 0c 34 41 0e e1 10 41 45 aa c1 40 c4 99 25 41
       11.25314 9.054945 6.052035 10.35004
000010 24 59 d2 40 3a fb 57 41 d5 84 50 41 27 dc e5 40
       6.5733814 13.498835 13.03243 7.183124
000020 65 bd 94 40 40 20 39 41 58 1a ab 40 23 43 28 41
       4.6481194 11.570374 5.346966 10.516391
000030 3c ca 4e 41 35 c0 12 41 0d 9e 3d 41 a9 bb 01 41
       12.924374 9.171926 11.851087 8.108315
000040 a6 e6 fb 40 1b ed c4 40 93 89 01 41 91 8e da 40
       7.8719053 6.1539435 8.096087 6.829903
000050 27 cf a8 40 c7 83 e7 40 b9 19 90 41 79 54 45 41
       5.275287 7.234836 18.01256 12.333123
000060 ba ff bb 40 b5 08 8b 40 90 a1 a5 40 94 d5 17 41
       5.8749666 4.344813 5.175972 9.489643
000070 7b d2 4b 40 15 60 24 41 e3 be ff 40 d2 9a a6 40
       3.1847217 10.273458 7.9920516 5.206399

layer2.conv2.weight f4 [32, 32, 3, 3]
000000 11 78 4e be 57 e2 2f bd a4 ad a5 3d f7 1f 2b 3d
       -0.20162989 -0.042940464 0.0808976 0.04177853
000010 93 dc de 3d e9 06 cf 3c 60 c5 29 3d d0 4a 41 3e
       0.10881915 0.02527185 0.041447997 0.18876195
000020 7d f1 c2 3d 79 0b c8 bd 18 37 1d 3e ce 78 5d 3e
       0.095187165 -0.09767813 0.15353048 0.21628115
000030 fd ac b4 bd 80 77 0b 3d a4 a7 7f 3c eb b9 ad 3b
       -0.088220574 0.03404951 0.0156039335 0.005301704
000040 21 70 a2 bd 38 5c 46 be 1e 9a 87 bd fc 55 fd 3c
       -0.07931543 -0.19371116 -0.066211924 0.03092479
000050 07 51 5c 3d 41 b3 0f be 4a 68 6f be fd 05 97 bd
       0.05378821 -0.14033224 -0.23379627 -0.07374189
000060 f0 e5 fe bd 36 ab 15 be 8b 20 c7 bd 7a 9f 8e 3e
       -0.12446201 -0.14616093 -0.09723004 0.27856046
000070 3e 6b 9d bc 7e 16 db be 05 ba 4f 3e 94 67 6f bd
       -0.019216176 -0.42790598 0.20285805 -0.05844839
000080 74 e9 be be f2 cb 7e 3e c3 9f 84 bd f1 38 84 be
       -0.37287486 0.24882486 -0.06475785 -0.25824693
000090 8a fc 9e be b7 db 83 be 65 b8 c5 bd 39 d1 f1 be
       -0.31052047 -0.25753567 -0.09654311 -0.47229937
0000a0 bd 07 9b be 61 a3 8e be 05 23 4e be 7f c9 14 be
       -0.3027934 -0.27859023 -0.20130546 -0.1452999
0000b0 d8 8b 1c be c4 0b 36 be 63 03 3f be 54 ca 61 3e
       -0.15287721 -0.17777926 -0.18653636 0.22049838
0000c0 eb 08 da bd de 7a 9e bd ff bb 1a bd 03 34 94 bd
       -0.10646232 -0.07738279 -0.037776943 -0.07236483
0000d0 54 8c c1 bc d2 3d a8 bd 1c 81 49 3e aa 0f 6d 3d
       -0.023626484 -0.08214916 0.19678158 0.057876267
0000e0 5e a6 9d be 7f cb 09 3e b2 9c e0 3d 92 0d 7a be
       -0.3079099 0.13456534 0.10967387 -0.24419239
0000f0 b6 a0 36 3c 75 47 e0 3d a3 6e 34 be 22 4f ab be
       0.011146715 0.10951129 -0.1762033 -0.3345881
000100 c1 53 51 3d e5 7e 57 be d6 c7 34 bd 1a 68 58 3e
       0.051105265 -0.210445 -0.04413589 0.21133462
000110 92 7d 33 3c 77 a1 82 bd 58 eb 9c bc 22 1e 2f bd
       0.010955231 -0.06378453 -0.01915519 -0.042753346
000120 9a 49 c1 3c 64 c5 c6 3d 9e a9 20 3d bf 24 41 bd
       0.023594666 0.09705618 0.03922426 -0.047154184
000130 60 18 b4 3e ce 7b c8 3e a9 e3 be bc 02 4a b4 3d
       0.35174847 0.39156955 -0.023301916 0.08803178
000140 01 96 8c 3d 3b 20 c5 3d d9 19 50 bc 5c 35 90 be
       0.068645485 0.09625288 -0.012701475 -0.2816571
000150 50 67 db 3c e2 35 03 3e 2d 14 84 3d 5f 9b 70 be
       0.026782662 0.12813523 0.06449161 -0.2349677
000160 93 43 2d bd fd ff f6 3c 5b 95 80 3d 48 b2 16 be
       -0.042300772 0.030151362 0.06278487 -0.14716446
000170 2b 05 be be c4 3f 6f 3e 69 f8 78 3d 01 7d 09 3e
       -0.37113318 0.23364168 0.060783777 0.13426591
000180 aa 3f a4 3e b6 86 2a 3c ec cf 80 3e a3 84 47 3d
       0.32079822 0.010408094 0.25158632 0.048710477
000190 c2 e6 fb 3d 5f 25 94 bd 7f 6f 38 bc ab 84 b8 3c
       0.12299873 -0.072336905 -0.0112570515 0.022524199
0001a0 e6 13 92 bd 90 d3 d8 3b c5 55 99 be 8f 5c a6 be
       -0.071327016 0.006617017 -0.2994825 -0.32492492
0001b0 4b e4 26 3d 3a fa 03 3e 9f 70 d4 bd 2d 48 33 bd
       0.04074506 0.12888423 -0.10373043 -0.043770004
0001c0 0f 00 0d 3d 73 2d 0a be 45 68 4e 3d d3 39 0f 3e
       0.034423884 -0.134939 0.050392408 0.13986902
0001d0 14 47 06 be b1 9c 2f 3e 70 70 3e 3d e4 8a d8 3d
       -0.13113052 0.17149617 0.046493948 0.10573366
0001e0 f9 97 38 3e 6c f4 16 3e 0b 97 92 3e 6e d7 f5 bc
       0.18026723 0.14741677 0.28630862 -0.030009951
0001f0 db c5 d7 bc 92 eb da bd 26 6a 5a bd fe 10 37 be
       -0.026339462 -0.10689463 -0.053323887 -0.17877576
000200 0e b0 c5 be 1a e3 03 be b8 ac 1a be 8d f0 16 be
       -0.38610882 -0.12879601 -0.1510495 -0.147402
000210 2d 8d 1c be 36 ec 04 be b7 51 03 3e a0 29 91 be
       -0.1528823 -0.12980732 0.1282414 -0.2835207
000220 79 28 9d be 4a 2f 6a be f6 c4 68 bc 78 b0 51 3d
       -0.3069494 -0.22869602 -0.014207115 0.051193684
000230 50 8d ba 3d 1e cb d8 3d a4 cb 8b 3d 3c 88 01 bd
       0.091089845 0.105856165 0.06825951 -0.031624064
000240 67 23 4f be e0 e1 1f 3d c7 82 b6 3e ab 54 40 bd
       -0.20228349 0.03903377 0.3564665 -0.046955746
000250 97 3c da 3c 4c 48 f5 3d b4 64 7c be c9 8d ca be
       0.02664022 0.1197668 -0.2464779 -0.39561298
000260 ae 02 b5 bb 22 cb ce bc 0d d8 05 3e 3c f4 d9 3e
       -0.005524001 -0.025243346 0.13070698 0.4256915
000270 23 11 3a bd 75 de 57 3e 7c d2 c0 3e fb 30 4a be
       -0.0454265 0.21080954 0.37660587 -0.19745247
000280 59 be 10 3e a3 05 10 3e ee f0 e1 bd 70 c6 34 be
       0.14135112 0.1406465 -0.11032282 -0.17653823
000290 e1 c6 91 3c 90 80 2d 3d 5a 9d ad bb ac 9b 10 3d
       0.017795028 0.042358935 -0.005298299 0.03530471
0002a0 db 12 75 39 1e 90 e5 3d 21 ec 9b 3d 02 08 b6 3d
       0.00023372045 0.11209129 0.076133974 0.08888246
0002b0 ba 5e 4e 3e 08 3c 08 3d fc 95 f2 bc 6e 16 a8 3d
       0.20153323 0.033260375 -0.029612534 0.08207403
0002c0 f3 36 4f 3e 67 38 ed bb e8 31 10 bd 95 aa 0b 3e
       0.20235805 -0.0072393897 -0.035203844 0.1363929
0002d0 30 e4 f0 bb 1f 3f 73 bd 69 a8 a5 be ba d1 88 be
       -0.007351421 -0.05938637 -0.3235505 -0.2672251
0002e0 25 4d 00 bc af 25 de bc c4 9d 6f be bb 3e 07 3e
       -0.007830893 -0.027117578 -0.23400027 0.13207524
0002f0 2c a9 ab 3e cc a8 21 3d d5 43 82 be aa ce a9 be
       0.33527505 0.039467618 -0.25442377 -0.33165485
000300 2b 4a 02 3e 43 69 55 3d 04 23 3b be 98 02 96 3e
       0.12723605 0.05210234 -0.18275076 0.29298854
000310 5a cd 1a bc 38 df 2c be 61 c8 9d 3e e0 b3 fb 3d
       -0.009448374 -0.16882026 0.3081694 0.12290168
000320 97 65 0e be 80 45 4b 3d c4 9d ae bb cb f5 ce be
       -0.13905941 0.049626827 -0.0053288657 -0.404219
000330 d3 f6 39 3e b2 94 90 bc 1d ac da be e0 e5 92 bd
       0.18160562 -0.017649028 -0.42709437 -0.071727514
000340 0a b9 06 be 4e 7b 05 3e ba 14 4e 3d 82 c7 93 bd
       -0.13156524 0.13035318 0.050312735 -0.072157875
000350 f6 77 44 3e 5e 74 1b bf f9 34 5a bf c4 3e b7 be
       0.19186386 -0.6072444 -0.8523708 -0.35790074
000360 19 70 94 be 79 28 32 be ec b6 a2 3c 47 3d ad be
       -0.28991774 -0.17398252 0.019862615 -0.33835813
000370 99 7b c6 be d3 0d 8d bd c8 f1 19 bd 59 94 62 be
       -0.38766173 -0.068874024 -0.037584096 -0.22126903
000380 91 d0 46 3d 21 9f 65 3e 9c d4 12 3e ff f4 2e 3e
       0.04853875 0.22423984 0.14338917 0.17085646
000390 9e 65 5f bd 21 d6 46 3e f3 f1 ab 3d 7f b1 03 bf
       -0.05454027 0.19417621 0.083957575 -0.5144271
0003a0 59 b8 81 be 9c 9f 08 bc 05 43 fb ba 36 07 a7 bd
       -0.2533596 -0.008338835 -0.0019169754 -0.08155672
0003b0 bd f4 43 3d 77 0d 0c be 8d 02 de bd ee cf a9 bd
       0.047840822 -0.13677011 -0.1084033 -0.082916126
0003c0 56 a3 9c bd f2 2b 1d be aa 26 15 be 69 d7 1d 3e
       -0.07648341 -0.15348795 -0.1456553 0.15414204
0003d0 db 2f 4b 3e 35 98 07 be f1 f6 1c 3e 92 6f 95 bd
       0.19842474 -0.13241656 0.15328576 -0.07296671
0003e0 c7 2e a2 be fd 8a 99 3d 48 3a 40 3d c6 ab 3a be
       -0.31676313 0.07497213 0.04693058 -0.18229589
0003f0 b2 7a 2f bd 39 2b 40 3e f2 70 88 3e d9 9a 86 bd
       -0.04284162 0.18766488 0.2664867 -0.065725036

layer2.bn2.weight f4 [32]
000000 72 81 91 3f 4b 9a 86 3f 2d 4c 9a 3f 58 9f 97 3f
       1.1367629 1.0515836 1.2054497 1.1845503
000010 80 ef 90 3f 1b 2c 8e 3f 47 bb 77 3f 1f cd ac 3f
       1.132309 1.110721 0.9677014 1.3500098
000020 2e 96 a7 3f 6f cc 90 3f 3c ff aa 3f 76 18 a5 3f
       1.3092706 1.1312388 1.3359141 1.289809
000030 7f 46 a0 3f 1d 59 9a 3f 9c d4 b1 3f 95 77 d4 3f
       1.2521514 1.2058445 1.3893008 1.6598994
000040 ef 2e 8f 3f b9 76 81 3f 6a 29 97 3f 1f b1 6f 3f
       1.1186198 1.0114356 1.1809514 0.9362964
000050 9e 2f 9f 3f 32 29 8a 3f bb dd ad 3f dd d0 9d 3f
       1.2436407 1.0793822 1.3583292 1.2329365
000060 0f db a4 3f 5e f3 af 3f 5a 6b a5 3f 87 64 a8 3f
       1.2879351 1.3746145 1.2923386 1.3155679
000070 b1 c9 b1 3f cd 8b 77 3f 97 d4 a6 3f ae 0a a0 3f
       1.3889676 0.96697694 1.3033627 1.2503259

layer2.bn2.bias f4 [32]
000000 cd 7d 74 bd f1 a0 55 bd dc 00 9c 3d 14 27 e4 be
       -0.059690285 -0.05215544 0.076173514 -0.44561064
000010 70 35 09 be ff 82 e9 ba 11 d4 2d 3d 6a bd b8 be
       -0.13399291 -0.0017815529 0.04243857 -0.3608201
000020 22 39 41 be 0d 86 21 be 43 e4 a9 bb ed 57 3c be
       -0.1886945 -0.15773793 -0.0051846816 -0.18392916
000030 3f 67 dd bd e4 59 d1 bc 10 96 33 be a6 2f 99 3d
       -0.10810708 -0.025555559 -0.17537713 0.07479791
000040 5a 44 4e be d4 c9 7c 3e 1d 82 ec bc 2f cc e5 bd
       -0.20143262 0.24686366 -0.028870637 -0.112205856
000050 c9 93 8a bd f2 01 0d bd de da 9b be 80 3d 2b bd
       -0.06766469 -0.034425683 -0.3044042 -0.041806698
000060 98 22 99 bd 33 80 1c 3e 3b 07 32 bd f5 b9 78 3e
       -0.07477301 0.15283279 -0.043463927 0.24289687
000070 08 13 d2 3b 36 56 80 3d 45 08 cb bd bc 4a c9 bc
       0.00641096 0.062664434 -0.09913687 -0.024571769

layer2.bn2.running_mean f4 [32]
000000 59 9a 0d c0 45 02 86 bf 81 96 f0 bf 8d e0 9e bf
       -2.2125456 -1.0469443 -1.879593 -1.2412277
000010 4f f2 29 c0 a3 01 db be 7d 2a 4b 40 ce 88 aa bf
       -2.6554143 -0.42774686 3.1744683 -1.3323
000020 85 2f ab 3f aa 3a 76 bf 82 e1 ee bf ae aa b6 bf
       1.3373877 -0.96183264 -1.866257 -1.4270837
000030 20 d3 73 bf c3 84 ff bf 84 3e d7 3d 4c 58 12 c0
       -0.95244026 -1.9962391 0.10509971 -2.2866392
000040 56 4a 29 bb 89 58 cc bf 3d 33 28 c0 67 cc 81 3f
       -0.0025831661 -1.5964519 -2.6281273 1.0140504
000050 33 27 6d bf 3a ac fe 3f 44 74 a1 bf 75 2d eb be
       -0.9263794 1.9896309 -1.2613606 -0.45933118
000060 31 08 ee bd 55 6f 98 c0 df 87 76 be 37 49 f1 3f
       -0.11622656 -4.7635903 -0.24075268 1.8850468
000070 af 00 3a bf 09 79 52 c0 bb 87 00 c0 2f 77 b7 bf
       -0.72657293 -3.2886374 -2.0082843 -1.4333247

layer2.bn2.running_var f4 [32]
000000 09 e2 79 40 40 28 29 40 24 07 9f 40 58 75 f5 3f
       3.904421 2.6430817 4.9696217 1.9176435
000010 47 6c 85 40 43 27 84 40 de e1 6f 40 a8 1b 3c 40
       4.1694674 4.1297927 3.7481608 2.939188
000020 1a f4 4d 40 39 07 96 40 5f ce 8b 40 aa a8 36 40
       3.2180238 4.6883817 4.368942 2.8540444
000030 be c0 6c 40 6a 62 a5 40 6a d5 61 40 cb 95 c1 40
       3.699264 5.1682634 3.5286508 6.0495353
000040 5a dd 61 40 e6 97 a8 40 bc 72 94 40 9a 36 59 40
       3.5291352 5.2685423 4.6390057 3.3939576
000050 60 e5 68 40 80 31 88 40 d5 84 43 40 b3 05 39 40
       3.639 4.2560425 3.0549824 2.8909729
000060 8f 7c a5 40 87 0e 96 40 05 78 d3 40 c3 b9 bf 40
       5.171455 4.6892734 6.608401 5.991426
000070 ff 88 9e 40 c7 ee 60 40 f3 c9 a1 40 8f de 8d 40
       4.954223 3.5145738 5.055902 4.433418
