Checkpoints/ResNet8_DKD_ResNet18_0.8766.pth (torch, 334494 bytes, 47 tensors)

conv1.weight f4 [16, 3, 3, 3]
000000 e4 f8 67 bd fe 39 89 3e 49 8f 09 3e 83 ae c3 be
       -0.056633845 0.26802057 0.13433565 -0.3821908
000010 aa 56 1c 3d ae 57 68 3e 2e 82 5a be ae dd 76 3d
       0.038168587 0.22689697 -0.21338722 0.060270004
000020 bd f7 94 bd 1b df 43 be a7 3a 43 3e 23 d8 49 be
       -0.07273815 -0.19128077 0.19065343 -0.19711356
000030 06 64 de be 71 37 87 3d 5a 8f 8d 3e ce 78 05 be
       -0.43435687 0.066023715 0.2764843 -0.13034365
000040 be 10 91 3e 04 b3 49 3e ee c7 8e 3d ba 94 b8 3c
       0.28333086 0.19697195 0.06971727 0.022531856
000050 14 68 3b be b5 d1 12 be ba d2 1b 3d 4e 2d ef 3d
       -0.18301421 -0.1433781 0.03804276 0.11678563
000060 1f b2 fe bd 37 d6 65 3e 2b 0e 9e bd 80 05 a2 3d
       -0.12436318 0.22444998 -0.07717546 0.07911205
000070 dc c5 60 3d d8 f4 9e 3e d6 5f 01 bd 4a 54 ec 3e
       0.054876193 0.31046176 -0.031585537 0.46158057
000080 84 00 3c 3e ac 39 c7 bd ec a7 82 3e 84 a5 90 be
       0.18359572 -0.09727797 0.2551874 -0.28251278
000090 1d d6 64 be 73 f5 0f be 5a 52 68 bd d8 7f dc bd
       -0.22347303 -0.14058475 -0.05671916 -0.10766572
0000a0 44 e8 f0 bd 10 87 ba be e5 2c 46 be 0b fa 2d bd
       -0.11763051 -0.3643117 -0.19353063 -0.042474788
0000b0 8f bf a9 bd 30 fc 10 3e dc 38 32 be 45 3f 24 3d
       -0.0828849 0.14158702 -0.17404503 0.0400994
0000c0 88 7e 76 3d a3 12 a5 3c 19 98 4c be d4 2d 11 3e
       0.060179263 0.020150488 -0.19979896 0.14177638
0000d0 11 ad 7a 3e 8e aa b4 3d c9 ed 83 3e ed eb c5 bd
       0.24480082 0.08821593 0.25767353 -0.0966414
0000e0 ef 51 2d 3e 5c 43 1e be 29 74 af 3c 45 f5 a6 be
       0.16925786 -0.15455383 0.021417694 -0.32609
0000f0 e1 c8 7b 3c e8 41 2b be 06 17 98 be a4 a6 a4 bc
       0.0153677175 -0.1672436 -0.29705065 -0.020098992
000100 da 50 e5 3c 15 10 0a 3e 85 05 9c bd 8f dd 89 3d
       0.027992655 0.13482697 -0.0761824 0.06731712
000110 2d 30 f6 bd b3 49 9f 3d d5 3d 20 be fd 1b d5 bd
       -0.120209076 0.07777729 -0.15648587 -0.10405729
000120 80 31 1a be 08 ae 62 be d1 a2 7b be 9e 55 be bb
       -0.15057945 -0.221367 -0.24573828 -0.005808546
000130 f6 40 e4 3e d5 5b a9 3e 92 a1 dd bb 0a 87 a8 3e
       0.4458081 0.33077875 -0.0067636454 0.32915527
000140 60 05 a3 3e d2 f6 a7 3e a4 3a 37 bd 6a 2e 10 3d
       0.31840038 0.32805496 -0.04473366 0.035200514
000150 1d 5a 61 bd 68 4f 1b bf d4 6c dc bd 08 f2 66 3e
       -0.05501758 -0.6066804 -0.10762945 0.22553265
000160 b2 89 ae bc 6e a1 16 3e ea 3e 3e 3e 22 62 be bc
       -0.021305893 0.14710018 0.18578687 -0.023240153
000170 ab 6a a7 3c 77 fa 47 be 33 f2 68 bf fb a5 17 bd
       0.020436605 -0.19529139 -0.90994567 -0.037023526
000180 49 6c 70 3d 2a f6 0b be 15 a4 df 3d 3b 77 e1 bd
       0.05869702 -0.13668123 0.10919968 -0.110090695
000190 eb 25 1e 3e ec fa c1 3d 7b 0e 49 3e ee 1c 27 be
       0.15444152 0.09471688 0.1963443 -0.1631963
0001a0 9e ee df 3b 3b 44 38 bd 74 c3 00 3c 53 5a b0 3c
       0.0068338653 -0.044986945 0.0078591 0.021527445
0001b0 43 ca 87 be ed 7d 19 3e 52 26 0b 3e 94 96 49 3d
       -0.265215 0.14989443 0.13588837 0.049215868
0001c0 2d 82 1c 3e ee c2 83 be 52 e7 87 3d 22 92 06 3e
       0.15284033 -0.25734657 0.06635918 0.13141683
0001d0 80 a5 4a be 54 11 65 3e 0b 3e d1 bd 1b 10 9f be
       -0.19789696 0.22369891 -0.10216912 -0.31066975
0001e0 93 ea d4 3e 29 43 ff 3d 83 b5 01 bf e2 6b 04 3e
       0.41585216 0.12463982 -0.5066759 0.12931779
0001f0 d5 30 5c bc c4 f9 e5 bb 73 4a 52 3e b4 17 cf bc
       -0.013439377 -0.0070183 0.20536213 -0.025279857
000200 49 fb 45 3d fb 77 3e 3e 85 81 e5 3c ea 29 86 be
       0.048335347 0.18600456 0.028015861 -0.26203853
000210 b3 4b dd bd 74 c5 ba 3d 02 b6 68 bd bc 92 2a be
       -0.10805454 0.091196924 -0.0568142 -0.16657537
000220 87 f9 64 bc 02 c3 1e 3e 17 0c 76 be a2 64 d7 be
       -0.013975508 0.15504077 -0.2402805 -0.42068964
000230 f4 7f 31 3d 60 c9 5d bd a4 ce 65 3e 32 dc ac 3e
       0.043334916 -0.054147124 0.22442108 0.33761746
000240 07 9d c7 3d 8f aa 94 3e 2d 84 09 3e 88 0f 49 3e
       0.097467475 0.29036376 0.13429327 0.19634831
000250 1d 3d b5 be 08 00 35 bc de b7 5c bc 0f 17 00 3e
       -0.35398188 -0.011047371 -0.013471572 0.12508796
000260 88 59 6a be 3b bc 62 3d fb be 07 3d 7a 4e 16 be
       -0.22885716 0.05535529 0.033141118 -0.14678374
000270 fe 5c 15 3e 16 ba c2 be 72 c5 04 3c dc fe b5 3b
       0.14586255 -0.38032597 0.008103715 0.0055540632
000280 a7 9f 80 3e 9e d9 8d bd f8 db 8a 3d 29 43 09 be
       0.25121805 -0.06926273 0.06780237 -0.13404526
000290 b7 45 4c be 1c de 2b be 3f 5f ea 3e b2 d6 22 3d
       -0.19948469 -0.16783947 0.45775792 0.03975553
0002a0 06 f9 60 be 71 64 00 3d a4 04 0a 3d 55 5d 1f be
       -0.21969995 0.03134579 0.033695832 -0.15562947
0002b0 79 22 f0 3c 38 69 e9 bd de b5 fa bd a5 26 15 3f
       0.029313313 -0.11397022 -0.1224172 0.5826209
0002c0 03 61 6a bd 5a 42 ff 3d 5d b1 6f be 55 4b 84 bc
       -0.057221424 0.124638274 -0.23407502 -0.016149202
0002d0 91 36 0e bd e1 ba 62 bc 18 05 1a 3d 69 79 e3 bd
       -0.034720007 -0.013838501 0.037602514 -0.111071415
0002e0 91 d1 07 3f e1 32 14 be c6 6f e2 3d d3 ea 13 be
       0.5305415 -0.14472534 0.11056475 -0.14445047
0002f0 58 6b 37 be 59 d8 5a 3e a2 9a 51 be 4a 5f a9 3c
       -0.17912042 0.21371593 -0.20469144 0.02067532
000300 ec 9a 3e 3c 07 4e 81 be 8e b6 93 3d a7 1b cb bd
       0.011633616 -0.25254843 0.07212554 -0.09917384
000310 5d 15 fd 3e 03 25 9a 3e d3 59 77 3e 18 5a 94 be
       0.4943036 0.30106363 0.24155359 -0.28974986
000320 bf 20 29 be 1b 1b 19 be 0d dc b9 be 12 cc fa bd
       -0.16516398 -0.14951746 -0.36300698 -0.122459546
000330 3c db 5a be cc 06 08 be 7d a8 29 3d cf 14 a4 bd
       -0.21372694 -0.13283843 0.04142045 -0.080117814
000340 38 07 a5 3c 67 cc b3 3d ee c2 85 3e 96 3e 47 be
       0.020145044 0.08779221 0.26125282 -0.19457468
000350 f7 46 30 3e 89 f4 25 3c ed 52 42 3e fa 65 0f 3e
       0.17214571 0.0101291025 0.18976946 0.14003745
000360 6e 85 5a be ff 8b 03 be 68 a6 15 3e 66 92 2a 3e
       -0.21339962 -0.12846373 0.1461426 0.16657409
000370 e3 b5 10 be 17 27 53 3e 92 41 bc bd aa 2c 94 3e
       -0.14131884 0.2062038 -0.09192194 0.28940326
000380 4b 61 b4 3d 83 ff ce bd 25 7e ac 3d 8c 8c 35 3d
       0.0880762 -0.10107329 0.08422498 0.04432349
000390 c5 db 2d 3d 85 fa 09 bf 07 1c af be 1e 01 ab bb
       0.042445917 -0.5389789 -0.3420107 -0.005218639
0003a0 c8 91 d5 ba 60 38 b7 3c 4d 7d 5e 3d 0f d8 c0 3e
       -0.0016294057 0.022365749 0.054318715 0.3766484
0003b0 6b c4 8c 3e 65 de 3a 3e 56 08 73 bd 74 bb 39 bd
       0.27493605 0.182489 -0.05933412 -0.045344785
0003c0 93 b6 cd 3a 39 ca 87 be 63 c8 a6 be 4b 69 46 3e
       0.001569467 -0.2652147 -0.32574758 0.19376104
0003d0 c0 ee 53 be fc 6d 73 be d8 52 9e 3d dd 4d 60 be
       -0.20696545 -0.23772424 0.07730645 -0.21904702
0003e0 43 4d 8a bd 29 a0 05 3e 13 41 84 3e ad e8 f7 bd
       -0.06753018 0.13049378 0.25830898 -0.12104926
0003f0 6b 7c b5 bc 13 dc 42 3d b4 5c e5 3e de 37 a5 bd
       -0.022154054 0.04757316 0.4479729 -0.080672964

bn1.weight f4 [16]
000000 86 9b 55 3f 9e 95 c7 3e 6a b9 d5 3e 89 a5 8f 3f
       0.83440435 0.38981336 0.41743022 1.1222392
000010 05 57 44 3f f9 96 4f 3f 74 a8 91 3f 27 5a 15 3f
       0.7669528 0.8108974 1.1379533 0.58340687
000020 c6 ab 05 3f de 6c f8 3e 69 e6 03 3f c8 08 ba 3e
       0.5221523 0.4852056 0.51523453 0.36334825
000030 ce 5c 1e 3f 43 f6 0c 3f 90 75 17 3f 2e c2 42 3f
       0.6186036 0.55063266 0.5916376 0.76077545

bn1.bias f4 [16]
000000 27 3c 78 3e 8d 78 71 3e 89 c6 58 3e 04 35 13 bf
       0.24241696 0.23581143 0.21169485 -0.5750277
000010 22 17 f9 3e 8b 6b 0b 3f e8 b8 02 3f 64 76 f5 3d
       0.4865046 0.5446097 0.51063395 0.11985472
000020 9d 46 2b 3e ad f6 39 3f 97 b0 94 3e 23 26 42 3e
       0.16726156 0.7264202 0.29040977 0.1895986
000030 84 5b 8b be d6 30 a9 3e 64 b6 19 3e 7c 52 c7 3e
       -0.27218258 0.3304507 0.15010983 0.38930118

bn1.running_mean f4 [16]
000000 ec 36 28 bd 31 ba 23 3b c0 2e ae bc 15 87 bb 3e
       -0.041068003 0.0024982805 -0.021262527 0.36626497
000010 83 8f ad bc 04 91 24 3d 41 d9 93 bd 7e 58 5f 3d
       -0.021186596 0.04017736 -0.07219172 0.054527752
000020 33 78 f2 3d 05 23 38 3c 0a 29 04 bd 4a e3 46 3c
       0.118393324 0.011238818 -0.0322657 0.012139151
000030 e4 c4 3a 3e 5b 9e c2 bd 47 3c b7 bd 33 fa 84 bd
       0.1823917 -0.0950286 -0.08947044 -0.06493034

bn1.running_var f4 [16]
000000 53 e6 9e 3f c2 56 9c 3e 05 87 b6 3e 8c 64 34 40
       1.2414039 0.3053494 0.35649887 2.818637
000010 06 66 a0 3f d5 d3 a7 3e 0c 2e 13 3f ef 71 1f 3f
       1.2531135 0.32778803 0.57492137 0.62283224
000020 15 ef 02 3f 90 00 0f 3e c9 b6 03 3f e9 bc 1a 3e
       0.5114606 0.13965058 0.51450783 0.15111126
000030 4b 59 02 40 17 7a 07 3f ba 88 66 40 50 cd 35 3f
       2.0367 0.5292067 3.6020951 0.71016407

layer1.conv1.weight f4 [16, 16, 3, 3]
000000 9d 88 4f 3d 8e c5 08 3f ac f7 d2 bd 50 de 15 be
       0.050667394 0.53426445 -0.10301146 -0.14635587
000010 9b 8d b8 3e 72 dd 9f 3d a0 65 e8 bd e4 19 13 3d
       0.36045536 0.07805909 -0.113475084 0.035913363
000020 00 4b ae 3d 02 37 cb 3d 7e bd 63 3e fb 12 87 3e
       0.08510399 0.09922601 0.22240254 0.26381668
000030 ce 4a 3c ba 52 ac 8a bd 58 bf 01 3d 9f 7e 59 bc
       -0.00071827776 -0.06771149 0.03167662 -0.013274818
000040 a9 1c 80 3d e7 6d ab be 8c 9c 2a bd b3 31 88 3e
       0.062554665 -0.33482286 -0.0416532 0.26600417
000050 bf 0f 4e 3e b6 2d 74 be 45 eb 43 3d a6 3f 34 3e
       0.20123194 -0.23845562 0.047831792 0.17602405
000060 76 46 4f bd 0e b3 c3 bd 49 b6 07 be fd 71 da bd
       -0.050604306 -0.09555636 -0.1325313 -0.10666273
000070 24 f9 b2 bb 6e fe 86 bd ad 1e 01 3f 3a 61 c3 3e
       -0.005461829 -0.06591497 0.5043743 0.38160115
000080 0b 47 b4 3e f5 62 de be fd 65 1c 3c cd d6 bf 3d
       0.3521045 -0.43434873 0.0095458 0.09367142
000090 9d 88 0e bd 35 20 b4 3e 16 6b 9d bd 05 8d 82 be
       -0.034798253 0.35180822 -0.07686441 -0.25498214
0000a0 a1 39 4e 3e c2 4a 41 3e 83 cb 8f bd 2a 86 5a bc
       0.20139171 0.18876174 -0.07021239 -0.013337651
0000b0 e5 7d b3 bc 2f d0 ca bd 2d 5f a1 bd 03 89 11 bd
       -0.021910617 -0.09902989 -0.078794815 -0.035531055
0000c0 bb a3 93 3e 47 05 39 3e e5 56 2e 3e 38 b2 78 be
       0.28835854 0.1806842 0.17025335 -0.24286735
0000d0 59 d8 7e 3e 78 6e 33 3e 06 e4 1b 3e be 4b aa 3c
       0.24887218 0.17522609 0.15223703 0.02078807
0000e0 62 23 84 bd 07 60 6f 3d 34 fb cd 3d 9f 9c 4f bd
       -0.06452061 0.05844119 0.10057679 -0.050686475
0000f0 2c 4b c4 3d 1c a9 4b 3e b5 a3 9e 3e 9a 16 6d 3d
       0.095846504 0.19888729 0.30984274 0.057882883
000100 e5 70 59 be ce 5b 4a 3e e0 72 48 3e ed 19 71 3b
       -0.21234472 0.19761583 0.19575071 0.0036789135
000110 ac a2 71 3e 8e 4a 87 bd c6 19 ba bd a4 b2 9a bc
       0.2359721 -0.06606017 -0.09086947 -0.01888401
000120 c5 5a 07 bd de 2a 1d be 26 61 ee bb cf da 91 3d
       -0.03304555 -0.15348384 -0.0072747646 0.071218126
000130 d6 df 23 3e a3 e5 1d 3e 1c 6d bb be fc 44 92 bb
       0.16003355 0.1541963 -0.3660668 -0.00446379
000140 b1 23 aa 3d 19 34 7f be 2e 19 fb bd 8f c2 27 3e
       0.08307589 -0.24922217 -0.12260662 0.16382812
000150 28 c3 0c 3e 2b 5e 19 bd d6 b7 77 3d c1 2e 80 bd
       0.13746321 -0.03744332 0.060478054 -0.062589176
000160 53 3a 2b be e5 58 31 be b7 a4 82 bd ef 3c 38 3e
       -0.16721468 -0.17319067 -0.06379073 0.17991994
000170 1d c6 82 3d 51 47 cb be 14 a6 e8 bc db 6c 78 3e
       0.06385443 -0.39702848 -0.028399505 0.24260275
000180 e6 b7 c2 bc 5f d2 a1 be 10 40 19 3e 48 8d c2 3e
       -0.02376933 -0.31605813 0.14965844 0.37998414
000190 f3 ca 88 3e df b7 01 bc 03 31 55 3e 5c 03 11 be
       0.26717338 -0.007917373 0.20819478 -0.14161438
0001a0 40 0c 88 be 50 4c 00 3e a6 f1 68 3e ba 2b 40 3e
       -0.26571846 0.12529111 0.22748432 0.1876668
0001b0 60 e2 a2 bd 42 24 c6 3e 85 d7 40 be 82 61 fe bd
       -0.07953334 0.38699538 -0.18832214 -0.12420942
0001c0 5c 77 45 3d f7 2e f8 bd 23 95 05 3e 70 f8 78 3e
       0.048209533 -0.12118333 0.13045172 0.24313521
0001d0 69 71 97 3d 89 3f b9 3c 52 18 ac 3d fd 0c 96 be
       0.07394678 0.022613304 0.08403076 -0.29306784
0001e0 fc 61 d3 bb 0d 8a 48 3e c0 5d ae 3d dc d6 1c bd
       -0.0064508896 0.19583912 0.08513975 -0.038290843
0001f0 e1 06 aa 3d b4 45 0d be 10 59 a4 bd 67 15 e9 3d
       0.08302093 -0.13796121 -0.080248 0.11381035
000200 49 47 aa be f5 37 cf be 37 ae 26 be f9 12 3e be
       -0.3325751 -0.4047238 -0.16277395 -0.18561925
000210 0f 9d 42 be 4f 38 87 3d 63 18 81 3c 51 a6 95 be
       -0.19005226 0.06602537 0.015758699 -0.29228452
000220 74 8b ad 3d 92 99 d9 bd 22 93 13 be 06 d0 72 3e
       0.08473864 -0.10624994 -0.14411595 0.23712167
000230 de b1 6f 3e b4 f4 45 3e 2e 84 bf 3e 5c 6b 16 3e
       0.23407695 0.19331628 0.37405533 0.14689392
000240 f3 66 d8 3c f7 ee 8d be 2d bf 84 bd 88 62 5f bd
       0.026416278 -0.27721378 -0.064817764 -0.054537326
000250 6d ed 10 3d ce 1f 2e 3e dd 62 50 3d ea 1c 11 3d
       0.035382677 0.1700432 0.050875533 0.035427965
000260 bf c8 fa bd e0 74 2b 3e a4 8f 84 3e f0 be fa 3d
       -0.122453205 0.16743803 0.2589084 0.1224345
000270 0b 30 3b 3e a7 49 a2 3d 53 51 9b bd 65 8e 64 be
       0.18280046 0.07924204 -0.07583871 -0.22319944
000280 1c 05 a4 bd 2d 35 99 bd ff 22 06 bd 32 ff 36 3d
       -0.08008787 -0.074808456 -0.03274822 0.044676967
000290 08 69 29 bd 6f ea e3 bd e7 56 66 be 81 cc 14 be
       -0.04135993 -0.11128699 -0.22494088 -0.14531137
0002a0 95 2e c2 3d 1b 08 3d 3e f9 ba b3 3e 97 a2 97 bc
       0.09481541 0.18460123 0.35103586 -0.018510146
0002b0 c7 a3 8a 3b db d2 2a 3e ce 97 ae bc 9a bc 05 3b
       0.0042309496 0.16681997 -0.02131262 0.0020406605
0002c0 d3 cf b0 3d a9 ec 38 3e 34 3b d8 bd 31 51 b4 3b
       0.08633389 0.18059029 -0.10558167 0.005502843
0002d0 a5 85 04 3e 57 1e 52 3d f2 af 06 3e ee 3a 64 bc
       0.12941606 0.051298466 0.13153055 -0.013930066
0002e0 bc 69 19 bd 2d d6 36 be 8c 04 04 bd 4d 76 4c be
       -0.03745435 -0.17855139 -0.0322309 -0.19967003
0002f0 53 90 3a 3d 19 c3 01 be cc 1b cb be f7 34 c8 be
       0.045547795 -0.1267208 -0.39669645 -0.3910291
000300 16 fb 23 3d b4 49 15 3f 73 25 ce 3e 8a f3 98 bd
       0.040034376 0.5831559 0.40262946 -0.074683264
000310 75 ff 08 be 5a ce 48 bd 1d 98 66 3e d1 82 ec 3e
       -0.13378699 -0.049024917 0.22518964 0.46193555
000320 9d 00 f5 3d ad 1f 92 be 2a ca f3 be f5 6f e5 be
       0.119630076 -0.28539792 -0.47615176 -0.4481198
000330 46 de 1b 3e 57 e2 a8 3e c7 70 80 3e 1b 2a fe 3b
       0.1522151 0.32985184 0.25086042 0.007756484
000340 7e 3f 2b be be b3 a4 be cd 6b 03 be 86 cd 3f 3e
       -0.16723439 -0.32168382 -0.12834091 0.18730745
000350 24 0f 62 bd 9c 17 41 3c a4 3e 1f 3d 88 46 f9 bd
       -0.05519022 0.011785414 0.038878098 -0.12171656
000360 65 07 09 3e a9 ae 21 bd 77 9e e9 3c 1d 54 af 3d
       0.13381727 -0.03947321 0.028517945 0.08560965
000370 17 e0 24 3e f6 23 7b bd 0c 20 77 bd 10 6a 3c be
       0.16101108 -0.061313592 -0.060333297 -0.18399835
000380 26 7e ba bd 09 8c 95 3e 1f 40 e0 3d 2d 8a b0 bd
       -0.09106092 0.292084 0.1094973 -0.08620105
000390 99 b4 7d be 61 3e 8e be ba 5c d6 3d bd f1 7d 3d
       -0.24775924 -0.27781966 0.10466905 0.061998118
0003a0 bd 3e 3e 3e 78 3f d0 bd 6c f9 97 bd 9b 04 9c bd
       0.1857862 -0.10168356 -0.0742062 -0.07618066
0003b0 8a bf 40 3e d5 72 b9 bd f4 45 81 bd 3c 8a 2c 3e
       0.18823066 -0.090551056 -0.063121706 0.16849607
0003c0 e2 56 f9 bc 48 c6 0c be 0f e0 c6 3b 1b 7a 80 3c
       -0.030436937 -0.13747513 0.0060691903 0.015683224
0003d0 c5 a0 c7 be c0 94 aa 3c 7e 76 01 3b 42 4c b0 3e
       -0.38989845 0.020822883 0.0019754465 0.3443318
0003e0 1e b0 c0 3e e5 52 a3 3d bb bc 4a 3d 96 1a 14 be
       0.37634367 0.07974795 0.049496394 -0.14463267
0003f0 53 0c 93 be 55 44 6d be a5 3f 7a be 2d 2e 93 bd
       -0.2872034 -0.23170598 -0.24438341 -0.07186542

layer1.bn1.weight f4 [16]
000000 f4 08 43 3f 90 23 95 3f 2d 9d 66 3f 30 5a 47 3f
       0.76185536 1.1651478 0.9008358 0.7787199
000010 7a 70 6a 3f 69 71 9f 3f 77 c9 35 3f a6 97 72 3f
       0.91577876 1.2456485 0.71010536 0.9476265
000020 b7 05 8c 3f de 4b 8c 3f 68 c1 62 3f 3d 8c 96 3f
       1.0939244 1.0960653 0.88576365 1.1761547
000030 7a dd 46 3f 7b 53 9b 3f 7a ff 3c 3f ae b0 81 3f
       0.77681696 1.2134851 0.73827326 1.0132043

layer1.bn1.bias f4 [16]
000000 1d ae 99 bd 68 ac 59 bc b0 22 33 bb 4a 2a 8e 3d
       -0.075039126 -0.013285734 -0.0027333908 0.0694166
000010 ea c1 fe 3d 9d f8 31 bd c6 4c c9 bc 30 41 a7 3e
       0.1243933 -0.043449987 -0.024572741 0.32666922
000020 d9 38 00 be ba ad 0e be 93 db e7 3d b4 64 ec bd
       -0.12521686 -0.13933459 0.11321177 -0.11542645
000030 eb 3b 21 be ba e8 d1 3e 0e 3a 50 3d 77 dc 4c be
       -0.15745513 0.4099787 0.050836615 -0.20005976

layer1.bn1.running_mean f4 [16]
000000 79 bb dd 3f 27 f4 3a 3e f2 03 1a bf 9a 78 3b be
       1.7322837 0.18257199 -0.6016227 -0.18307725
000010 ea b8 c1 3d 56 96 db be a8 4d 76 bf 72 30 4c bf
       0.09459098 -0.42888135 -0.96212244 -0.7976142
000020 9e c7 8c be de 6c 12 bf 09 7e 77 bf c6 81 c7 be
       -0.27496046 -0.5719737 -0.9667669 -0.38966197
000030 35 b0 82 bf 88 ff 2c bf 66 96 c6 3e 26 f8 0a bf
       -1.0210024 -0.6757741 0.3878662 -0.54284894

layer1.bn1.running_var f4 [16]
000000 f7 2f b9 3f 39 cf bb 40 23 a2 75 3f f4 e1 34 3f
       1.4467763 5.8690457 0.95950526 0.7065728
000010 52 e0 35 40 7f f1 b7 40 21 a4 84 3f 4c 5b 94 3f
       2.8418164 5.7482295 1.0362588 1.1590362
000020 01 d0 01 40 bd 2f 92 3f b6 24 bf 3f 3e 13 5c 40
       2.0283206 1.1420819 1.4933078 3.4386744
000030 e4 ef 4f 3f 86 14 15 40 0d 4f fc 3f 5a 0c 89 40
       0.8122542 2.3293777 1.9711624 4.2827578

layer1.conv2.weight f4 [16, 16, 3, 3]
000000 f5 35 82 bd 9f 44 51 bd 3b 74 03 3e c6 b6 23 3c
       -0.06357948 -0.051090833 0.12837307 0.009992307
000010 f1 69 11 be 9b b6 d3 3c fd 1d 52 3e 76 d6 84 bd
       -0.1420057 0.025843909 0.20519252 -0.06486218
000020 a2 58 23 be 30 91 41 bd fa bf 27 be 8f fc 38 be
       -0.1595178 -0.047257602 -0.16381827 -0.18065093
000030 8a 26 8b be af 18 00 be 05 1e a3 bd 85 2b 3a be
       -0.2717784 -0.12509416 -0.0796471 -0.18180664
000040 a1 0f ca bd bb 88 8b bd 6a 45 8a 3e 19 c5 99 3e
       -0.09866262 -0.06813189 0.27006084 0.30033186
000050 57 b6 fb bd 8d 02 d8 3d 0a 92 11 3f 30 0c 67 3e
       -0.12290638 0.105473615 0.5686346 0.22563243
000060 62 ef 2e be 29 ed ca 3e a8 eb 8c 3e 89 97 e1 bc
       -0.17083505 0.39634064 0.2752354 -0.027538078
000070 85 55 81 3d 3a 58 9f bc c2 11 cf bd 29 1f 01 be
       0.0631514 -0.01945125 -0.10110809 -0.12609543
000080 a1 7e b2 bd 6f 9c 7b be 04 4a 42 bd 21 da cc 3d
       -0.08715559 -0.24571393 -0.047433868 0.10002542
000090 0e 69 cb be 7d 85 c7 bd 4a b1 8d bd 18 5f 77 be
       -0.39728588 -0.09742258 -0.06918581 -0.24157369
0000a0 07 11 cc 3d 38 cd 58 bd ea 21 5f be 45 8f 95 bd
       0.09964185 -0.052930087 -0.21790281 -0.07302717
0000b0 42 dc 15 be 52 1e 1d be bd 8f 94 3c 38 b2 87 3b
       -0.14634803 -0.15343598 0.018134946 0.0041411184
0000c0 ca e0 22 be 33 84 1b 3e da 1b 1b 3e 34 3b 6c be
       -0.15906063 0.15187149 0.15147343 -0.23069459
0000d0 72 9e d0 3d 89 50 5b 3d 34 8c ed bd 6d 9d 69 be
       0.10186471 0.0535436 -0.11599007 -0.2281396
0000e0 29 55 82 bd c6 b9 31 bd 06 7a 94 be 4c f2 4a be
       -0.06363899 -0.043390058 -0.28999346 -0.19818991
0000f0 b9 1d 7c 3d e6 a8 48 be 7d 60 0a be 2f 22 04 3e
       0.061551783 -0.1959568 -0.1351337 0.12903665
000100 ec 1d 03 3f e7 12 80 3e 41 c2 d6 3c 0f 2a a2 3e
       0.5121753 0.2501442 0.026215674 0.31672713
000110 f1 33 71 3e ca 42 11 be 04 44 c2 bd d2 f7 c5 bd
       0.2355497 -0.14185634 -0.09485629 -0.096664086
000120 d5 f8 28 3e a9 3c 88 3c 66 1b ba bd 84 7f 04 3e
       0.16501172 0.016630488 -0.09087257 0.12939268
000130 5e 1d 00 3e 27 98 b4 bd ab 4c 08 3e fd f1 a3 3d
       0.12511203 -0.08818083 0.13310497 0.0800514
000140 54 5f 59 be e5 9e 49 3e ec 2e 44 3c e3 95 0a be
       -0.21227771 0.1968952 0.011974078 -0.1353374
000150 75 61 84 3d a7 dc 28 3e 2b d7 3a 3c c4 9e 15 bd
       0.06463901 0.16490422 0.011403839 -0.036528364
000160 94 2a ac 3d 9d 76 c5 3d 72 cd 83 3e 5e 60 26 be
       0.08406559 0.09641764 0.2574268 -0.16247699
000170 33 68 7f be ff 05 91 3e ca b5 36 be 6e 5c c7 bc
       -0.24942093 0.28324887 -0.17842785 -0.024336066
000180 5e cc 5c 3e 2c 56 cc 3c 44 62 07 3d fa 45 a6 3e
       0.21562335 0.024943434 0.033052698 0.32475263
000190 03 f8 60 3e f5 9f ac be a5 85 61 3e be 4a 3c 3e
       0.21969609 -0.33715788 0.22023638 0.18387887
0001a0 f6 b6 18 bb c8 5a 5c 3e 53 f5 9f 3e 36 49 c4 3e
       -0.0023302413 0.21519005 0.31241855 0.38337106
0001b0 a1 3d 08 be 9f bd d0 3c 75 02 7a 3e 53 7b 98 bb
       -0.1330476 0.025481043 0.24415 -0.0046533733
0001c0 d9 e8 7c 3d 43 38 b6 3d f3 d1 aa bc 78 3d 5e 3e
       0.0617455 0.0889745 -0.020852065 0.21703136
0001d0 e6 79 05 3e 44 1b 0f 3e 9c 49 8f 3e 32 9b 8f bd
       0.13034782 0.13975245 0.27985847 -0.07012023
0001e0 b3 b4 7c 3e a9 d0 d7 3e eb 63 af 3e d9 52 b6 3d
       0.24678306 0.42151383 0.3425592 0.08902521
0001f0 6e f0 3a 3e 3e cb 0d 3d f7 f9 1b 3e 37 46 d7 3c
       0.18255779 0.034617655 0.15232073 0.026278598
000200 53 02 3f be 2d 78 0c 3d b4 33 08 3e f1 e2 d5 bc
       -0.1865323 0.034294296 0.13300973 -0.02610919
000210 80 a3 c9 bd 3e ed fe 3d 1d 84 50 3e 4c 2c 28 3d
       -0.09845638 0.12447594 0.20362897 0.04105787
000220 e6 35 c5 3d 87 72 28 3e 93 5f cf bd 52 1f 0c bd
       0.09629421 0.16449939 -0.10125651 -0.034209557
000230 3d 61 d4 3c 25 f4 84 3d f6 ba a3 3e e6 17 09 3e
       0.025925273 0.064918794 0.31978577 0.13388023
000240 02 50 7f 3d cb cd 31 be 94 6c fa 3c 8d 4d f9 3d
       0.06233216 -0.1736366 0.030569352 0.12172995
000250 50 1d b8 3d 04 e2 2b 3e 1a 4b 89 3d 53 94 ab bc
       0.08989966 0.16785437 0.067037776 -0.02094475
000260 05 e4 a8 bc 23 a7 af be f6 b2 b5 be 57 17 e2 be
       -0.02061654 -0.34307203 -0.354881 -0.44158432
000270 c5 79 d0 be 42 9c ec be 88 82 e8 be d6 04 ac be
       -0.40717903 -0.46212965 -0.45412087 -0.3359744
000280 ad f9 8b be fa 99 e1 bd f2 23 91 be 84 b0 25 be
       -0.27338925 -0.11015697 -0.28347737 -0.16180617
000290 ac 7e 24 3e 66 7f 86 bd d5 05 77 bd a7 5c ee 3d
       0.16063946 -0.06567268 -0.060308296 0.11638766
0002a0 33 33 aa 3e e6 f1 12 3e 67 fb 4b 3d 63 de 4b bd
       0.33242187 0.1435009 0.049800303 -0.04977263
0002b0 fd e9 a4 bd 81 32 df bd 5a f2 fc bd bc ca ab be
       -0.08052442 -0.10898305 -0.123509124 -0.33553112
0002c0 46 06 fc bd 9e a8 94 3c e2 32 92 be 25 34 66 be
       -0.12305884 0.01814681 -0.28554446 -0.22480829
0002d0 e0 68 0e be ea 54 0f be 82 97 82 be db 45 3d 3c
       -0.13907194 -0.13997236 -0.25506216 0.011552299
0002e0 56 a8 85 3d 3a d2 3c 3e 73 4d 56 bd 95 7f 00 bd
       0.06526248 0.1843957 -0.052319955 -0.03137167
0002f0 9b a0 00 3e 41 2a 43 3e 5e b9 23 3e 0b da 08 3e
       0.12561266 0.19059087 0.1598868 0.13364427
000300 d0 79 54 3d 3b 86 1c 3d 0c a6 87 3e d0 21 a5 3d
       0.051873982 0.03821395 0.2649387 0.0806309
000310 8a 5b af bd 1e ee 4b 3d c3 d4 61 be 87 e8 a1 bd
       -0.085623816 0.049787633 -0.22053818 -0.07905679
000320 d1 90 80 3e 46 9e 57 be f3 7c 5d be be 79 31 3e
       0.25110486 -0.2105647 -0.21629696 0.17331597
000330 68 df 4d be b5 18 88 be df 92 9b bd ad a2 ec bd
       -0.20104754 -0.2658135 -0.07596373 -0.115544654
000340 27 ca f2 be 89 7e e7 bd 39 14 23 bd fd 4d e3 be
       -0.47419855 -0.113034315 -0.039814208 -0.44395438
000350 c5 2a e5 be 26 50 0f bc a2 7f 2f be 69 5d bb be
       -0.44759193 -0.008747136 -0.17138532 -0.36594704
000360 28 5a d1 bc 55 b3 83 3d 6e 5a 4b 3e 78 d0 a1 3c
       -0.025555685 0.06430689 0.19858715 0.019752726
000370 5b 47 19 3e 0e 8b 9f 3e 4c 21 80 3d 26 d8 bf 3d
       0.14968626 0.31160778 0.06256351 0.09367399
000380 1b fc 49 3e ba 73 ba bd b9 63 36 3d 9e a8 d6 3d
       0.19725077 -0.09104104 0.044528697 0.1048138
000390 11 99 1c 3e 63 2a a9 3d a5 83 17 3e 19 09 f1 3d
       0.15292765 0.08260038 0.14796312 0.11769313
0003a0 5c 32 e4 3d d8 7c 5f 3e 8f 9b 70 be ff f7 a8 be
       0.11142418 0.21824968 -0.23496841 -0.33001706
0003b0 bb 11 7d bd 16 35 af 3d 69 f3 1f bd 58 fb e5 bd
       -0.061784487 0.08555047 -0.039050493 -0.11229581
0003c0 fb 70 64 3e 4d 71 8f 3e 59 87 5c 3d c0 bb 86 bd
       0.22308724 0.2801613 0.053840015 -0.06578779
0003d0 a3 ec 5e 3e c8 9d c4 3e cc 16 f6 bc db 91 f3 bd
       0.21769957 0.38401628 -0.030040167 -0.11893054
0003e0 df 09 34 3e c5 c5 2d be c6 1d 7e be 35 8c 1e bd
       0.1758189 -0.16969974 -0.24816045 -0.03870793
0003f0 cd 2b 46 3e fe d4 c4 3b 27 b0 3f be 01 52 9d 3d
       0.19352646 0.006006836 -0.1871954 0.07681657

layer1.bn2.weight f4 [16]
000000 77 fb 56 3f a4 e0 8c 3f 6d 8a b7 3f cb a2 33 3f
       0.83977455 1.1006055 1.4339119 0.7017028
000010 8a 7b 80 3f 45 a8 7e 3f e7 55 c5 3f fd fa 72 3f
       1.0037701 0.9947551 1.541684 0.9491423
000020 00 0f 60 3f cf 75 92 3f e2 a6 85 3f cc 12 e1 3f
       0.8752289 1.1442202 1.0441554 1.7583861
000030 8c f1 96 3f 9e 73 ad 3f be f8 71 3f c9 8c 8b 3f
       1.1792464 1.3550909 0.94520175 1.0902339

layer1.bn2.bias f4 [16]
000000 ca b3 18 3e b9 23 14 3f 5f f5 98 3e 92 58 36 3f
       0.14912334 0.5786701 0.29874703 0.712289
000010 66 eb 36 3e fc e0 c0 3e 4a 06 c8 3d 53 8b d5 bd
       0.17863235 0.3767165 0.097668245 -0.104269646
000020 8a 3b af 3d 13 ea 59 3e e7 0b 1f 3f 4e 6f 23 be
       0.08556278 0.21280698 0.62127537 -0.15960428
000030 d9 ef c9 3e 62 83 5c be bd 70 30 3f d0 d9 fa be
       0.39440802 -0.21534494 0.68922025 -0.48994303

layer1.bn2.running_mean f4 [16]
000000 70 08 01 40 fe d9 13 c0 84 85 0d bf d2 fc 82 bf
       2.01614 -2.3101802 -0.55281854 -1.0233405
000010 a4 27 c0 bb 76 24 78 be c3 cb bc be 1e 54 3c 3e
       -0.0058641005 -0.24232659 -0.36874208 0.18391463
000020 32 48 32 3e a7 e4 b9 3f d7 dc 01 c0 e1 a9 37 bd
       0.17410353 1.4522904 -2.029104 -0.044839744
000030 51 42 25 bd 8c 1a 1c c0 a0 8a 0c 3f 98 5c a3 3c
       -0.040346447 -2.4391203 0.54899025 0.019941613

layer1.bn2.running_var f4 [16]
000000 44 5f 1e 40 a4 19 30 40 ef be 6f 40 6d 79 3f 40
       2.4745646 2.751565 3.7460287 2.9917862
000010 d3 3b 3f 40 bb b8 13 40 65 79 ab 40 d8 a0 04 40
       2.9880264 2.30815 5.3585687 2.0723171
000020 36 ef e1 3f 5b 97 8b 40 bb 3e 47 40 8e 06 47 40
       1.7651126 4.362226 3.1132038 3.109775
000030 59 2b 5d 40 d0 11 b3 40 29 b6 6e 40 42 b1 d9 3f
       3.4557707 5.5959244 3.7298682 1.700722

layer2.conv1.weight f4 [32, 16, 3, 3]
000000 7c 3a 83 bb af fe b8 3d 79 17 45 bd 81 38 2d 3e
       -0.0040047746 0.09032952 -0.04811809 0.16916086
000010 1c 39 12 bd ef cb da bd 77 71 83 3e a7 33 dd bd
       -0.035698995 -0.106834285 0.25672504 -0.108008675
000020 a8 ca 71 be f4 43 94 bd 93 69 06 3e 68 a9 15 3f
       -0.23612463 -0.072395235 0.13126211 0.5846162
000030 bd 09 ac bd 6a 90 9a 3d ad 43 9d 3e 16 38 f8 bd
       -0.08400295 0.07547076 0.30715695 -0.121200725
000040 dd 84 b8 3d 01 29 73 3d 9f 16 91 be 27 f9 02 3d
       0.09009717 0.059365276 -0.2833757 0.03197589
000050 57 70 59 3d 97 cc cb bd 58 73 02 3e d8 23 5f bd
       0.05308565 -0.09951132 0.12739313 -0.054477543
000060 8a 14 47 be 9e de 44 3d 80 a9 58 be a3 69 f7 bb
       -0.19441429 0.048063867 -0.21158409 -0.0075504347
000070 64 86 01 3e 18 69 af 3d 8f 49 55 bd 50 b7 90 3d
       0.12648922 0.08564967 -0.052072104 0.07066214
000080 6f e9 20 3e d5 50 16 3d 8c e3 89 bd 9b bb 0b 3d
       0.15714048 0.03669818 -0.06732854 0.03411446
000090 c2 20 08 3e bc 94 eb 3d 57 c7 06 3f 27 e3 03 3d
       0.13293746 0.11502978 0.5264792 0.03219905
0000a0 b3 c0 66 3d ed a7 80 3d 47 4a 3a bd be 99 e7 bd
       0.056336116 0.06282029 -0.045480993 -0.11308621
0000b0 36 8b 1e be ef f0 f1 3c 89 89 d6 3e 80 9e 5f 3e
       -0.15482792 0.029533831 0.41901806 0.21837807
0000c0 7b 7b f7 3c 07 e5 85 3e ef db ad 3e 77 b1 c2 3e
       0.030210247 0.26151296 0.3395686 0.3802602
0000d0 45 89 b6 3e 1e 68 b9 3e 27 08 ab 3b 65 1d 75 3e
       0.35651603 0.36212248 0.0052194777 0.23936994
0000e0 09 61 8e 3e 88 36 05 3e a2 5a 9e 3e 0c f9 68 3e
       0.27808407 0.13009083 0.30928522 0.22751254
0000f0 f3 e2 54 3e c0 bd d8 3d b7 b3 9a bb 63 c6 f7 bd
       0.207897 0.10583067 -0.0047211307 -0.12098386
000100 3c cc 6c 3e 74 49 a0 3e bd 0b 63 be ca 05 69 3d
       0.23124784 0.3130604 -0.22172447 0.056890287
000110 26 e1 2c 3e 56 f2 09 be 27 fa 90 bd d0 c1 90 3d
       0.16882762 -0.1347135 -0.07078963 0.07068217
000120 0b f7 8c 3e fb 5e 03 3e 00 3b 1d be b9 9d 46 3e
       0.2753223 0.12829201 -0.15354538 0.19396104
000130 2f 6f 71 3d d9 f2 0d be ff a5 94 be 26 0d 72 be
       0.058943924 -0.1386217 -0.29032895 -0.23637828
000140 eb 71 5c bd 1b 0a 52 3d 7d c3 96 bc a6 30 32 3b
       -0.05381958 0.05127917 -0.018403763 0.0027189641
000150 92 a9 87 be a9 bb ef bd 89 d7 58 bc 6e 86 b2 be
       -0.2649656 -0.11705715 -0.013234981 -0.34868187
000160 6b 57 9d be 6d 51 09 be c7 aa 07 be 74 42 13 bd
       -0.30730757 -0.13409968 -0.1324874 -0.035952047
000170 0b f8 28 3c 64 54 73 be b9 5a 86 3d 4b 91 4d 3e
       0.010313044 -0.23762661 0.06560273 0.20074956
000180 af e1 8c be ce 3d 43 bc ac 77 13 3e 63 88 49 3e
       -0.27515933 -0.011916591 0.1440112 0.19680934
000190 69 e3 42 3e 88 4e c7 3d 59 9f 9c 3d ac e4 c0 3d
       0.19032063 0.097317755 0.07647581 0.09418616
0001a0 b5 59 1e 3c 50 15 d9 3d a6 96 db 3d 58 be a6 bc
       0.0096649425 0.10599768 0.10722093 -0.020354435
0001b0 b7 60 33 bd a2 f6 13 3e 2d 0e 97 3c d6 6b a1 bd
       -0.043793406 0.14449552 0.018439377 -0.07881896
0001c0 36 be d9 3c f3 c1 f8 bd e3 ed 24 3d a4 f3 b7 3c
       0.026579957 -0.12146368 0.04026593 0.022455044
0001d0 53 ff 96 be 75 dd a6 bb 7e a5 54 be a5 6b 0d bc
       -0.29491672 -0.0050923177 -0.20766255 -0.0086316215
0001e0 12 f6 dc bd 07 81 b9 be ac af 62 be 15 44 24 be
       -0.10789122 -0.36231253 -0.22137326 -0.16041596
0001f0 d5 16 72 be d4 64 f9 bd 04 71 3e be 79 82 17 be
       -0.23641522 -0.121774346 -0.185978 -0.14795865
000200 c3 ab 61 3e 1a 33 1b be 50 9d ce be c4 47 14 be
       0.22038178 -0.15156212 -0.40354395 -0.14480501
000210 45 81 4d 3d ae f0 8c be 5b 4c 76 be 71 c2 95 3e
       0.05017211 -0.27527374 -0.24052565 0.2924991
000220 5a ed b0 3e ae 75 a2 3d 70 9c 3d 3e 79 9a c2 3e
       0.34556085 0.07932602 0.18516707 0.38008478
000230 db f5 c2 3d 13 73 8a bd be 50 9c bd f9 40 d2 bc
       0.095195495 -0.0676023 -0.07632588 -0.025665747
000240 41 b6 fc be e9 3d a2 bd c8 d0 ed 3c f1 cf d3 be
       -0.493578 -0.07921965 0.029030219 -0.41369584
000250 ce 48 35 bd 26 d4 2c 3e 53 d1 57 be 52 f2 92 3d
       -0.044258885 0.16877803 -0.21075945 0.07175125
000260 0c fd a6 3d 2d b2 e0 bd 14 e6 36 3d 1c fe 75 3d
       0.081537336 -0.10971484 0.044653013 0.06005679
000270 55 de 5c bd f6 84 56 3d 89 9f 13 3d ca 41 01 be
       -0.05392297 0.052372895 0.036040816 -0.12622753
000280 2d 0f 88 bd b0 f2 84 bb fb be 02 3e 75 4a 84 3d
       -0.066435196 -0.004057251 0.12768166 0.06459514
000290 96 cc 74 3d af ef ff 3d b7 c1 d5 bd 79 35 1b 3e
       0.05976542 0.12496888 -0.10437339 0.15157117
0002a0 38 4f b1 bc 65 82 7f be 28 dd 85 bd 15 36 4c be
       -0.02164422 -0.24952085 -0.06536323 -0.19942506
0002b0 82 22 e5 bd 90 a2 6d be 04 c0 e7 3c 30 f5 27 3e
       -0.111882225 -0.23206544 0.028289802 0.16402125
0002c0 63 f7 ba bc ef 94 45 3e 9e 9a 94 3e 99 3d 1e bd
       -0.022823041 0.19295095 0.29024214 -0.038632963
0002d0 fc 4e e3 bd 4f 09 3e be 75 d3 a1 bd 60 6b a4 bd
       -0.110990494 -0.18558238 -0.0790166 -0.08028293
0002e0 da 9c f5 3d a3 9a 83 3e 12 1b ff bd 67 40 8a 3d
       0.11992808 0.25703916 -0.12456335 0.06750565
0002f0 25 47 4d 3e d8 46 af bd af 00 fa 3d a5 77 5c 3c
       0.2004667 -0.08558434 0.12207162 0.01345626
000300 d5 31 a4 3d d0 30 17 3e 65 56 0b 3d 2d 06 e2 3d
       0.08017317 0.14764714 0.03401794 0.11036334
000310 46 74 49 3d da 99 f2 bd f4 ff b6 3d bf 17 2f 3e
       0.049183153 -0.11845751 0.08935538 0.17098902
000320 f9 88 01 3d a9 dd 34 3e 04 69 4c 3e 71 cd bf bb
       0.031624768 0.17662682 0.19961935 -0.005853348
000330 16 eb de 3e 3f f9 54 3e 6b 6d 38 3d d5 59 8c bc
       0.4353873 0.20798205 0.045026224 -0.017132679
000340 58 71 c2 3c 06 e9 12 3e 3c fa a0 bc ac 4f 41 3d
       0.023735687 0.14346704 -0.019650571 0.04719512
000350 36 9c 4d 3e 2c 5d bd 3a 34 e4 28 3d 41 71 17 3e
       0.20079121 0.0014447323 0.041233256 0.14789297
000360 3e 62 6a bc f8 29 04 3e 53 9d 0c 3e 45 58 9f 3e
       -0.014305649 0.12906635 0.1373189 0.31122032
000370 da ac a9 3e ca ab c0 3e e9 4f e5 3e 60 1c a7 3e
       0.33139688 0.37631065 0.4478753 0.32638836
000380 32 0c 8b 3e 20 df 23 3d 2a 5e 93 bd 4f e0 45 bd
       0.27157742 0.04000771 -0.07195695 -0.04830962
000390 42 42 5a 3b 6f 90 29 be 54 aa 3e bd 5f ff 30 be
       0.0033303653 -0.16559003 -0.046549156 -0.17284916
0003a0 34 01 5c bd 73 9f 09 3e 85 da 40 be 15 1a 9d bd
       -0.053712085 0.13439731 -0.18833359 -0.076709904
0003b0 04 8a 3a 3e f9 1e 67 3c 77 65 c9 3c f5 c2 31 3e
       0.18216711 0.014106506 0.024584515 0.17359526
0003c0 12 53 4b 3d 9c 8c 86 3c 44 d9 9f 3d a9 95 96 be
       0.04963977 0.01642447 0.07805112 -0.29411057
0003d0 ba 8d e8 be 19 de 85 be b3 ce ef be 5c a7 2f bf
       -0.4542063 -0.2614601 -0.46837386 -0.68614745
0003e0 a0 d0 b7 be aa 71 ad be 43 98 dc be 58 08 86 be
       -0.35901356 -0.3387578 -0.43084916 -0.2617824
0003f0 e3 fa 45 3d 8c fb f6 3d 8e 3a 9d bc 29 7e 93 3d
       0.048334967 0.120596975 -0.01919296 0.072017975

layer2.bn1.weight f4 [32]
000000 7a 9f 6d 3f c7 1e 7a 3f 05 e2 46 3f f7 08 8a 3f
       0.92821467 0.9770321 0.7768863 1.0783986
000010 5e 34 5e 3f 34 38 91 3f 19 fb 6b 3f 80 73 61 3f
       0.86798656 1.1345277 0.9218002 0.88066864
000020 04 dc 5d 3f 54 c3 91 3f 39 d5 43 3f 0b 60 8a 3f
       0.8666384 1.1387734 0.76497227 1.081056
000030 0c 62 7f 3f 14 44 58 3f c7 f8 99 3f 2d 52 67 3f
       0.9975898 0.8447888 1.2029046 0.90359765
000040 d9 fb 8a 3f 47 f8 55 3f 4c 72 95 3f 6f 6c 59 3f
       1.0858108 0.83581966 1.1675506 0.8493108
000050 f8 3e 48 3f 80 58 4c 3f 9e d5 b8 3f 6b 0e 9f 3f
       0.7822108 0.7982254 1.4440191 1.2426275
000060 a7 aa 57 3f cb 35 64 3f c7 ca 73 3f 37 58 61 3f
       0.8424477 0.8914458 0.9523129 0.8802523
000070 31 4b 6b 3f 58 94 7e 3f ae dc 4e 3f 69 27 64 3f
       0.9191161 0.99445105 0.8080548 0.89122635

layer2.bn1.bias f4 [32]
000000 da 7d 44 bd a1 c7 14 3e cc 99 0c bd 65 e1 76 bd
       -0.047971584 0.14529277 -0.03432636 -0.060273547
000010 25 fd 91 be 47 d9 0b bb 0c f0 45 3e 20 5e 48 be
       -0.28513446 -0.0021339224 0.19329852 -0.19567156
000020 69 d0 5e be 83 7f 10 bd e2 13 a4 bd d0 af 55 be
       -0.2175919 -0.035277855 -0.08011605 -0.20867848
000030 0d 38 ef bd f7 48 6e be d9 b0 9c bd 5c e7 8d be
       -0.11680613 -0.23270021 -0.076509185 -0.27715576
000040 be 0f 1b be 70 49 30 be c7 48 9c be 7c 40 24 be
       -0.15142724 -0.17215514 -0.30524275 -0.16040224
000050 b9 c4 ca bc ef cc 16 3e b0 08 d0 be 23 4b 6f bd
       -0.024752008 0.14726613 -0.40631628 -0.058421265
000060 1f 55 10 be 1f c8 2f be 7a 9d 84 be 66 02 1b 3d
       -0.14094971 -0.17166184 -0.25901395 0.037844084
000070 b9 11 79 be 45 c4 18 be 55 37 b6 bd 61 f5 8b be
       -0.24323167 -0.14918621 -0.088972725 -0.27335647

layer2.bn1.running_mean f4 [32]
000000 42 a6 35 40 0f d6 55 3f 60 4f b8 c0 db 81 e0 c0
       2.8382726 0.8352975 -5.7596893 -7.0158515
000010 4f 27 61 3f d0 8a 86 bf 5f e6 21 c1 81 a3 12 bd
       0.87950605 -1.0511112 -10.118743 -0.03580046
000020 9c 1c 61 c0 37 19 89 c0 5b f5 84 bf 8b af 1c c0
       -3.5173712 -4.284328 -1.0387377 -2.4482143
000030 8d 03 bd bf aa b8 59 bf b6 dc 34 c0 a9 f7 6c 3f
       -1.4766709 -0.850474 -2.8259711 0.925654
000040 22 37 16 c0 c8 f3 b7 c0 cc 8b 2a c0 06 42 88 3f
       -2.347115 -5.7485085 -2.6647825 1.0645149
000050 64 6c ff bf dc e6 c6 c0 ba 95 cf c0 96 0a c0 3f
       -1.9954953 -6.215681 -6.487027 1.500323
000060 7a 91 e5 bf ad 06 bf c0 7b f1 43 40 ca 2c 91 bf
       -1.7935021 -5.969565 3.0616138 -1.1341794
000070 8a 94 c4 bf 04 a5 26 c1 4e fe 25 c0 d9 9f 38 c0
       -1.535783 -10.415287 -2.5936465 -2.8847563

layer2.bn1.running_var f4 [32]
000000 ca d5 38 41 d3 2b 10 41 fc d7 c7 40 80 bd 24 41
       11.552195 9.010699 6.2451153 10.296265
000010 ba a3 d1 40 c7 ff 5a 41 08 67 56 41 a0 ac e0 40
       6.551236 13.687446 13.400154 7.0210724
000020 5b de 94 40 9c 56 37 41 a9 4a ac 40 75 11 28 41
       4.652143 11.458645 5.384114 10.504262
000030 8a 9e 4a 41 f9 b3 10 41 76 48 3d 41 63 06 fe 40
       12.663706 9.043939 11.830191 7.9382796
000040 e4 c1 f7 40 f2 f2 c8 40 e7 c0 00 41 c1 7b db 40
       7.7424183 6.2796564 8.047095 6.8588567
000050 64 fa aa 40 1f 19 e6 40 44 cd 90 41 9a 60 44 41
       5.3430653 7.1905665 18.100227 12.273584
000060 82 fa b7 40 f7 18 8b 40 59 57 a5 40 85 d0 15 41
       5.7493296 4.3467975 5.1669126 9.363408
000070 cc c2 4c 40 50 d5 25 41 49 9b 03 41 a6 79 a9 40
       3.1993895 10.364578 8.225411 5.2960997

layer2.conv2.weight f4 [32, 32, 3, 3]
000000 25 e6 49 be 4c 3d 1f bd fa dd a9 3d 5e b1 3a 3d
       -0.197167 -0.038876817 0.08294292 0.045579307
000010 78 8c e8 3d 9d 35 e8 3c 36 e1 2d 3d 0d 53 44 3e
       0.11354917 0.028345877 0.042451106 0.19172306
000020 73 da c6 3d 3c 85 cd bd 95 98 1a 3e e8 87 5a 3e
       0.09709635 -0.10035178 0.15097268 0.21340907
000030 2a 63 b6 bd 02 60 0b 3d 8a 12 84 3c 6e 1e b6 3b
       -0.08905633 0.034027107 0.016122121 0.0055578267
000040 ba a9 9f bd 82 0d 44 be e1 66 88 bd db 0d fc 3c
       -0.07796045 -0.19145778 -0.066602476 0.030768326
000050 e1 4e 5f 3d 0b 2d 0f be 7d 4f 6f be 32 99 94 bd
       0.054518584 -0.13982026 -0.23370166 -0.07255782
000060 a4 b9 fa bd c5 07 15 be e8 08 c5 bd 6e 1e 8d 3e
       -0.122424394 -0.14553745 -0.09620839 0.27562279
000070 f2 5d b8 bc 3b d9 db be 64 a8 4d 3e dc ad 74 bd
       -0.022505734 -0.4293917 0.20083767 -0.059736118
000080 1f 7c be be 6a 2c 7e 3e 28 55 85 bd 8f 5a 83 be
       -0.37204072 0.2482163 -0.06510383 -0.25655028
000090 56 7a 9e be bb 3e 84 be 43 74 c9 bd 56 d0 f1 be
       -0.3095271 -0.2582911 -0.09836628 -0.4722926
0000a0 fe 34 9b be 2f 53 90 be 31 ca 4c be 23 a4 14 be
       -0.30313867 -0.28188464 -0.19999005 -0.14515738
0000b0 62 9b 1f be c0 08 35 be 90 3f 3e be 36 de 62 3e
       -0.15586618 -0.17679119 -0.18578935 0.22155079
0000c0 7d 77 d6 bd 4f 59 9e bd 7a fe 19 bd b9 56 90 bd
       -0.10472009 -0.07731878 -0.037596203 -0.07047791
0000d0 dd 26 c0 bc 64 d8 aa bd 1e 09 4a 3e 18 3d 70 3d
       -0.023456031 -0.083420545 0.1973004 0.058652014
0000e0 4c 3a 9d be 1b 48 0b 3e e0 31 e3 3d 3e ab 78 be
       -0.3070854 0.13601725 0.11093497 -0.24284074
0000f0 22 eb 42 3c 0e 5b e2 3d 4a 74 32 be 55 39 ab be
       0.01189688 0.110525236 -0.17427173 -0.33442178
000100 66 ae 5b 3d 93 4a 57 be cb 5a 36 bd 16 73 5a 3e
       0.053633116 -0.21024542 -0.04452018 0.21332964
000110 5a 8c 35 3c 45 76 86 bd d2 65 9c bc 14 3a 2f bd
       0.011080826 -0.06565527 -0.01909152 -0.042779997
000120 20 53 c1 3c 29 c6 c5 3d c9 cd 2b 3d b7 79 3f bd
       0.023599207 0.09656937 0.0419443 -0.046746936
000130 b6 db b4 3e 0b 87 c9 3e cb 6d 9c bc a7 0a ba 3d
       0.35323876 0.39360842 -0.019095322 0.09084063
000140 89 ea 95 3d b9 8f c3 3d d5 67 5f bc 64 a2 90 be
       0.07320125 0.09548897 -0.013635595 -0.28248894
000150 86 08 db 3c 2f a8 03 3e 5a 8e 84 3d 62 98 70 be
       0.026737463 0.12857126 0.06472464 -0.2349563
000160 00 5b 2c bd 4b 2a f2 3c 16 dd 7e 3d fe 7d 17 be
       -0.042078972 0.029561182 0.062222563 -0.14794156
000170 28 77 bf be 23 06 6f 3e df db 75 3d 47 8e 06 3e
       -0.37395597 0.23342185 0.06002414 0.13140212
000180 e4 c8 a4 3e fb b0 32 3c 21 8a 80 3e 73 cb 44 3d
       0.32184517 0.010906453 0.25105384 0.048045587
000190 d3 f4 f9 3d 33 97 93 bd 7c 5d 42 bc 1a 17 b7 3c
       0.122049 -0.07206573 -0.011863109 0.022349883
0001a0 cb 9c 8e bd 89 2d c2 3b 78 90 99 be f9 66 a5 be
       -0.069635 0.0059258384 -0.29993033 -0.32305124
0001b0 86 28 36 3d 63 0f 08 3e 92 54 cf bd 32 50 24 bd
       0.04447224 0.1328712 -0.101235524 -0.040115543
0001c0 ab 72 1a 3d 8f 37 09 be ef 78 58 3d 01 23 11 3e
       0.037707012 -0.134001 0.052849706 0.14173509
0001d0 65 b7 07 be fb 41 33 3e 29 47 49 3d c4 9e d8 3d
       -0.13253553 0.17505638 0.04914013 0.10577157
0001e0 05 3d 3d 3e 12 2f 1b 3e 18 7a 93 3e 30 d3 d2 bc
       0.18480308 0.15154675 0.28804088 -0.025735468
0001f0 ac 1c b6 bc b6 b1 d7 bd 6b dd 4b bd 49 5e 34 be
       -0.022230469 -0.105319425 -0.049771708 -0.17614092
000200 24 59 c5 be e0 a7 00 be 65 84 17 be 13 a9 15 be
       -0.3854457 -0.12564039 -0.14796598 -0.14615278
000210 f6 72 1c be 86 9f 05 be 9a 61 02 3e 38 40 90 be
       -0.15278229 -0.13049135 0.12732545 -0.28173995
000220 cc 14 9c be e0 44 68 be ee 93 56 bc f9 25 5b 3d
       -0.30484617 -0.22682524 -0.013096793 0.05350301
000230 31 c5 bd 3d a0 be d8 3d 79 0f 8d 3d bd 42 f2 bc
       0.09266127 0.10583234 0.06887717 -0.029572839
000240 07 9f 4f be 31 21 1d 3d 7d 08 b6 3e 75 b6 40 bd
       -0.20275508 0.038361732 0.3555335 -0.047049005
000250 02 db e6 3c ff 68 f5 3d ed 94 7b be d4 d2 ca be
       0.028180603 0.11982917 -0.2456853 -0.39613974
000260 db 77 bb bb 61 4c d2 bc 3e 2b 04 3e 16 10 d9 3e
       -0.005721075 -0.025671186 0.1290712 0.42395085
000270 f1 3e 36 bd d0 12 59 3e 21 9f bf 3e 76 be 49 be
       -0.04449362 0.21198583 0.37426093 -0.19701561
000280 29 7c 10 3e da 34 0e 3e 36 6c e1 bd 20 e8 33 be
       0.14109863 0.13887349 -0.11006968 -0.17569017
000290 ef 02 95 3c d5 46 39 3d d9 0a 26 bb d5 9c 1a 3d
       0.018189875 0.045233566 -0.0025336056 0.037747223
0002a0 86 bd 2b 3b 65 9b ea 3d cf 95 9e 3d ed 90 bd 3d
       0.0026205494 0.114554204 0.077434175 0.09256158
0002b0 30 67 51 3e 36 bf 0f 3d 43 9c db bc b4 5c ac 3d
       0.20449519 0.035094462 -0.02680791 0.08416119
0002c0 15 e6 50 3e 76 cc 7b bb 4c d6 07 bd 50 3b 0d 3e
       0.2040027 -0.0038421429 -0.033163354 0.13792157
0002d0 4d c9 93 bb 01 33 61 bd a9 24 a4 be 2d 6f 89 be
       -0.004510081 -0.05498028 -0.3205922 -0.26842633
0002e0 f7 3c c7 bb da 7a e0 bc 5f 78 70 be 0a ba 06 3e
       -0.0060802656 -0.02740233 -0.23483418 0.13156906
0002f0 49 e8 ab 3e 48 87 28 3d da a5 81 be ec fc a8 be
       0.33575657 0.04114464 -0.25321847 -0.33005464
000300 bf 8d 03 3e 05 4b 5b 3d bf 5d 3a be 09 45 97 3e
       0.1284704 0.05353834 -0.18199824 0.29544857
000310 30 70 f2 bb e4 f0 2b be ba 29 9c 3e b5 87 f1 3d
       -0.0073986277 -0.16791111 0.30500585 0.11793462
000320 16 cc 12 be 2e 9c 3d 3d e4 03 20 bc 35 3e d1 be
       -0.14335665 0.046291523 -0.009766553 -0.40867773
000330 96 03 3a 3e fc 38 96 bc 84 07 db be a1 60 9d bd
       0.1816543 -0.01833772 -0.4277917 -0.07684446
000340 7a f7 0c be ba f1 01 3e e4 a9 42 3d 1a 77 9b bd
       -0.1376628 0.12689868 0.0475253 -0.07591076
000350 a1 31 43 3e b2 52 1c bf bc 3f 5b bf 5f ab b7 be
       0.190619 -0.61063683 -0.85644126 -0.35872933
000360 48 24 93 be c5 c3 30 be 31 c3 94 3c d4 76 ac be
       -0.28738618 -0.1726218 0.01815948 -0.3368441
000370 78 f4 c6 be c3 87 91 bd 2a a1 1b bd bc 86 63 be
       -0.3885839 -0.071059726 -0.037995495 -0.22219366
000380 ee 2e 42 3d d7 48 66 3e f4 f8 11 3e fe 6c 2e 3e
       0.047408037 0.22488724 0.14255124 0.17033765
000390 13 09 5d bd c0 08 47 3e 8b ed a4 3d 1e 8a 04 bf
       -0.053963732 0.19436932 0.0805312 -0.5177325
0003a0 c4 c2 82 be 71 06 5b bc 00 ee 6e 3a 2e ac aa bd
       -0.2553922 -0.013368235 0.0009114444 -0.08333622
0003b0 e6 f5 33 3d 34 9c 0a be 7e d0 df bd 0e 81 ac bd
       0.04393568 -0.1353615 -0.109284386 -0.08423053
0003c0 81 dc 9a bd e2 6b 1e be 1a 90 17 be 60 63 1a 3e
       -0.07561589 -0.15470842 -0.14801064 0.15076971
0003d0 b5 60 48 3e c0 e5 09 be 58 a3 1a 3e d8 8f 99 bd
       0.19568141 -0.13466549 0.15101373 -0.07498139
0003e0 e6 e2 a2 be e0 84 98 3d f3 00 44 3d 81 9d 39 be
       -0.31813735 0.07447219 0.047852468 -0.18126489
0003f0 06 21 22 bd 58 0c 41 3e 0c e2 86 3e 13 52 7c bd
       -0.039582275 0.18852365 0.26344335 -0.06160171

layer2.bn2.weight f4 [32]
000000 f9 49 91 3f 55 d7 86 3f 1e 7c 9a 3f 4b 43 97 3f
       1.13507 1.0534464 1.2069128 1.1817411
000010 a4 e2 90 3f 60 25 8e 3f 2f 0b 78 3f 0a e8 ac 3f
       1.1319165 1.1105156 0.96892065 1.3508313
000020 bd 61 a7 3f 1c 25 91 3f cc 84 aa 3f f6 e6 a4 3f
       1.3076702 1.133945 1.3321776 1.2882984
000030 75 6d a0 3f 84 aa 9a 3f 73 f5 b1 3f 0b f0 d3 3f
       1.2533404 1.2083287 1.390303 1.655763
000040 5c 23 8f 3f 3d 55 81 3f 42 8b 97 3f d5 a4 6f 3f
       1.1182666 1.0104138 1.1839373 0.9361089
000050 7e 95 9f 3f dc 4d 8a 3f 54 20 ae 3f 77 31 9e 3f
       1.2467496 1.0805011 1.3603616 1.2358845
000060 9e 18 a5 3f 7f b1 af 3f 7c 43 a5 3f 49 80 a8 3f
       1.2898138 1.3726043 1.291122 1.316415
000070 e4 bd b1 3f a4 9a 78 3f 76 bd a6 3f 3a 18 a0 3f
       1.3886075 0.9711096 1.3026569 1.2507393

layer2.bn2.bias f4 [32]
000000 a1 0e 72 bd 46 c1 4d bd d8 38 a0 3d cf 91 e4 be
       -0.059095982 -0.050233148 0.07823342 -0.44642493
000010 e2 d1 08 be 0e c7 3e ba a6 1c 36 3d ad f8 b7 be
       -0.13361314 -0.0007277586 0.044460915 -0.35931912
000020 d2 2a 40 be 59 88 1e be 96 b0 d6 bb 0c 7a 3c be
       -0.18766335 -0.154817 -0.0065518124 -0.18405932
000030 1b 96 d7 bd 92 29 bc bc 03 9d 31 be cb c3 93 3d
       -0.10526677 -0.022969041 -0.17345051 0.07215079
000040 e4 06 50 be 6b e7 7e 3e 93 20 ca bc f5 5c e4 bd
       -0.20315129 0.24892966 -0.024673736 -0.11150543
000050 13 bd 83 bd f5 f9 06 bd 8c 5e 9a be 0e ce 1f bd
       -0.064325474 -0.03295322 -0.3015026 -0.03901487
000060 0c 78 93 bd dd 4c 1e 3e 32 cc 33 bd 72 2e 78 3e
       -0.072006315 0.15459009 -0.043895908 0.24236467
000070 8c e3 e2 3b 36 0d 82 3d b7 97 c8 bd 92 de c9 bc
       0.0069240984 0.06350176 -0.09794562 -0.024642263

layer2.bn2.running_mean f4 [32]
000000 e6 5d 0d c0 d0 ec 85 bf 7b 04 ef bf 1e ca 9f bf
       -2.208856 -1.0462894 -1.8673242 -1.2483556
000010 38 a0 2b c0 03 69 d6 be fd 14 4b 40 e9 46 a5 bf
       -2.681654 -0.41876993 3.173156 -1.2912265
000020 72 e1 b1 3f 4a 40 78 bf ab fc f1 bf 2c 53 b0 bf
       1.3896925 -0.969731 -1.8905233 -1.3775382
000030 ad 93 79 bf a6 ee fa bf 13 4a cd 3d 9a 04 11 c0
       -0.9749096 -1.960408 0.10023894 -2.2659059
000040 05 c1 3d 3c c9 ac cc bf eb 72 26 c0 0b 38 80 3f
       0.011581664 -1.599023 -2.600764 1.0017103
000050 1d 46 68 bf 7d f5 fc 3f 13 bb a2 bf ad 53 e8 be
       -0.90731984 1.9762417 -1.271334 -0.4537634
000060 65 58 42 bd b6 1b 98 c0 b0 e2 87 be 2b 38 f4 3f
       -0.04744758 -4.7533827 -0.26540136 1.9079641
000070 d4 15 33 bf cc a3 53 c0 f4 40 fa bf ce 5d b4 bf
       -0.6995518 -3.3068724 -1.9551072 -1.4091127

layer2.bn2.running_var f4 [32]
000000 3d 18 76 40 16 77 28 40 68 da 9d 40 56 98 f2 3f
       3.8452294 2.6322684 4.932911 1.8952739
000010 b8 02 88 40 61 bb 84 40 2c 29 70 40 87 80 3a 40
       4.250332 4.1478734 3.752513 2.9140947
000020 f9 c8 4b 40 3e 00 96 40 3c b3 8a 40 f8 91 35 40
       3.1841414 4.6875296 4.334379 2.8370342
000030 ed 9e 74 40 b4 7b a2 40 ba 39 5e 40 5d 48 bf 40
       3.8222 5.0776005 3.4722733 5.9775834
000040 b2 0c 61 40 62 84 a8 40 09 ba 93 40 53 a2 58 40
       3.5163999 5.26616 4.6164594 3.3849075
000050 da 4e 67 40 5f f9 86 40 f6 a4 41 40 23 dd 36 40
       3.6141877 4.217941 3.0256934 2.857247
000060 a4 40 a2 40 78 ab 92 40 94 93 d3 40 ae 39 be 40
       5.0703907 4.5834312 6.611765 5.944541
000070 8a 4d 9c 40 db cf 5f 40 b6 75 9f 40 ea 6a 8c 40
       4.884465 3.4970615 4.983119 4.388051
