Checkpoints/ResNet8_alpha_1_beta_8.0_ResNet18_0.8842.pth (torch, 335402 bytes, 47 tensors)

conv1.weight f4 [16, 3, 3, 3]
000000 f1 d3 8a bc 94 5b 88 3e 3c dd 0b 3e 52 d3 d2 be
       -0.016946765 0.2663237 0.13658613 -0.4117685
000010 4b 9a 9a 3d 3c dc a0 3e 2a 2b 85 be e8 0a 33 3d
       0.0754896 0.31418025 -0.26009494 0.043711573
000020 c4 e0 99 bd e3 dc 4b be 34 ea 19 3e de c5 42 be
       -0.07513574 -0.1990848 0.15030748 -0.19020793
000030 a3 95 fd be 4d e7 73 3d fd 92 a6 3e 09 40 18 be
       -0.49528226 0.059546757 0.32534018 -0.14868177
000040 3a 7a 98 3e 9d 10 59 3e d8 30 b7 3d 19 60 37 bc
       0.2978075 0.21197744 0.08944863 -0.011192345
000050 5c 4a 1c be 05 da 2f be e5 64 70 3c ee d6 fb 3d
       -0.15262741 -0.17173012 0.014672493 0.12296854
000060 91 81 c6 bd a8 b6 7a 3e e2 a0 da bd 6c e9 d0 3d
       -0.096926816 0.2448374 -0.10675217 0.10200772
000070 c7 67 0d 3d 89 81 89 3e 48 d9 24 3c e8 eb 04 3f
       0.034522798 0.2685664 0.0100615695 0.51922464
000080 d8 dd 82 3e 08 1c b0 bd 10 57 85 3e 2e 99 8c be
       0.25559878 -0.085990965 0.26042986 -0.27460617
000090 3b 39 5c be e4 d1 27 be 65 4d 11 bd bb ff 2b be
       -0.21506207 -0.1638866 -0.0354742 -0.16796772
0000a0 2e 4a 4b be 0e 29 be be 5e 66 62 be 65 46 cb bd
       -0.19852516 -0.37140697 -0.22109362 -0.09925536
0000b0 17 d0 ce bd 38 68 19 3e 37 8f 20 be 8f 0e f7 3c
       -0.10098284 0.14981163 -0.15679632 0.03015831
0000c0 e4 54 b3 3d 76 37 a4 bb 0d c0 76 be f1 f7 41 3e
       0.08756426 -0.0050114943 -0.24096699 0.18942238
0000d0 43 1d 81 3e 1d 4c 94 3d 89 f4 8d 3e d4 33 f2 bd
       0.25217637 0.0724108 0.27725628 -0.11826292
0000e0 9c 5f 20 3e 24 95 15 be 69 7b b6 3c 69 1f b8 be
       0.15661472 -0.14607674 0.022275643 -0.35961464
0000f0 02 6a 12 3d 1f a0 3a be 09 e6 a8 be 19 a0 37 3c
       0.03574563 -0.18225144 -0.32988003 0.011207604
000100 ba 51 6a 39 4a de 01 3e a1 d1 80 bd 84 41 78 3d
       0.00022346425 0.12682453 -0.062899835 0.060609356
000110 79 c6 0e be 19 64 d4 3d 36 76 1e be 53 d8 ad bd
       -0.13942899 0.103706546 -0.15474781 -0.08488526
000120 df 8f 43 be 52 b9 78 be 83 93 73 be 88 5a b4 bb
       -0.19097851 -0.24289444 -0.2378674 -0.005503956
000130 dc 78 fb 3e d8 a5 bb 3e a7 fb 46 bd 67 e3 ab 3e
       0.49115646 0.36649966 -0.048579838 0.33571932
000140 ce 07 af 3e c3 31 aa 3e a6 c6 06 3c 69 4d a5 3d
       0.34185642 0.3324109 0.008226072 0.080714054
000150 27 df 03 bd db 74 37 bf c6 da 08 be 1b b3 95 3e
       -0.032195237 -0.7166268 -0.13364705 0.2923821
000160 46 f3 5e bd 4c 01 03 3e 67 af 25 3e 10 13 cf bc
       -0.054431222 0.12793463 0.16180192 -0.025277644
000170 2d d9 2f 3d 11 79 18 be 82 af 71 bf eb a1 ee bc
       0.042931724 -0.14889933 -0.9440843 -0.029129943
000180 71 de 2f 3d 99 26 2b be 71 42 b4 3d 9e 08 37 be
       0.042936746 -0.16713943 0.08801735 -0.17874381
000190 42 92 15 3e 09 16 f3 3d 6f 10 43 3e 5e b6 0e be
       0.14606574 0.11869437 0.19049238 -0.13936755
0001a0 91 fe f3 3c 82 f0 58 bd 7f 8c 3f 3d 3f 80 43 3d
       0.029784473 -0.05296374 0.046764847 0.047729727
0001b0 34 a0 99 be e3 db 19 3e 67 0f 1e 3e 8d 4a 95 3d
       -0.30005038 0.15025286 0.15435563 0.0728961
0001c0 33 d2 4e 3e 52 8c 90 be d9 5a 9b 3d 8b 82 01 3e
       0.20197372 -0.28232056 0.07585687 0.12647454
0001d0 2d 91 65 be 1b 3b 37 3e 6a 03 c0 bd 9a 28 a7 be
       -0.22418661 0.1789364 -0.09375651 -0.32648164
0001e0 f7 3c c7 3e 05 f2 24 3e bd ac 12 bf d0 b2 07 3e
       0.389137 0.16107948 -0.5729483 0.13251805
0001f0 42 1d 44 3c 3f bb 83 bc 14 38 74 3e 20 c9 25 3d
       0.011969866 -0.016080497 0.23849517 0.04047501
000200 c1 ce 20 3d 2b e5 34 3e bc 1e 49 3d 0f 94 a8 be
       0.039259676 0.17665546 0.049101576 -0.3292546
000210 37 15 89 bd 8a 9e d8 3d 01 25 97 bd a0 4d 38 be
       -0.066934995 0.10577114 -0.07380105 -0.17998362
000220 1f 00 91 3c c5 3d 32 3e 5b d9 81 be 15 23 fd be
       0.017700253 0.17406376 -0.25361142 -0.49440828
000230 27 7b c5 3d e0 2c 99 bd 86 9a 6b 3e ac 22 d2 3e
       0.0964263 -0.07479262 0.23008165 0.41042078
000240 24 cd c3 3d 00 a0 94 3e 4e 97 df 3d 4f ba 7d 3e
       0.09560612 0.2902832 0.10917531 0.24778102
000250 61 39 d0 be e2 1f 24 bd 48 e2 97 bc af e6 fd 3d
       -0.40668777 -0.04006947 -0.018540516 0.12397515
000260 0a a3 61 be 2e f9 65 ba 4a d9 5c 3d 00 20 02 be
       -0.2203485 -0.00087727874 0.05391816 -0.1270752
000270 af bc 26 3e 03 30 b4 be 47 4d cc 3c 07 81 7d 3c
       0.16282915 -0.3519288 0.024939192 0.015472657
000280 e4 31 73 3e 37 4b c2 bd 87 85 8d 3d 3b 69 20 be
       0.237495 -0.09487002 0.06910234 -0.15665142
000290 10 43 17 be 54 04 42 be 03 04 ea 3e f5 56 33 3d
       -0.14771676 -0.18946964 0.45706186 0.0437841
0002a0 c3 55 5a be 95 78 53 bb 59 5b ff 3c 44 bc 12 be
       -0.21321778 -0.0032267917 0.031171488 -0.1432963
0002b0 93 39 f7 bc 21 b0 37 be 3e dc cd bd ee 29 28 3f
       -0.03017882 -0.17938282 -0.100517735 0.6568898
0002c0 36 46 af bd 8d 0a 10 3e 70 10 5d be 1c 1b 0c 3d
       -0.085583135 0.14066525 -0.21588302 0.03420554
0002d0 c9 19 a0 bc 4f 32 23 3b c9 74 a2 3c cb 70 f7 bd
       -0.019543545 0.0024901812 0.019831078 -0.120820604
0002e0 6f ff 1a 3f 4c 0d 25 be c1 35 b0 3d 4c 98 19 be
       0.6054601 -0.16118354 0.08604003 -0.14999503
0002f0 83 7c 4e be 42 8e 3f 3e 74 08 55 be 2d ef aa bb
       -0.20164685 0.18706611 -0.20804006 -0.0052165003
000300 f1 4a a7 3c 91 d9 82 be d2 e8 d2 3d b6 67 dd bd
       0.020421477 -0.25556615 0.10298313 -0.10810797
000310 be 4e 07 3f 10 e2 b2 3e 16 3d 88 3e 31 95 8b be
       0.52854526 0.34938097 0.26609105 -0.27262262
000320 08 c7 46 be 38 9f 27 be eb 61 d3 be 25 8d 1f be
       -0.19411862 -0.16369331 -0.41285643 -0.15581186
000330 18 90 84 be af 69 03 be ad 4d b1 3d 50 d5 27 bd
       -0.25891185 -0.12833284 0.086573936 -0.040974915
000340 b8 cc 9f 3d 06 e4 dd 3d e1 09 95 3e db b0 73 be
       0.07802719 0.10834508 0.291091 -0.23797934
000350 6b 43 02 3e 08 01 04 3d 34 8d 3c 3e ad ec d9 3d
       0.1272103 0.032227546 0.1841324 0.106408454
000360 94 82 71 be 2d f0 e3 bd 94 3f 1d 3e d8 d1 1c 3e
       -0.23584968 -0.11129794 0.15356284 0.15314424
000370 fa 28 e6 bd 01 8b 60 3e fb 44 02 be 6c 37 8f 3e
       -0.112382844 0.21928026 -0.12721626 0.2797197
000380 9b 16 2f 3d 73 59 fa bd 50 82 cd 3d 2f 60 6e 3d
       0.042746168 -0.12224092 0.10034621 0.058197197
000390 fe 10 ea 3c 2c b8 0c bf 0a 01 b2 be 60 c9 09 3c
       0.028572556 -0.54968524 -0.34766418 0.008409828
0003a0 7a 69 07 3d 09 55 61 3d 37 d2 88 3d 63 2d e5 3e
       0.033059575 0.055012736 0.0668072 0.4476119
0003b0 b9 fb 87 3e 2c f5 52 3e e1 6f 4d bc 6a 5c b0 bd
       0.26559237 0.20601338 -0.012538881 -0.086113766
0003c0 d7 ae 0b bd ff be 8f be c3 6d db be 3c 86 3d 3e
       -0.034102287 -0.28075406 -0.4285718 0.18508238
0003d0 d5 c1 57 be dc ac 8b be 64 0d a5 3d e6 84 8c be
       -0.21070035 -0.2728032 0.08059195 -0.27445143
0003e0 bd 8b d3 bd 3a f3 0c 3e 5a f4 92 3e 68 f8 e4 bd
       -0.10329387 0.13764659 0.2870205 -0.11180192
0003f0 75 7a a9 bc fe e1 70 3d 46 c3 f9 3e 42 a0 8a bd
       -0.020688275 0.058809273 0.48781794 -0.06768848

bn1.weight f4 [16]
000000 12 b1 4f 3f 54 b1 c4 3e 5a 5a db 3e de 8a 99 3f
       0.8112956 0.3841654 0.4284237 1.1995504
000010 89 0e 42 3f b3 06 4f 3f 20 85 91 3f f1 1f 1a 3f
       0.7580343 0.808696 1.1368752 0.6020499
000020 99 bf 05 3f 05 23 fc 3e f9 64 03 3f e6 b1 ad 3e
       0.5224548 0.49245468 0.5132595 0.33924788
000030 7d 2f 19 3f 63 12 12 3f 56 3a 14 3f d5 8d 43 3f
       0.59838086 0.57059306 0.57901514 0.76388294

bn1.bias f4 [16]
000000 7d fc 81 3e ec 49 5c 3e 1c 17 5b 3e 59 4e 14 bf
       0.25387946 0.21512574 0.21395534 -0.5793205
000010 8c de dd 3e 25 48 0e 3f b7 3e 04 3f 52 94 05 3e
       0.43333852 0.55578834 0.51658195 0.13044861
000020 38 dc 1f 3e 18 4f 3c 3f da 4f 9a 3e 6d f9 60 3e
       0.1561135 0.7355819 0.30139047 0.21970148
000030 be f9 b0 be 99 db c0 3e 79 8c 1b 3e c8 09 e8 3e
       -0.34565538 0.3766754 0.15190305 0.45319963

bn1.running_mean f4 [16]
000000 ee 41 27 bd d5 a4 d8 3c 2d 63 95 bc 13 19 b5 3e
       -0.04083436 0.026445786 -0.018235767 0.35370693
000010 75 3c be bc c5 03 16 3d ff f7 ac bd 8a 5e 59 3d
       -0.023222188 0.03662469 -0.08445739 0.053068675
000020 7b 12 f0 3d 3b 93 80 3c 85 cd 29 bd 27 30 81 3b
       0.11722275 0.015695205 -0.041455764 0.003942508
000030 cc fd 54 3e 22 c8 ce bd de e0 d8 bd f5 5c 8f bd
       0.20799941 -0.10096766 -0.10589765 -0.07000152

bn1.running_var f4 [16]
000000 90 3f c0 3f 79 44 bc 3e 28 c6 d4 3e 83 c4 40 40
       1.5019398 0.3677099 0.4155743 3.0119941
000010 7b f4 c5 3f 5b 73 b8 3e 76 dc 2d 3f 71 5a 2d 3f
       1.5465235 0.3602551 0.6791452 0.6771613
000020 d3 56 21 3f 7b 57 1f 3e 8b 53 32 3f 88 c1 4a 3e
       0.6302311 0.15560715 0.69658726 0.19800389
000030 68 13 2f 40 e5 7f 0e 3f c5 cb 83 40 49 af 46 3f
       2.7355595 0.556639 4.118624 0.77611214

layer1.conv1.weight f4 [16, 16, 3, 3]
000000 45 3a 0e 3e 6e a5 13 3f 65 c3 1c 3d 7e 02 39 be
       0.13889416 0.576743 0.03827228 -0.18067357
000010 33 ea 81 3e 21 e4 32 3e 4b 54 93 be 98 22 3d be
       0.25373992 0.17469837 -0.28775248 -0.18470228
000020 e4 90 12 3e fa 7a 0a be f0 61 90 3e 23 f3 9d 3e
       0.14313084 -0.13523474 0.2819972 0.3084956
000030 0e e0 c8 be 80 30 0b be 1a 99 8a 3e b5 fe 2a be
       -0.3923344 -0.1359272 0.27069932 -0.16698726
000040 f2 36 33 bd 06 bf 8a be 97 af 59 be e0 7c 61 3e
       -0.04375357 -0.27098864 -0.21258388 0.22020292
000050 58 c0 e0 bd e3 6b 57 be 37 e7 0d 3e 5c 00 13 bc
       -0.10974187 -0.2103725 0.13857733 -0.008972254
000060 3c 70 45 bd 32 49 9e bb c3 45 b1 bc 3a a3 cf 3d
       -0.04820274 -0.004830503 -0.02163971 0.10138555
000070 41 59 b2 be c6 82 3e be ab 43 20 3f ed 15 c0 3e
       -0.3483372 -0.18604574 0.62603253 0.37516728
000080 20 b2 94 3e 20 02 d4 be f1 8a af bc 74 e7 c5 3d
       0.2904215 -0.4140787 -0.021428557 0.09663287
000090 57 71 87 bd ec 06 83 3e 52 95 a5 be 00 2c 69 be
       -0.06613415 0.25591218 -0.32340485 -0.22770691
0000a0 05 82 b0 3d 23 ca f9 3d 05 7a ac 3d 01 f0 ff bc
       0.08618549 0.12196758 0.08421711 -0.031242372
0000b0 f4 1e 69 3d 6e 6a 2f bd cc bb 3b be 75 53 00 bd
       0.056914285 -0.04282611 -0.18333358 -0.03132959
0000c0 6c 83 8b 3e 06 0a b2 3d dd f7 4d 3d 64 d7 35 be
       0.27248704 0.08693318 0.05028521 -0.17757946
0000d0 15 92 da 3d 68 71 c7 3b 1a df 7d 3e 75 07 bc bd
       0.10672394 0.006086517 0.24792138 -0.0918111
0000e0 aa 0f b8 3b 04 1f 52 3b 83 7b 5b bb b5 bc ee bd
       0.0056171017 0.0032061944 -0.0033490367 -0.11657087
0000f0 65 1d 5a 3d b4 47 e0 3d b1 ad 8c 3e 7b 11 c7 3d
       0.05325069 0.10951176 0.27476266 0.09720131
000100 11 bc ce be 41 7b ac 3d 2a af ad 3d 78 ff 8a be
       -0.40377858 0.08421946 0.084806755 -0.27148032
000110 b2 69 1e 3e 39 8a cd 3d 9c f3 e4 bd 88 cc b4 bc
       0.15470007 0.100361295 -0.11179277 -0.022070184
000120 34 c5 14 be 64 e1 6d be 86 1c 5a 3d 50 af 13 3e
       -0.14528352 -0.23230511 0.05324986 0.14422345
000130 af d5 39 3d b8 6c c2 3c 42 aa c5 be 73 02 3f 3d
       0.0453698 0.023733482 -0.3860646 0.046633195
000140 8e 06 39 3e c9 1e c4 be 73 59 97 bc 30 6f 98 3e
       0.18068907 -0.38304737 -0.01847527 0.2977233
000150 6e 1f b8 bd 5c 72 1d be 9f d1 58 3c 2c b2 7d 3d
       -0.0899037 -0.15375656 0.013233571 0.061937496
000160 bb 83 d3 bd 44 ee 42 be c6 3d 10 3e ae 82 e2 3e
       -0.1032786 -0.19036204 0.14086065 0.44240326
000170 8a 02 ee bc 7a 34 cd be c4 ee ee 3d 67 d0 b6 3e
       -0.029053945 -0.400791 0.11666635 0.35705873
000180 c5 69 19 be 3e ef 5d be 48 01 1e 3e 0e 61 ff 3e
       -0.14981754 -0.21673295 0.15430176 0.49878734
000190 5d 65 be 3e a9 7f 01 3e 4e 04 54 3e a9 d8 43 3e
       0.3718671 0.12646355 0.20704767 0.19125618
0001a0 8b 7d 3a bd 3f 6c 10 be e1 97 c9 bd 90 49 5b 3d
       -0.045529883 -0.14103793 -0.09843422 0.05353695
0001b0 f0 54 f9 bd 84 47 19 3f 4b 02 1f bd 9f 28 77 bd
       -0.12174404 0.5987475 -0.038820546 -0.060341474
0001c0 51 25 a4 bd 4d 27 d6 bd 79 27 53 3e 91 5a 98 3e
       -0.0801493 -0.10456715 0.20620526 0.29756597
0001d0 9a 4b a2 3d 68 c5 14 3b d3 4f 07 bd ca f0 4a bd
       0.07924576 0.002270067 -0.03303511 -0.04954604
0001e0 de 24 25 be 3a 3c e3 bc 33 ad 10 3d 72 ff 27 3c
       -0.16127345 -0.02773868 0.035321426 0.010253774
0001f0 55 9e 87 3c 31 8f 40 be 8f 03 46 3e f4 cf 70 3e
       0.01655499 -0.18804623 0.19337295 0.23516828
000200 8f 60 09 bf 4f 50 95 be 90 76 2f be ac 58 80 be
       -0.5366296 -0.29162833 -0.17135072 -0.2506765
000210 01 18 6a be 85 16 f2 3c 51 74 a0 3d 6f 3a 4a be
       -0.2286072 0.029551754 0.078346856 -0.19748853
000220 92 a0 ae 3d 96 cd a5 be 50 d1 e7 3c 1d 62 b1 3d
       0.0852672 -0.32383412 0.02829805 0.08661292
000230 2b 2f 27 3e ca 9e 97 be ca ec 55 3e f2 13 45 3d
       0.16326587 -0.29613334 0.20891109 0.048114724
000240 69 1f b6 3d 41 b6 93 be 8f 06 28 bd ea ee a3 bc
       0.0889271 -0.28849986 -0.04102188 -0.020011384
000250 99 35 25 3d 5b c6 59 3e 62 30 ef bc 7f 49 05 3d
       0.040334318 0.21267073 -0.029197875 0.032540794
000260 70 49 d5 bd 95 2c 41 3e 85 5c a0 3e de 40 4b 3e
       -0.10414398 0.18864663 0.31320587 0.19848964
000270 ff 86 3a 3e 75 c3 af 3d 39 4d 8f bd e9 b9 80 be
       0.1821556 0.08582202 -0.06997151 -0.25141838
000280 25 dd 08 be 6c 54 0b be ea 31 da bd 78 b8 1a 3d
       -0.1336561 -0.13606423 -0.106540516 0.03777358
000290 5d 88 9a bd a4 7f b7 bd 6f 80 16 be 62 4c 21 be
       -0.075455405 -0.089598924 -0.14697431 -0.15751794
0002a0 ca 5e 1f 3e b8 7e 5f 3e 3b b8 a1 3e 38 44 9e bd
       0.15563503 0.21825683 0.3158587 -0.077278554
0002b0 dd 0a a7 bc e6 41 88 3d 22 24 a6 bc 52 a1 b6 3d
       -0.020390922 0.06653194 -0.020280901 0.08917488
0002c0 92 5d f1 3d c6 9b 68 3e 3a 37 92 bd 76 7f c1 3c
       0.11785425 0.22715673 -0.0713944 0.023620348
0002d0 35 73 0a 3e 68 08 96 3d 33 51 1c 3e e4 ec 91 bc
       0.1352051 0.07325822 0.1526535 -0.017813154
0002e0 a2 e7 95 bc 74 5f 61 be f0 e6 66 bd e0 c1 f7 bd
       -0.018298928 -0.22009069 -0.056372583 -0.120975256
0002f0 e2 4c 09 3d 07 f8 e3 bd a5 79 e4 be 2d cc e8 be
       0.033520587 -0.11131292 -0.44624057 -0.45468274
000300 18 1f 6b 3b c0 34 13 3f 59 42 03 3f 6b e9 5b bd
       0.0035876688 0.57502365 0.51273113 -0.0536894
000310 b2 0a 15 be 12 c6 05 be 2c 36 47 3e d6 a2 e4 3e
       -0.14554861 -0.13063839 0.19454259 0.44655484
000320 23 24 19 3e 4b 52 9d be eb 8e e5 be cc dc 0f bf
       0.14955191 -0.30726847 -0.448356 -0.56196284
000330 5c 58 2e 3e 6b 42 ca 3e 5b a8 b6 3e d0 4f 7a 3d
       0.17025894 0.39503798 0.3567532 0.06111127
000340 a1 50 47 be a2 1d dd be f4 06 6c be dd 5c 31 3e
       -0.19464351 -0.4318667 -0.23049527 0.17320581
000350 42 6f cd 3a 09 1c a5 bc 93 59 f5 3d b9 04 9f bd
       0.0015673416 -0.02015497 0.119799756 -0.07764573
000360 b9 9c 26 3e 89 5f b8 3b 15 4e 51 3d 9b 52 96 3d
       0.16270722 0.005626623 0.051099855 0.073399745
000370 38 a2 19 3e 1b c7 e7 bc 2e c7 10 be 85 d9 86 be
       0.15003288 -0.028293183 -0.14138481 -0.2633783
000380 ae 95 c4 bd 13 00 8c 3e 28 80 bb 3d b9 85 88 bd
       -0.09598862 0.27343807 0.09155303 -0.066661306
000390 91 b2 78 be dc 9f 99 be 27 f1 5f 3d 44 59 a3 3d
       -0.24286868 -0.30004776 0.05467334 0.079760104
0003a0 7c 6f 53 3e 51 df 70 bd a4 a1 99 bd 23 e5 34 be
       0.20647997 -0.05880672 -0.07501534 -0.17665534
0003b0 13 bc aa 3d da 4e 85 3c 0b e6 57 bd c9 bf 6b 3e
       0.083366536 0.01627295 -0.05270962 0.23022379
0003c0 2d b7 41 3c 53 de 46 be 6f 85 ad 3b 20 95 83 bb
       0.011823458 -0.19420747 0.0052954475 -0.00401558
0003d0 2c c4 ae be 06 40 cd 3d ee 9e 88 3c b3 89 92 3e
       -0.34134042 0.10021977 0.016677346 0.2862068
0003e0 8e 1e c9 3e 31 29 84 3d 4f 0e 61 3d 28 c9 31 be
       0.39281124 0.06453169 0.054945286 -0.17361891
0003f0 7f 9a a4 be f1 ff 94 be ba 3b bb be 8f 28 cf 3c
       -0.3214912 -0.29101518 -0.36569005 0.025287895

layer1.bn1.weight f4 [16]
000000 4a aa 3e 3f e3 66 96 3f a2 c3 62 3f b0 f3 45 3f
       0.7447859 1.1750149 0.8857976 0.7732496
000010 7b 61 68 3f b6 21 a2 3f a2 00 39 3f 39 c2 73 3f
       0.90773743 1.2666538 0.7226659 0.95218235
000020 1e 87 8c 3f c7 c3 8f 3f 2a 43 57 3f e5 b2 92 3f
       1.0978734 1.1231622 0.8408686 1.1460844
000030 db c7 53 3f 2e 2d 9b 3f 7f 4e 33 3f 64 b5 84 3f
       0.8272683 1.2123163 0.7004165 1.0367856

layer1.bn1.bias f4 [16]
000000 e0 4d 8a 3c f2 4d 1a bd e0 1f 37 3d 56 2d 33 bc
       0.016882837 -0.03767199 0.044708133 -0.010936102
000010 64 3e 7c 3d bf 99 35 bd 16 33 4e bd 88 a6 d6 3e
       0.061582938 -0.044336077 -0.050341688 0.41923928
000020 ae 12 f8 bd 8f dd 18 be ef 60 89 3e 3e 1d 03 be
       -0.12112938 -0.14928268 0.26831767 -0.12804124
000030 ed ac 03 be 9e 98 0e 3f 3d dd 04 3d dc 9d 58 be
       -0.12858935 0.55701625 0.03243755 -0.21153969

layer1.bn1.running_mean f4 [16]
000000 f8 58 c4 3d cb 83 51 3e 47 78 3f bf ac 0e d3 be
       0.09587282 0.20460431 -0.74792904 -0.4122213
000010 b1 6d f0 3e 73 d3 ca be e3 44 5e bf b8 56 50 bf
       0.46958688 -0.39614448 -0.8682386 -0.8138232
000020 c8 1c 1a be 93 d5 2f bf 07 ab 84 bf 17 f0 ca bc
       -0.15050042 -0.68685263 -1.0364693 -0.024772687
000030 5e bb 92 bf 5a b8 fe be 91 59 55 3f a7 36 1b bf
       -1.146343 -0.49750024 0.8333979 -0.6063027

layer1.bn1.running_var f4 [16]
000000 d7 5d c1 3f b3 99 e7 40 48 fb 92 3f a5 a1 54 3f
       1.5106763 7.237512 1.1482935 0.8305915
000010 32 ee 2d 40 c8 79 d9 40 73 03 86 3f f8 46 ce 3f
       2.7176633 6.796116 1.0469803 1.6115408
000020 2a 42 40 40 b0 e1 af 3f 48 26 e5 3f 35 56 81 40
       3.0040383 1.3740749 1.7902308 4.0417733
000030 bf 07 8c 3f 3f 5b 20 40 07 9a 08 40 ae cf a2 40
       1.0939864 2.5055692 2.134401 5.0878515

layer1.conv2.weight f4 [16, 16, 3, 3]
000000 fe fe ef bc 6d 28 bb 3a c8 91 35 3e fd 5d 19 3d
       -0.029296394 0.0014279016 0.17731392 0.03744315
000010 b8 be 50 be 96 21 0f 3e 6c c6 85 3e 9f ac 2e 3d
       -0.20385253 0.13977656 0.26127946 0.042645093
000020 18 2c 26 bc df 43 d8 bd 4f 2b 63 be 9d 85 10 be
       -0.010142349 -0.105598204 -0.2218449 -0.1411347
000030 c0 1a b2 be d8 0d c5 bd b5 d3 90 bc 33 02 38 be
       -0.34786034 -0.09621781 -0.017679075 -0.17969589
000040 f9 78 fb bc f8 9b d5 bd 5a 5b 5d 3e 48 cd 8a 3e
       -0.030697333 -0.10430139 0.21616879 0.27109742
000050 ab c1 81 be 89 83 1e bc 04 8c 09 3f c6 77 55 3e
       -0.2534307 -0.009674915 0.5372927 0.20846471
000060 af b5 77 be bc b0 af 3e 84 f7 c2 3e b9 7b 5c bc
       -0.241904 0.34314525 0.38079464 -0.013457232
000070 d7 19 8c 3d 98 a1 25 bd 91 61 05 be bf 20 0d be
       0.06840866 -0.04043731 -0.130255 -0.13782023
000080 9e 38 1f bd 65 34 fd be 48 f2 1e be c6 ac 77 3e
       -0.038872354 -0.49454036 -0.1552211 0.24187002
000090 07 85 f1 be 05 e2 ba bd 96 a1 51 be bc 57 ba be
       -0.47171804 -0.09125141 -0.20471796 -0.3639506
0000a0 84 79 41 3d 31 b6 01 be 08 99 83 be 1b 25 13 bd
       0.047235027 -0.12667157 -0.2570269 -0.03592406
0000b0 e5 e5 85 bd c6 bf 0b be 53 01 65 bd 04 3c c7 3b
       -0.065379895 -0.13647375 -0.055909466 0.0060801525
0000c0 4d 0e 40 be c8 cf 2d 3e d3 4d 83 3e 07 cc a4 be
       -0.18755455 0.16973794 0.25645313 -0.3218691
0000d0 a8 59 f8 3d ef e9 35 3e a5 3e fc bc 68 8b 5e be
       0.121264756 0.1776502 -0.03079159 -0.21732867
0000e0 a4 82 9f bd 8a a5 b1 3c 89 db ab be 9c 11 77 be
       -0.077885896 0.02168538 -0.3356593 -0.24127811
0000f0 65 a6 a6 3b 88 18 80 be 56 01 22 be d7 73 63 3e
       0.0050857537 -0.25018716 -0.15820822 0.22212158
000100 98 7b 07 3f 2b b1 56 3e 86 ee dd bc 3f 10 ad 3e
       0.52922964 0.20966022 -0.027091276 0.33801457
000110 d7 a5 a7 3e 90 13 dc bd d5 4d 54 bd ac 02 24 3d
       0.32743713 -0.10745919 -0.05183204 0.04004161
000120 ed 75 95 3e 6f 11 98 3a 2d 76 c2 bc 94 32 52 3e
       0.29191533 0.0011601875 -0.023737991 0.20527107
000130 ca 69 d6 3d 86 b5 a2 bd 71 44 b8 3d 7d 6c 25 3e
       0.104693964 -0.07944779 0.08997429 0.16154666
000140 2e 59 d7 bd ef 4f 3b 3e 78 2c fb bc 80 22 69 be
       -0.105150566 0.18292211 -0.030660853 -0.22767067
000150 c5 d5 4f 3d 28 7b c5 3d f0 8f 9b 3c a7 84 72 bd
       0.050740976 0.09642631 0.018989533 -0.05920854
000160 68 85 59 3d 24 a1 a1 3c e6 c3 b0 3e d0 5f c1 bd
       0.05310574 0.019730158 0.3452446 -0.09442103
000170 42 71 58 be fb 7e 47 3e cb ae 1e be 42 43 c5 bc
       -0.21136954 0.19482033 -0.15496366 -0.024079923
000180 d5 e0 4f 3e 94 d4 23 3d b1 fd 0d 3d 6a 52 b3 3e
       0.2030061 0.039997652 0.034665767 0.35023814
000190 b8 aa a8 3e 71 9f 58 be be e4 6e 3e 09 c6 83 3e
       0.32942748 -0.21154572 0.23329446 0.25737026
0001a0 c8 f1 87 3c 26 a8 26 3e 45 03 a7 3e 6b a4 c3 3e
       0.016594782 0.16275081 0.32619682 0.38211378
0001b0 aa 3d d7 bd 84 2a 10 3e 64 8f 86 3e b1 53 df bd
       -0.10509808 0.14078718 0.26281273 -0.10904635
0001c0 4c 04 01 3d 6a 9e 35 3d 4c fe 09 bd 1a 1c 33 3e
       0.03149824 0.04434053 -0.033689782 0.17491189
0001d0 24 84 07 3e 43 a5 c7 3d bf 49 5f 3e 4a 5a 4b 3b
       0.13234001 0.09748318 0.21805476 0.0031029158
0001e0 19 1f 57 3e 5c 19 f3 3e 79 1c d8 3e 9b 8f 00 3e
       0.21007957 0.47480285 0.42209223 0.12554781
0001f0 53 06 50 3e 3f e5 e2 3b 56 ef fa 3d 36 9b 6d bc
       0.20314912 0.006924301 0.12252681 -0.014502337
000200 73 a4 02 bc 61 48 7c bd f0 0a 2f 3e ff 75 80 3d
       -0.007973778 -0.061592463 0.17094016 0.06272506
000210 0a 70 3f be d0 47 33 3b 87 fd 7e 3e 00 c4 44 3d
       -0.18695083 0.0027356036 0.249014 0.048038483
000220 d5 4d a2 3c 7f 26 2d 3e b5 9a c3 bd b6 a6 b4 3d
       0.019812504 0.16909216 -0.095509924 0.0882086
000230 9f 0a 00 3e 44 cf 27 3d 62 b8 c2 3e 56 6d 4e 3e
       0.12504052 0.04096915 0.38031298 0.20158896
000240 57 42 81 3d 22 56 cb bd 7b a7 63 3e ee 96 61 3e
       0.063114814 -0.09928538 0.22231857 0.22030231
000250 a6 a0 29 3e 49 9a 7f 3e 34 51 83 3e 1b 84 ad 3c
       0.16565189 0.24961199 0.2564789 0.021181157
000260 24 b1 1e 3e 82 03 e1 be bd c9 b2 be 0c 13 e0 be
       0.15497261 -0.4394799 -0.3491954 -0.43764532
000270 ac 28 d9 be 21 d4 e6 be 89 d4 c3 be 2f 0e 9c be
       -0.42413843 -0.45083717 -0.3824809 -0.3047957
000280 db 57 92 be 32 35 70 bc f4 dc 8a be e9 c6 fc bd
       -0.28582653 -0.01466112 -0.271217 -0.123426266
000290 9e 25 15 3e 5a 5e f7 bd 19 20 cc bb 2b ab 60 3d
       0.14565131 -0.12078543 -0.0062294123 0.05485074
0002a0 1e 12 6d 3e 38 80 23 3e ac 68 ba 3d c2 c9 23 be
       0.23151442 0.1596688 0.09101996 -0.15994933
0002b0 c4 90 0c be cb cd 3e be 03 f5 bb bd b3 79 a0 be
       -0.13727099 -0.18633191 -0.09177592 -0.3134285
0002c0 8d fe 4a be 9c 22 87 bc 68 6b 99 be bd bb 60 be
       -0.19823666 -0.016495995 -0.29964757 -0.21946616
0002d0 f4 d7 9d bd 3b a8 47 be 15 64 6d be 22 91 04 3d
       -0.077072054 -0.19497769 -0.2318271 0.032364972
0002e0 75 f5 83 3d a6 58 13 3e a0 a3 1a bd 86 e4 ae 3b
       0.064433016 0.14389285 -0.0377537 0.0053373007
0002f0 c8 cc 24 3e e0 4f 54 3e bc f0 31 3e 0d 19 bf 3d
       0.16093743 0.20733595 0.17376989 0.0933095
000300 d0 2a da 3d a6 dd c6 bc 11 7e 82 3e c4 2c b5 3d
       0.10652697 -0.024275612 0.25486806 0.08846429
000310 29 32 47 be f4 4e 57 bc 10 2d 11 be d5 0f 8b bd
       -0.19452728 -0.0131413825 -0.14177346 -0.06790129
000320 ff 42 aa 3e 00 3b 44 be 23 f6 a6 be d7 bd 29 3e
       0.3325424 -0.19163132 -0.32609662 0.16576324
000330 ed 0e dc bd d3 17 b3 be 1a 59 0a be a1 d7 8b bd
       -0.10745034 -0.34979114 -0.13510552 -0.06828237
000340 ed 7d 07 bf 9d ac 92 be a7 11 56 3d 88 d1 d1 be
       -0.5292652 -0.28647318 0.05226293 -0.40980172
000350 52 8c 01 bf 5e 36 ed 3d 2a 4d 68 bc 9a 87 f3 be
       -0.50604737 0.11582635 -0.014178554 -0.47564393
000360 c1 49 4b bd 4d b2 23 3d b9 90 79 3e 64 01 63 bc
       -0.049630884 0.039964963 0.24371614 -0.013855312
000370 28 4b 53 3e fc d3 90 3e 9f 66 00 3e dd b9 f5 3d
       0.20634139 0.2828673 0.12539147 0.11998341
000380 5d be 70 3e 3e 7a 9a bc 4d 03 22 3e c5 fa 69 3e
       0.23510118 -0.018857118 0.15821572 0.22849567
000390 8b 07 3e 3e 7a e0 29 3e c4 4e 42 3e 80 a4 84 3d
       0.18557565 0.16589537 0.18975359 0.064766884
0003a0 a7 af 21 3e a4 5d 81 3e 10 11 94 be 87 3b ac be
       0.15789662 0.25266755 -0.28919268 -0.33639166
0003b0 ac a3 a6 bc 6d 17 11 3c ac a1 97 bc 2c 05 11 ba
       -0.020341717 0.008855683 -0.018509708 -0.00055320817
0003c0 46 1b 35 3e ad 83 8d 3e 40 3a 41 3e 2a 9a 2a be
       0.17686185 0.27639523 0.18869877 -0.16660371
0003d0 d6 1d 81 3e 02 d8 e0 3e ca 99 fb bd fc f8 12 be
       0.25218076 0.439148 -0.12285192 -0.14352793
0003e0 f4 ad 28 3e e8 cf 04 be 96 68 6d be 3c e7 90 bc
       0.16472608 -0.12969935 -0.23184428 -0.017688386
0003f0 14 0d 1f 3e b4 cc a4 be 57 6c 84 be c7 76 0e 3e
       0.15532333 -0.32187426 -0.25863907 0.13912497

layer1.bn2.weight f4 [16]
000000 da da 58 3f 98 7b 90 3f c8 9a b3 3f c3 6f 33 3f
       0.8470894 1.1287718 1.403161 0.7009241
000010 94 c8 85 3f 41 50 79 3f 9c 13 c4 3f 8f 24 6b 3f
       1.0451837 0.9738808 1.5318484 0.9185266
000020 90 1d 6a 3f 74 6d 8b 3f 02 7e 86 3f 1c 86 e0 3f
       0.9145136 1.0892777 1.0507205 1.7540927
000030 c3 7f 9c 3f a0 ca aa 3f 61 9f 7d 3f 30 16 8f 3f
       1.222649 1.3343086 0.9907132 1.1178646

layer1.bn2.bias f4 [16]
000000 39 ed 60 3e f0 b7 1a 3f 8e 7c 9a 3e 24 ef 0e 3f
       0.21965493 0.60436916 0.30173153 0.5583365
000010 32 aa e0 3c 55 35 d6 3e ea 92 a0 3e 6b e3 fb bc
       0.027424905 0.41837564 0.31362087 -0.03074809
000020 2b 8b 0f 3e 19 9b b8 3d 36 14 20 3f f6 1c 04 be
       0.14017932 0.090139575 0.6253084 -0.12901673
000030 e1 1f d4 3e 28 4f 88 be 5f 49 3a 3f 1f 2f 19 bf
       0.41430572 -0.2662289 0.72768205 -0.59837526

layer1.bn2.running_mean f4 [16]
000000 65 48 2c 40 48 c2 f9 bf 49 d7 d0 be d8 f5 87 bf
       2.6919186 -1.9512415 -0.4078925 -1.06219
000010 a0 b2 a9 3e be 55 b8 be 40 ef d3 be 74 66 0b 3d
       0.33144093 -0.36002916 -0.4139347 0.034033254
000020 3a c7 00 3f 2b 03 b2 3f 64 86 1b c0 4f 05 d2 bd
       0.50303996 1.3907217 -2.4300776 -0.10254919
000030 c9 28 d7 3e 2d 05 2a c0 22 8a ba bd f3 d3 5e be
       0.42023304 -2.656566 -0.09108378 -0.2176054

layer1.bn2.running_var f4 [16]
000000 d1 3f 42 40 d1 11 31 40 d5 69 87 40 bb 75 3e 40
       3.035145 2.7667124 4.231669 2.9759357
000010 58 e1 67 40 a3 f2 2f 40 ac d0 bb 40 b4 a9 1e 40
       3.623129 2.7491844 5.8692226 2.4791079
000020 ac 34 02 40 27 54 94 40 17 cf 7b 40 60 c5 7f 40
       2.0344648 4.6352725 3.9345148 3.9964218
000030 af a7 7c 40 ab a9 d6 40 72 65 93 40 d1 89 01 40
       3.9477346 6.7082114 4.6061335 2.0240366

layer2.conv1.weight f4 [32, 16, 3, 3]
000000 54 05 e2 bd 47 54 b5 ba f6 32 1b be 2f f4 ba 3c
       -0.110361725 -0.0013834321 -0.15156159 0.022821514
000010 2f da 27 be 42 f2 26 be 38 6d 79 3e c0 81 dd bd
       -0.16391824 -0.16303352 0.2435807 -0.108157635
000020 ff bd e6 bd e0 92 9c 3d f5 7e bd 3d c1 84 0b 3f
       -0.11266708 0.07645202 0.09252731 0.5449944
000030 60 1f 83 bd 9e 87 b1 ba 5f 50 8d 3e 98 e8 ae be
       -0.06402469 -0.0013544445 0.2760038 -0.3416183
000040 f9 23 a9 ba 27 8e e6 3c de f2 42 bd f4 f6 b0 3c
       -0.0012904397 0.028143955 -0.047594897 0.021602131
000050 41 1d 81 bd e1 90 86 bd 0a 8f 83 bd 10 99 8a be
       -0.06304408 -0.06570602 -0.06423767 -0.27069902
000060 00 31 91 be 6c 3d 86 bd 51 61 3d be 03 f1 68 3d
       -0.28357697 -0.06554684 -0.18494155 0.05687047
000070 0d 4c e9 3d 3b 73 8a 3e 80 40 4a bd 20 5e 29 3d
       0.11391459 0.2704104 -0.04937792 0.04134953
000080 7e 88 7b 3e 42 25 42 3e 11 8e 8d bd a5 65 ab 3a
       0.24563786 0.18959525 -0.06911863 0.0013076557
000090 a8 79 cb 3d 44 f4 5d 3e 3d b7 f1 3e 47 f2 71 bc
       0.099353135 0.21675211 0.47210112 -0.014767236
0000a0 13 8d 88 3e ca 4e 60 3e 60 f6 34 3a 7d 6e a3 bd
       0.2667013 0.21905056 0.0006903168 -0.07980058
0000b0 51 55 c4 bd cb b4 1a bc 68 8e 9f 3e b9 67 20 3e
       -0.09586585 -0.009442518 0.31163335 0.15664567
0000c0 cb ad 43 bd ab e8 61 3e cc 7f cf 3e 9b a4 ce 3e
       -0.047773164 0.22061412 0.4052719 0.4035996
0000d0 ce a9 b9 3e 2a 9b b5 3e f6 0c af bc 00 04 2a 3e
       0.36262363 0.35469943 -0.021368485 0.16603088
0000e0 7e 3c 55 3e 4e 1a 10 3e 60 e6 8c 3e 09 86 76 3e
       0.20823857 0.14072534 0.27519512 0.24074568
0000f0 43 7a 42 3e 25 a6 b1 3c 2d 79 0e 3d 63 e8 b3 bd
       0.18991952 0.02168567 0.03478353 -0.087845586
000100 37 f2 11 3e e1 a1 31 3e b0 70 12 be 2f 0a 98 3c
       0.14252554 0.17346908 -0.143008 0.018559543
000110 14 0b 0d 3e df 15 c0 bd 33 06 c3 bb 22 7d 13 3e
       0.13773757 -0.093791716 -0.0059516667 0.14403203
000120 c6 96 3b 3e a4 4c bc 3d 26 3c 70 be ba 2f 6f 3e
       0.18319234 0.091943055 -0.23460445 0.2335805
000130 6e fe 24 3d a8 54 93 be 13 22 c1 bd b2 f5 65 be
       0.040281706 -0.28775525 -0.09430327 -0.22457007
000140 6e 52 2a be 79 19 77 3d 7c fc 46 bd e4 6a 39 3e
       -0.16633007 0.060327027 -0.04858063 0.18107182
000150 47 dd 9a be 84 3c 80 be 90 3c cb 3d 03 99 cc be
       -0.30246946 -0.2504617 0.09923661 -0.3996049
000160 75 c0 f4 be 12 60 45 bc 7d e6 20 be 4a 0a 42 be
       -0.47803083 -0.012046831 -0.15712924 -0.18949237
000170 2a 40 38 bd 5a 49 96 be 85 5e b6 bd 52 86 61 3e
       -0.044983067 -0.29352838 -0.08904747 0.22023895
000180 c9 c6 a9 be b9 29 2b be cd 11 34 3e 8e f6 10 3e
       -0.33159474 -0.16715135 0.17584915 0.14156553
000190 2d 25 1f 3e e9 31 80 3d 93 9f 3b 3d 1e 54 ff 3d
       0.15541525 0.062595196 0.04580648 0.12467216
0001a0 b7 e1 85 3d 41 6b 2e 3e 5b 4d 61 3d c4 21 63 bd
       0.06537192 0.17033102 0.055005413 -0.055452123
0001b0 6a 15 7e bd f0 88 05 3e 2a 54 6b 3e 3c 5a 68 3c
       -0.06203214 0.13040519 0.22981325 0.01418167
0001c0 51 e7 a2 3d 36 83 ab 3c cf d3 24 3c 69 b5 95 3d
       0.07954276 0.02093659 0.010060265 0.07309992
0001d0 c7 ab 4a be 63 61 84 3d e1 59 1f be b3 1a 05 3b
       -0.1979209 0.064638875 -0.1556163 0.0020310103
0001e0 17 cb 54 bd 58 37 9b be 1f 38 18 be 51 96 90 be
       -0.051951494 -0.3031566 -0.14865158 -0.28239682
0001f0 3f 5a 99 be 95 e0 86 be d5 58 b6 be b6 65 5a be
       -0.29951665 -0.26343217 -0.35614648 -0.21327862
000200 07 ca ca 3e 37 41 14 be ad 5c f1 be d4 00 6e be
       0.3960726 -0.14478002 -0.47141019 -0.23242503
000210 1e ef 86 3e eb b4 80 be 00 08 a0 be a1 10 a2 3e
       0.26354307 -0.2513803 -0.31256104 0.31653312
000220 e8 10 dc 3e 94 f6 14 ba 66 28 8c 3e 0d a1 fb 3e
       0.42981648 -0.0005682495 0.27374572 0.4914631
000230 2a 23 8e 3c e3 7c 37 bd a8 09 88 3c eb 12 64 bd
       0.017350752 -0.044796836 0.016606167 -0.055682104
000240 84 ab f9 be dc 21 0d 3d 70 23 c7 3d 3f 5d eb be
       -0.4876367 0.03445612 0.09723556 -0.4596958
000250 8f db 10 bd 70 00 c6 3d 3d 0f 51 be 0f 29 a1 3d
       -0.035365637 0.09668052 -0.20415969 0.078691594
000260 e0 db 7f bc ad c4 15 be d1 19 fd bb 9b a3 01 3e
       -0.015616387 -0.14625807 -0.007724025 0.12660067
000270 d8 93 c4 bd f8 fe b4 3c 21 3b e0 3c 41 87 66 be
       -0.095985115 0.022094235 0.027371945 -0.22512533
000280 f7 85 b8 bd 7c e1 18 bd 0d 01 3a 3e 16 6b 05 3e
       -0.09009927 -0.037324414 0.18164463 0.13029131
000290 c1 7d 63 3d 60 fd 3e 3e 1b 43 06 be ef 28 f7 3d
       0.05553985 0.18651342 -0.13111536 0.12068354
0002a0 6e 24 9a 3d 68 4e 82 be 6a a4 af bd c4 28 4d be
       0.0752648 -0.25450444 -0.08576281 -0.20035082
0002b0 cf 51 a1 bd 23 c7 34 be 7b 6f a4 bc 3d a0 2f 3e
       -0.07876932 -0.1765409 -0.02007269 0.1715097
0002c0 78 21 93 bc 54 37 04 3e 9a 7d 69 3e 01 31 0a be
       -0.017960295 0.12911731 0.2280182 -0.13495256
0002d0 bb 06 e0 bd c5 0f 28 be 95 b5 c6 bc 25 0c 08 be
       -0.10938784 -0.16412266 -0.024256507 -0.13285883
0002e0 b8 d1 37 3d 76 61 7a 3e ac 8d 07 be bf e7 4d 3d
       0.044877738 0.24451241 -0.13237637 0.05026984
0002f0 76 b6 93 3e 50 48 39 be 09 0c 10 3e 13 07 06 3d
       0.28850144 -0.18093991 0.14067091 0.03272159
000300 60 fb 80 3d 98 b8 50 3e 3f 41 7f 3d 70 63 84 3e
       0.06297946 0.20382917 0.062318083 0.25857115
000310 39 40 c5 3d 59 93 60 bd f5 6e fa 3b b0 26 5f 3d
       0.0963139 -0.05482802 0.0076426216 0.054480255
000320 80 e2 7a bd 77 97 54 3e d4 76 48 3e 0b a9 13 ba
       -0.061251163 0.20760904 0.1957658 -0.00056327943
000330 14 e6 de 3e 05 10 54 3e 38 79 a4 bd 10 08 dd bd
       0.4353491 0.20709236 -0.08030933 -0.107925534
000340 98 55 bc 3d c7 92 9b 3e bc d9 fc 3b 0e f0 bf 3d
       0.09196013 0.3038542 0.0077163856 0.09371959
000350 1d a9 4b 3e 10 d6 65 bc b5 f9 6e 3d ce 8c b8 3d
       0.1988873 -0.014028087 0.058343608 0.09011231
000360 1c d1 2b be 97 f5 b1 3c 29 b3 21 3e ed ec 92 3e
       -0.16778988 0.021723552 0.15791 0.28696385
000370 e9 86 c1 3e 58 98 dd 3e 90 00 01 3f 8f a5 e0 3e
       0.3779824 0.43280292 0.50391483 0.4387631
000380 2b e7 be 3e 20 de 07 bc 9d 85 e0 bd 01 a0 5c bc
       0.37285742 -0.008292705 -0.10962985 -0.013465882
000390 b9 84 b7 3b 01 3e 32 be d4 5b e0 bb 2e 51 da bd
       0.0056005386 -0.17406465 -0.0068468843 -0.10660015
0003a0 e0 28 2f bd 54 09 44 3e ba b2 4b be da 04 1b be
       -0.04276359 0.19144183 -0.19892398 -0.1513857
0003b0 2e 3f ea 3d e7 71 2c bd f2 8d 09 3d 29 ea 4d 3e
       0.11437832 -0.042100813 0.033582635 0.20108856
0003c0 4f 2e c7 3d fe cc 3a 3c 01 70 20 3e 1a cc d1 be
       0.097256295 0.011401413 0.15667726 -0.4097603
0003d0 9d ee 16 bf f4 68 b1 be 85 cd 09 bf 13 f6 3c bf
       -0.58957845 -0.34650385 -0.5382922 -0.7381298
0003e0 7e f8 c4 be e2 b5 9a be 23 79 d2 be ec a9 96 be
       -0.38470834 -0.3021689 -0.41108045 -0.29426515
0003f0 54 c7 a9 3d 49 84 a7 3c 10 48 c6 bd 6b 45 bb 3d
       0.08289972 0.02044882 -0.096817136 0.091441

layer2.bn1.weight f4 [32]
000000 81 3f 69 3f a8 09 78 3f 3f 21 3e 3f ec 18 88 3f
       0.91112524 0.96889734 0.7426948 1.0632606
000010 b2 b4 5c 3f 9f 56 9b 3f 88 5b 74 3f 8b 9c 4a 3f
       0.8621322 1.213581 0.95452166 0.79145116
000020 df 4e 58 3f bd 57 9b 3f 46 ff 42 3f 01 02 8d 3f
       0.8449535 1.2136151 0.76170766 1.1016237
000030 8c 65 82 3f 4f be 5d 3f ce 69 a0 3f ec c1 56 3f
       1.018724 0.8661851 1.2532289 0.8388965
000040 c7 76 90 3f f1 f9 5b 3f f1 57 93 3f 58 51 6a 3f
       1.1286248 0.85928255 1.1511213 0.9153037
000050 ae 9c 40 3f 55 fc 50 3f 1a bb c0 3f 9e eb 9f 3f
       0.75239074 0.8163503 1.5057099 1.249378
000060 08 18 5a 3f 36 bf 5e 3f 81 d7 75 3f 08 a8 63 3f
       0.8519292 0.87010515 0.9603196 0.8892827
000070 b4 a3 70 3f c0 41 79 3f 55 f9 45 3f 44 00 6e 3f
       0.9399979 0.9736595 0.77333575 0.92969155

layer2.bn1.bias f4 [32]
000000 ca 84 d0 bc fd 80 54 3e f6 83 57 bc 1a 3d 85 bc
       -0.025453944 0.2075233 -0.0131540205 -0.016264487
000010 81 49 2e be 39 23 c5 bd e2 41 48 3e aa 1e 22 bb
       -0.17020227 -0.09625859 0.19556382 -0.0024737515
000020 d5 b4 53 be 11 04 5e bd de f7 83 3b 63 52 5d be
       -0.2067445 -0.054203097 0.004027351 -0.2161346
000030 3d 00 c2 bd 45 f5 64 be 2a fe 3f be 84 c5 94 be
       -0.09472702 -0.22359188 -0.187493 -0.29056942
000040 63 f9 d0 bd 84 87 2f be 05 17 24 be 78 29 82 be
       -0.10203817 -0.17141539 -0.16024406 -0.25422263
000050 82 f3 8c 3d 56 9f 08 3e cd b9 e8 be eb 2c d9 bc
       0.06882383 0.13342032 -0.45454255 -0.026510676
000060 48 e3 31 be a8 01 d4 bd 4d 20 94 be 9a ea cd bc
       -0.17371857 -0.103518784 -0.28930894 -0.02513628
000070 c7 cd 9c be 5e a1 f4 bd 63 a0 85 bd 15 1c 6e be
       -0.30625746 -0.11944841 -0.06524732 -0.232529

layer2.bn1.running_mean f4 [32]
000000 9e a0 d9 3f 58 63 bd 3d c8 d5 a9 c0 2e 92 ee c0
       1.7002141 0.09247464 -5.3073463 -7.455344
000010 02 df 01 bd 61 98 62 bf bb 41 37 c1 71 c6 59 40
       -0.031706817 -0.8851376 -11.4535475 3.402737
000020 fb 14 66 c0 9f 3e b7 c0 ed 15 c0 bf fc 1d 36 c0
       -3.5950305 -5.726394 -1.5006691 -2.84558
000030 fb 35 47 c0 9b 06 a6 bf e1 5d 43 c0 c1 81 c2 bd
       -3.1126697 -1.2970766 -3.052605 -0.09497405
000040 21 66 10 c0 a2 04 da c0 c1 b5 5a c0 1c ce ac 3f
       -2.2562335 -6.8130655 -3.4173434 1.35004
000050 da bc 20 c0 7b 51 c8 c0 e3 01 de c0 d0 d6 e2 3f
       -2.5115266 -6.2599463 -6.9377303 1.7721806
000060 57 1b 35 c0 21 4b a3 c0 04 4d 05 40 bf aa 41 c0
       -2.8297937 -5.102921 2.0828257 -3.0260465
000070 b5 b4 ae bf c6 d1 26 c1 e6 0e 3f c0 10 6e fe bf
       -1.3648897 -10.426214 -2.9852843 -1.9877338

layer2.bn1.running_var f4 [32]
000000 e4 34 5f 41 fa 3c 2e 41 af f0 ed 40 17 85 5e 41
       13.950413 10.889887 7.4356303 13.907493
000010 8f 4e ec 40 23 41 9b 41 8a 35 8c 41 d2 1d 30 41
       7.3845897 19.406805 17.526142 11.00728
000020 69 80 cf 40 8d f2 89 41 4a fe e0 40 86 62 58 41
       6.484425 17.243433 7.031041 13.524054
000030 0d 6d 7c 41 b4 fd 23 41 84 19 5c 41 ac 35 ee 40
       15.776624 10.249439 13.756229 7.4440517
000040 4e 12 26 41 06 80 f6 40 d6 58 15 41 75 dd 00 41
       10.379469 7.703128 9.334188 8.054067
000050 6e 42 e3 40 c9 fa 03 41 a6 e0 be 41 04 84 70 41
       7.101859 8.248727 23.859692 15.03223
000060 cf 7a d0 40 7d 78 97 40 45 17 f6 40 82 9a 33 41
       6.5149913 4.733458 7.6903405 11.225222
000070 4a 52 65 40 b5 fe 4d 41 a0 89 16 41 e5 82 e5 40
       3.5831475 12.874684 9.4086 7.1722283

layer2.conv2.weight f4 [32, 32, 3, 3]
000000 4b ff 61 be 2f ed 80 bd e8 2c 6e bb 97 b1 f9 3d
       -0.22070043 -0.06295239 -0.0036342684 0.12192076
000010 16 08 81 3e b9 64 2d 3d 82 8b f0 3d 27 e3 5f 3e
       0.25201482 0.042332385 0.11745359 0.21863995
000020 63 89 1b 3d 4c 05 bc bc d8 31 51 3e 6e 2b 26 3e
       0.03797282 -0.022951744 0.2042917 0.16227505
000030 58 6a 9f 3b 34 4f 2d 3e f1 6d 02 3e d8 00 16 bd
       0.004864972 0.16924745 0.12737252 -0.0366219
000040 01 ab d1 bc 0e 12 06 be a3 c8 c5 3c cd 3a 8f 3d
       -0.025594236 -0.13092825 0.024143523 0.06993637
000050 43 59 fa 3d 3a 3a 1d be 33 c0 47 be 36 cc bb 3c
       0.122240566 -0.15354243 -0.19506912 0.022924524
000060 ff 0d 49 be a0 8e 8d be ff 22 6d bd 92 77 8c 3e
       -0.19634245 -0.27647877 -0.057894703 0.27434975
000070 1b 2b f8 bd a2 46 c2 be 21 f4 c3 3e 88 d8 c7 bd
       -0.12117597 -0.37944514 0.38272193 -0.09758097
000080 42 b9 81 be 95 a0 c3 3e 5f 23 15 be bc 05 b0 be
       -0.25336653 0.38208452 -0.14564274 -0.34379375
000090 58 8b d6 be 86 48 c2 be 96 f1 45 be ae 43 d6 be
       -0.41903186 -0.37945956 -0.19330439 -0.4184851
0000a0 cc 97 b9 be 06 0f 81 be 81 15 5d bd d7 29 83 be
       -0.36248624 -0.25206774 -0.053975586 -0.2561786
0000b0 3f e5 9c be d2 ec 96 be 42 fe 88 bd 06 bc 5a 3e
       -0.3064365 -0.29477555 -0.06689121 0.21360788
0000c0 fe c6 8f be aa 91 01 bd ac 8a e4 3c 6d a6 1a be
       -0.28081506 -0.031633057 0.027898155 -0.15102549
0000d0 6c de 4f bd ef 83 7e bd a5 c1 94 3e 43 ce 93 bd
       -0.050749227 -0.06213754 0.2905399 -0.07217076
0000e0 4c 49 a9 be 1a fe 8d 3e 62 fe 53 bc d7 a5 98 be
       -0.33063734 0.27732927 -0.012939068 -0.29814026
0000f0 d9 7c e5 3d 08 53 b5 3d a5 e7 68 be 84 07 45 be
       0.112054534 0.088537276 -0.22744615 -0.19241148
000100 a5 77 22 bd 0e 80 26 be f1 da 16 3d 03 a1 5a 3e
       -0.039664883 -0.16259786 0.036829893 0.21350484
000110 72 4a bd bc 46 4a ad 3d 56 60 8d bd 45 f6 32 be
       -0.023106787 0.08461432 -0.0690314 -0.17476757
000120 76 c6 59 3d 68 44 03 3e 21 12 9c bd 37 8a 9c bd
       0.053167783 0.12819064 -0.07620645 -0.0764355
000130 54 03 95 3e a7 03 74 3e f3 b8 14 3d 13 1e 07 3e
       0.29104102 0.23829518 0.036309194 0.13195066
000140 73 61 ca 3d 5a cd 82 3e 3d 80 fa 3b 67 80 8b be
       0.09881868 0.25547296 0.0076446817 -0.272464
000150 e3 e2 3c 3d be df 73 3e 43 80 0c 3e 65 70 a9 be
       0.046114814 0.2381582 0.13720803 -0.33093563
000160 bc 2e f3 bc 99 57 2c 3e 1b 47 c3 3d c8 26 11 be
       -0.02968537 0.16830291 0.09535047 -0.1417495
000170 40 32 e7 be 8b c8 86 3e 90 9e 2e 3e 36 07 ce 3c
       -0.45155525 0.26324877 0.17052674 0.025149923
000180 1c 4c 4f 3e 58 7d d6 3d 75 a3 86 3e 65 d6 68 bd
       0.20243877 0.10473126 0.26296583 -0.056845088
000190 9c dc 03 be 44 18 b8 bd 0c 17 37 3d b3 0c 83 bd
       -0.12877125 -0.08989003 0.044699714 -0.063989066
0001a0 fa ed ed bd 20 31 13 3d e5 d5 5a be 93 0e 8e be
       -0.11617656 0.03593552 -0.21370657 -0.27745494
0001b0 29 85 0a 3e 06 85 d5 3d 0e e8 8d bd 08 f1 a8 3d
       0.13527359 0.10425763 -0.069290265 0.08249098
0001c0 4d c1 b4 3d 56 c7 0a be 73 0b 0a bc 30 1e 8e 3d
       0.08825932 -0.13552603 -0.008425581 0.069393516
0001d0 79 9e 0e be 78 66 1c bd 1b 8c f7 bc 4b 85 63 3d
       -0.1392764 -0.03818366 -0.030218175 0.05554704
0001e0 23 38 23 3e 34 e5 91 3e f8 58 b7 3e 30 69 29 bc
       0.15939383 0.2849518 0.35810065 -0.01034002
0001f0 9a c8 e4 3d 56 b0 b6 bd 23 b5 ec bd e8 56 10 be
       0.11171074 -0.08920352 -0.115579866 -0.14095652
000200 a1 85 df be 4b f4 0f be 22 60 40 be 98 db 9e be
       -0.43656638 -0.14058034 -0.18786672 -0.31026912
000210 09 cd 18 be 74 f7 9a bd 8d 45 ec ba b8 27 9d be
       -0.14921965 -0.07566729 -0.0018026099 -0.30694366
000220 88 75 84 be 8f 6f 8c be fd d4 c7 3d 73 1a fe 3c
       -0.2587092 -0.27428862 0.09757421 0.031018471
000230 4d a3 d0 3d 35 3f a3 3e 56 9e 42 3d 8c a7 2e 3d
       0.10187397 0.3188416 0.047514282 0.042640254
000240 a0 81 cd be 0c 47 d3 3d 19 4c b8 3e 70 81 83 bd
       -0.4013796 0.103162855 0.35995558 -0.064211726
000250 70 ba 8f 3d 94 90 70 3e f6 cd 3a be 40 df c7 be
       0.07017982 0.23492652 -0.1824263 -0.39037514
000260 90 09 9f 3d 1c 6b 9c bd d5 08 fe 3d c9 da eb 3e
       0.07765496 -0.07637617 0.12404028 0.46065357
000270 67 df d1 bd e5 6d 77 3e db 7e bb 3e dc df a3 bd
       -0.10247689 0.24163015 0.3662022 -0.08001682
000280 4b e8 53 3e e2 c2 2c 3e 04 7b 74 3d 69 f3 8e be
       0.20694081 0.16871217 0.05968763 -0.27920082
000290 74 94 29 bd ec e1 ab 3c 7d f6 90 bc ae 16 2c 3d
       -0.04140134 0.020981751 -0.01769566 0.042013817
0002a0 80 3c 8d bd 63 df 32 3d 44 3f 97 bd 65 5e 49 3e
       -0.06896305 0.04367007 -0.07385114 0.19664915
0002b0 8b 35 c7 3e 24 c7 e0 bc 2a b1 92 bd 49 db 56 3e
       0.38908038 -0.027438708 -0.071626976 0.20982088
0002c0 f5 95 2f 3e 32 d4 20 be 01 8d eb 3d 12 26 aa 3d
       0.17147048 -0.15705946 0.11501504 0.083080426
0002d0 8b 74 f8 bd 6c a0 09 be b0 b8 da be ec 5e 78 be
       -0.12131604 -0.13440102 -0.4271903 -0.2425496
0002e0 1a 44 db 3c a4 96 9b bd 3d b2 5d be b1 07 af 3e
       0.026765872 -0.07597092 -0.21650024 0.34185556
0002f0 4c 44 9f 3e 68 2d 01 bd 33 9c 16 be 23 e9 a6 be
       0.31106794 -0.031537443 -0.14708023 -0.32599744
000300 00 8b 91 3c e8 db 55 3d 6b 1b 53 be d6 cc 07 3e
       0.017766476 0.052211672 -0.20615928 0.13261732
000310 a3 47 36 be 25 81 83 be ac 99 4e 3e 80 7e 1a 3e
       -0.17800765 -0.25684467 0.20175809 0.15087318
000320 cd cc 96 bd da 10 67 3c 13 d0 6a bb 42 8e 87 be
       -0.073632814 0.014103139 -0.0035829588 -0.26475722
000330 7c 18 3e 3e f2 bd 9d bc 4c f1 13 bf 98 25 99 be
       0.18564028 -0.019255612 -0.57790065 -0.29911494
000340 03 33 88 be 30 4a 93 bc 60 cf fd bd 18 fd b1 bd
       -0.2660142 -0.017979711 -0.12393069 -0.08690852
000350 13 e0 34 3e 81 6c 33 bf 88 77 4d bf 92 ff 9f be
       0.17663603 -0.7008744 -0.80260515 -0.31249672
000360 bb f0 d1 be 3c c1 de bd 3f 8b 27 bd 69 cd e1 be
       -0.41003975 -0.108767 -0.04090428 -0.44102028
000370 5b 73 d0 be 6f ca 67 bd 85 58 cb 3c 90 bf ab be
       -0.4071301 -0.05658954 0.024822483 -0.33544588
000380 c7 a3 bf bb 0e 39 bd 3d 3e b8 57 3e c2 75 96 3c
       -0.005848381 0.09239398 0.21066377 0.018366698
000390 55 86 98 bd b1 e8 b2 3e 48 af 2b 3e 58 3f cb be
       -0.07447497 0.34943154 0.16766083 -0.39696765
0003a0 ba f1 cf bd 54 00 dc 3c e7 e4 21 be 80 ef 19 be
       -0.101535276 0.026855625 -0.15809976 -0.15032768
0003b0 69 88 25 3e 13 bb 80 be cf 55 83 be 1a 26 38 be
       0.16165318 -0.25142726 -0.25651404 -0.17983285
0003c0 75 ce 21 be 4a 31 9f be 7b ca 29 be 20 74 99 3d
       -0.15801413 -0.31092292 -0.16581146 0.07492852
0003d0 f8 06 3f 3e 0b cb 86 be 09 60 d5 3d 1b c8 de bc
       0.18655002 -0.26326784 0.10418708 -0.027195027
0003e0 b4 1a 69 be f7 65 a1 3c c8 4a 90 3d 41 e0 f6 bd
       -0.22764093 0.019701941 0.070455134 -0.12054492
0003f0 6a cc 2d bd d1 e1 21 3e 63 a4 80 3e 28 80 95 bc
       -0.042431273 0.15808798 0.25125417 -0.018249586

layer2.bn2.weight f4 [32]
000000 8a 1c 8b 3f 4b c5 86 3f 62 e3 96 3f a0 1e 94 3f
       1.0868084 1.0528959 1.1788142 1.1571846
000010 e9 2e 91 3f 98 78 8f 3f c4 72 89 3f 04 01 b2 3f
       1.1342441 1.1208677 1.0738149 1.390656
000020 03 87 ab 3f 58 08 8d 3f 7b 8b b3 3f 8d a4 aa 3f
       1.3400577 1.1018171 1.4026941 1.3331467
000030 34 73 9e 3f 32 5a 96 3f 63 c2 ab 3f c0 97 d6 3f
       1.2378907 1.1746275 1.3418697 1.676506
000040 f9 2a 86 3f 74 d2 79 3f 05 1b 9b 3f 1b 0a 74 3f
       1.0481864 0.9758675 1.2117621 0.9532792
000050 7f 6b a4 3f 17 34 82 3f fb 04 b2 3f c5 70 a4 3f
       1.2845305 1.0172147 1.390777 1.2846915
000060 6b 9e a8 3f e6 67 b9 3f 3b 19 a9 3f 9b 12 ab 3f
       1.3173345 1.4484832 1.3210825 1.3365053
000070 ed 54 b1 3f 39 87 68 3f 0a 14 a7 3f ba 74 a8 3f
       1.3854042 0.90831333 1.305299 1.3160622

layer2.bn2.bias f4 [32]
000000 a4 71 c2 3d 11 37 c9 bc 5c 33 e2 3d c3 ee d5 be
       0.094943315 -0.02456239 0.11044952 -0.41783723
000010 f3 94 4f be b8 60 4c bd d8 8b 00 bd 2a 3d ae be
       -0.20271663 -0.049896926 -0.031383365 -0.3403104
000020 47 ed 46 be b0 94 84 bd 68 a8 a9 bd 46 2e 9c be
       -0.19426452 -0.064736724 -0.08284074 -0.30504054
000030 df b2 09 bd b8 48 1a 3d b2 e5 06 be d6 05 46 3e
       -0.03361785 0.037667006 -0.1317356 0.19338164
000040 01 9d 1e be df bb a6 3e aa ea 81 3d 33 01 99 bd
       -0.1548958 0.3256521 0.06343587 -0.07470932
000050 f7 10 b3 bd bc 2a 9c 3c 02 dc 9f be e6 c4 bf bd
       -0.0874347 0.019063346 -0.3122254 -0.09363727
000060 a5 bd a0 bd 33 4c 17 3e e7 fa 95 bd 43 c5 82 3e
       -0.07848672 0.14775161 -0.073232464 0.25541124
000070 ea a1 bb 3c d0 e4 93 3d 57 cc a1 bd ef 09 98 bd
       0.022904355 0.07221377 -0.07900303 -0.0742377

layer2.bn2.running_mean f4 [32]
000000 64 ea 1c c0 92 77 ad bf b8 63 a8 bf 75 25 97 bf
       -2.451806 -1.3552115 -1.3155432 -1.1808306
000010 7f e3 20 c0 e0 94 8e 3e cf c8 63 40 a2 e7 9e bf
       -2.5138853 0.27847958 3.5591314 -1.2414439
000020 e8 ff 91 3f 1e e9 87 bf 3e 2f 1b c0 c2 ca d2 bf
       1.1406221 -1.0618017 -2.4247584 -1.6468127
000030 a7 69 84 bf b1 26 37 c0 09 d5 db 3e 00 f2 14 c0
       -1.0344743 -2.8617365 0.4293597 -2.3272705
000040 3b 92 5f 3f 8f 41 c4 bf 7a 5e 3f c0 aa e1 3f 3f
       0.87332505 -1.5332507 -2.9901414 0.7495371
000050 a8 d8 cc bf eb a4 38 40 1f 57 d4 bf 42 1b 7f bf
       -1.6003618 2.8850658 -1.6589087 -0.9965097
000060 be 83 78 bf 26 43 b6 c0 be 95 be be 62 44 43 40
       -0.9707602 -5.695697 -0.3722362 3.0510488
000070 30 72 89 bf e0 b0 64 c0 c6 ed dd bf ad 10 c6 bf
       -1.0737972 -3.5732956 -1.7338188 -1.5473839

layer2.bn2.running_var f4 [32]
000000 49 65 9d 40 f3 45 59 40 5d c6 ae 40 9e 73 29 40
       4.918614 3.3948944 5.4617143 2.6476817
000010 e5 d3 9f 40 78 7a 88 40 f2 68 92 40 68 dc 77 40
       4.994616 4.26495 4.5753107 3.8728275
000020 81 5a 82 40 d0 91 c8 40 4a 63 a6 40 18 66 68 40
       4.073548 6.2677994 5.1996202 3.6312313
000030 3b 2d 97 40 86 49 e3 40 af a4 7c 40 fd 0f f2 40
       4.7242713 7.102725 3.9475515 7.5644517
000040 61 03 5d 40 10 02 c9 40 b0 67 a5 40 8a 51 99 40
       3.4533312 6.281502 5.168907 4.7912035
000050 3d 51 86 40 66 3c aa 40 26 3c 56 40 7c 79 51 40
       4.197417 5.319873 3.3474212 3.2730398
000060 53 00 e3 40 9f 00 c8 40 58 35 ff 40 ea 1f e5 40
       7.0937896 6.250076 7.9752617 7.1601458
000070 23 d5 c1 40 dc 2f 8a 40 77 ff ba 40 e5 45 a8 40
       6.0572677 4.318342 5.8436847 5.258532
