Checkpoints/ResNet8_DKD_ResNet18_0.8746.pth (torch, 334494 bytes, 47 tensors)

conv1.weight f4 [16, 3, 3, 3]
-0.0559047 0.26893005 0.13563514 -0.3811548 0.039039414 0.22796722 -0.21249682 0.060947407
-0.07236845 -0.19090977 0.19130911 -0.1958894 -0.43363523 0.06676764 0.27755597 -0.12982385
0.2839009 0.19733089 0.06982379 0.02278192 -0.18223496 -0.14339644 0.03792373 0.11721001
-0.12470918 0.22401257 -0.07758078 0.07846827 0.0549028 0.31061035 -0.03254799 0.46090877
0.18312845 -0.09732833 0.25515944 -0.28230873 -0.22400361 -0.14042567 -0.056673277 -0.10837939
-0.117877275 -0.36459008 -0.19337162 -0.042220294 -0.08249809 0.14130877 -0.17378125 0.040143814
0.059793293 0.020179454 -0.20002717 0.14229447 0.24536419 0.08866304 0.25799897 -0.09631065
0.16907477 -0.15417372 0.021888506 -0.32610548 0.015146124 -0.16708158 -0.29711127 -0.020102514
0.0281398 0.13465059 -0.07609859 0.06758357 -0.12020904 0.07752238 -0.15640612 -0.104015216
-0.15065186 -0.22137086 -0.24626842 -0.005872569 0.44591132 0.33044344 -0.0071102795 0.32914588
0.31836915 0.3290611 -0.04373379 0.036628693 -0.054689582 -0.6055778 -0.10633202 0.22653589
-0.020431736 0.14770117 0.18610726 -0.0228507 0.021303477 -0.19539487 -0.90921366 -0.036075223
0.059938528 -0.13557345 0.10979111 -0.10960245 0.1550207 0.09582623 0.19627804 -0.16274138
0.007726629 -0.043935332 0.008707767 0.02192588 -0.26636657 0.14886184 0.13442998 0.04865086
0.15219091 -0.2581215 0.06639617 0.13131012 -0.19801514 0.22213486 -0.103368334 -0.31229064
0.41489145 0.12376089 -0.50760484 0.12900238 -0.013967621 -0.007555022 0.2039456 -0.02624365
0.04703845 0.18526925 0.027478922 -0.26275632 -0.10825748 0.09103526 -0.057034735 -0.1660666
-0.014200668 0.1550375 -0.24023327 -0.42068774 0.043460045 -0.05413884 0.22454572 0.33774638
0.09777057 0.29004413 0.13442035 0.19596167 -0.3542745 -0.010798906 -0.013822298 0.124959625
-0.22882786 0.055780355 0.032974917 -0.14647579 0.14555503 -0.38071355 0.008363346 0.0051106415
0.25115207 -0.06906454 0.067330316 -0.13353893 -0.1990982 -0.16858107 0.45739692 0.039932102
-0.22034378 0.031140253 0.033991173 -0.15509318 0.030683067 -0.112870105 -0.12203319 0.58316725
-0.05647885 0.12502614 -0.2335608 -0.015303542 -0.034542415 -0.01268847 0.03853962 -0.11139457
0.53099287 -0.14430664 0.11031317 -0.14423108 -0.1787398 0.21291474 -0.2051114 0.020926539
0.011845406 -0.25208572 0.07275518 -0.098760314 0.49485093 0.30175787 0.24067369 -0.2904573
-0.16528195 -0.14955822 -0.36284232 -0.12219866 -0.21347927 -0.1325639 0.041659582 -0.08086634
0.019228192 0.08727735 0.26088285 -0.195074 0.1718324 0.009879279 0.18943775 0.13982165
-0.21406865 -0.12936886 0.14548226 0.1664883 -0.14146885 0.205802 -0.09147911 0.28966543
0.08775517 -0.101959765 0.08301972 0.043517854 0.042173687 -0.53938484 -0.3425782 -0.0049519334
-0.0015266916 0.021817576 0.05436256 0.37632123 0.27503246 0.18294694 -0.059145458 -0.045124017
0.002587975 -0.26420534 -0.3251609 0.19361554 -0.20696844 -0.23680036 0.0765108 -0.21914427
-0.06692589 0.1300224 0.25792056 -0.12122387 -0.022404423 0.046988256 0.44814664 -0.08142136
00000000: 54fc 64bd 33b1 893e f0e3 0a3e b926 c3be
00000010: cbe7 1f3d 3d70 693e c498 59be fda3 793d
00000020: e935 94bd da7d 43be 89e6 433e 3b97 48be
00000030: 7005 debe 79bd 883d d11b 8e3e 8bf0 04be
00000040: 755b 913e 1c11 4a3e c6ff 8e3d 26a1 ba3c
00000050: cd9b 3abe 84d6 12be ea55 1b3d cd0b f03d
00000060: 8767 ffbd 8d63 653e ace2 9ebd f9b3 a03d
00000070: c2e1 603d 5208 9f3e 0b51 05bd 3cfc eb3e
00000080: 0686 3b3e 1354 c7bd 42a4 823e c58a 90be
00000090: 3461 65be bfcb 0fbe 3d22 68bd 03f6 ddbd
000000a0: a469 f1bd 8dab babe 3603 46be 30ef 2cbd
000000b0: c2f4 a8bd 3fb3 103e b6f3 31be d76d 243d
000000c0: d0e9 743d 624f a53c ecd3 4cbe a4b5 113e
000000d0: c040 7b3e f894 b53d 7118 843e 853e c5bd
000000e0: f021 2d3e b7df 1dbe 864f b33c 4cf7 a6be
000000f0: 7327 783c 6f17 2bbe f81e 98be 07ae a4bc
00000100: 7085 e63c d8e1 093e 94d9 9bbd 4169 8a3d
00000110: 2830 f6bd 0ec4 9e3d ed28 20be ee05 d5bd
00000120: 7b44 1abe 0baf 62be ca2d 7cbe ae6e c0bb
00000130: 7d4e e43e e22f a93e 59fd e8bb cf85 a83e
00000140: 4801 a33e b27a a83e 3422 33bd f807 163d
00000150: 2f02 60bd 2607 1bbf 9ac4 d9bd 06f9 673e
00000160: 7560 a7bc fa3e 173e e792 3e3e 6431 bbbc
00000170: a184 ae3c 9815 48be 3ac2 68bf 9dc3 13bd
00000180: 1a82 753d c4d3 0abe 29da e03d 4077 e0bd
00000190: bfbd 1e3e 8b40 c43d 1cfd 483e ada5 26be
000001a0: a92f fd3b 89f5 33bd 06ab 0e3c e79d b33c
000001b0: 3361 88be 3d6f 183e 03a8 093e 2046 473d
000001c0: efd7 1b3e 8028 84be b7fa 873d 2976 063e
000001d0: 7bc4 4abe 5277 633e c7b2 d3bd 8fe4 9fbe
000001e0: a76c d43e 5976 fd3d 64f2 01bf 3319 043e
000001f0: 73d8 64bc 1e90 f7bb 1ed7 503e ecfc d6bc
00000200: 64ab 403d 39b7 3d3e 7a1b e13c ff87 86be
00000210: 19b6 ddbd b270 ba3d 419d 69bd 5d0d 2abe
00000220: eba9 68bc 27c2 1e3e b6ff 75be 6264 d7be
00000230: 2903 323d b0c0 5dbd 50ef 653e 18ed ac3e
00000240: f03b c83d aa80 943e 7da5 093e 2daa 483e
00000250: 7863 b5be e5ed 30bc eb76 62bc d5ea ff3d
00000260: da51 6abe f179 643d b510 073d c0fd 15be
00000270: 610c 153e e3ec c2be 6a06 093c 2b77 a73b
00000280: 0197 803e b671 8dbd 7ae4 893d 6ebe 08be
00000290: 66e0 4bbe 84a0 2cbe ee2f ea3e d88f 233d
000002a0: cda1 61be d819 ff3c 543a 0b3d bfd0 1ebe
000002b0: 0e5b fb3c 7128 e7bd 8aec f9bd 734a 153f
000002c0: 5e56 67bd da06 003e 902a 6fbe b5bb 7abc
000002d0: 597c 0dbd 4de3 4fbc b8db 1d3d d622 e4bd
000002e0: 26ef 073f 1fc5 13be dfeb e13d 50b1 13be
000002f0: 9107 37be 5206 5a3e b908 52be 226e ab3c
00000300: 3c13 423c 6111 81be ab00 953d d942 cabd
00000310: 1a5d fd3e 0280 9a3e 2a73 763e d2b6 94be
00000320: ac3f 29be ca25 19be 78c6 b9be 4b43 fabd
00000330: 4f9a 5abe d5be 07be 3da3 2a3d 409d a5bd
00000340: 7184 9d3c 78be b23d 7092 853e 7bc1 47be
00000350: d5f4 2f3e b3dc 213c f8fb 413e 682d 0f3e
00000360: d034 5bbe 4579 04be 4df9 143e e97b 2a3e
00000370: 36dd 10be c2bd 523e 6659 bbbd 074f 943e
00000380: fcb8 b33d 48d0 d0bd 3e06 aa3d c73f 323d
00000390: 51be 2c3d 2015 0abf 6966 afbe d443 a2bb
000003a0: 451b c8ba c6ba b23c 47ab 5e3d 2dad c03e
000003b0: 0ed1 8c3e 7156 3b3e 8242 72bd f6d3 38bd
000003c0: 049b 293b ec45 87be 7d7b a6be 2743 463e
000003d0: 89ef 53be cb7b 72be b2b1 9c3d 5b67 60be
000003e0: 7110 89bd 9824 053e 2a0e 843e 3844 f8bd
000003f0: 7b89 b7bc c276 403d 7a73 e53e 3ec0 a6bd

bn1.weight f4 [16]
0.8315212 0.3902825 0.417024 1.1217638 0.7666915 0.8117686 1.1411138 0.58379346
0.5215496 0.48681116 0.51551473 0.3626894 0.61843306 0.55044466 0.5908145 0.7636083
00000000: 93de 543f 1cd3 c73e 2b84 d53e f595 8f3f
00000010: e545 443f 11d0 4f3f 0410 923f 7d73 153f
00000020: 4684 053f 503f f93e c6f8 033f 6db2 b93e
00000030: a151 1e3f f1e9 0c3f 9e3f 173f d57b 433f

bn1.bias f4 [16]
0.24398719 0.23436925 0.20974681 -0.5755692 0.48732585 0.54357135 0.5110637 0.119943894
0.16631608 0.7265746 0.28808823 0.18759193 -0.27257413 0.33014214 0.15123339 0.39109278
00000000: c7d7 793e 7efe 6f3e dec7 563e 8158 13bf
00000010: c682 f93e 7e27 0b3f 12d5 023f 25a5 f53d
00000020: c34e 2a3e cb00 3a3f 4d80 933e 1918 403e
00000030: d68e 8bbe 6408 a93e eddc 1a3e 503d c83e

bn1.running_mean f4 [16]
-0.041783664 0.006797414 -0.017433338 0.34203574 -0.015307711 0.039401066 -0.07289243 0.05777296
0.11589316 0.009432967 -0.025930041 0.012869054 0.17093813 -0.09057412 -0.089966856 -0.06642172
00000000: 5925 2bbd d7bc de3b 5cd0 8ebc 4f1f af3e
00000010: 32cd 7abc 0363 213d a048 95bd 57a3 6c3d
00000020: 6559 ed3d bb8c 1a3c 3d6b d4bc bad8 523c
00000030: 680a 2f3e ed7e b9bd 8b40 b8bd 1c08 88bd

bn1.running_var f4 [16]
1.2477973 0.3045045 0.37732074 2.7659962 1.2530103 0.3267125 0.57849544 0.6218151
0.5157393 0.1396822 0.520101 0.15621023 2.0381002 0.53294075 3.578185 0.70999223
00000000: d2b7 9f3f 04e8 9b3e 2f30 c13e 1506 3140
00000010: a462 a03f dc46 a73e 4718 143f 462f 1f3f
00000020: 7e07 043f da08 0f3e 5725 053f 93f5 1f3e
00000030: 3c70 0240 ce6e 083f fc00 6540 0dc2 353f

layer1.conv1.weight f4 [16, 16, 3, 3]
0.051152796 0.5343795 -0.10254204 -0.14645088 0.36008787 0.07816323 -0.11349391 0.03571569
0.08499804 0.09993919 0.2228421 0.2643402 0.00022453986 -0.067233756 0.032323502 -0.013161313
0.06304263 -0.3339898 -0.042617332 0.26455247 0.1999219 -0.23871304 0.046878014 0.17541254
-0.05046551 -0.09599737 -0.1325517 -0.106023476 -0.006085613 -0.066048615 0.50485665 0.38153023
0.3523312 -0.4331532 0.010057517 0.09492084 -0.035266917 0.35102987 -0.077560894 -0.25484636
0.20113082 0.18855627 -0.07049925 -0.013443453 -0.021232149 -0.098367535 -0.07943498 -0.035647128
0.28799057 0.1804277 0.17012517 -0.24254337 0.25031832 0.1765431 0.15250033 0.021014139
-0.06380494 0.05966305 0.10029252 -0.050154176 0.09660974 0.19853313 0.31045926 0.05874235
-0.21216454 0.19809175 0.19548182 0.003186831 0.23567039 -0.066137455 -0.09096672 -0.019076684
-0.03365629 -0.15418391 -0.007788217 0.070965916 0.15997042 0.15394396 -0.36583063 -0.004479035
0.08328379 -0.24893993 -0.124232925 0.1614866 0.13801418 -0.038104057 0.059756342 -0.062018625
-0.16671105 -0.17404133 -0.06570058 0.17799696 0.06238384 -0.39737573 -0.029025946 0.24224238
-0.023433816 -0.31531903 0.14994326 0.38042775 0.26690468 -0.007466218 0.20932926 -0.14076774
-0.26422766 0.12558827 0.22856 0.18919514 -0.077176884 0.38728687 -0.18685299 -0.12397084
0.047946986 -0.1203404 0.13014731 0.24318844 0.07448108 0.022986798 0.08442888 -0.29181057
-0.0050761844 0.19664253 0.0860385 -0.036942024 0.084301814 -0.13744198 -0.077312686 0.115610175
-0.33161137 -0.40301034 -0.16134973 -0.18494788 -0.18992336 0.06656208 0.016261507 -0.29225188
0.084961705 -0.104868434 -0.14157327 0.23873377 0.23648305 0.19507033 0.37549412 0.14897746
0.026895074 -0.2778516 -0.0647489 -0.053974967 0.034591526 0.16977222 0.051419917 0.034323703
-0.122976385 0.1673062 0.2585442 0.1220177 0.18245697 0.078881726 -0.07611238 -0.22332248
-0.08031816 -0.07511707 -0.03213945 0.045148 -0.04076561 -0.11105682 -0.2245251 -0.14466283
0.09491846 0.18485142 0.35169938 -0.018117696 0.004073819 0.16654761 -0.021188138 0.0019446204
0.08636829 0.18014118 -0.10586335 0.005820118 0.1289792 0.051116984 0.13154581 -0.013789969
-0.03757535 -0.17856354 -0.031895123 -0.19995113 0.0451921 -0.12514037 -0.39533186 -0.38980144
0.0422751 0.58461976 0.40347868 -0.072754525 -0.1330808 -0.049259406 0.22754532 0.46254694
0.119905554 -0.28407913 -0.47624508 -0.4472266 0.15298598 0.32971773 0.25200307 0.008876995
-0.16574891 -0.32039633 -0.12694702 0.1884886 -0.054065064 0.012293472 0.03921162 -0.121088855
0.13448173 -0.03847632 0.029411808 0.08652537 0.16166373 -0.060666982 -0.059732534 -0.18348879
-0.09051627 0.29177085 0.10951269 -0.08609162 -0.24795611 -0.2775587 0.10475742 0.061686467
0.1853668 -0.10232441 -0.07338131 -0.0760063 0.18853475 -0.08970725 -0.0629648 0.16846822
-0.030100256 -0.13770221 0.0058961916 0.015964163 -0.3903115 0.019570313 0.0025760953 0.3434718
0.37462914 0.080672055 0.048690792 -0.14624107 -0.28646395 -0.23131487 -0.24365167 -0.07123479
00000000: 9885 513d 18cd 083f 9001 d2bd 38f7 15be
00000010: 705d b83e 0b14 a03d 7f6f e8bd 9e4a 123d
00000020: 7413 ae3d ebac cc3d b830 643e 9957 873e
00000030: 7672 6b39 dab1 89bd a665 043d 8ca2 57bc
00000040: 7f1c 813d b600 abbe 838f 2ebd 6c73 873e
00000050: 54b8 4c3e 3171 74be 2903 403d 589f 333e
00000060: ecb4 4ebd 459a c4bd a2bb 07be d622 d9bd
00000070: d269 c7bb 7f44 87bd 493e 013f ee57 c33e
00000080: c164 b43e 42c6 ddbe 49c8 243c db65 c23d
00000090: 0b74 10bd 30ba b33e 3fd8 9ebd 397b 82be
000000a0: 3df5 4d3e e514 413e e961 90bd ee41 5cbc
000000b0: 0bef adbc eb74 c9bd cfae a2bd b902 12bd
000000c0: 8073 933e 0ac2 383e 4b35 2e3e 4a5d 78be
000000d0: b929 803e b7c7 343e 0c29 1c3e d825 ac3c
000000e0: 2aac 82bd 3e61 743d 2a66 cd3d 776e 4dbd
000000f0: 54db c53d 454c 4b3e 84f4 9e3e d29b 703d
00000100: a941 59be 90d8 4a3e 632c 483e 27da 503b
00000110: 9453 713e 1373 87bd c24c babd b546 9cbc
00000120: 2edb 09bd 63e2 1dbe 4d34 ffbb 9456 913d
00000130: 49cf 233e 7ca3 1d3e 274e bbbe dec4 92bb
00000140: b190 aa3d 1cea 7ebe d56d febd be5c 253e
00000150: 9753 0d3e 0013 1cbd 11c3 743d 3e07 7ebd
00000160: 4db6 2abe e437 32be 078e 86bd d644 363e
00000170: 3386 7f3d d574 cbbe d2c7 edbc 630e 783e
00000180: 46f8 bfbc 7f71 a1be ba8a 193e 6dc7 c23e
00000190: bba7 883e 2da7 f4bb 695a 563e 6b25 10be
000001a0: d948 87be 369a 003e a20b 6a3e 5fbc 413e
000001b0: ea0e 9ebd 774a c63e 6456 3fbe 6ce4 fdbd
000001c0: 0f64 443d 0775 f6bd 5645 053e 6406 793e
000001d0: 8989 983d cf4e bc3c 0ce9 ac3d 3268 95be
000001e0: 1f56 a6bb a95c 493e f434 b03d 8550 17bd
000001f0: 6ea6 ac3d 97bd 0cbe 1d56 9ebd 07c5 ec3d
00000200: f7c8 a9be 5f57 cebe dd38 25be fa62 3dbe
00000210: 457b 42be b351 883d da36 853c 0aa2 95be
00000220: 6700 ae3d 43c5 d6bd 95f8 10be a076 743e
00000230: 9d28 723e 84c0 473e c440 c03e 8c8d 183e
00000240: 0f53 dc3c 9142 8ebe 129b 84bd db14 5dbd
00000250: d8af 0d3d c5d8 2d3e b19d 523d 0397 0c3d
00000260: 0bdb fbbd 5152 2b3e e85f 843e 6ae4 f93d
00000270: 00d6 3a3e be8c a13d cfe0 9bbd a6ae 64be
00000280: d97d a4bd fad6 99bd a8a4 03bd 1ced 383d
00000290: d7f9 26bd c271 e3bd e8e9 65be 7e22 14be
000002a0: 9c64 c23d b149 3d3e f111 b43e 906b 94bc
000002b0: ac7d 853b 758b 2a3e bf92 adbc a2e2 fe3a
000002c0: dce1 b03d ee76 383e e2ce d8bd b0b6 be3b
000002d0: 2013 043e 0b60 513d f2b3 063e 52ef 61bc
000002e0: 9ce8 19bd 5cd9 36be 76a4 02bd fdbf 4cbe
000002f0: 5a1b 393d cc24 00be f068 cabe 0e94 c7be
00000300: a828 2d3d a4a9 153f c294 ce3e 5300 95bd
00000310: 5546 08be 3bc4 49bd a401 693e f4d2 ec3e
00000320: 0b91 f53d d272 91be 65d6 f3be e3fa e4be
00000330: 5ba8 1c3e c3d0 a83e 8c06 813e d170 113c
00000340: 15ba 29be fd0a a4be 66fe 01be 2803 413e
00000350: 5473 5dbd 8f6a 493c 5d9c 203d 6ffd f7bd
00000360: 94b5 093e 5999 1dbd 08f1 f03c 3734 b13d
00000370: 2d8b 253e f17d 78bd 1aaa 74bd 7ce4 3bbe
00000380: 9860 b9bd fd62 953e 3048 e03d ce50 b0bd
00000390: 35e8 7dbe 2d1c 8ebe 0f8b d63d f3aa 7c3d
000003a0: cbd0 3d3e 768f d1bd f148 96bd 31a9 9bbd
000003b0: 410f 413e 6fb8 b7bd b0f3 80bd ef82 2c3e
000003c0: d094 f6bc cf01 0dbe d734 c13b 47c7 823c
000003d0: e9d6 c7be ec51 a03c b5d3 283b 89db af3e
000003e0: 64cf bf3e 6437 a53d ff6f 473d 38c0 15be
000003f0: 67ab 92be cedd 6cbe d37f 79be 8ce3 91bd

layer1.bn1.weight f4 [16]
0.7624266 1.1654241 0.8991829 0.77958536 0.916558 1.2460655 0.7113857 0.9470378
1.0927175 1.0969493 0.8849081 1.1747673 0.7766972 1.2136848 0.7370799 1.013308
00000000: 642e 433f 9e2c 953f da30 663f e892 473f
00000010: 8ca3 6a3f 137f 9f3f 601d 363f 1271 723f
00000020: 2bde 8b3f d668 8c3f 5689 623f c65e 963f
00000030: a1d5 463f 065a 9b3f 45b1 3c3f 14b4 813f

layer1.bn1.bias f4 [16]
-0.075024165 -0.014617429 -0.0028419287 0.06777772 0.12526217 -0.043246754 -0.023214925 0.32714963
-0.12617533 -0.14065553 0.11225601 -0.11866079 -0.15930405 0.40925428 0.048487402 -0.20106322
00000000: 45a6 99bd f17d 6fbc a73f 3abb 0ccf 8a3d
00000010: ba44 003e 8223 31bd 3a2d bebc 2880 a73e
00000020: 1b34 01be 0108 10be 7be6 e53d 6e04 f3bd
00000030: 9a20 23be c789 d13e ba9a 463d 84e3 4dbe

layer1.bn1.running_mean f4 [16]
1.7439814 0.18815231 -0.6332759 -0.16503236 0.062167726 -0.45411587 -0.95574874 -0.8152348
-0.2815148 -0.59325325 -0.9574984 -0.39229703 -1.011473 -0.6864389 0.41080534 -0.53177726
00000000: c83a df3f 00ab 403e 5f1e 22bf 3efe 28be
00000010: 96a3 7e3d e081 e8be f3ab 74bf 3ab3 50bf
00000020: b522 90be 72df 17bf 9d1e 75bf 28db c8be
00000030: f277 81bf 76ba 2fbf 1455 d23e 8e22 08bf

layer1.bn1.running_var f4 [16]
1.4606941 5.818757 0.96376556 0.7077694 2.8550503 5.8028007 1.0275552 1.188292
2.0377128 1.1699761 1.4984924 3.4439032 0.829533 2.3428211 1.9711874 4.308775
00000000: 06f8 ba3f 4233 ba40 57b9 763f 6030 353f
00000010: 25b9 3640 8bb0 b940 ee86 833f f419 983f
00000020: e369 0240 c7c1 953f 99ce bf3f e968 5c40
00000030: 465c 543f c8f0 1540 de4f fc3f 7ce1 8940

layer1.conv2.weight f4 [16, 16, 3, 3]
-0.06325791 -0.05066786 0.12821895 0.009902357 -0.1420975 0.024846157 0.20558898 -0.06500924
-0.16006777 -0.04898727 -0.16497424 -0.18013257 -0.27203488 -0.12657942 -0.08115187 -0.18348154
-0.100377485 -0.068792954 0.27093303 0.29990393 -0.12309769 0.10633129 0.56899333 0.22651349
-0.16922767 0.39717048 0.27582064 -0.027822137 0.061785284 -0.019830301 -0.10139391 -0.1271729
-0.087550275 -0.24445161 -0.04762602 0.09939122 -0.39736658 -0.098271206 -0.070499726 -0.24241328
0.09840555 -0.054413777 -0.21940404 -0.07488503 -0.14839305 -0.15312417 0.019251352 0.003282105
-0.15890415 0.15248051 0.15087989 -0.2308046 0.10149622 0.052966036 -0.117563464 -0.23045692
-0.0664687 -0.04424268 -0.29131228 -0.20039338 0.061060227 -0.19692051 -0.13663511 0.12800147
0.51079863 0.24862851 0.02562048 0.31616333 0.2346693 -0.14079916 -0.094397835 -0.09656478
0.16236158 0.013357914 -0.09266904 0.12824515 0.12402799 -0.0878966 0.13412495 0.08049105
-0.21166657 0.19543153 0.009888708 -0.1364248 0.06312609 0.16361235 0.0110729085 -0.037882183
0.08227696 0.096340574 0.2560774 -0.16245148 -0.2502162 0.28367808 -0.17749803 -0.024849853
0.21573159 0.025152812 0.03244537 0.32247683 0.21825875 -0.3371925 0.21754147 0.18200746
-0.0032461877 0.21396777 0.31132787 0.38254002 -0.13259861 0.026257517 0.24469033 -0.0045779203
0.06209262 0.08982252 -0.021529086 0.21709555 0.13116221 0.13991748 0.28152385 -0.06955444
0.2474189 0.42242804 0.3428221 0.08868718 0.18179007 0.034583632 0.15155101 0.025837703
-0.18745828 0.033149153 0.13197935 -0.02660509 -0.098597385 0.124136604 0.20423478 0.040996958
0.09607922 0.16266735 -0.10213437 -0.035145395 0.02365217 0.063656285 0.31934592 0.13266653
0.062394038 -0.17301664 0.029770937 0.12160173 0.090427436 0.16684888 0.06687382 -0.020705258
-0.021964988 -0.34340197 -0.35502627 -0.44083512 -0.40615734 -0.46088895 -0.45154074 -0.33769092
-0.27511048 -0.11022062 -0.28168997 -0.1630126 0.15889266 -0.06436196 -0.06103195 0.11360775
0.33447933 0.14441448 0.04923791 -0.050776277 -0.08110698 -0.11051036 -0.12429791 -0.3366192
-0.12426285 0.018183773 -0.28600034 -0.22460636 -0.13930081 -0.13987276 -0.25554115 0.011033212
0.06527144 0.18434559 -0.05367568 -0.032081727 0.12457468 0.1908856 0.16128418 0.13384035
0.051606536 0.038810026 0.26462355 0.07929448 -0.0862227 0.048888598 -0.22054383 -0.07871791
0.2514086 -0.21091942 -0.21656649 0.17276883 -0.20169142 -0.2665868 -0.07705824 -0.11424944
-0.47379702 -0.11239879 -0.039423548 -0.4442621 -0.44805548 -0.007557712 -0.17014034 -0.3648193
-0.025555337 0.06314198 0.19727184 0.019446913 0.14797057 0.3101484 0.063590705 0.09499578
0.19915795 -0.09175506 0.043767318 0.1051629 0.15154387 0.082217894 0.14795236 0.116224214
0.11084471 0.21723323 -0.23637876 -0.33076417 -0.06254891 0.084903225 -0.03860569 -0.112136275
0.2220998 0.28027236 0.05343092 -0.06608737 0.21731128 0.38377675 -0.03129351 -0.1198046
0.17512983 -0.17098539 -0.24867733 -0.039143037 0.19547725 0.0072829514 -0.18614008 0.078289695
00000000: 5d8d 81bd 1a89 4fbd d44b 033e 7f3d 223c
00000010: 0282 11be 2b8a cb3c eb85 523e 9023 85bd
00000020: cee8 23be e0a6 48bd 02ef 28be ac74 38be
00000030: 2848 8bbe 099e 01be f432 a6bd 96e2 3bbe
00000040: b692 cdbd 52e3 8cbd bcb7 8a3e 028d 993e
00000050: a41a fcbd 38c4 d93d 8ca9 113f 27f3 673e
00000060: 054a 2dbe ee59 cb3e 5d38 8d3e 40eb e3bc
00000070: 9112 7d3d 2873 a2bc 9ca7 cfbd 9d39 02be
00000080: 8f4d b3bd 8651 7abe 8013 43bd a08d cb3d
00000090: a273 cbbe 6a42 c9bd 2962 90bd 303b 78be
000000a0: d988 c93d fbe0 5ebd 74ab 60be 535d 99bd
000000b0: 59f4 17be 95cc 1cbe 03b5 9d3c 9618 573b
000000c0: c5b7 22be da23 1c3e 4280 1a3e 0b58 6cbe
000000d0: 40dd cf3d eaf2 583d 1dc5 f0bd e6fc 6bbe
000000e0: be20 88bd d037 35bd e226 95be ec33 4dbe
000000f0: 4a1a 7a3d 88a5 49be 13ea 0bbe d112 033e
00000100: b3c3 023f 7998 7e3e 0ae2 d13c 29e0 a13e
00000110: 264d 703e a82d 10be a753 c1bd c1c3 c5bd
00000120: 1d42 263e 27db 5a3c 44c9 bdbd b252 033e
00000130: 6302 fe3d 2203 b4bd 0d58 093e 7ed8 a43d
00000140: 1fbf 58be 341f 483e 3f04 223c f1b2 0bbe
00000150: 4048 813d ff89 273e 256b 353c 592a 1bbd
00000160: d380 a83d 354e c53d 941c 833e ae59 26be
00000170: 561c 80be 413e 913e 0bc2 35be eb91 cbbc
00000180: bee8 5c3e 450d ce3c 70e5 043d af1b a53e
00000190: 397f 5f3e 7fa4 acbe 31c3 5e3e 2a60 3a3e
000001a0: febd 54bb 5e1a 5b3e 5e66 9f3e 49dc c33e
000001b0: eec7 07be 011a d73c 1a90 7a3e 6102 96bb
000001c0: d554 7e3d dff4 b73d c45d b0bc 4c4e 5e3e
000001d0: 634f 063e 8746 0f3e e523 903e 8f72 8ebd
000001e0: 615b 7d3e 7d48 d83e 6186 af3e a0a1 b53d
000001f0: 2d27 3a3e 91a7 0d3d 3030 1b3e 97a9 d33c
00000200: 10f5 3fbe 68c7 073d 9825 073e ebf2 d9bc
00000210: 6ded c9bd 553b fe3d ec22 513e 6dec 273d
00000220: 2fc5 c43d 4592 263e d32b d1bd 9ef4 0fbd
00000230: 32c2 c13c 3a5e 823d 4f81 a33e bcd9 073e
00000240: e490 7f3d 462b 31be 2ee2 f33c 540a f93d
00000250: 0532 b93d 6fda 2a3e 24f5 883d 139e a9bc
00000260: ebef b3bc 62d2 afbe 01c6 b5be 24b5 e1be
00000270: dbf3 cfbe a3f9 ebbe 5930 e7be d3e5 acbe
00000280: 48db 8cbe 59bb e1bd ab39 90be c6ec 26be
00000290: c2b4 223e 34d0 83bd a3fc 79bd 2eab e83d
000002a0: e040 ab3e 64e1 133e b1ad 493d c9fa 4fbd
000002b0: 6b1b a6bd 4153 e2bd e78f febd 5a59 acbe
000002c0: 857d febd 23f6 943c a36e 92be 36ff 65be
000002d0: dfa4 0ebe ce3a 0fbe 4ad6 82be a5c4 343c
000002e0: 08ad 853d 17c5 3c3e 08db 5bbd 2168 03bd
000002f0: 0321 ff3d 8477 433e ae27 253e 720d 093e
00000300: 6061 533d 43f7 1e3d bd7c 873e 2565 a23d
00000310: 8795 b0bd 693f 483d 3ed6 61be db36 a1bd
00000320: a1b8 803e 43fb 57be 9bc3 5dbe 50ea 303e
00000330: 3288 4ebe 117e 88be b6d0 9dbd 9cfb e9bd
00000340: 8695 f2be 5631 e6bd 967a 21bd 5276 e3be
00000350: 8767 e5be afa6 f7bb 4539 2ebe 98c9 babe
00000360: 6d59 d1bc 9550 813d a101 4a3e 224f 9f3c
00000370: 9985 173e c5cb 9e3e d83b 823d 268d c23d
00000380: 10f0 4b3e 14ea bbbd 5c45 333d a65f d73d
00000390: 512e 1b3e db61 a83d d380 173e f606 ee3d
000003a0: 8d02 e33d 6372 5e3e 460d 72be ec59 a9be
000003b0: a519 80bd bee1 ad3d 0021 1ebd b4a7 e5bd
000003c0: 216e 633e dc7f 8f3e 61da 5a3d d158 87bd
000003d0: d986 5e3e 637e c43e a02d 00bd 1d5c f5bd
000003e0: 3c55 333e cb16 2fbe 45a5 7ebe 7354 20bd
000003f0: 302b 483e d3a5 ee3b 819b 3ebe 5956 a03d

layer1.bn2.weight f4 [16]
0.8394994 1.1001418 1.4316183 0.7006474 1.0047672 0.99490356 1.5416765 0.94957143
0.8758979 1.1433136 1.0444576 1.7586505 1.1791966 1.3544881 0.94410646 1.092695
00000000: 6fe9 563f 72d1 8c3f 453f b73f a15d 333f
00000010: 369c 803f 00b2 7e3f a855 c53f 1d17 733f
00000020: d83a 603f 1a58 923f c9b0 853f 761b e13f
00000030: eaef 963f de5f ad3f f6b0 713f 6edd 8b3f

layer1.bn2.bias f4 [16]
0.14949104 0.57818234 0.29697588 0.71257156 0.17903951 0.3774128 0.09794157 -0.10415047
0.08613329 0.21244267 0.61937904 -0.16122298 0.3943145 -0.21406817 0.6894232 -0.48971888
00000000: 2e14 193e c203 143f 390d 983e 176b 363f
00000010: 2256 373e 403c c13e 9795 c83d d74c d5bd
00000020: a666 b03d 928a 593e a08f 1e3f a317 25be
00000030: 97e3 c93e b034 5bbe 0a7e 303f 6fbc fabe

layer1.bn2.running_mean f4 [16]
1.9846113 -2.3182533 -0.55267537 -1.0112865 -0.036927782 -0.24461414 -0.35352403 0.1967849
0.1668087 1.4629631 -2.0155838 -0.052697815 -0.054131046 -2.4240954 0.54341584 0.033268876
00000000: be07 fe3f 435e 14c0 227c 0dbf d671 81bf
00000010: 9641 17bd 217c 7abe 1a01 b5be fb81 493e
00000020: e6cf 2a3e 6042 bb3f 53ff 00c0 aad9 57bd
00000030: 84b8 5dbd 6124 1bc0 4d1d 0b3f f244 083d

layer1.bn2.running_var f4 [16]
2.4879136 2.746481 3.7599425 2.982532 2.9851751 2.302133 5.2807255 2.0710905
1.7730024 4.3642435 3.07833 3.1114974 3.4705336 5.5671554 3.6602604 1.7046164
00000000: fa39 1f40 58c6 2f40 e6a2 7040 cee1 3e40
00000010: 1c0d 3f40 2656 1340 b4fb a840 bf8c 0440
00000020: bef1 e23f e2a7 8b40 5c03 4540 c622 4740
00000030: 391d 5e40 2326 b240 b541 6a40 df30 da3f

layer2.conv1.weight f4 [32, 16, 3, 3]
-0.0052118073 0.08925784 -0.048154682 0.16822788 -0.037200976 -0.10739383 0.25602847 -0.109452434
-0.23690028 -0.07231605 0.13276042 0.585727 -0.08571787 0.07509899 0.30747268 -0.12293334
0.08974625 0.060115013 -0.28201547 0.03233897 0.052358143 -0.09853345 0.12804995 -0.05456755
-0.19387507 0.048669234 -0.21194538 -0.008750738 0.12591143 0.0855206 -0.053384617 0.07025418
0.15707457 0.035153538 -0.06859596 0.03341337 0.13322009 0.11656754 0.52891517 0.032545414
0.057240844 0.0655795 -0.04481242 -0.11175049 -0.15276946 0.029020354 0.41934946 0.21931173
0.029181642 0.26083884 0.33971384 0.37895703 0.35561424 0.3619048 0.0051090876 0.2401572
0.27898154 0.13038863 0.31015894 0.22877277 0.20882954 0.10673606 -0.0031733804 -0.12163549
0.23284815 0.31354588 -0.22120817 0.058800597 0.16917862 -0.13342366 -0.06919619 0.071263865
0.27539083 0.12910792 -0.15166672 0.19419637 0.059427552 -0.13804992 -0.29060218 -0.23708972
-0.054232527 0.051160976 -0.017800488 0.0033707526 -0.2642106 -0.11615785 -0.0127088 -0.3480658
-0.30644128 -0.13386276 -0.13177118 -0.035780393 0.009403396 -0.23709069 0.06560989 0.19932932
-0.27427277 -0.011792095 0.14309245 0.19464855 0.19060545 0.098176986 0.074595004 0.094993375
0.009814566 0.10314564 0.10822648 -0.02076632 -0.04451257 0.14443375 0.01887129 -0.07905113
0.02664568 -0.12117442 0.039590064 0.022546375 -0.29464442 -0.0054164254 -0.20768449 -0.008523743
-0.10829708 -0.36190823 -0.22136201 -0.1593019 -0.23591684 -0.12115253 -0.18536294 -0.14691281
0.2216425 -0.1508286 -0.40198448 -0.1432073 0.05049847 -0.27395144 -0.23914453 0.29405606
0.34603405 0.08042227 0.18528154 0.3818303 0.09590421 -0.06630363 -0.07561638 -0.025477324
-0.49495873 -0.08016411 0.027640041 -0.41339993 -0.0437219 0.16857857 -0.20981412 0.0727512
0.081669845 -0.110012695 0.044906393 0.059857376 -0.053797245 0.053224646 0.036859836 -0.12659267
-0.06656118 -0.0038894014 0.12708345 0.06416031 0.05977571 0.12424048 -0.10420214 0.15224725
-0.024365515 -0.25093603 -0.066635616 -0.20102832 -0.11346913 -0.23400669 0.026714409 0.16259724
-0.024376038 0.19230598 0.29021987 -0.03817845 -0.11242805 -0.18660043 -0.08006808 -0.08126131
0.11862665 0.25641683 -0.12525147 0.067170195 0.20027056 -0.0860421 0.12186909 0.013020168
0.07923888 0.14701156 0.034496248 0.10918692 0.048067573 -0.11877796 0.088287145 0.1708277
0.03145213 0.1760964 0.20024191 -0.0052374136 0.43472567 0.20839179 0.045593653 -0.016323313
0.024826825 0.14340287 -0.019851286 0.047433153 0.19976632 0.0019079386 0.041640382 0.14773773
-0.014680272 0.12864059 0.1376979 0.30975488 0.32985917 0.3757101 0.44786078 0.32615075
0.27184 0.040131997 -0.07220195 -0.049316347 0.0034203366 -0.1656757 -0.047196582 -0.17238624
-0.05335988 0.13399027 -0.18761471 -0.07525321 0.18285762 0.0149422325 0.02582055 0.1742706
0.05013637 0.017511155 0.07885236 -0.29377416 -0.4537346 -0.2615253 -0.46832553 -0.6850264
-0.3595508 -0.33933264 -0.42981523 -0.26137444 0.048566822 0.121857636 -0.018146282 0.07024017
00000000: cfc7 aabb d0cc b63d d83d 45bd ee43 2c3e
00000010: 0d60 18bd 4cf1 dbbd 2a16 833e 9928 e0bd
00000020: fd95 72be 701a 94bd 59f2 073e 34f2 153f
00000030: da8c afbd 80cd 993d 0f6d 9d3e 7ac4 fbbd
00000040: e2cc b73d 293b 763d 5564 90be de75 043d
00000050: 7e75 563d e8cb c9bd 871f 033e 3982 5fbd
00000060: 3087 46be 6459 473d 3608 59be 415f 0fbc
00000070: edee 003e 6d25 af3d d4a9 5abd 6ce1 8f3d
00000080: 28d8 203e 28fd 0f3d 0a7c 8cbd 75dc 083d
00000090: d96a 083e f6ba ee3d fc66 073f 574e 053d
000000a0: 6075 6a3d 8b4e 863d 3a8d 37bd 71dd e4bd
000000b0: 996f 1cbe 18bc ed3c f9b4 d63e 4193 603e
000000c0: 570e ef3c ab8c 853e f9ee ad3e a806 c23e
000000d0: 1213 b63e 964b b93e 226a a73b c5eb 753e
000000e0: abd6 8e3e 9984 053e 27cd 9e3e 6943 6a3e
000000f0: 69d7 553e 6f98 da3d 7df8 4fbb 071c f9bd
00000100: bf6f 6e3e 1689 a03e 6584 62be e5d8 703d
00000110: 293d 2d3e 36a0 08be bbb6 8dbd caf2 913d
00000120: 0700 8d3e de34 043e 854e 1bbe 6adb 463e
00000130: 4e6a 733d f55c 0dbe cfc9 94be a6c7 72be
00000140: ed22 5ebd 2c8e 513d 54d2 91bc d8e7 5c3b
00000150: 9d46 87be 2be4 edbd 9238 50bc ae35 b2be
00000160: dfe5 9cbe 5213 09be 06ef 06be 768e 12bd
00000170: b410 1a3c e7c7 72be 7a5e 863d fc1c 4c3e
00000180: 7b6d 8cbe a233 41bc d486 123e f351 473e
00000190: 132e 433e 0411 c93d 44c5 983d e38b c23d
000001a0: 46cd 203c 053e d33d d8a5 dd3d 211e aabc
000001b0: d052 36bd 71e6 133e f797 9a3c 8fe5 a1bd
000001c0: 0b48 da3c 4b2a f8bd 3129 223d 2db3 b83c
000001d0: a2db 96be 457c b1bb 3eab 54be 2ba7 0bbc
000001e0: dcca ddbd 094c b9be b9ac 62be 0a20 23be
000001f0: 2f94 71be d11e f8bd c8cf 3dbe 5070 16be
00000200: 40f6 623e d072 1abe e9d0 cdbe efa4 12be
00000210: 7cd7 4e3d 5d43 8cbe 4ee2 74be 848e 963e
00000220: 602b b13e 6eb4 a43d 72ba 3d3e 437f c33e
00000230: 6d69 c43d 33ca 87bd c3dc 9abd d2b5 d0bc
00000240: 3b6b fdbe 152d a4bd 5e6d e23c 28a9 d3be
00000250: bc15 33bd dc9f 2c3e 83d9 56be 95fe 943d
00000260: 8542 a73d 564e e1bd c4ef 373d 022d 753d
00000270: 805a 5cbd 1602 5a3d 57fa 163d 82a1 01be
00000280: 3a51 88bd 54e5 7ebb 2a22 023e 7b66 833d
00000290: 60d7 743d cb71 fe3d ee67 d5bd b4e6 1b3e
000002a0: 309a c7bc b07a 80be 4178 88bd 5eda 4dbe
000002b0: 8162 e8bd 739f 6fbe 2dd8 da3c e47f 263e
000002c0: 42b0 c7bc dceb 443e b397 943e 0261 1cbd
000002d0: ad40 e6bd 2f14 3fbe bcfa a3bd 546c a6bd
000002e0: 87f2 f23d 1149 833e ec41 00be 8790 893d
000002f0: ba13 4d3e d736 b0bd 8096 f93d 8b52 553c
00000300: fe47 a23d 338a 163e f04b 0d3d 649d df3d
00000310: 81e2 443d dc41 f3bd e4cf b43d 75ed 2e3e
00000320: f3d3 003d 9d52 343e 370c 4d3e 9c9e abbb
00000330: 5d94 de3e a864 553e 69c0 3a3d 78b8 85bc
00000340: a061 cb3c 34d8 123e 2a9f a2bc 4449 423d
00000350: 8b8f 4c3e cc13 fa3a 1b8f 2a3d 8f48 173e
00000360: 8685 70bc 5cba 033e ae00 0d3e 3198 9e3e
00000370: 4de3 a83e 135d c03e 024e e53e 3bfd a63e
00000380: 9d2e 8b3e 7361 243d 9ede 93bd f0ff 49bd
00000390: ba27 603b e4a6 29be 3451 41bd 0586 30be
000003a0: e48f 5abd bf34 093e 121e 40be 5b1e 9abd
000003b0: 073f 3b3e 44d0 743c 9e85 d33c fe73 323e
000003c0: cb5b 4d3d 8e73 8f3c 597d a13d 9169 96be
000003d0: e74f e8be a5e6 85be 5dc8 efbe e45d 2fbf
000003e0: 0b17 b8be 02bd adbe be10 dcbe dfd2 85be
000003f0: 01ee 463d 7f90 f93d 83a7 94bc 14da 8f3d

layer2.bn1.weight f4 [32]
0.927912 0.97812635 0.777414 1.0788499 0.8679184 1.1357677 0.9213585 0.87980586
0.8657007 1.1401211 0.7638759 1.0809087 0.9961665 0.8425684 1.2038983 0.9031063
1.0854021 0.8366656 1.167987 0.8485752 0.7836312 0.7982749 1.4434459 1.2418072
0.842466 0.89142394 0.9526022 0.8803516 0.921602 0.9930152 0.8074793 0.89189386
00000000: a48b 6d3f 7d66 7a3f 9b04 473f c117 8a3f
00000010: e62f 5e3f d660 913f 27de 6b3f f53a 613f
00000020: 909e 5d3f 7def 913f 5f8d 433f 375b 8a3f
00000030: c504 7f3f 90b2 573f 5719 9a3f f931 673f
00000040: 75ee 8a3f b72f 563f 9980 953f 393c 593f
00000050: 0e9c 483f be5b 4c3f d6c2 b83f 8af3 9e3f
00000060: daab 573f 5c34 643f bddd 733f b95e 613f
00000070: 1cee 6b3f 3f36 7e3f f7b6 4e3f 2853 643f

layer2.bn1.bias f4 [32]
-0.047935914 0.14505199 -0.03365215 -0.06017502 -0.28598398 -0.00092997693 0.193686 -0.19609529
-0.21859452 -0.035620324 -0.08090608 -0.20957772 -0.117717534 -0.23486456 -0.075574964 -0.2772346
-0.15235169 -0.17192392 -0.30405426 -0.16058229 -0.022971531 0.14719188 -0.4058938 -0.0587658
-0.14080341 -0.17247054 -0.2600572 0.03845874 -0.24227308 -0.15025395 -0.08964186 -0.2723131
00000000: 7358 44bd 8288 143e d6d6 09bd 157a 76bd
00000010: 7e6c 92be b2c9 73ba 9f55 463e 34cd 48be
00000020: 3ed7 5fbe 9ee6 11bd 16b2 a5bd 8b9b 56be
00000030: e415 f1bd 5680 70be 0cc7 9abd b2f1 8dbe
00000040: 1502 1cbe d30c 30be 00ad 9bbe af6f 24be
00000050: cb2e bcbc 78b9 163e 50d1 cfbe 68b4 70bd
00000060: c52e 10be 1e9c 30be 3826 85be e986 1d3d
00000070: 6f16 78be 2cdc 19be 2796 b7bd 9f6c 8bbe

layer2.bn1.running_mean f4 [32]
2.8606524 0.82501644 -5.748692 -6.994611 0.9067605 -1.0906345 -10.106709 -0.067436464
-3.509583 -4.2987766 -1.0365404 -2.4367666 -1.4928727 -0.8968367 -2.8389308 0.92007864
-2.3880858 -5.776842 -2.685871 1.065017 -2.0142174 -6.1709194 -6.4722233 1.4809635
-1.7870752 -5.994613 3.0490198 -1.1038517 -1.5601763 -10.4354515 -2.5688093 -2.9097717
00000000: ee14 3740 4734 533f 49f5 b7c0 dad3 dfc0
00000010: 7521 683f e999 8bbf 14b5 21c1 211c 8abd
00000020: 029d 60c0 948f 89c0 5bad 84bf fcf3 1bc0
00000030: 7416 bfbf 1797 65bf 0bb1 35c0 468a 6b3f
00000040: 66d6 18c0 e4db b8c0 4fe5 2bc0 7a52 883f
00000050: f0e8 00c0 2c78 c5c0 741c cfc0 3690 bd3f
00000060: e1be e4bf dfd3 bfc0 2423 4340 034b 8dbf
00000070: dbb3 c7bf 9cf7 26c1 5f67 24c0 b339 3ac0

layer2.bn1.running_var f4 [32]
11.378833 9.026422 6.2753544 10.510476 6.5566335 13.619519 13.107972 7.1593184
4.6703277 11.494393 5.3559113 10.5266285 13.042846 8.951131 11.984077 7.9969907
7.8876123 6.193481 8.200075 6.9506392 5.3472786 7.2910933 18.15801 12.48996
5.7351694 4.357489 5.186085 9.358903 3.1706796 10.329318 8.115107 5.286054
00000000: b30f 3641 396c 1041 b4cf c840 e92a 2841
00000010: f1cf d140 8de9 5941 41ba 5141 2319 e540
00000020: 5373 9540 09e9 3741 a063 ab40 126d 2841
00000030: 7faf 5041 d537 0f41 c8be 3f41 59e7 ff40
00000040: 5267 fc40 ff30 c640 8233 0341 a36b de40
00000050: e81c ab40 a350 e940 9b43 9141 e0d6 4741
00000060: 8286 b740 8d70 8b40 69f4 a540 11be 1541
00000070: 6aec 4a40 e344 2541 7ad7 0141 5b27 a940

layer2.conv2.weight f4 [32, 32, 3, 3]
-0.19962654 -0.04132175 0.0816536 0.04433507 0.110843964 0.027092673 0.042901885 0.19036067
0.09620004 -0.09899901 0.15210418 0.21420763 -0.08890503 0.033634365 0.015176035 0.00536637
-0.078505285 -0.19261956 -0.0659416 0.030855628 0.05412666 -0.13934645 -0.2332591 -0.072477594
-0.12242227 -0.14505269 -0.09596907 0.27718863 -0.021094345 -0.42871115 0.20172259 -0.05916633
-0.3722043 0.24880233 -0.06451428 -0.25696903 -0.30905062 -0.25680444 -0.097417176 -0.47183666
-0.3031893 -0.2809772 -0.19978578 -0.14486161 -0.15408605 -0.17870906 -0.18733491 0.22020435
-0.106172875 -0.07832085 -0.038213167 -0.07138431 -0.024239466 -0.08296011 0.1982424 0.059035018
-0.30763665 0.13670777 0.1113459 -0.2430903 0.012906495 0.11075206 -0.17445002 -0.3339332
0.05273354 -0.2098484 -0.04431669 0.21228859 0.010710576 -0.06481876 -0.019257767 -0.0433612
0.023701444 0.09564848 0.040418036 -0.04816714 0.35128817 0.39311782 -0.021617388 0.08801968
0.07143238 0.09570261 -0.013256133 -0.2818903 0.026018284 0.12807164 0.06430733 -0.23550639
-0.042395346 0.029463591 0.06216158 -0.14810696 -0.3726793 0.23343655 0.060045943 0.13251714
0.32086703 0.010440125 0.2505084 0.048849758 0.123029046 -0.07129368 -0.011799748 0.02211194
-0.07118898 0.0072772824 -0.2996481 -0.32435367 0.04238849 0.13097668 -0.102592185 -0.041923985
0.036209863 -0.1345153 0.051960442 0.14074987 -0.13193215 0.17280811 0.04663135 0.10525398
0.1824337 0.14900617 0.28722805 -0.027678566 -0.024145769 -0.10558014 -0.05218692 -0.17737393
-0.38497087 -0.12721659 -0.14891675 -0.14575814 -0.15256576 -0.12956971 0.12852927 -0.28304487
-0.3062571 -0.2287675 -0.013635736 0.052018676 0.09111223 0.10598517 0.06863897 -0.030811608
-0.20297858 0.038480554 0.35543913 -0.047995243 0.026166594 0.11903337 -0.24583969 -0.39694542
-0.006091145 -0.024693288 0.13101642 0.42526278 -0.043752346 0.21215901 0.3752402 -0.19660276
0.14113678 0.13883187 -0.11000466 -0.1760904 0.017936543 0.043140784 -0.004653811 0.036131628
0.0014038723 0.11335971 0.07668198 0.09034274 0.20287895 0.034175422 -0.027790498 0.08306922
0.20258246 -0.0043584714 -0.03388986 0.13700007 -0.0059678913 -0.05744557 -0.32099965 -0.2676039
-0.006912112 -0.026992762 -0.23456663 0.13167 0.3354044 0.041210696 -0.25351828 -0.33125174
0.12877361 0.053359207 -0.18212838 0.29510856 -0.008090966 -0.16821606 0.30747986 0.12036268
-0.1411419 0.04771795 -0.008305612 -0.4074167 0.18058507 -0.019224184 -0.4284252 -0.07503927
-0.13539124 0.12813962 0.048189014 -0.074644394 0.19098385 -0.6091877 -0.85455906 -0.35786837
-0.2887459 -0.17346674 0.018351296 -0.33690846 -0.38759637 -0.07020409 -0.038000006 -0.2223435
0.047868624 0.22426943 0.14369784 0.17086266 -0.054883935 0.1940316 0.08254576 -0.51533675
-0.25392795 -0.010436331 -0.0019318783 -0.08305193 0.04725401 -0.13642596 -0.10921684 -0.08313883
-0.07661976 -0.15458737 -0.14706475 0.15235561 0.197241 -0.13330027 0.15304714 -0.072979815
-0.3171892 0.07544165 0.047984127 -0.18141541 -0.041597355 0.18804888 0.26516676 -0.0638647
00000000: e66a 4cbe ff40 29bd 013a a73d b198 353d
00000010: 2902 e33d 74f1 dd3c e3b9 2f3d e8ed 423e
00000020: 8704 c53d febf cabd 33c1 1b3e 3f59 5b3e
00000030: d713 b6bd 30c4 093d e8a4 783c 60d8 af3b
00000040: 61c7 a0bd 103e 45be 640c 87bd f1c4 fc3c
00000050: ebb3 5d3d d6b0 0ebe 79db 6ebe 226f 94bd
00000060: 87b8 fabd b188 14be 6f8b c4bd abeb 8d3e
00000070: 0cce acbc 0780 dbbe 5e90 4e3e 6558 72bd
00000080: 9091 bebe 0ac6 7e3e 1020 84bd 7291 83be
00000090: e23b 9ebe df7b 83be a882 c7bd 9394 f1be
000000a0: a13b 9bbe 3edc 8fbe a594 4cbe 9a56 14be
000000b0: bcc8 1dbe 82ff 36be b9d4 3fbe 407d 613e
000000c0: 2a71 d9bd af66 a0bd 6985 1cbd f031 92bd
000000d0: d891 c6bc fde6 a9bd 0e00 4b3e b4ce 713d
000000e0: 8d82 9dbe 1ffd 0b3e 5209 e43d aaec 78be
000000f0: c375 533c fad1 e23d 07a3 32be 4bf9 aabe
00000100: 20ff 573d 80e2 56be 6b85 35bd 2e62 593e
00000110: 697b 2f3c b3bf 84bd 77c2 9dbc 839b 31bd
00000120: 8829 c23c 5ae3 c33d 628d 253d e84a 45bd
00000130: 0bdc b33e bd46 c93e f316 b1bc a943 b43d
00000140: 244b 923d bbff c33d 4030 59bc ed53 90be
00000150: 4c24 d53c 3625 033e 90b3 833d 9628 71be
00000160: bea6 2dbd a15d f13c 249d 7e3d 5aa9 17be
00000170: d2cf bebe fe09 6f3e bcf2 753d 93b2 073e
00000180: af48 a43e 0f0d 2b3c a342 803e af16 483d
00000190: a7f6 fb3d 6c02 92bd bb53 41bc 1924 b53c
000001a0: 87cb 91bd 4576 ee3b 7a6b 99be af11 a6be
000001b0: 8e9f 2d3d c01e 063e da1b d2bd 7cb8 2bbd
000001c0: cb50 143d 61be 09be 79d4 543d bc20 103e
000001d0: 3919 07be 9cf4 303e 8400 3f3d 668f d73d
000001e0: e6cf 3a3e 1395 183e 8e0f 933e 29be e2bc
000001f0: 59cd c5bc 673a d8bd f4c1 55bd 83a1 35be
00000200: e71a c5be 1145 02be a27d 18be 9f41 15be
00000210: 333a 1cbe ecad 04be 2d9d 033e 42eb 90be
00000220: bbcd 9cbe 0742 6abe 6c68 5fbc 8911 553d
00000230: 0d99 ba3d c10e d93d 9792 8c3d a068 fcbc
00000240: 9ed9 4fbe c99d 1d3d 1efc b53e a996 44bd
00000250: 535b d63c c4c7 f33d 66bd 7bbe 6e3c cbbe
00000260: 3a98 c7bb 9449 cabc 2b29 063e 0bbc d93e
00000270: a935 33bd 3640 593e 7c1f c03e 3c52 49be
00000280: 2986 103e f129 0e3e 204a e1bd 0b51 34be
00000290: a8ef 923c 64b4 303d ff7e 98bb c2fe 133d
000002a0: 2302 b83a 2329 e83d 710b 9d3d 9d05 b93d
000002b0: 80bf 4f3e 87fb 0b3d e6a8 e3bc 3220 aa3d
000002c0: c771 4f3e 82d1 8ebb 18d0 0abd bf49 0c3e
000002d0: 4d8e c3bb 0c4c 6bbd 115a a4be 6103 89be
000002e0: ff7e e2bb ed1f ddbc 3c32 70be 80d4 063e
000002f0: 20ba ab3e 8ccc 283d 26cd 81be d499 a9be
00000300: 3bdd 033e 2f8f 5a3d dd7f 3abe 7818 973e
00000310: f98f 04bc d540 2cbe 006e 9d3e b580 f63d
00000320: 8187 10be e673 433d 4314 08bc ec98 d0be
00000330: 4beb 383e 097c 9dbc 8c5a dbbe 30ae 99bd
00000340: 00a4 0abe 0837 033e d861 453d 29df 98bd
00000350: 4591 433e baf3 1bbf 62c4 5abf 863a b7be
00000360: 81d6 93be 44a1 31be 7555 963c 447f acbe
00000370: 0873 c6be 29c7 8fbd e5a5 1bbd 04ae 63be
00000380: e411 443d e3a6 653e 8725 133e 9ff6 2e3e
00000390: facd 60bd 38b0 463e c00d a93d 1ced 03bf
000003a0: d802 82be 25fd 2abc 1437 fdba 2117 aabd
000003b0: 6c8d 413d 3fb3 0bbe 14ad dfbd b144 aabd
000003c0: d2ea 9cbd 274c 1ebe 2498 16be 1c03 1c3e
000003d0: 8bf9 493e de7f 08be 64b8 1c3e 7176 95bd
000003e0: 9f66 a2be 2781 9a3d 018b 443d f6c4 39be
000003f0: fd61 2abd e38f 403e f0c3 873e 7fcb 82bd

layer2.bn2.weight f4 [32]
1.1351639 1.0525699 1.2061486 1.1832745 1.1325582 1.1111591 0.9681114 1.35023
1.3074087 1.1337919 1.3328012 1.2905737 1.2534233 1.2073686 1.390023 1.6569568
1.1182814 1.0112315 1.1823393 0.9359184 1.245351 1.0802609 1.3592263 1.2347965
1.2886415 1.373241 1.2921674 1.3155591 1.3881288 0.96977836 1.3024775 1.2504734
00000000: 0d4d 913f 9cba 863f 1463 9a3f 8a75 973f
00000010: abf7 903f 763a 8e3f 26d6 773f 56d4 ac3f
00000020: 2b59 a73f 1820 913f 3b99 aa3f 8531 a53f
00000030: 2d70 a03f 0e8b 9a3f 46ec b13f 2917 d43f
00000040: d823 8f3f 0970 813f e556 973f 5998 6f3f
00000050: a967 9f3f fd45 8a3f 21fb ad3f d00d 9e3f
00000060: 34f2 a43f 5cc6 af3f be65 a53f 3e64 a83f
00000070: 34ae b13f 6543 783f 95b7 a63f 830f a03f

layer2.bn2.bias f4 [32]
-0.059700407 -0.050813526 0.077068694 -0.44619724 -0.1336146 -0.0008361757 0.04255815 -0.3602603
-0.1886099 -0.15505546 -0.006697271 -0.18310311 -0.10697813 -0.024087673 -0.17414801 0.07264395
-0.20258015 0.24823809 -0.027423013 -0.11180658 -0.0662589 -0.03358182 -0.30377236 -0.04036404
-0.073787495 0.15301362 -0.0430955 0.24213652 0.005281818 0.063291594 -0.0982395 -0.024278753
00000000: 6a88 74bd d821 50bd 31d6 9d3d f773 e4be
00000010: 44d2 08be cd32 5bba 7451 2e3d 0a74 b8be
00000020: f422 41be dcc6 1ebe c874 dbbb 627f 3bbe
00000030: 5a17 dbbd 8353 c5bc db53 32be 5ac6 943d
00000040: 2c71 4fbe 2032 7e3e 3aa6 e0bc d9fa e4bd
00000050: bfb2 87bd 178d 09bd 0d88 9bbe c354 25bd
00000060: e61d 97bd 9aaf 1c3e e884 30bd a3f2 773e
00000070: 1a13 ad3b 069f 813d ca31 c9bd 3ce4 c6bc

layer2.bn2.running_mean f4 [32]
-2.217133 -1.0493087 -1.8895993 -1.2435255 -2.6720793 -0.41900268 3.16389 -1.3089099
1.3704882 -0.9594422 -1.8789246 -1.3953161 -0.9749566 -1.9679201 0.10648914 -2.2807026
0.00934293 -1.6109715 -2.607523 1.0056325 -0.91749734 1.9764432 -1.2759327 -0.45642924
-0.0781734 -4.751018 -0.25558016 1.8838392 -0.714961 -3.3033106 -1.9630026 -1.4276739
00000000: 82e5 0dc0 bf4f 86bf 64de f1bf d82b 9fbf
00000010: 5903 2bc0 8587 d6be 2c7d 4a40 5c8a a7bf
00000020: 286c af3f 019e 75bf 9a80 f0bf b899 b2bf
00000030: c196 79bf cee4 fbbf fa16 da3d 08f7 11c0
00000040: 1713 193c 5034 cebf a8e1 26c0 91b8 803f
00000050: 1be1 6abf 17fc fc3f c351 a3bf 18b1 e9be
00000060: 6019 a0bd 5708 98c0 67db 82be a521 f13f
00000070: af07 37bf 7169 53c0 ab43 fbbf 05be b6bf

layer2.bn2.running_var f4 [32]
3.8409724 2.6307335 4.9200206 1.8982958 4.1994905 4.0822663 3.7442627 2.9010456
3.191391 4.661811 4.3209963 2.8361156 3.784003 5.125175 3.4949534 6.0544763
3.5306077 5.218068 4.564175 3.4155319 3.6380985 4.1884246 3.017146 2.8604336
5.1180315 4.586987 6.5689726 5.9776373 4.938106 3.4957871 4.9847784 4.4021645
00000000: 7ed2 7540 f05d 2840 cf70 9d40 5bfb f23f
00000010: 3a62 8640 eda1 8240 00a2 6f40 bbaa 3940
00000020: c03f 4c40 8e2d 9540 9a45 8a40 eb82 3540
00000030: 1b2d 7240 6f01 a440 51ad 5f40 45be c140
00000040: 7af5 6140 6afa a640 b90d 9240 1398 5a40
00000050: 9bd6 6840 9307 8640 ec18 4140 5811 3740
00000060: eac6 a340 99c8 9240 0635 d240 ce48 bf40
00000070: f704 9e40 faba 5f40 4e83 9f40 88de 8c40

layer2.downsample.0.weight f4 [32, 16, 1, 1]
-0.15840802 -0.19357811 0.072520584 0.104035184 -0.3687639 0.23383617 -0.1812192 -0.5844052
-0.20572224 -0.06978016 -0.07126552 -0.105784 0.3576896 -0.17794108 -0.06145247 0.16111755
0.2189468 0.30620253 -0.16764179 -0.119961776 0.35038728 -0.5112981 0.14551257 0.2367349
0.372663 -0.0860112 0.11491357 0.11948185 -0.27204403 -0.15934213 0.06627285 -0.053112745
0.006002098 -0.37250915 -0.049629025 0.02158702 0.35285684 -0.46932447 -0.011262016 0.10665663
-0.19472134 -0.28431976 0.491228 0.022513237 0.21977028 -0.0006087688 -0.06420246 0.04979168
-0.15663433 0.1724129 -0.050698187 0.24800876 -0.04936742 0.22280017 0.1024241 -0.4139543
-0.0008673288 -0.2963971 -0.21046925 0.12936035 0.07276549 -0.43569052 -0.35093036 -0.029083466
0.11841778 0.2015793 -0.16843256 -0.5345381 -0.36584452 0.27342469 0.017833415 -0.084149815
-0.21254016 -0.58689207 0.082384825 0.057028584 0.011141022 -0.014814956 -0.07007359 0.066135876
-0.14405866 -0.07716989 -0.47598964 0.15126523 0.014131662 0.303712 -0.1833747 0.3965471
-0.08782809 0.21729301 -0.11340929 -0.07460571 -0.42706245 -0.09950404 -0.023175094 -0.020077689
-0.32097718 0.21419251 0.12427374 0.403943 0.44118854 0.1713966 -0.11947275 -0.17687458
-0.26513356 -0.15690824 0.017209828 -0.052435018 0.13022086 -0.076495975 -0.4127369 -0.038335975
-0.61966264 -0.17891274 -0.117901504 -0.0447235 -0.2061692 -0.1087736 -0.24343345 -0.10580337
-0.32679877 -0.19551827 -0.29807597 -0.29221916 -0.18110088 -0.023011152 -0.004368514 -0.1604033
-0.055906266 -0.023833418 0.2608134 -0.17323832 -0.40440068 0.063247494 0.1813689 -0.13890038
-0.35585758 -0.0327723 0.29536253 -0.09598452 0.054782126 -0.0056248037 -0.53384715 -0.093020216
-0.356608 -0.21634284 0.17994177 -0.58376765 -0.099912345 0.1605395 -0.054514922 -0.31565568
0.19833885 -0.08193805 0.09540679 -0.01912848 0.11393068 0.25564823 -0.09141246 0.014471211
0.34692878 -0.048136387 -0.013121139 -0.33675927 0.12657349 -0.028598528 0.11346252 -0.032880493
-0.21357106 -0.72399056 -0.113732554 -0.032992367 -0.010657857 0.14068234 0.16245969 0.052910384
-0.2011288 -0.34181198 -0.14047238 -0.1588062 -0.11926093 0.06853512 -0.46594855 -0.17939997
0.4135281 -0.09751467 -0.26470223 -0.15143615 -0.24273936 -0.19937208 -0.36112034 0.06789773
-0.043608516 0.011590445 0.348207 -0.6050304 0.08543743 0.14161603 0.045673173 -0.15587102
0.2861114 -0.2952681 -0.33785826 -0.14552686 -0.04937563 0.15767637 0.16972448 -0.12491904
0.1804002 -0.26085132 0.046748694 -0.5933059 0.3491309 -0.10036645 0.13879389 -0.16856343
0.03968215 -0.11251747 0.07528043 0.1169905 0.09354171 0.35933143 -0.07025987 -0.026759394
0.029782007 0.15065618 0.23484401 0.466489 -0.12644479 -0.045463376 -0.337723 0.0025864812
0.058021177 0.6274499 0.035788845 -0.03897403 -0.07920402 -0.07244475 0.03292092 -0.15934467
0.20664713 0.11080891 0.042262834 0.4432699 -0.07759204 -0.26274988 -0.06205471 0.10947756
-0.1174476 0.33526653 0.033646084 0.04781426 0.18037212 -0.43054008 0.23375303 -0.0039655357
00000000: b635 22be 5739 46be ac85 943d 6610 d53d
00000010: 9fce bcbe c072 6f3e 8791 39be 949b 15bf
00000020: daa8 52be e7e8 8ebd a8f3 91bd 48a5 d8bd
00000030: 1723 b73e 3036 36be 96b5 7bbd 00fc 243e
00000040: 9733 603e 94c6 9c3e 4aaa 2bbe 85ae f5bd
00000050: f665 b33e 6fe4 02bf 3f01 153e a26a 723e
00000060: afcd be3e a426 b0bd ce57 eb3d e6b2 f43d
00000070: 5b49 8bbe 952a 23be 0fba 873d c08c 59bd
00000080: 3fad c43b 85b9 bebe ce47 4bbd 43d7 b03c
00000090: a7a9 b43e 4c4b f0be 5284 38bc cb6e da3d
000000a0: 0865 47be 5c92 91be 3d82 fb3e ae6d b83c
000000b0: 760b 613e c895 1fba 947c 83bd 5cf2 4b3d
000000c0: c064 20be 028d 303e e7a8 4fbd 02f6 7d3e
000000d0: 7e35 4abd ba25 643e bac3 d13d d1f1 d3be
000000e0: 735d 63ba 5cc1 97be 4085 57be 0a77 043e
000000f0: 1306 953d d412 dfbe 25ad b3be 7340 eebc
00000100: 0585 f23d ce6a 4e3e 9679 2cbe 7dd7 08bf
00000110: f94f bbbe 52fe 8b3e 6217 923c bd56 acbd
00000120: 21a4 59be 8f3e 16bf 60b9 a83d ce96 693d
00000130: d588 363c 6eba 72bc be82 8fbd 3f72 873d
00000140: 1d84 13be 3f0b 9ebd eab4 f3be 46e5 1a3e
00000150: 7d88 673c 2480 9b3e 94c6 3bbe 3908 cb3e
00000160: 37df b3bd 0f82 5e3e 2143 e8bd e1ca 98bd
00000170: eea7 dabe c6c8 cbbd b2d9 bdbc f779 a4bc
00000180: 1f57 a4be 4855 5b3e 3b83 fe3d 9ed1 ce3e
00000190: 77e3 e13e 9782 2f3e 21ae f4bd 9c1e 35be
000001a0: 96bf 87be 8eac 20be a0fb 8c3c 1ac6 56bd
000001b0: 9e58 053e eca9 9cbd 4052 d3be 2f06 1dbd
000001c0: 36a2 1ebf e734 37be 5876 f1bd fd2f 37bd
000001d0: 051e 53be b1c4 debd 9e46 79be 70af d8bd
000001e0: 2b52 a7be f135 48be 6a9d 98be c09d 95be
000001f0: 8272 39be e281 bcbc c025 8fbb c340 24be
00000200: f8fd 64bd 4d3e c3bc 5589 853e 6365 31be
00000210: 9b0d cfbe e787 813d c5b8 393e e73b 0ebe
00000220: f732 b6be 3f3c 06bd c239 973e 8893 c4bd
00000230: 3963 603d 4650 b8bb 35aa 08bf 6281 bebd
00000240: 5395 b6be fa88 5dbe a842 383e cc71 15bf
00000250: d89e ccbd 7764 243e 0a4b 5fbd 9f9d a1be
00000260: 5719 4b3e 23cf a7bd a364 c33d 55b3 9cbc
00000270: 7d54 e93d 53e4 823e 7536 bbbd a818 6d3c
00000280: a6a0 b13e a92a 45bd 0cfa 56bc b66b acbe
00000290: 7b9c 013e 7647 eabc 0a5f e83d b2ad 06bd
000002a0: 5fb2 5abe 7257 39bf 9dec e8bd 0123 07bd
000002b0: 4b9e 2ebc 080f 103e d55b 263e 8fb8 583d
000002c0: b5f4 4dbe fb01 afbe fed7 0fbe 189e 22be
000002d0: 133f f4bd 245c 8c3d cf90 eebe a0b4 37be
000002e0: f5b9 d33e c5b5 c7bd 0d87 87be 1412 1bbe
000002f0: ab90 78be 3228 4cbe c4e4 b8be f70d 8b3d
00000300: d89e 32bd dae5 3d3c 3048 b23e 46e3 1abf
00000310: d2f9 ae3d cb03 113e cb13 3b3d a79c 1fbe
00000320: 327d 923e 612d 97be c2fb acbe fe04 15be
00000330: 1a3e 4abd ea75 213e 41cc 2d3e 8ed5 ffbd
00000340: d4ba 383e 4e8e 85be 8f7b 3f3d e5e2 17bf
00000350: 49c1 b23e ed8c cdbd fc1f 0e3e e49b 2cbe
00000360: c089 223d 8f6f e6bd a02c 9a3d b798 ef3d
00000370: cc92 bf3d 4afa b73e 68e4 8fbd 8436 dbbc
00000380: 65f9 f33c 9d45 1a3e f37a 703e a5d7 ee3e
00000390: be7a 01be ce37 3abd 07ea acbe f481 293b
000003a0: 9da7 6d3d 8fa0 203f 5397 123d 3ca3 1fbd
000003b0: b835 a2bd ea5d 94bd 16d8 063d 402b 23be
000003c0: 4e9b 533e c8ef e23d cb1b 2d3d 46f4 e23e
000003d0: 93e8 9ebd 2787 86be 142d 7ebd c535 e03d
000003e0: 5e88 f0bd 0ea8 ab3e 7ad0 093d e3d8 433d
000003f0: 78b3 383e c06f dcbe f45c 6f3e 53f1 81bb

layer2.downsample.1.weight f4 [32]
0.3040484 0.46994814 0.28526267 0.51285714 0.4825181 0.32919878 0.35687754 0.43586192
0.55556387 0.5008372 0.3298325 0.35440275 0.25241664 0.23379469 0.23521683 0.5041247
0.41113526 0.26714614 0.5962659 0.4288133 0.41045 0.42197675 0.07847953 0.39773995
0.46193227 0.29471907 0.3835582 0.17549084 0.24075803 0.585099 0.20968588 0.43959478
00000000: 3bac 9b3e 0b9d f03e f30d 923e 9b4a 033f
00000010: 9d0c f73e be8c a83e a7b8 b63e 4b29 df3e
00000020: 6f39 0e3f de36 003f cedf a83e 4774 b53e
00000030: c13c 813e e067 6f3e aedc 703e 510e 013f
00000040: 5280 d23e 61c7 883e e2a4 183f 6b8d db3e
00000050: 8126 d23e 560d d83e e0b9 a03d 92a4 cb3e
00000060: 6382 ec3e 6be5 963e be61 c43e dfb3 333e
00000070: 4689 763e 0cc9 153f e5b7 563e 9112 e13e

layer2.downsample.1.bias f4 [32]
-0.059700407 -0.050813526 0.077068694 -0.44619724 -0.1336146 -0.0008361757 0.04255815 -0.3602603
-0.1886099 -0.15505546 -0.006697271 -0.18310311 -0.10697813 -0.024087673 -0.17414801 0.07264395
-0.20258015 0.24823809 -0.027423013 -0.11180658 -0.0662589 -0.03358182 -0.30377236 -0.04036404
-0.073787495 0.15301362 -0.0430955 0.24213652 0.005281818 0.063291594 -0.0982395 -0.024278753
00000000: 6a88 74bd d821 50bd 31d6 9d3d f773 e4be
00000010: 44d2 08be cd32 5bba 7451 2e3d 0a74 b8be
00000020: f422 41be dcc6 1ebe c874 dbbb 627f 3bbe
00000030: 5a17 dbbd 8353 c5bc db53 32be 5ac6 943d
00000040: 2c71 4fbe 2032 7e3e 3aa6 e0bc d9fa e4bd
00000050: bfb2 87bd 178d 09bd 0d88 9bbe c354 25bd
00000060: e61d 97bd 9aaf 1c3e e884 30bd a3f2 773e
00000070: 1a13 ad3b 069f 813d ca31 c9bd 3ce4 c6bc

layer2.downsample.1.running_mean f4 [32]
-0.86439407 0.347862 -0.2893151 -0.63189375 -1.0934784 -0.5932969 0.18400587 -2.611191
-0.68964046 -0.7298664 -0.74822944 -2.3231227 -0.5380681 -0.16009523 0.8984355 0.8388338
0.4275366 -1.5906607 -1.1522636 -1.0468574 -2.219 -1.0805557 -0.8673355 -0.4819083
1.1967541 1.6901637 -0.49275866 0.48867485 -0.6497727 -1.1613979 0.28460214 -0.3021144
00000000: ee48 5dbf f81a b23e 1c21 94be cac3 21bf
00000010: 1af7 8bbf 4ee2 17bf 096c 3c3e c11d 27c0
00000020: 478c 30bf 86d8 3abf f78b 3fbf 0bae 14c0
00000030: d5be 09bf 01f0 23be deff 653f d0bd 563f
00000040: 14e6 da3e c59a cbbf 607d 93bf 6cff 85bf
00000050: 1904 0ec0 a64f 8abf b309 5ebf afbc f6be
00000060: 3d2f 993f 4957 d83f dd4a fcbe 9733 fa3e
00000070: 8157 26bf b0a8 94bf 5fb7 913e bdae 9abe
