Checkpoints/ResNet8_tckd_0.25_ResNet18_0.8418.pth (torch, 334982 bytes, 47 tensors)

conv1.weight f4 [16, 3, 3, 3]
000000 f5 73 62 bd 41 83 85 3e a7 c5 30 3e 72 6c 86 be
       -0.055286366 0.260767 0.17262898 -0.26254612
000010 ec 18 f6 3c de b5 4f 3e 1f 29 38 be ca 76 e1 3c
       0.03004118 0.2028422 -0.17984436 0.027522463
000020 87 bf c5 bd 8c f6 6b be 81 70 3f 3e c3 dc 23 be
       -0.096556716 -0.23043269 0.1869526 -0.16002183
000030 15 aa ae be c7 55 4f 3d 99 31 6f 3e 91 ca 24 be
       -0.34114137 0.050618913 0.23358764 -0.16092898
000040 b6 73 65 3e ff 7f 32 3e a0 88 16 3d 7e a4 d9 bb
       0.22407421 0.17431639 0.03675139 -0.0066419234
000050 e9 69 0b be 6a d3 c2 bd e8 90 1d bd 08 d9 d4 3d
       -0.1361462 -0.0951298 -0.03846827 0.10392958
000060 99 1b c7 bd 60 09 51 3e 77 c8 6b bc 17 e2 13 3e
       -0.09722061 0.20413733 -0.014391056 0.14441715
000070 90 b4 d0 bc 03 ff 91 3e 64 25 c5 bc 08 27 a8 3e
       -0.025476724 0.2851487 -0.02406568 0.32842278
000080 65 82 e1 3d de b1 ea bc bb 68 54 3e aa 11 82 be
       0.11011199 -0.028649267 0.20743077 -0.25404102
000090 10 10 43 be 09 ab 0b be 60 81 a4 bc 08 72 92 bd
       -0.19049096 -0.13639463 -0.020081222 -0.07150656
0000a0 bf 2f 92 bd 94 11 a5 be 53 82 12 be cd 47 e2 bc
       -0.07138013 -0.32239974 -0.14307527 -0.027622128
0000b0 17 6b 8f bd 69 73 da 3d de 7d 51 be e5 8e 24 3d
       -0.07002848 0.10666544 -0.20458171 0.040175337
0000c0 95 e9 61 3d 70 ac 62 3d 5b 6a 45 be b5 bc 24 3e
       0.0551544 0.05534023 -0.19278853 0.16087611
0000d0 c3 f0 57 3e fc 8c 2c 3b 86 d2 49 3e 77 d8 f6 bc
       0.21087937 0.002632915 0.19709215 -0.030132515
0000e0 da 80 d6 3d e7 41 1a be 39 b3 ce 3d 3e 04 91 be
       0.10473795 -0.15064202 0.10092778 -0.2832355
0000f0 f6 c9 90 bd f7 a5 fc bd 1f 6c 93 be ba 37 c5 bd
       -0.07069771 -0.12336343 -0.28793427 -0.096297696
000100 db 5c 3b 3d 33 16 8f 3d 46 96 0f bd d6 8a a0 3d
       0.04574285 0.06986656 -0.03505542 0.07838981
000110 b2 5e cd bd 7f f6 e6 3d b0 96 09 be 84 98 a0 bd
       -0.10027827 0.11277484 -0.13436389 -0.0784159
000120 f4 73 d8 bd fc 2d 36 be 40 cb 59 be 29 75 39 3d
       -0.10568991 -0.17790979 -0.2126894 0.04527775
000130 4b 72 b2 3e ab 21 95 3e 6a ed f9 3c bc 0a 81 3e
       0.34852824 0.2912725 0.030508716 0.25203502
000140 28 66 98 3e 2d 18 cc 3e 1a 6d b8 bd ba d5 d4 3c
       0.2976544 0.39862195 -0.090051845 0.025980819
000150 65 d1 0f be 05 75 e6 be 47 75 83 bd 13 3f e1 3d
       -0.14044721 -0.45011154 -0.06418853 0.109983586
000160 c4 d4 b9 bd 04 a9 37 3e 5f 22 53 3e cc f8 d5 bd
       -0.09073785 0.17935568 0.2061858 -0.10447845
000170 dd 3b b9 bc 15 f2 7d be 31 c0 31 bf 4b 49 5c bd
       -0.022611553 -0.24799378 -0.69433886 -0.053780835
000180 b4 32 ff 3d 8d 0d a7 bd 0c 48 6a 3d e6 16 2f bd
       0.12460843 -0.081568815 0.057197616 -0.042746447
000190 cf 59 8f 3d f5 83 85 3d 94 a9 1e 3e 34 80 23 bd
       0.069995515 0.065193094 0.15494376 -0.039917186
0001a0 6d c2 97 bc ee ea f7 bc c3 ab 41 3d d7 a3 68 3b
       -0.018525327 -0.03026339 0.047282945 0.0035498047
0001b0 6a cc 74 be 81 00 19 3e 91 cb 18 3e 3a aa 66 3d
       -0.23906103 0.14941598 0.14921404 0.056314684
0001c0 f3 20 d5 3d 8d d3 62 be 08 5a bc 3d 7a 72 ff 3d
       0.10406675 -0.22151013 0.091968596 0.124730065
0001d0 ed d0 65 be ad 5e 11 3e 1f 49 e6 bd 30 65 8b be
       -0.2244298 0.14196272 -0.112444155 -0.27225637
0001e0 c4 55 ac 3e 8c 8b f8 3d d8 0e c1 be 0e c5 c6 3d
       0.33659184 0.121359915 -0.37706637 0.09705554
0001f0 76 3b d2 bb 39 27 cb b8 ab 83 4b 3e b1 00 21 bd
       -0.0064157797 -9.6871e-05 0.19874446 -0.0393073
000200 bb f0 39 3d bd fa 20 3e cc 4e fa 3c 41 e4 5b be
       0.045395594 0.15720649 0.030555151 -0.2147379
000210 8b f8 c6 bd 68 4a d7 3d 9f 0b c1 bd b0 7c 1a be
       -0.097153746 0.10512239 -0.09426045 -0.15086627
000220 0f 31 1e 3c 74 c4 0c 3e 6e 92 70 be ba ae a5 be
       0.009655251 0.13746816 -0.23493358 -0.32359868
000230 96 3d 1e bd 89 11 d9 3b 1c 68 61 3e 77 1a 91 3e
       -0.03863295 0.006624405 0.22012371 0.28340504
000240 b5 d9 4d 3d 27 f8 86 3e d5 79 3d 3e 58 5a a6 3d
       0.05025645 0.263612 0.18503506 0.081227005
000250 47 72 98 be fb 3d 38 3d 6a b8 4b bd 12 34 ad 3d
       -0.29774687 0.044980984 -0.049736418 0.08457197
000260 d6 21 4a be 84 c6 89 3d 67 19 2f 3c d2 db 15 be
       -0.1973947 0.06727317 0.010687209 -0.14634636
000270 cf b3 02 3e 02 59 ab be 9f 41 3d bc 74 2a cd 3c
       0.12763904 -0.33466345 -0.01155129 0.025044657
000280 63 ae 8e 3e 08 5e d2 bd fe 75 63 3c 4f 4d b0 bd
       0.27867422 -0.10271841 0.013883112 -0.086084954
000290 63 7b 54 be 04 d8 cd bd 97 40 bb 3e 3d 2c 52 3d
       -0.20750193 -0.10050967 0.36572716 0.05131172
0002a0 a2 63 49 be dc f8 2e 3d 4c 20 59 3d 24 cd ff bd
       -0.19666913 0.0427178 0.053009316 -0.12490299
0002b0 15 5f 3d 3d ee fd 4e be b9 86 be 3a 06 56 f3 3e
       0.046233255 -0.20214054 0.0014536 0.47526568
0002c0 5c e6 9e bd cd 55 2d 3e 24 aa 67 be 05 2f f5 3c
       -0.07758781 0.16927262 -0.22623497 0.029929647
0002d0 ff 27 56 3c 70 6f 90 3c 3b ee 97 3d bc b4 65 be
       0.013071059 0.017631263 0.07418486 -0.22432226
0002e0 0a 2c d9 3e 1a 4c 0b be 4d 71 a5 3d 12 98 0e be
       0.42416412 -0.13603249 0.08078251 -0.13925198
0002f0 c9 73 e8 bd f3 fe 65 3e 1b 5e 2b be 1f ed 98 3d
       -0.11350209 0.22460537 -0.16735117 0.07467102
000300 02 49 7b bd 18 66 47 be 6b e1 b3 3d 19 94 ba bd
       -0.061348923 -0.1947254 0.087832294 -0.09110279
000310 6b 50 c1 3e a4 82 b5 3e 23 25 4c 3e f4 4b 99 be
       0.37756667 0.35451233 0.19936042 -0.2994076
000320 54 f3 15 be df f2 47 be a3 82 70 be 01 d4 e2 bd
       -0.14643604 -0.19526242 -0.23487334 -0.11075593
000330 bc f3 0f be 30 a0 21 be 50 2e 31 3d 86 15 bd 3c
       -0.14057821 -0.15783763 0.043257058 0.023081552
000340 71 51 e3 3b 5b 21 e1 3d bf 8e 5c 3e a1 01 67 be
       0.006937199 0.1099269 0.21538828 -0.22559215
000350 b5 1c c8 3d 94 93 13 3d fb 0e 84 3d 1c 23 10 3e
       0.097711004 0.036029413 0.0644817 0.14075893
000360 ad 6b 14 be 9c 68 d4 bd e0 ba 19 3e e8 85 33 3e
       -0.144942 -0.10371515 0.15012693 0.1753155
000370 78 02 df bd c4 a2 17 3e fe b4 4e bd 49 dd 8e 3e
       -0.10889143 0.14808184 -0.050465576 0.27903202
000380 1f 44 c9 3c 41 2e fa bd 34 09 b5 3d 96 d1 c9 3d
       0.024568615 -0.122158535 0.08839646 0.098544285
000390 e3 62 5a 3c 69 8f d7 be 90 20 9b be 33 0b 5f bd
       0.0133292405 -0.421016 -0.3029828 -0.05445404
0003a0 f0 50 2f bc 7a c8 cd bd 2e 7b 47 3d 62 94 90 3e
       -0.010700449 -0.100480035 0.048701458 0.28238207
0003b0 c3 ec 8d 3e e6 be 3d 3e 77 a5 5c bd 4f c6 37 bd
       0.27719697 0.18529853 -0.053868737 -0.044866856
0003c0 be 08 fd bb 69 72 55 be 97 df 9f be 79 6a 46 3e
       -0.0077219894 -0.20844425 -0.31225273 0.19376554
0003d0 87 8e 66 be 84 03 49 be 36 82 31 3d 7d 12 18 be
       -0.22515307 -0.19630247 0.04333707 -0.14850803
0003e0 f4 f3 3d bd 74 af a4 3d 3d bd 21 3e 00 89 35 be
       -0.04637523 0.080412775 0.15794845 -0.17728043
0003f0 9d 1a c3 3d 00 29 2c 3d 77 52 cc 3e 5b a0 36 bd
       0.095265605 0.04203129 0.39906666 -0.04458652

bn1.weight f4 [16]
000000 56 b9 5f 3f 39 04 e5 3e e2 8c 04 3f 00 8f 7a 3f
       0.87392175 0.44729784 0.5177747 0.9787445
000010 b7 66 44 3f e6 87 3f 3f cd 63 9d 3f 68 cb 3e 3f
       0.7671923 0.7481674 1.2296082 0.74529123
000020 bb 44 27 3f 94 7a 20 3f cc 29 27 3f 30 9c e8 3e
       0.6533925 0.6268704 0.6529815 0.45431662
000030 bd 82 20 3f a0 77 13 3f 6a c5 2c 3f d3 82 4c 3f
       0.6269949 0.5760441 0.6748873 0.7988712

bn1.bias f4 [16]
000000 a6 63 7e 3e 74 cd 43 3e fa 41 47 3e d6 42 fa be
       0.248427 0.19121343 0.19458762 -0.48879117
000010 61 ee f1 3e 88 dd 02 3f 68 bb 30 3f 5b 0a 71 3e
       0.4725218 0.5111928 0.6903596 0.23539107
000020 07 06 1d 3e c9 4b 32 3f 85 1d 97 3e f8 40 7f 3e
       0.1533433 0.6964689 0.2951471 0.24927127
000030 aa 7a 76 be 64 4f 9a 3e 24 73 24 3e d7 32 ca 3e
       -0.2407023 0.30138695 0.16059548 0.39491913

bn1.running_mean f4 [16]
000000 10 93 1e bd 30 99 db 3c 1b 1a 02 bd 07 d3 9d 3e
       -0.03871447 0.026806444 -0.031763177 0.30825064
000010 ad e6 87 bc f1 2a 1a 3d af 19 87 bd c3 40 7c 3d
       -0.016589487 0.03763861 -0.06596696 0.0615852
000020 4f 1c e8 3d 00 07 0e 3c 13 70 a7 bc bb 35 62 3b
       0.113335244 0.008668661 -0.020439183 0.003451689
000030 0d a8 1f 3e 75 ed b3 bd 98 83 81 bd 51 86 39 bd
       0.1559145 -0.08785526 -0.06323928 -0.04529411

bn1.running_var f4 [16]
000000 76 61 77 3f 2d 67 6f 3e 01 64 b4 3e 5f 2e fe 3f
       0.9663309 0.23379202 0.35232547 1.9857901
000010 a4 7a 64 3f 2e 10 93 3e 74 3c c9 3e 26 ea 06 3f
       0.89249635 0.28723282 0.39303935 0.5270103
000020 67 34 08 3f 67 84 38 3e 9a 17 c4 3e 41 bc ea 3d
       0.5320496 0.18019257 0.38299257 0.11461688
000030 c1 3f be 3f 34 70 01 3f 6f d0 19 40 45 3b d8 3e
       1.4863206 0.50561833 2.4033468 0.4223272

layer1.conv1.weight f4 [16, 16, 3, 3]
000000 23 18 ed 3d 2d 35 ef 3e 17 86 20 3e 5e 68 80 be
       0.11576869 0.46720257 0.15676151 -0.25079626
000010 2e 72 57 3e 82 21 89 3e c4 fc 6f be 89 79 aa bd
       0.2103965 0.26783377 -0.23436266 -0.08323962
000020 34 dc 95 3d e5 cf c2 bd ec bd ac 3d 97 ed 72 3e
       0.07317391 -0.09512309 0.08434662 0.23723446
000030 16 41 e4 bd ac 51 bb bd f6 58 34 3e 95 d7 69 be
       -0.11145227 -0.09146437 0.17612061 -0.22836144
000040 56 bc 80 bd 56 19 75 be 4a 7f 75 3c 80 06 30 3e
       -0.06285922 -0.23935446 0.014983961 0.1718998
000050 3c 9c ff bd 0f 1c 4f be 63 7b 3c 3d 07 52 a7 3d
       -0.12480971 -0.20225547 0.04601611 0.08169942
000060 ba b4 78 bd d5 91 8d bd 81 62 2c 3d ea 0a 2f 3e
       -0.06071923 -0.06912581 0.04208613 0.17094007
000070 bf 2e 1e be fa cc 89 be 27 f0 ad 3e d4 db 56 3e
       -0.1544752 -0.26914197 0.33972284 0.20982295
000080 2e ae 44 3e 97 f1 8c bd d7 64 08 3e ff d3 1e 3e
       0.1920707 -0.06882017 0.13319717 0.15510558
000090 34 47 25 be 46 80 ed 3d 6b 6d 81 be 15 a8 35 be
       -0.16140443 0.11596732 -0.25278792 -0.177399
0000a0 b4 b5 09 3e 50 33 d0 3d 1d 29 82 3d 12 74 03 3e
       0.1344822 0.10166037 0.06355498 0.12837246
0000b0 2f 60 2b bd 37 ae 87 bd 8e 1a 19 be db 2d a6 3c
       -0.041839775 -0.06625026 -0.14951536 0.020285537
0000c0 b5 03 0d 3e 12 0c 02 3e b3 04 02 3e e8 ed 41 be
       0.13770945 0.12699917 0.12697105 -0.1893841
0000d0 3a 4a 31 3e 5f 22 61 bc c8 5a 1c 3e d4 a0 79 bb
       0.17313471 -0.013741105 0.15269005 -0.0038090246
0000e0 9c 43 c3 bd a0 2b 0a 3b 23 e2 61 3d 03 33 66 bd
       -0.0953438 0.0021083131 0.0551473 -0.056200992
0000f0 19 9e 1d 3a 03 7e 04 3e b8 48 5b 3e 60 0a e2 bb
       0.0006012633 0.12938695 0.21414459 -0.0068982095
000100 ea 49 05 be 5c 51 86 bc f6 67 61 3b bb 37 4b bd
       -0.13016477 -0.016396217 0.003439424 -0.049613696
000110 2e 90 18 3e 84 f2 40 3d cd 27 c4 bc aa 6f fe bc
       0.1489875 0.04710628 -0.02394476 -0.031059105
000120 be 31 5e bd e2 52 81 be c4 71 ee bd 66 6e a3 3d
       -0.054246657 -0.25258547 -0.11642793 0.07980041
000130 53 d3 35 3e c0 5b 06 bd 5d 3a 4d be 12 0c 2d 3e
       0.17756395 -0.032802343 -0.20041795 0.16899136
000140 01 60 1b 3e 83 e4 cb bd 2e 71 ae 3d eb 76 33 3e
       0.15173341 -0.099556945 0.08517681 0.17525832
000150 41 3f 03 be 7c 3c 44 bc fd 84 0a 3b 94 cf f7 bd
       -0.12817098 -0.011977311 0.0021136396 -0.12100139
000160 5b bb 20 3d c0 c7 01 be 0f 88 c2 3d 67 c8 6f 3e
       0.039241176 -0.12673855 0.09498607 0.23416291
000170 eb 72 65 3d 26 43 76 be 13 98 ab 3d 05 23 9f 3e
       0.056017797 -0.24049053 0.08378615 0.31081405
000180 e7 32 14 bc 88 b2 50 be 08 3b af 3d 98 5c c9 3e
       -0.009045339 -0.20380604 0.08556181 0.39328456
000190 b3 1f 98 3e 61 2a 61 3e 69 44 2c 3e 1b 79 05 3e
       0.29711685 0.21988823 0.16822971 0.1303448
0001a0 44 71 ad 3d 9c 5b 52 be d7 d7 59 3d 98 9b cf 3d
       0.08468869 -0.20542759 0.053184357 0.10137099
0001b0 30 a6 b7 3d 5e df fd 3d 93 8f ac bd f0 a8 87 bd
       0.089672446 0.123961195 -0.08425822 -0.06624019
0001c0 65 e5 f1 bd 4f d6 83 bd e5 5f 5b 3d f1 59 99 3e
       -0.11811332 -0.064373605 0.05355825 0.29951432
0001d0 34 43 ed 3d 24 c8 93 3a f5 9d 23 bd 77 65 51 bd
       0.115850836 0.0011274857 -0.03994556 -0.051122155
0001e0 d2 08 bb bd 94 05 d9 bc 89 b9 18 3d d8 12 9d bc
       -0.09132542 -0.026491918 0.037286315 -0.019174024
0001f0 88 f5 b9 3c 20 d0 20 be e0 5e 22 bd d4 f1 52 3e
       0.022700086 -0.15704393 -0.03964126 0.20600063
000200 4b ea 1f be 5c f2 9c be 84 57 95 bd 9f e9 46 bd
       -0.1561672 -0.30653656 -0.07292083 -0.048562642
000210 86 e5 73 be c2 69 8d 3c 29 88 10 3d 3b 32 5c be
       -0.23818025 0.017262343 0.035286102 -0.21503536
000220 a9 d8 07 3e 60 e1 f9 bc 9a 08 6e be 79 d1 a5 3d
       0.13266243 -0.030502975 -0.23245469 0.08096594
000230 2b cb d4 3d 7c b4 f9 bd 44 b3 93 3e 58 93 39 3e
       0.10390314 -0.12192628 0.28847706 0.18122613
000240 98 fb a0 3d 49 a8 eb bd d2 e0 ee 3c d7 37 8a 3c
       0.07860488 -0.11506707 0.029159937 0.01687233
000250 c7 9f 53 bc b3 bb c4 3d 1c fc 9f 3d 0d 79 81 bd
       -0.012916512 0.09606113 0.07811758 -0.06321917
000260 0d 44 ad bd 9d c6 48 3e ba 62 77 3e fa 92 0e 3e
       -0.08460245 0.19607015 0.24158755 0.13923255
000270 ac 58 0f 3e b6 29 f3 3d 73 f8 7e bc 3a 00 26 be
       0.1399867 0.1187319 -0.015562165 -0.16211024
000280 0d 4f 5a bc 4d 05 b4 bd 23 5c 14 bd 2a 1d 18 3d
       -0.013324511 -0.087900735 -0.03622068 0.037137188
000290 e3 d9 8c bb 8d 39 09 be fc f5 d5 bd 1e 22 22 be
       -0.004298435 -0.1340086 -0.104473084 -0.15833327
0002a0 6a 8e 17 3d b7 28 12 3e 6d 7d 77 3e 44 b7 72 3d
       0.03700105 0.14273344 0.2416894 0.059256807
0002b0 02 03 97 bc 2a 62 36 3d 7b 69 a9 bd 99 02 b9 bd
       -0.018434051 0.04452721 -0.08272072 -0.090336986
0002c0 5f e8 f0 bb bc 09 04 3e a0 19 86 bc 25 28 60 3e
       -0.0073519195 0.12894338 -0.01636964 0.21890314
0002d0 37 52 a0 3d 06 a0 54 3d 31 8b 67 3d ca c6 03 3d
       0.07828181 0.051910423 0.056529228 0.032172002
0002e0 1d 8b a5 3d c6 b0 29 be ed 67 c8 bc f6 55 f2 bd
       0.080831744 -0.1657134 -0.024463618 -0.11832802
0002f0 5d ef 84 bd 58 c6 5b be 5b bf a6 be fa ac c9 be
       -0.064909674 -0.21462381 -0.32567868 -0.39389783
000300 71 a3 b2 3d 83 80 d3 3e fe 07 a6 3e 5b 8e fa bb
       0.0872258 0.41308984 0.32427973 -0.0076463646
000310 c7 a7 4a 3d a8 88 4c bd 03 d4 86 3e 43 d5 b3 3e
       0.04947641 -0.049935013 0.26333627 0.35123643
000320 fa c7 0c 3e 20 a2 96 be d2 87 da be 14 4d b4 be
       0.1374816 -0.29420567 -0.42681748 -0.35215056
000330 47 a5 01 3e f1 90 82 3e ac b3 92 3e 3e d8 bd bd
       0.12660705 0.25501207 0.28652704 -0.092697605
000340 c5 0d ae bd 87 ea 81 be e7 67 55 bd f1 56 d3 3d
       -0.0849872 -0.25374243 -0.052101042 0.10319317
000350 fa a6 00 bc e3 00 9a bc 36 15 c2 bc e9 33 59 bd
       -0.00785231 -0.018799251 -0.023691755 -0.05302802
000360 3e 83 06 3e 31 1d 4e 3c 91 d6 bd 3d da 1f f7 3d
       0.13136002 0.012580202 0.09269441 0.12066622
000370 9a 23 82 3d 44 18 95 bd 9e 6f 9a bd fb f2 66 be
       0.06354447 -0.07280019 -0.075408205 -0.22553627
000380 b9 e2 53 be cc 00 60 3e 4e ef ba 3d cf 75 4b bc
       -0.20691957 0.21875304 0.09127675 -0.0124182245
000390 f7 7d 14 be 07 9c 10 be ec d6 16 3c b2 65 65 3d
       -0.14501177 -0.1412202 0.009206515 0.056005187
0003a0 32 33 a3 3d 25 b0 b9 bc d6 d6 61 bd b0 b1 c5 bd
       0.07968749 -0.022667 -0.055136524 -0.09653032
0003b0 3d e4 27 3e f9 23 7a bc e5 a3 b3 3c 30 0f 41 3e
       0.1639566 -0.015267366 0.021928737 0.1885345
0003c0 d7 cd eb bd a1 66 46 be 44 a3 01 bd 0d 84 33 bc
       -0.1151387 -0.19375087 -0.031649843 -0.010956776
0003d0 f1 62 67 be 75 fb 97 bd a4 24 10 3d 94 f9 7d 3e
       -0.22596337 -0.074210085 0.035191193 0.24802238
0003e0 03 0e 84 3e 66 d3 b4 3c c2 89 31 3d 8c dd 75 bd
       0.2579194 0.022073459 0.043344267 -0.060025737
0003f0 c5 01 0e be 60 d2 df bd 48 f6 31 be 54 4b 6e 3c
       -0.13867863 -0.10928798 -0.17379105 0.014544327

layer1.bn1.weight f4 [16]
000000 34 30 40 3f 64 53 93 3f f7 91 6f 3f 51 da 69 3f
       0.7507355 1.1509824 0.935821 0.9134875
000010 dd d3 71 3f b9 9a 8e 3f 20 3e 40 3f 95 11 62 3f
       0.944639 1.1140968 0.75094795 0.8830808
000020 54 e8 89 3f f2 33 88 3f 8c 65 72 3f 68 44 8d 3f
       1.0774026 1.0640852 0.946862 1.1036501
000030 cd 5a 5f 3f 5c db 9b 3f f5 35 50 3f 5b ec 6e 3f
       0.87247926 1.2176318 0.8133233 0.933294

layer1.bn1.bias f4 [16]
000000 74 41 8f bd 84 21 7a bd f3 7d 55 3b 7f 2c b2 3c
       -0.06994906 -0.06106712 0.0032576292 0.021749733
000010 eb 14 76 bc be 53 94 bd 58 27 20 bd a7 2d 8e 3e
       -0.015019636 -0.07242535 -0.03910002 0.27769205
000020 d8 42 e1 bd b4 d7 3d be 4e a4 a7 3d 62 51 0d be
       -0.109990776 -0.18539315 0.081856355 -0.13800576
000030 69 f9 17 be 24 26 82 3e fb d4 f5 3c 8e d7 50 be
       -0.14841236 0.25419724 0.030008784 -0.20394728

layer1.bn1.running_mean f4 [16]
000000 8e ed 70 3f 52 21 4b 3e 2d 1b 25 bf b9 d6 c4 be
       0.9411248 0.1983693 -0.6449459 -0.3844507
000010 52 dd b4 3e 85 29 0d bf 99 3a 23 bf 13 09 9d bf
       0.35325104 -0.5514148 -0.6376129 -1.2268394
000020 95 dc e5 be c5 81 27 bf 99 85 89 bf 60 06 ac be
       -0.44894853 -0.6543239 -1.0743896 -0.33598614
000030 ce fa 46 bf 85 48 54 bf 47 f1 85 3e ad 61 49 bf
       -0.7772645 -0.82923156 0.26160643 -0.78664666

layer1.bn1.running_var f4 [16]
000000 95 2d 95 3f 18 9a 99 40 14 1c 6b 3f fb 3c 5e 3f
       1.1654536 4.8000603 0.9183972 0.868118
000010 8b a5 2c 40 75 0e 9e 40 61 a6 71 3f 1e 56 e0 3f
       2.697604 4.939265 0.943945 1.7526281
000020 f8 90 d0 3f 5a 32 61 3f 12 e4 cb 3f 22 cd 52 40
       1.6294241 0.87967455 1.5928977 3.2937703
000030 4d 1d 4b 3f 9c eb e4 3f 69 65 9f 3f 79 49 5f 40
       0.79341584 1.7884402 1.2452823 3.4888594

layer1.conv2.weight f4 [16, 16, 3, 3]
000000 6a d0 a0 bd 45 b7 37 3d 2a c5 d8 3d f5 f1 7a bc
       -0.07852252 0.044852514 0.10584481 -0.015316476
000010 34 ae b9 bd b4 49 e3 3d 8f 8b be 3d 7f 88 4e bd
       -0.0906643 0.11098042 0.093039624 -0.05042314
000020 dc c7 0f 3d 4f 5e 47 bc c7 b9 fb bd 39 96 18 be
       0.03510271 -0.012168481 -0.122912936 -0.14901055
000030 88 1b ac be 1b 37 e6 bd 99 06 ad 3b d5 02 1c be
       -0.33614755 -0.11240979 0.0052803275 -0.15235455
000040 d9 cd 31 bd 18 b6 92 bd fb 09 44 3e 3d f7 4d 3e
       -0.043409202 -0.07163638 0.19144432 0.20113845
000050 ef 05 be bd 8b d6 be 3d 34 a1 a9 3e cc e1 23 3e
       -0.092784755 0.093182646 0.331308 0.16004103
000060 92 c9 42 bd 75 a2 7c 3e 1f e1 8c 3e 14 c3 00 3c
       -0.047555514 0.24671347 0.27515504 0.00785901
000070 3e 93 3d bd 27 45 80 bd 7a c3 0a be 45 19 7a be
       -0.046283 -0.0626319 -0.13551131 -0.24423702
000080 d3 ed 11 bd c7 f0 76 be 0a f4 0b be 25 0e 4b 3c
       -0.035627197 -0.24115287 -0.13667312 0.012393509
000090 5f f3 72 be ff 06 7b bd f0 fa 8b bd 6f d4 4a be
       -0.23725651 -0.06128597 -0.06834972 -0.198076
0000a0 aa fc 33 bd ab 8d be bd a5 2a 86 be b8 4a 05 be
       -0.04394213 -0.09304365 -0.2620441 -0.13016784
0000b0 ed 8f 59 3d d8 13 91 bd 73 fa e3 3d 16 d0 01 3d
       0.053115774 -0.07083863 0.11131754 0.031692587
0000c0 99 a6 17 be 76 19 cc 3d 36 d4 25 3e e1 76 20 be
       -0.14809646 0.09965794 0.16194233 -0.15670349
0000d0 e8 d7 15 3d 2e 88 03 3d fa 13 ed bd 0a 8e 2b be
       0.036582857 0.032112293 -0.11576076 -0.16753402
0000e0 41 8f be bd 6a 78 6d 3b 33 8f 0e be 51 8e 0d be
       -0.09304667 0.0036235102 -0.13921814 -0.1382382
0000f0 1b af 33 3c e9 7e 27 be 72 45 e4 bb 46 a1 d1 3d
       0.010967041 -0.16357006 -0.0069662863 0.102358386
000100 c6 57 b9 3e d1 13 1a 3e 1d 18 05 be 1d 48 3d 3e
       0.36199778 0.15046622 -0.1299748 0.1848454
000110 85 80 1b 3e 65 2e cd bd 34 ea 1d 3d b5 70 88 bd
       0.15185745 -0.10018615 0.03855343 -0.06662122
000120 4d cc 4e 3e b2 26 a3 bd 07 74 3c be 91 67 28 3e
       0.20195122 -0.07966365 -0.18403636 0.16445757
000130 b0 ae 09 3d eb 43 19 be 7f 69 20 3d e4 a3 09 3e
       0.03361386 -0.14967315 0.03916311 0.13441426
000140 51 6a 27 3d 56 b3 2e 3e 07 a1 92 3c 50 a3 39 be
       0.040872876 0.17060599 0.01789905 -0.18128705
000150 d0 b0 a3 3d d3 23 03 3e ad 8d 02 bd 8a 21 3b bd
       0.07992709 0.12806635 -0.031873394 -0.045686282
000160 20 5d 89 3d 12 fb bd 3d 81 89 17 3e 06 63 1b be
       0.06707215 0.092764035 0.14798547 -0.15174493
000170 09 eb e7 bd 6b 33 2f 3e 6e 30 43 be 54 fe b0 3c
       -0.11324126 0.17109458 -0.19061443 0.021605648
000180 73 ba c2 3e 0e fb 72 bc 0a 40 96 bd 43 6c bd 3e
       0.38032874 -0.014830364 -0.07336433 0.3699666
000190 0b cc 4f 3e 1c 3b 47 be a8 03 7a 3e 5a 8f 1f 3e
       0.2029268 -0.19456142 0.24415457 0.15582028
0001a0 7b c4 d7 3d 6e d0 29 3e 43 f8 f1 3d a8 c9 63 3e
       0.105355226 0.16583416 0.1181493 0.22244895
0001b0 27 25 5b bd 66 f4 83 3d 75 53 39 3e 57 72 95 bd
       -0.053502228 0.064431 0.18098243 -0.07297199
0001c0 b2 33 7b 3d 03 73 02 3d 1d e2 e5 3c 91 4c 29 3e
       0.061328597 0.031847965 0.02806192 0.16533114
0001d0 ba eb 07 3d 16 fb 1b 3e 87 6d 8c 3e 8b b0 32 3e
       0.03318379 0.152325 0.27427313 0.17450158
0001e0 7c 07 02 3e 7d b0 82 3e 7e 7e 8f 3e 9a 13 80 bc
       0.12698168 0.25525275 0.28026193 -0.015634347
0001f0 d1 55 a8 3d 8c 6f 5a 3d 05 b3 2d 3e 3a 9d 8e 3d
       0.08219493 0.053329036 0.16962822 0.06963582
000200 50 3e e3 bd 67 99 50 3e de 13 f7 3d 12 0c 13 3c
       -0.110958695 0.20371018 0.12064336 0.008975046
000210 92 dd 9f bd 75 e4 23 be 94 32 65 3c 3b 48 a0 3d
       -0.07805933 -0.16005118 0.01398911 0.07826277
000220 ce 6d 38 3e a2 b2 6a 3e eb 7c 94 bb 65 9b ac 3d
       0.18010637 0.22919706 -0.004531493 0.08428077
000230 2b 2a 2a 3e 2c 7c 06 3d 3e 7a e0 3d f5 14 31 3e
       0.16617648 0.032833263 0.10960816 0.1729315
000240 8e 49 cd bb c1 49 02 bd 08 b4 34 3e c8 43 3c 3d
       -0.006264872 -0.03180862 0.17646801 0.04596308
000250 d8 0f 10 3e 1d 2c 4e 3e 6c b5 bf 3d 9d f2 b9 3d
       0.14068544 0.20134015 0.09360775 0.09079478
000260 ee f0 dd 3d 36 1b a0 be 86 f6 b8 be 58 52 ab be
       0.10836969 -0.3127076 -0.36125582 -0.3346126
000270 9b 13 0c bf 2b 1f db be 4d 35 47 be 97 84 f3 be
       -0.54717416 -0.42797217 -0.19453926 -0.47562096
000280 0d c1 a8 be fa 4f d8 3b a9 df 10 be 58 6a 66 bd
       -0.32959786 0.006601331 -0.1414782 -0.05625376
000290 e4 49 aa 3d 84 85 98 bc 94 7d 8d bc 28 76 e5 3d
       0.08314875 -0.018618353 -0.017271794 0.11204177
0002a0 84 a1 07 3e 1f 8c a2 3b 46 21 3e 3c ce 35 17 be
       0.13245207 0.0049605514 0.011604613 -0.14766619
0002b0 f2 03 5b be 8f ca fa bd cb 2b 35 bd 79 37 3a be
       -0.21388224 -0.12245666 -0.044231217 -0.18185224
0002c0 f7 17 76 bd ce 5f d2 bc 72 9a 79 be 4b 06 56 be
       -0.06008145 -0.025680449 -0.24375322 -0.20900838
0002d0 d7 70 2c bc 6f ea 8f bd 40 08 8a be 78 68 c7 bb
       -0.01052495 -0.070271365 -0.2695942 -0.0060854517
0002e0 4e 50 af bb 06 0d 6d 3d 5d 91 51 bd 33 fa 77 bd
       -0.0053501492 0.05787375 -0.05116402 -0.060541343
0002f0 fa d3 15 3d 19 fb 1e 3e c3 b0 cf 3d 45 5b 89 3c
       0.03657911 0.15525474 0.101411365 0.016767154
000300 58 fd f8 3b 83 06 be bc d4 83 33 3e 94 13 cb 3d
       0.0075985603 -0.023196464 0.17530757 0.099158436
000310 94 77 ac 3c 13 1a 04 3e 13 52 4d be 04 3b 4d bd
       0.021053113 0.12900572 -0.2005084 -0.05010511
000320 6c 66 cd 3d 45 5d 1b be 6e 3f c0 bd 14 d3 e7 3d
       0.10029301 -0.15172298 -0.09387098 0.11319557
000330 4c 01 60 be d6 f4 0b be f8 15 9c bc 71 1d 6a 3c
       -0.21875495 -0.13667616 -0.019053444 0.014289246
000340 2d 61 ad be a1 ae 21 be 1b 8d 6a bc 15 a4 6a be
       -0.33863202 -0.15789272 -0.014315869 -0.22914155
000350 de ef 92 be 0a 50 6f bd c9 d7 2f be 4e e3 8b be
       -0.2869863 -0.05842594 -0.17172159 -0.27321857
000360 fa 9c d5 ba 1b 30 5a bc c9 78 24 3d 3a 50 17 3d
       -0.0016297393 -0.013317133 0.040154252 0.036941744
000370 0f 7b b0 3d cf b5 78 3d f2 53 fd bc 84 82 3e 3c
       0.086172216 0.06072026 -0.030923817 0.011627797
000380 15 f2 26 3d 1f 5f 0b 3e ee 2a c9 3d 0c f3 1d 3d
       0.04075821 0.13610505 0.09822641 0.038561866
000390 cc 98 21 3e 19 1a bb 3d 0b 53 91 3c 5f 72 82 3d
       0.15780944 0.09135837 0.017739793 0.06369471
0003a0 75 1b 2d 3e 54 f2 84 3d cd 3d 65 be b9 58 13 be
       0.16905005 0.06491533 -0.22386856 -0.14389314
0003b0 7e 26 c4 bc 2e de 13 3d e3 ba 9c 3c d1 b4 be 3c
       -0.023944136 0.03610056 0.019132083 0.02327958
0003c0 d3 0f 1c 3d 71 c1 e7 3d f8 72 81 3d 60 d0 50 be
       0.03810103 0.11316193 0.06320757 -0.20391989
0003d0 14 1b 1c 3d 72 17 c7 3e 0b 11 a5 bd 4f b9 52 be
       0.03811176 0.38885075 -0.08059891 -0.20578502
0003e0 53 bf 3e 3e 5a 18 19 be 15 fd ab be 75 bd be 3b
       0.18627672 -0.14950696 -0.33591524 0.005820925
0003f0 2d ef 03 3e cf d1 88 bd f2 2d 89 be 73 b3 4f 3e
       0.12884207 -0.06680643 -0.26792866 0.20283298

layer1.bn2.weight f4 [16]
000000 9a 6c 53 3f a0 67 90 3f c9 e7 9e 3f c1 e0 37 3f
       0.8258759 1.1281624 1.2414485 0.7182732
000010 c9 5d 85 3f 9d 9c 7c 3f 10 aa b1 3f 45 dd 6c 3f
       1.0419246 0.9867647 1.3880024 0.9252513
000020 2f d6 4e 3f 7f 9b 87 3f 23 8e 81 3f c7 6e da 3f
       0.8079557 1.0594329 1.0121502 1.7065057
000030 dd 2a 9f 3f e2 80 a5 3f 19 76 62 3f e6 c3 90 3f
       1.2434956 1.2929957 0.8846145 1.1309783

layer1.bn2.bias f4 [16]
000000 43 ae 93 3d c3 6c a9 3e 40 29 a3 3e 81 29 df 3e
       0.07210972 0.3309079 0.3186741 0.43586352
000010 62 41 f9 bd 71 3f 4a 3e 16 63 8a 3e b3 18 8f 3c
       -0.12170674 0.19750763 0.27028722 0.017467832
000020 71 a4 96 3d 21 a6 54 bc 0f b2 f7 3e 15 83 92 be
       0.073555835 -0.012979061 0.48378035 -0.28615633
000030 3d c3 8f 3d 4a 66 87 bd 70 cb ea 3e a3 5d 0b bf
       0.070196606 -0.06611307 0.45858335 -0.54439753

layer1.bn2.running_mean f4 [16]
000000 b5 19 b2 3f d3 a4 d1 bf f1 a9 bc be 01 66 7a bf
       1.3914095 -1.6378425 -0.36848405 -0.97811896
000010 b3 35 f7 bd af 38 e2 be e3 0b 12 bf 07 99 1b 3f
       -0.12070789 -0.4418387 -0.5704939 0.60780376
000020 d8 c5 a5 3e ba a1 b0 3f 3d 47 bc bf 2b 07 a4 bd
       0.32377505 1.3799355 -1.470924 -0.0800918
000030 b2 50 ee be c7 60 08 c0 76 d5 69 3d ac a8 30 bd
       -0.4654594 -2.1309068 0.057088338 -0.043129608

layer1.bn2.running_var f4 [16]
000000 d4 c7 b5 3f 9c 19 03 40 c5 8f 05 40 5e 41 e6 3f
       1.4201608 2.048438 2.0869 1.7988698
000010 0c 07 d9 3f 06 72 c7 3f 12 d8 41 40 14 83 f3 3f
       1.6955276 1.5581672 3.028813 1.9024377
000020 b2 51 82 3f fe a3 5d 40 02 1f 02 40 3f f7 23 40
       1.0181181 3.4631343 2.0331426 2.5619657
000030 9f d0 37 40 c6 0a 8a 40 0d c0 02 40 d2 17 82 3f
       2.8721082 4.313815 2.0429718 1.0163519

layer2.conv1.weight f4 [32, 16, 3, 3]
000000 61 03 b6 3c d0 04 b3 3d 05 cb 6e bc 36 3b 19 3e
       0.022218408 0.08741152 -0.014574771 0.14963993
000010 4e 41 61 bd 66 ee 1a be 92 fe 1e 3e 73 e0 c1 bd
       -0.05499392 -0.15130004 0.15526798 -0.094666384
000020 08 e1 b3 be 42 45 bd 3c be fe fb 3d e6 5c cf 3e
       -0.35132623 0.023104314 0.123044476 0.40500563
000030 90 0a a1 bc 92 ac ae 3d 7f a7 a6 3e 4a d0 b5 bd
       -0.019658357 0.08529009 0.32549664 -0.088776186
000040 37 c8 d5 3d cc 46 32 3e 8a 34 b3 bd b6 7a fd 3b
       0.104385786 0.1740982 -0.087502554 0.0077355755
000050 e9 97 d6 3d 8f 73 72 3b f6 3e 76 3d 85 ac 6b bc
       0.10478193 0.0036995148 0.060118638 -0.014384394
000060 bc a0 9f 3c e3 24 df 3d 94 72 ab bd c6 07 ff 3d
       0.019485824 0.108957075 -0.083714634 0.124526545
000070 37 17 d5 3d 96 47 8f 3d 92 7e 98 3d ef 5b 8a 3d
       0.104048185 0.06996076 0.07446016 0.06755816
000080 ea 48 c0 3d 58 11 74 3e f3 04 bf bc 70 d4 80 bd
       0.09388907 0.23834741 -0.02331779 -0.06290519
000090 35 6e 93 3d 64 1a 0b 3e 1a 3d 89 3e 77 24 51 3d
       0.07198755 0.13584286 0.2680443 0.051060166
0000a0 4e e4 c3 3d 0d 6a 23 bd 4d 0c 0b 3e 90 26 8d 3c
       0.0956503 -0.03989606 0.13578911 0.017230302
0000b0 fe a6 9b bd 98 c4 83 bd 8f 74 53 3e 40 4c 45 3e
       -0.076002106 -0.06433982 0.20649932 0.19267368
0000c0 7e 0c 9a bd bb ca b4 3d 05 d5 9a 3e f2 c0 46 3e
       -0.07521914 0.0882773 0.30240646 0.1940954
0000d0 f6 1d 19 3e 21 99 45 3e fd 38 5a bd 9a 7f 93 3d
       0.14952835 0.19296695 -0.053277005 0.072020724
0000e0 c2 4b 66 3e 1e f1 16 3d b9 ab 12 3e f3 2e 06 3e
       0.22489837 0.03685104 0.1432332 0.13103847
0000f0 eb 59 f6 3d 81 9b 53 bd 1c 36 15 be 08 58 0e be
       0.12028869 -0.051661972 -0.14571422 -0.13900769
000100 7c 02 9b 3d 5e 34 07 3e 5a d0 56 be 5a fb 66 bd
       0.07568833 0.1320357 -0.20977917 -0.05639205
000110 07 50 e5 3d b5 70 17 be fc b5 c2 bd f5 ca 64 3d
       0.11196905 -0.14789088 -0.09507367 0.055857617
000120 3b 5a 7b 3e d7 2c 4b 3e e4 c4 66 3d 98 fd 90 3d
       0.24546139 0.19841324 0.056340113 0.07079619
000130 c6 3e 84 3d 4f f5 44 be 0d 62 6e bd 21 1d 05 be
       0.064572856 -0.19234203 -0.058198977 -0.12999393
000140 c6 25 39 be e8 d8 b1 3d 34 ef 82 3a ac 87 c4 3d
       -0.18080816 0.0868395 0.0009989501 0.0959619
000150 08 5d 19 be 86 e9 a1 bd 3f 1f 09 bd a6 f9 ae be
       -0.14976895 -0.07905869 -0.033477064 -0.34174842
000160 c1 57 a9 be 4a 36 15 be 22 3b 56 be 84 d8 98 bd
       -0.33074763 -0.14571491 -0.20920995 -0.07463172
000170 be 1e 11 3e a7 d3 33 be b6 6b 63 bd 12 52 97 3d
       0.14171883 -0.17561208 -0.055522643 0.073887005
000180 88 a6 40 be a5 a8 4f bd 79 bb bf 3d e5 15 88 3d
       -0.18813527 -0.05069794 0.093619294 0.06644801
000190 35 70 69 3e df b5 80 3e 87 5a 44 3d 00 2b 20 3e
       0.2279671 0.25138757 0.047937896 0.15641403
0001a0 3c b3 1f 3e de 09 91 3d 44 6d f0 3c 90 78 98 bd
       0.15595716 0.0708196 0.029348977 -0.074448705
0001b0 16 63 ad bd 5c 71 36 3e 59 36 1c 3e 98 b3 b9 bd
       -0.08466165 0.1781668 0.15255107 -0.09067458
0001c0 83 f9 ab 3c 67 ab ed 3d 53 de 08 be 8a f0 eb 3d
       0.020993 0.11604958 -0.1336606 0.115204886
0001d0 15 9c a8 3d 41 02 2d be 0b 47 d7 be e0 66 eb bd
       0.08232895 -0.16895391 -0.4204639 -0.11494231
0001e0 8f 1d 1d be 6f 04 8c be e8 7c 0c be 39 74 2a be
       -0.15343307 -0.27347133 -0.13719523 -0.16645898
0001f0 9e 7e b8 bd 75 22 11 bc 0d 87 f6 bd 8a 27 51 be
       -0.09008525 -0.008858313 -0.12037478 -0.20425239
000200 b6 c9 27 3d 03 71 d3 bd 79 b8 96 be a9 aa 23 be
       0.04096385 -0.1032429 -0.29437616 -0.1598307
000210 bc 50 e6 3c 61 23 31 be fa cf 56 be 17 a5 64 3e
       0.028114669 -0.17298652 -0.20977774 0.22328602
000220 f0 ff 9d 3e ca a6 01 3e 42 b4 06 3e c7 aa 88 3e
       0.30859327 0.12661281 0.131547 0.26692793
000230 8b 57 17 3e 6a cc 7c 3d be 4f 99 3d 8e 57 31 bd
       0.14779489 0.061718382 0.07485913 -0.04329639
000240 5a 2d d4 be 5c ae 34 bd 3b bd 14 3e e2 f2 97 be
       -0.4144085 -0.044111595 0.1452531 -0.29677492
000250 ac fb 7b bd fa e9 2e 3e 52 94 f5 bd e0 41 cb 3d
       -0.06151931 0.17081442 -0.119911805 0.09924674
000260 04 d1 1a 3d 79 c6 0d bd 3c 17 e6 bb 23 a5 72 bc
       0.03779699 -0.034613106 -0.0070218127 -0.0148098795
000270 1d 8b ad bc 9d d7 fa 3d 16 c9 52 bd 00 82 9f bd
       -0.021184498 0.12248156 -0.0514613 -0.077884674
000280 15 32 68 bc fb 21 f6 3c 6e 9d ec 3d 31 d3 25 bc
       -0.014172097 0.0300455 0.11553465 -0.010121153
000290 b2 7c d2 3d 0d 2a 52 3d 2b 1f a9 bd 20 c5 b3 3d
       0.1027769 0.051309634 -0.08257898 0.08777833
0002a0 74 e7 74 bd 3d 07 0c be 81 93 41 3d 3d 43 8c bd
       -0.059791043 -0.13674636 0.04725981 -0.06848762
0002b0 2d 9c e1 bb e4 3e 97 bd 6c 60 e6 3d 2d 31 ec 3d
       -0.0068850727 -0.07385042 0.1124886 0.11532817
0002c0 c2 2c 8e bd d8 59 61 3e 23 92 48 3e f5 98 96 bd
       -0.069421306 0.22006929 0.19586997 -0.07353393
0002d0 fe ad 95 bd 5b 23 95 bd 0f b3 03 3d bf 41 28 3d
       -0.07308577 -0.07282134 0.032153185 0.041078325
0002e0 bc fd de 3d 4f bc 4f 3e af f1 10 3d d3 74 84 3d
       0.1088824 0.20286678 0.035386737 0.06467595
0002f0 de 3a 3f 3e a2 83 0f be 9d c9 ca 3d 92 bf ce 3d
       0.186748 -0.14015058 0.09901736 0.10095133
000300 2e af f8 3c 1d 5c ee 3d 59 30 03 3e 76 a0 7e 3d
       0.03035697 0.11638663 0.12811412 0.062164746
000310 80 ab a5 3d 46 e9 4b 3d b4 5e e1 3d b7 66 f2 3d
       0.08089352 0.049783014 0.11004391 0.118359976
000320 95 2f 7f bd f6 3a 0c 3e 83 aa 3d 3e 93 d0 dc bc
       -0.062301237 0.13694367 0.18522076 -0.026954925
000330 d5 cd 6f 3e 15 60 03 3e bc 9a 80 ba fb 2c db bd
       0.23418362 0.12829621 -0.000981174 -0.10701939
000340 4d 82 82 bd 51 32 13 bd df da 94 bc db a9 b7 3d
       -0.06372509 -0.035936657 -0.018170772 0.08967944
000350 a2 54 08 3e b8 e6 99 3c 78 22 c2 3d 52 58 12 3e
       0.13313535 0.018786773 0.09479231 0.14291504
000360 76 bb 34 bd 35 0f d5 3d dc 61 c7 3d b9 9a c1 3d
       -0.04412409 0.10403291 0.09735462 0.09453339
000370 2f 80 15 3e d7 df 5b 3e 2e 8b 74 3e 4e df 90 3e
       0.1459968 0.21472107 0.23881218 0.28295368
000380 14 87 9c 3e 4e f7 72 bb 79 d0 a2 bd 3d 46 e3 bd
       0.30571806 -0.0037073675 -0.07949919 -0.11097381
000390 eb 2e 33 3d 4c cf 73 bd 17 73 fe bd ee 79 a7 bd
       0.043745916 -0.059523866 -0.124242954 -0.08177553
0003a0 ec eb 88 bc af 4d e8 3c 71 59 0a bd 6d 95 6b bd
       -0.016714059 0.028357355 -0.033776704 -0.05751555
0003b0 ec cf 02 3e 1a dd 86 3c f1 56 06 bd 9b 91 43 3c
       0.12774628 0.016462851 -0.032797758 0.0119365705
0003c0 09 a4 5c 3d d6 c5 20 bc 4b 07 9d 3c 64 01 89 be
       0.053867374 -0.009812793 0.019168517 -0.26758873
0003d0 51 df f4 be 66 95 ac be a7 55 cd be 32 02 2c bf
       -0.47826627 -0.33707732 -0.4010441 -0.6719085
0003e0 db 7e d6 be 6f 7d 67 be 68 70 e4 be 26 a0 87 be
       -0.41893658 -0.22606443 -0.4461701 -0.2648937
0003f0 0e 33 05 3d 5a d1 30 3e 6c 49 f5 3d ad 1c 7e ba
       0.032519393 0.17267361 0.11976895 -0.0009693604

layer2.bn1.weight f4 [32]
000000 cc 79 59 3f 50 f0 7c 3f fa ed 51 3f 37 9c 7f 3f
       0.8495147 0.9880419 0.8200375 0.9984774
000010 f6 68 6c 3f 15 0a 97 3f 73 13 58 3f 44 c8 51 3f
       0.9234766 1.1799952 0.8440468 0.81946206
000020 82 c2 74 3f 2c 94 84 3f c1 5c 52 3f d0 e6 7d 3f
       0.95609295 1.0357718 0.8217278 0.99180317
000030 53 1f 62 3f e3 20 4e 3f 1a 3e 9f 3f 56 88 58 3f
       0.88329047 0.8051893 1.2440827 0.8458303
000040 49 7d 90 3f 35 09 56 3f 77 ce 96 3f 77 2d 60 3f
       1.1288234 0.836078 1.1781758 0.87569374
000050 d6 5e 5f 3f eb 14 5a 3f d8 86 9a 3f 45 a4 91 3f
       0.87254083 0.8518817 1.2072401 1.1378256
000060 04 45 66 3f d0 54 70 3f ac 81 6f 3f 75 85 71 3f
       0.8994906 0.93879414 0.9355724 0.94344264
000070 94 4f 70 3f 68 2f 72 3f 58 db 49 3f 0a fa 69 3f
       0.93871427 0.94603586 0.78850317 0.91397154

layer2.bn1.bias f4 [32]
000000 a4 3f 9c bd e6 f8 73 3d 76 dd c3 bd 71 66 c7 bd
       -0.07629326 0.05956354 -0.09563725 -0.09736336
000010 77 8d e7 be 8d ff 8c be de c5 a6 3d 8c 53 7a be
       -0.45225117 -0.2753872 0.08143209 -0.24445933
000020 b1 19 9f be 4d 53 8c 3d 21 7d 95 bc f9 4d 27 be
       -0.31074288 0.06851826 -0.018248143 -0.16338338
000030 89 08 17 be e8 dd aa be f5 3a 9c bc c2 d2 82 be
       -0.1474935 -0.33372426 -0.019071082 -0.2555142
000040 f8 ef 23 be 84 bb b2 be 7d 77 58 be 92 21 1c be
       -0.1600951 -0.34908688 -0.21139331 -0.15247181
000050 1c e1 f5 bd 06 2b 5d bc 82 0d 40 be b2 b1 bc bd
       -0.12005827 -0.013499027 -0.18755153 -0.0921358
000060 fb 24 13 be 46 fe 83 be 28 4c 32 be 47 ad 1c be
       -0.14369576 -0.25779933 -0.17411864 -0.15300475
000070 ed 7d 80 be fb 34 b1 bc cb a8 9a bd 95 cf aa be
       -0.25096074 -0.021631708 -0.07551726 -0.33361498

layer2.bn1.running_mean f4 [32]
000000 ce 89 af 3f 19 d3 46 3f 27 f4 4a c0 4c b9 45 c0
       1.371393 0.7766586 -3.1711519 -3.0894346
000010 3a 9b 3b 40 a2 93 34 3e 8c d0 b6 c0 1a 68 3b 3e
       2.9313493 0.17634442 -5.7129574 0.1830143
000020 dd cd 53 c0 bb 3a 92 c0 ce 1e bb bf 53 5b 42 c0
       -3.30944 -4.5696692 -1.4618776 -3.036824
000030 a4 31 d6 bf 99 85 59 3f 2d 6d 3d c0 58 1b 48 bc
       -1.6733899 0.8496948 -2.9597886 -0.0122135505
000040 51 93 5c bd fe d0 83 c0 ef 1d 49 c0 32 de b0 bf
       -0.05385143 -4.1192617 -3.142452 -1.3817809
000050 6b b5 1c c0 ee d7 89 c0 a0 72 39 c0 49 ec ea bf
       -2.4485729 -4.3076086 -2.8976212 -1.8353359
000060 84 af b7 bf b0 da 45 c0 fe b7 ba 3f 39 bc 47 bf
       -1.4350438 -3.0914726 1.45874 -0.7802158
000070 24 e4 97 bf 34 01 eb c0 4f 92 41 c0 a6 28 66 bf
       -1.1866498 -7.343897 -3.024555 -0.89905775

layer2.bn1.running_var f4 [32]
000000 91 15 d2 40 92 6e b6 40 ea 89 97 40 d4 c5 05 41
       6.5651326 5.7009974 4.735585 8.360798
000010 90 c7 94 40 52 1c 1a 41 e1 67 02 41 86 ec ab 40
       4.6493607 9.631914 8.150361 5.3726225
000020 b9 39 a3 40 fd a7 0f 41 40 0c 96 40 fc ff 0e 41
       5.100796 8.978513 4.6889954 8.937496
000030 84 15 14 41 0f d2 a3 40 55 71 13 41 d0 1d ad 40
       9.255253 5.119392 9.215169 5.409889
000040 70 2a fa 40 0a ed 7f 40 85 49 cb 40 0c 01 97 40
       7.8176804 3.9988427 6.3527246 4.718878
000050 b0 15 86 40 ed 0b 93 40 97 4a 0a 41 a4 b5 15 41
       4.1901474 4.595206 8.64321 9.356846
000060 27 a6 84 40 10 c7 50 40 0a b7 8a 40 3b ab af 40
       4.1452823 3.2621498 4.3348436 5.489652
000070 7b 8e f4 3f 7c 33 c9 40 3b aa a4 40 27 35 83 40
       1.9105982 6.2875347 5.14578 4.1002383

layer2.conv2.weight f4 [32, 32, 3, 3]
000000 7c b7 35 bd d0 42 e7 3c 1c ba 06 bd bd bd 93 3d
       -0.044364437 0.0282301 -0.03289233 0.07213924
000010 9a 83 85 bd d3 81 73 bd b7 55 e2 3d ee 26 1c 3e
       -0.06519242 -0.059449982 0.11051505 0.15249225
000020 cf a3 91 bc 6b eb 42 3e 5e 4e 9d 3e 8d 5d 1a bc
       -0.017778305 0.19035117 0.30723852 -0.009421718
000030 b7 ff 87 3d 98 18 db 3c bb 8c 01 be 30 c8 8c 3d
       0.066405706 0.026745126 -0.1265134 0.0687412
000040 59 50 e0 bd 8b 1a c7 be ef 15 98 3d 31 78 00 bd
       -0.10952825 -0.38887438 0.074260585 -0.031364623
000050 e4 93 8e bd 0d ba 1c 3d 5b 65 67 bd 6f 26 dc 3c
       -0.06961802 0.03826337 -0.056493144 0.026873795
000060 05 6a 2d be 66 2e eb bd e9 99 89 bd e2 2e 3f 3e
       -0.16934974 -0.11483459 -0.06718809 0.18670228
000070 5f 94 8d 3b 79 87 3c be ee e6 ae 3d 91 5c ff 3c
       0.0043206657 -0.18411054 0.0854014 0.031172069
000080 17 07 a0 3c cd 0b 16 bd 0e d9 a2 bd 64 a1 0a be
       0.01953463 -0.036632348 -0.07951556 -0.13538128
000090 8e a8 59 bc 70 85 1f be 9c c4 fa bd 46 62 c4 be
       -0.0132848155 -0.15578246 -0.122445315 -0.38356227
0000a0 09 de a0 be 67 c9 a0 be 68 29 09 be e2 49 f3 bd
       -0.314194 -0.31403658 -0.13394701 -0.118793264
0000b0 e9 4b d3 bd b4 fc a3 bd 71 f9 07 3e 40 98 ae 3e
       -0.10317213 -0.08007184 0.13278748 0.34100533
0000c0 ec b5 69 be da dd 96 bd d6 73 62 3c 14 ff 4f be
       -0.22823304 -0.073665336 0.013821563 -0.20312148
0000d0 89 bd bb bd ea 04 45 3d 20 d5 0c 3e 39 a8 b2 bc
       -0.0916701 0.04810039 0.13753176 -0.02180873
0000e0 c7 9e 4e be 7f f5 c6 3d 54 9a 8b bd 60 4c 4e be
       -0.20177756 0.097147934 -0.06816545 -0.20146322
0000f0 22 ec 4d 3e e9 01 1c 3e a4 33 cd bd 41 0a 73 be
       0.20109609 0.15235104 -0.10019615 -0.2373438
000100 8f 88 aa be 9d 1b ca be 94 47 e0 bd c8 12 22 bd
       -0.3330731 -0.39474192 -0.109511524 -0.039568692
000110 e9 02 ca bd 01 1f c0 bd 98 cd 87 bc 97 e5 2f 3d
       -0.09863836 -0.093809135 -0.016577527 0.042943563
000120 13 82 2c 3d 85 78 b9 3b 16 5a d4 bd 6d 77 1a 3e
       0.042116236 0.005660119 -0.10368745 0.1508462
000130 20 9d 5b 3e 72 b4 9b 3d db a4 13 3e be 76 30 3d
       0.21446657 0.076027766 0.14418356 0.04308199
000140 ac 77 85 bc d6 c7 7e 3e ff d7 18 3b a4 0e 51 be
       -0.016292416 0.24880919 0.0023322103 -0.20415741
000150 8a 6f a7 3d c1 be 81 3d 6e cc cc bd 01 2e 19 be
       0.08175571 0.063352115 -0.09999929 -0.14958955
000160 d2 c2 6a bb 15 fb 6b bd 79 ab 67 3e 53 b3 cc bc
       -0.0035821688 -0.057612497 0.22624005 -0.024987852
000170 6a 49 a7 be 79 70 82 3e e1 36 28 3b 28 3e 9f bd
       -0.32673198 0.25476435 0.0025667476 -0.07775527
000180 47 fc a8 3e 01 12 9f 3d 0d bf 09 3e c0 58 49 bc
       0.33004972 0.07767106 0.13451786 -0.012289226
000190 be c1 e3 bd e8 0d 8f be 12 b8 95 bd f6 75 09 bb
       -0.11120938 -0.27940297 -0.07310499 -0.0020974851
0001a0 74 85 5f be c9 a2 1f be 80 dd 28 be 56 77 34 be
       -0.21828252 -0.15589441 -0.16490746 -0.17623648
0001b0 80 97 c7 bc ff 12 b6 3d 62 3c 50 bd a6 d0 c8 bd
       -0.024364233 0.08890342 -0.050838836 -0.098054215
0001c0 fe b6 15 3d 73 9c 9c bd 7b b3 1c bd 6c 57 c4 3d
       0.036551468 -0.07647028 -0.038257103 0.09586987
0001d0 6e a1 a1 bd c2 d7 70 3d 8e 2c cd 3d da a4 32 bb
       -0.078921184 0.058799513 0.10018264 -0.0027258904
0001e0 33 d3 79 3d 2d c5 0f 3e e1 40 ee bb 35 c0 1c 3d
       0.06099243 0.1404006 -0.0072709178 0.03826924
0001f0 ee 21 a0 3c 59 d8 4d be 21 2d 99 bd 79 72 1d be
       0.019547429 -0.20102061 -0.07479311 -0.15375699
000200 2a eb 9d be db e2 39 be c2 1f 4d be 39 87 f4 bd
       -0.30843478 -0.18152945 -0.20031646 -0.11939854
000210 9f 55 35 bd 6a 7d 5c bd 57 a3 44 3e 6f 3f 62 be
       -0.044271108 -0.05383054 0.19202934 -0.2209451
000220 f1 6b 0e be f0 05 e3 bd 8a d9 b9 bd 4c 1f 70 3d
       -0.13908364 -0.11085117 -0.090746954 0.058623597
000230 ae 5a b4 3c be 27 6d bd ba 0a d0 3a 17 4c fc 3d
       0.022015896 -0.05789923 0.0015872337 0.123192005
000240 ad 9b 0d 3e 7c 53 15 3e 1b 68 af 3e 38 e6 2d be
       0.13828917 0.14582628 0.34259114 -0.16982353
000250 a6 86 58 be c8 85 1a 3d 24 e7 f6 be 05 2c 08 bf
       -0.21145114 0.03772524 -0.4822322 -0.5319217
000260 80 b4 c1 bd a9 b7 9d bd e3 60 f4 3d 4c 30 7f 3e
       -0.09458256 -0.07701046 0.11932542 0.24920768
000270 26 f4 08 be 7b 6c c5 3d 74 0e 14 3e 49 9c dc bd
       -0.13374385 0.09639832 0.14458638 -0.107719965
000280 29 e3 63 3d 35 2c 48 3d 73 78 30 bd d1 49 b5 bd
       0.05563656 0.048870284 -0.04308362 -0.0885197
000290 7a 46 3b bd 69 62 73 bd 6e ad d6 bd f5 c8 35 bd
       -0.04572151 -0.059420023 -0.10482298 -0.0443811
0002a0 36 84 b6 bd d3 75 4a bd 57 51 07 3d a5 f5 2b 3e
       -0.08911936 -0.049428772 0.033036556 0.16792925
0002b0 b5 28 23 3e 30 ce 95 3d bc ce 8a bc 9c e9 16 3e
       0.15933497 0.07314718 -0.016944282 0.14737552
0002c0 6e 37 50 3e fd fc 4c bc 3e 31 5e bb a0 17 33 3d
       0.20333645 -0.012511489 -0.0033903862 0.043723702
0002d0 53 96 b3 bd b7 d4 ed bd 9e 8e 86 be 11 4f 39 bd
       -0.087689064 -0.11612838 -0.26280683 -0.04524142
0002e0 15 ae c0 3d f8 46 84 3d 65 97 35 be a0 dd af 3d
       0.094082035 0.06458849 -0.17733534 0.085871935
0002f0 8c 4b 7c 3e 25 64 75 3d 5d 6e de bd 9e 6d 51 be
       0.24638194 0.05990996 -0.10860894 -0.20451972
000300 a9 36 c8 3d be 31 3d be a8 2a d6 be 73 cd 79 3e
       0.097760506 -0.18476006 -0.4182942 0.24394779
000310 74 00 8c bd d2 0f 36 be dd 5f 8f 3e 61 2b 5f 3e
       -0.06836024 -0.17779472 0.28002825 0.21793891
000320 58 e5 6e bd dc 58 db 3d 10 d8 cb 3d 40 91 2f be
       -0.058324188 0.10710308 0.0995332 -0.17145252
000330 3d 8b 51 bc 12 51 df 3c e2 13 85 be 68 9f bf bd
       -0.012789545 0.027260337 -0.25991732 -0.09356576
000340 93 db 5d bd 8c cd d4 3b cc 09 c4 bd ef 7c 8c bd
       -0.05416448 0.0064942297 -0.09572181 -0.06859767
000350 f8 ce 34 bd c0 dc 85 be 70 cd 93 be 29 0b 41 be
       -0.044142693 -0.2614498 -0.28867674 -0.18851914
000360 9a 15 5c be fd dd 04 be 3e 04 5a bd c5 b5 39 be
       -0.21492615 -0.12975307 -0.053226702 -0.18135746
000370 33 fd 53 be 60 53 cf bd ba c2 19 be e7 fc 65 be
       -0.20702057 -0.101233244 -0.15015689 -0.22459756
000380 3a b7 2b bc ba d9 59 3e 09 dd e3 3d 75 b0 98 3c
       -0.010480696 0.21274462 0.111261435 0.018638829
000390 84 1d de 3d 85 40 38 3d 49 02 35 3d 72 35 6d be
       0.108454734 0.044983406 0.044191632 -0.23164919
0003a0 d3 99 ee bd b1 e4 7c 3d ca 07 8b bc 77 1a d5 bd
       -0.116504334 0.061741535 -0.016971488 -0.104054384
0003b0 8f 43 da 3d d4 46 1a be 11 e9 79 bd 2d 9a f0 ba
       0.10657417 -0.15066081 -0.061013285 -0.0018356495
0003c0 7e f3 f9 bd 0b e9 ec bd ed 9f 5f bd 01 85 c7 3d
       -0.122046456 -0.11567887 -0.054595876 0.09742165
0003d0 2c 7f 67 3e 71 cc f7 bd 29 47 1a 3e 13 47 c8 3d
       0.22607106 -0.12099541 0.15066208 0.09779181
0003e0 0b e4 37 be d8 d7 21 3d 2f 79 6d 3d 5e 04 0c bd
       -0.17958085 0.039512485 0.057976898 -0.034183852
0003f0 06 f1 32 3d 36 97 da 3d 91 84 f9 3d 7c b7 0e 3e
       0.04368689 0.106733724 0.12183488 0.13937181

layer2.bn2.weight f4 [32]
000000 0b 2f 8f 3f 34 74 84 3f e7 5f 9a 3f 2b ae 94 3f
       1.1186231 1.0347962 1.2060517 1.1615652
000010 aa e8 81 3f e4 ee 94 3f 6a c9 73 3f 61 6a ac 3f
       1.0149128 1.1635404 0.9522921 1.3469964
000020 9a 5b aa 3f 22 49 91 3f b4 a1 af 3f 7d 53 aa 3f
       1.3309205 1.1350443 1.3721223 1.3306729
000030 6f 94 91 3f b0 ee 9c 3f dd 3d 9c 3f c0 fb c0 3f
       1.1373423 1.2260342 1.2206379 1.5076828
000040 78 65 8d 3f da 26 87 3f 49 8f 9a 3f 65 df 69 3f
       1.1046591 1.0558732 1.2074977 0.913565
000050 2d fb 97 3f fb e9 81 3f 96 e1 ac 3f b0 63 9d 3f
       1.1873528 1.014953 1.3506343 1.2296047
000060 ab 17 93 3f 10 a8 aa 3f 10 b4 9f 3f 26 b9 a1 3f
       1.1491598 1.3332539 1.2476826 1.2634628
000070 ed aa a1 3f c6 f1 82 3f 19 49 99 3f 05 88 a3 3f
       1.2630287 1.0230033 1.1975433 1.2775885

layer2.bn2.bias f4 [32]
000000 33 06 4d 3c b2 21 53 be a7 2f 10 bd 80 51 85 be
       0.012513685 -0.20618322 -0.035201695 -0.26038742
000010 33 84 0c be 34 80 3b be f2 6b 3c bd 71 c1 c5 be
       -0.13722305 -0.18310624 -0.046001382 -0.38624147
000020 c2 04 4f be e1 93 38 be cd 8c 05 be a3 33 a4 be
       -0.20216659 -0.18025161 -0.13041992 -0.32070646
000030 8a 52 90 bd 24 f0 5f be ff 97 f4 bd be 4f 4d 3d
       -0.07046993 -0.2186895 -0.119430535 0.050124876
000040 68 fe 63 be c9 c1 4b 3c df a1 1c be 0a 22 f7 bd
       -0.22265017 0.012436339 -0.15296124 -0.12067039
000050 41 30 6d bd 4d a2 52 be 55 f7 8d be e9 7c 4b be
       -0.057907347 -0.20569725 -0.27727762 -0.19871868
000060 3e f7 0b be b0 9c 87 3d 83 d4 22 be 89 3e 51 3d
       -0.13668534 0.06621683 -0.1590138 0.05108503
000070 4b c0 35 bc 8f 93 bf 3d 65 80 06 be 1d bc 29 be
       -0.0110932095 0.093543164 -0.13134916 -0.16575666

layer2.bn2.running_mean f4 [32]
000000 8c 2a 04 c0 1b b5 35 bf b6 f5 e0 bf a3 46 db bf
       -2.0650969 -0.7097947 -1.7574985 -1.7130932
000010 30 0f 17 c0 45 2d e1 be c0 44 04 40 1d 51 a6 bf
       -2.360302 -0.4397985 2.0666962 -1.2993504
000020 6c 60 0e 3f 5c 9b ef bf 57 ab 96 bf 75 af 5c bf
       0.5561588 -1.8719287 -1.1771039 -0.86205226
000030 1e 5f 23 bf 99 45 90 bf 7e ae cb 3e 44 bb 0e c0
       -0.6381701 -1.127124 0.39781564 -2.2301798
000040 d1 e6 1f 3e 33 7d a0 bf e9 9d 53 c0 0d a3 6d 3f
       0.15615393 -1.2538208 -3.306513 0.9282692
000050 e2 b4 aa bf 2e 4b c9 3f e7 4b 9f bf f3 fa dd be
       -1.3336451 1.5726068 -1.2445039 -0.43355522
000060 78 a7 df bd 6d 48 81 c0 05 f4 36 bf 8e 54 de 3f
       -0.10920614 -4.040091 -0.71466094 1.7369554
000070 4d 48 89 bf 0e d4 1d c0 68 47 a6 bf 37 0b 93 bf
       -1.072519 -2.4660678 -1.2990541 -1.1487797

layer2.bn2.running_var f4 [32]
000000 a6 2e 3e 40 76 15 e7 3f 1d 70 83 40 79 8d e1 3f
       2.9715972 1.8053424 4.1074357 1.7621299
000010 57 a0 1f 40 c8 59 0a 40 b3 d3 10 40 f8 e5 0e 40
       2.4941614 2.1617298 2.262921 2.2327862
000020 59 e3 12 40 eb d2 78 40 4e b2 21 40 51 e1 0d 40
       2.2951262 3.8878734 2.5265079 2.2168772
000030 00 7c 17 40 fc 39 5f 40 b7 66 14 40 70 a2 6e 40
       2.3669434 3.487914 2.3187692 3.7286644
000040 2c 23 09 40 41 b9 57 40 78 df 3a 40 dd 72 3d 40
       2.1427717 3.370682 2.9198895 2.9601357
000050 2e db 1a 40 92 e0 54 40 dd d0 0c 40 2f f5 c7 3f
       2.4196277 3.3262067 2.200248 1.5621699
000060 1b 61 3d 40 2f 8c 5c 40 fa fd 62 40 cc ca 56 40
       2.9590518 3.4460561 3.5467515 3.3561277
000070 19 27 3d 40 e1 7d 27 40 c5 81 2e 40 04 37 30 40
       2.9555113 2.617058 2.7266705 2.753358
