Checkpoints/ResNet8_alpha_1_beta_8.0_ResNet18_0.8858.pth (torch, 335402 bytes, 47 tensors)

conv1.weight f4 [16, 3, 3, 3]
00000000: e2d5 8abc 945b 883e 3cdd 0b3e 52d3 d2be
00000010: 329a 9a3d 3cdc a03e 2a2b 85be cb09 333d
00000020: d7e0 99bd e3dc 4bbe 34ea 193e dec5 42be
00000030: a395 fdbe d4e5 733d fd92 a63e 0940 18be
00000040: 3a7a 983e 9d10 593e de30 b73d 2d64 37bc
00000050: 5c4a 1cbe 05da 2fbe ba61 703c e9d6 fb3d
00000060: 9181 c6bd a8b6 7a3e e5a0 dabd 5ae9 d03d
00000070: 8667 0d3d 8981 893e 4dd9 243c e8eb 043f
00000080: d8dd 823e 051c b0bd 1057 853e 2e99 8cbe
00000090: 3b39 5cbe e4d1 27be b54d 11bd bbff 2bbe
000000a0: 2e4a 4bbe 0e29 bebe 5e66 62be 6546 cbbd
000000b0: 0cd0 cebd 3868 193e 378f 20be 7d0e f73c
000000c0: d754 b33d 3137 a4bb 0dc0 76be f1f7 413e
000000d0: 431d 813e 2a4c 943d 89f4 8d3e d033 f2bd
000000e0: 9c5f 203e 2495 15be 797f b63c 691f b8be
000000f0: c66b 123d 1fa0 3abe 09e6 a8be bda5 373c
00000100: 84fc 6b39 4ade 013e 90d1 80bd 4e43 783d
00000110: 79c6 0ebe 3364 d43d 3676 1ebe 2fd8 adbd
00000120: df8f 43be 52b9 78be 8393 73be cb4c b4bb
00000130: dc78 fb3e d8a5 bb3e 25fa 46bd 67e3 ab3e
00000140: ce07 af3e c331 aa3e ebcb 063c 7a4d a53d
00000150: 18df 03bd db74 37bf c6da 08be 1bb3 953e
00000160: 7af2 5ebd 4c01 033e 67af 253e 9e11 cfbc
00000170: 8fd9 2f3d 1179 18be 82af 71bf dda1 eebc
00000180: 73de 2f3d 9926 2bbe 6642 b43d 9e08 37be
00000190: 4292 153e 0816 f33d 6f10 433e 5eb6 0ebe
000001a0: a1fe f33c 95f0 58bd ef8c 3f3d 6080 433d
000001b0: 34a0 99be e3db 193e 670f 1e3e 9b4a 953d
000001c0: 33d2 4e3e 528c 90be dd5a 9b3d 8b82 013e
000001d0: 2d91 65be 1b3b 373e 5503 c0bd 9a28 a7be
000001e0: f73c c73e 05f2 243e bdac 12bf d0b2 073e
000001f0: 3021 443c 15b9 83bc 1438 743e c3ca 253d
00000200: 73d0 203d 2be5 343e e41f 493d 0f94 a8be
00000210: fb14 89bd c09e d83d c724 97bd a04d 38be
00000220: d800 913c c53d 323e 5bd9 81be 1523 fdbe
00000230: 2f7b c53d e82c 99bd 869a 6b3e ac22 d23e
00000240: 2ccd c33d 00a0 943e 4097 df3d 4fba 7d3e
00000250: 6139 d0be 3920 24bd 36e2 97bc a4e6 fd3d
00000260: 0aa3 61be a50f 66ba dad8 5c3d 0020 02be
00000270: afbc 263e 0330 b4be 074c cc3c 3c7f 7d3c
00000280: e431 733e 3f4b c2bd 4485 8d3d 3b69 20be
00000290: 1043 17be 5404 42be 0304 ea3e fb54 333d
000002a0: c355 5abe 949a 53bb 3557 ff3c 45bc 12be
000002b0: 543c f7bc 21b0 37be 55dc cdbd ee29 283f
000002c0: 4c46 afbd 8d0a 103e 7010 5dbe e219 0c3d
000002d0: 5f1c a0bc 761e 233b a872 a23c cb70 f7bd
000002e0: 6fff 1a3f 4c0d 25be bf35 b03d 4c98 19be
000002f0: 837c 4ebe 428e 3f3e 7408 55be 6302 abbb
00000300: d144 a73c 91d9 82be 94e8 d23d da67 ddbd
00000310: be4e 073f 10e2 b23e 163d 883e 3195 8bbe
00000320: 08c7 46be 389f 27be eb61 d3be 258d 1fbe
00000330: 1890 84be af69 03be 874d b13d 66d8 27bd
00000340: 86cc 9f3d e6e3 dd3d e109 953e dbb0 73be
00000350: 6b43 023e c2fe 033d 348d 3c3e 90ec d93d
00000360: 9482 71be 2cf0 e3bd 943f 1d3e d8d1 1c3e
00000370: fd28 e6bd 018b 603e fb44 02be 6c37 8f3e
00000380: 8b17 2f3d 6559 fabd 5c82 cd3d bf60 6e3d
00000390: 4e13 ea3c 2cb8 0cbf 0a01 b2be 97cd 093c
000003a0: 446a 073d eb55 613d 48d2 883d 632d e53e
000003b0: b9fb 873e 2cf5 523e 8f69 4dbc 5c5c b0bd
000003c0: dfad 0bbd ffbe 8fbe c36d dbbe 3c86 3d3e
000003d0: d5c1 57be dcac 8bbe 830d a53d e684 8cbe
000003e0: bf8b d3bd 3af3 0c3e 5af4 923e 5cf8 e4bd
000003f0: 4078 a9bc b9e2 703d 46c3 f93e 28a0 8abd
-0.01694769 0.2663237 0.13658613 -0.4117685 0.07548942 0.31418025 -0.26009494 0.04371051
-0.07513588 -0.1990848 0.15030748 -0.19020793 -0.49528226 0.059545353 0.32534018 -0.14868177
0.2978075 0.21197744 0.089448676 -0.011193317 -0.15262741 -0.17173012 0.014671737 0.1229685
-0.096926816 0.2448374 -0.106752194 0.10200758 0.034522556 0.2685664 0.010061574 0.51922464
0.25559878 -0.08599094 0.26042986 -0.27460617 -0.21506207 -0.1638866 -0.035474498 -0.16796772
-0.19852516 -0.37140697 -0.22109362 -0.09925536 -0.100982755 0.14981163 -0.15679632 0.030158276
0.08756416 -0.005011462 -0.24096699 0.18942238 0.25217637 0.0724109 0.27725628 -0.11826289
0.15661472 -0.14607674 0.02227758 -0.35961464 0.035747312 -0.18225144 -0.32988003 0.011208949
0.00022505416 0.12682453 -0.06289971 0.06061106 -0.13942899 0.10370674 -0.15474781 -0.084884994
-0.19097851 -0.24289444 -0.2378674 -0.0055023185 0.49115646 0.36649966 -0.0485784 0.33571932
0.34185642 0.3324109 0.008227329 0.08071418 -0.03219518 -0.7166268 -0.13364705 0.2923821
-0.054430462 0.12793463 0.16180192 -0.025276955 0.04293209 -0.14889933 -0.9440843 -0.029129917
0.042936753 -0.16713943 0.08801727 -0.17874381 0.14606574 0.118694365 0.19049238 -0.13936755
0.029784502 -0.052963812 0.046765264 0.04772985 -0.30005038 0.15025286 0.15435563 0.072896205
0.20197372 -0.28232056 0.0758569 0.12647454 -0.22418661 0.1789364 -0.093756355 -0.32648164
0.389137 0.16107948 -0.5729483 0.13251805 0.011970803 -0.016079465 0.23849517 0.04047657
0.039261293 0.17665546 0.04910268 -0.3292546 -0.06693455 0.10577154 -0.073800616 -0.17998362
0.017700598 0.17406376 -0.25361142 -0.49440828 0.09642636 -0.07479268 0.23008165 0.41042078
0.09560618 0.2902832 0.109175205 0.24778102 -0.40668777 -0.040069792 -0.018540483 0.12397507
-0.2203485 -0.0008776135 0.053917743 -0.1270752 0.16282915 -0.3519288 0.024938596 0.01547223
0.237495 -0.09487008 0.06910184 -0.15665142 -0.14771676 -0.18946964 0.45706186 0.043782216
-0.21321778 -0.003228818 0.031169513 -0.14329632 -0.030180134 -0.17938282 -0.100517906 0.6568898
-0.0855833 0.14066525 -0.21588302 0.03420437 -0.019544778 0.0024889982 0.019830063 -0.120820604
0.6054601 -0.16118354 0.08604001 -0.14999503 -0.20164685 0.18706611 -0.20804006 -0.0052187904
0.020418556 -0.25556615 0.10298267 -0.10810824 0.52854526 0.34938097 0.26609105 -0.27262262
-0.19411862 -0.16369331 -0.41285643 -0.15581186 -0.25891185 -0.12833284 0.08657365 -0.040977858
0.078026816 0.10834484 0.291091 -0.23797934 0.1272103 0.032225378 0.1841324 0.10640824
-0.23584968 -0.111297935 0.15356284 0.15314424 -0.11238287 0.21928026 -0.12721626 0.2797197
0.04274706 -0.12224082 0.1003463 0.058197733 0.028573658 -0.54968524 -0.34766418 0.008410833
0.033060327 0.05501358 0.06680733 0.4476119 0.26559237 0.20601338 -0.012537374 -0.08611366
-0.034101363 -0.28075406 -0.4285718 0.18508238 -0.21070035 -0.2728032 0.08059218 -0.27445143
-0.10329389 0.13764659 0.2870205 -0.11180183 -0.020687222 0.05880997 0.48781794 -0.06768829

bn1.weight f4 [16]
00000000: 12b1 4f3f 54b1 c43e 5a5a db3e de8a 993f
00000010: 890e 423f b306 4f3f 2085 913f f11f 1a3f
00000020: 99bf 053f 0523 fc3e f964 033f e6b1 ad3e
00000030: 7d2f 193f 6312 123f 563a 143f d58d 433f
0.8112956 0.3841654 0.4284237 1.1995504 0.7580343 0.808696 1.1368752 0.6020499
0.5224548 0.49245468 0.5132595 0.33924788 0.59838086 0.57059306 0.57901514 0.76388294

bn1.bias f4 [16]
00000000: 7dfc 813e ec49 5c3e 1c17 5b3e 594e 14bf
00000010: 8cde dd3e 2548 0e3f b73e 043f 5294 053e
00000020: 38dc 1f3e 184f 3c3f da4f 9a3e 6df9 603e
00000030: bef9 b0be 99db c03e 798c 1b3e c809 e83e
0.25387946 0.21512574 0.21395534 -0.5793205 0.43333852 0.55578834 0.51658195 0.13044861
0.1561135 0.7355819 0.30139047 0.21970148 -0.34565538 0.3766754 0.15190305 0.45319963

bn1.running_mean f4 [16]
00000000: 7a7b 26bd b9ee 143d 2355 80bc 0004 bb3e
00000010: cf32 b7bc 8fce 143d 613a afbd 8aa2 7b3d
00000020: 3631 003e 4795 663c 87a4 0bbd 0138 563b
00000030: bf73 573e f2c1 cfbd 5052 eabd e050 91bd
-0.0406451 0.036360476 -0.015665596 0.3652649 -0.022363095 0.036329802 -0.08556057 0.061434306
0.12518772 0.014073676 -0.034092452 0.003268719 0.21040247 -0.10144414 -0.11441481 -0.07095504

bn1.running_var f4 [16]
00000000: 995f c13f ef95 bd3e 8b4e d23e cdc4 4240
00000010: b42f c63f 0691 ba3e 9f2f 303f 6a0f 2e3f
00000020: f708 233f a007 213e 483b 333f ed03 4e3e
00000030: eca1 3040 8616 103f 4c44 8540 d801 493f
1.5107299 0.37028453 0.4107555 3.0432618 1.5483308 0.3643877 0.68822664 0.6799227
0.63685554 0.15725565 0.7001233 0.20118685 2.759883 0.5628437 4.164587 0.7851844

layer1.conv1.weight f4 [16, 16, 3, 3]
00000000: 453a 0e3e 6ea5 133f 4fc2 1c3d 7e02 39be
00000010: 33ea 813e 21e4 323e 4b54 93be 9822 3dbe
00000020: e490 123e fa7a 0abe f061 903e 23f3 9d3e
00000030: 0ee0 c8be 8030 0bbe 1a99 8a3e b5fe 2abe
00000040: 5d37 33bd 06bf 8abe 97af 59be e07c 613e
00000050: 46c0 e0bd e36b 57be 37e7 0d3e 6efe 12bc
00000060: 536f 45bd c542 9ebb b643 b1bc 51a3 cf3d
00000070: 4159 b2be c682 3ebe ab43 203f ed15 c03e
00000080: 20b2 943e 2002 d4be 388a afbc 67e7 c53d
00000090: 4f71 87bd ec06 833e 5295 a5be 002c 69be
000000a0: ff81 b03d 2bca f93d 1b7a ac3d b3f0 ffbc
000000b0: 9c1f 693d e169 2fbd ccbb 3bbe de52 00bd
000000c0: 6c83 8b3e 230a b23d f9f7 4d3d 64d7 35be
000000d0: 1392 da3d 6b6a c73b 1adf 7d3e 5e07 bcbd
000000e0: b310 b83b d438 523b 2772 5bbb bebc eebd
000000f0: d21e 5a3d ca47 e03d b1ad 8c3e 9611 c73d
00000100: 11bc cebe 507b ac3d 33af ad3d 78ff 8abe
00000110: b269 1e3e 4f8a cd3d 7ef3 e4bd 8ccb b4bc
00000120: 34c5 14be 64e1 6dbe 1b1d 5a3d 50af 133e
00000130: 9ed4 393d 706b c23c 42aa c5be 5101 3f3d
00000140: 8e06 393e c91e c4be 515a 97bc 306f 983e
00000150: 531f b8bd 5c72 1dbe 5ad2 583c 34b2 7d3d
00000160: ca83 d3bd 44ee 42be c63d 103e ae82 e23e
00000170: a204 eebc 7a34 cdbe bfee ee3d 67d0 b63e
00000180: c569 19be 3eef 5dbe 4801 1e3e 0e61 ff3e
00000190: 5d65 be3e a97f 013e 4e04 543e a9d8 433e
000001a0: 907c 3abd 3f6c 10be db97 c9bd c14a 5b3d
000001b0: bb54 f9bd 8447 193f d200 1fbd 7b26 77bd
000001c0: 4b25 a4bd 4927 d6bd 7927 533e 915a 983e
000001d0: af4b a23d b5ce 143b 6650 07bd aff1 4abd
000001e0: de24 25be c63c e3bc 7aac 103d 1101 283c
000001f0: 379f 873c 318f 40be 8f03 463e f4cf 703e
00000200: 8f60 09bf 4f50 95be 9076 2fbe ac58 80be
00000210: 0118 6abe f819 f23c 7874 a03d 6f3a 4abe
00000220: 8fa0 ae3d 96cd a5be 24d1 e73c 0f62 b13d
00000230: 2b2f 273e ca9e 97be caec 553e 6913 453d
00000240: 541f b63d 41b6 93be ad07 28bd faf0 a3bc
00000250: 3834 253d 5bc6 593e fb32 efbc 1648 053d
00000260: ac49 d5bd 952c 413e 855c a03e de40 4b3e
00000270: ff86 3a3e 78c3 af3d 2f4d 8fbd e9b9 80be
00000280: 25dd 08be 6c54 0bbe bf31 dabd a6b9 1a3d
00000290: 3488 9abd 727f b7bd 6f80 16be 624c 21be
000002a0: ca5e 1f3e b87e 5f3e 3bb8 a13e 5544 9ebd
000002b0: 1a0a a7bc e741 883d 1e24 a6bc 40a1 b63d
000002c0: 905d f13d c69b 683e 4837 92bd e280 c13c
000002d0: 3573 0a3e 9308 963d 3351 1c3e 68ec 91bc
000002e0: 99e6 95bc 745f 61be 6ce6 66bd bfc1 f7bd
000002f0: 754e 093d 17f8 e3bd a579 e4be 2dcc e8be
00000300: 89ff 6a3b c034 133f 5942 033f b8ea 5bbd
00000310: b20a 15be 12c6 05be 2c36 473e d6a2 e43e
00000320: 2324 193e 4b52 9dbe eb8e e5be ccdc 0fbf
00000330: 5c58 2e3e 6b42 ca3e 5ba8 b63e 424f 7a3d
00000340: a150 47be a21d ddbe f406 6cbe dd5c 313e
00000350: 4747 cd3a 541e a5bc 5e59 f53d e304 9fbd
00000360: b99c 263e 7e64 b83b e34e 513d 8452 963d
00000370: 38a2 193e 67c5 e7bc 2ec7 10be 85d9 86be
00000380: a895 c4bd 1300 8c3e 3080 bb3d b885 88bd
00000390: 91b2 78be dc9f 99be 40f2 5f3d 5a59 a33d
000003a0: 7c6f 533e 47de 70bd a7a1 99bd 23e5 34be
000003b0: 23bc aa3d 0d4d 853c e5e6 57bd c9bf 6b3e
000003c0: 59b5 413c 53de 46be 637f ad3b dd8b 83bb
000003d0: 2cc4 aebe 0f40 cd3d 26a0 883c b389 923e
000003e0: 8e1e c93e 3129 843d b00e 613d 28c9 31be
000003f0: 7f9a a4be f1ff 94be ba3b bbbe 2327 cf3c
0.13889416 0.576743 0.038271245 -0.18067357 0.25373992 0.17469837 -0.28775248 -0.18470228
0.14313084 -0.13523474 0.2819972 0.3084956 -0.3923344 -0.1359272 0.27069932 -0.16698726
-0.04375397 -0.27098864 -0.21258388 0.22020292 -0.10974173 -0.2103725 0.13857733 -0.008971794
-0.04820187 -0.004829737 -0.021638732 0.10138572 -0.3483372 -0.18604574 0.62603253 0.37516728
0.2904215 -0.4140787 -0.021428213 0.09663277 -0.06613409 0.25591218 -0.32340485 -0.22770691
0.08618545 0.121967636 0.08421727 -0.031242704 0.05691491 -0.042825583 -0.18333358 -0.03132903
0.27248704 0.0869334 0.050285313 -0.17757946 0.10672393 0.006085684 0.24792138 -0.09181093
0.005617225 0.003207733 -0.0033484788 -0.116570935 0.05325205 0.10951193 0.27476266 0.09720151
-0.40377858 0.084219575 0.08480682 -0.27148032 0.15470007 0.10036146 -0.11179255 -0.022069715
-0.14528352 -0.23230511 0.053250413 0.14422345 0.045368783 0.02373287 -0.3860646 0.046632115
0.18068907 -0.38304737 -0.018475683 0.2977233 -0.089903496 -0.15375656 0.0132337455 0.061937526
-0.10327871 -0.19036204 0.14086065 0.44240326 -0.029054943 -0.400791 0.11666631 0.35705873
-0.14981754 -0.21673295 0.15430176 0.49878734 0.3718671 0.12646355 0.20704767 0.19125618
-0.04552895 -0.14103793 -0.09843417 0.053538088 -0.12174364 0.5987475 -0.03881914 -0.060339432
-0.080149256 -0.10456712 0.20620526 0.29756597 0.07924592 0.0022706215 -0.03303566 -0.049546894
-0.16127345 -0.02773894 0.035320736 0.0102541605 0.016555412 -0.18804623 0.19337295 0.23516828
-0.5366296 -0.29162833 -0.17135072 -0.2506765 -0.2286072 0.029553398 0.07834715 -0.19748853
0.08526718 -0.32383412 0.028297968 0.08661281 0.16326587 -0.29613334 0.20891109 0.048114214
0.08892694 -0.28849986 -0.041022945 -0.020012368 0.040333003 0.21267073 -0.029199114 0.03253945
-0.104144424 0.18864663 0.31320587 0.19848964 0.1821556 0.085822046 -0.069971435 -0.25141838
-0.1336561 -0.13606423 -0.106540196 0.037774704 -0.0754551 -0.08959855 -0.14697431 -0.15751794
0.15563503 0.21825683 0.3158587 -0.07727877 -0.020390559 0.06653195 -0.020280894 0.08917475
0.11785424 0.22715673 -0.0713945 0.023621026 0.1352051 0.07325854 0.1526535 -0.017812923
-0.018298434 -0.22009069 -0.05637209 -0.12097501 0.033522088 -0.11131304 -0.44624057 -0.45468274
0.0035857877 0.57502365 0.51273113 -0.053690642 -0.14554861 -0.13063839 0.19454259 0.44655484
0.14955191 -0.30726847 -0.448356 -0.56196284 0.17025894 0.39503798 0.3567532 0.061110742
-0.19464351 -0.4318667 -0.23049527 0.17320581 0.0015661501 -0.020156063 0.11979936 -0.07764604
0.16270722 0.005627214 0.051100623 0.07339957 0.15003288 -0.028292371 -0.14138481 -0.2633783
-0.09598857 0.27343807 0.09155309 -0.0666613 -0.24286868 -0.30004776 0.054674387 0.07976027
0.20647997 -0.05880573 -0.07501536 -0.17665534 0.083366655 0.016272092 -0.052710433 0.23022379
0.011823022 -0.19420747 0.0052947267 -0.0040144757 -0.34134042 0.10021984 0.016677927 0.2862068
0.39281124 0.06453169 0.054945648 -0.17361891 -0.3214912 -0.29101518 -0.36569005 0.025287217

layer1.bn1.weight f4 [16]
00000000: 4aaa 3e3f e366 963f a2c3 623f b0f3 453f
00000010: 7b61 683f b621 a23f a200 393f 39c2 733f
00000020: 1e87 8c3f c7c3 8f3f 2a43 573f e5b2 923f
00000030: dbc7 533f 2e2d 9b3f 7f4e 333f 64b5 843f
0.7447859 1.1750149 0.8857976 0.7732496 0.90773743 1.2666538 0.7226659 0.95218235
1.0978734 1.1231622 0.8408686 1.1460844 0.8272683 1.2123163 0.7004165 1.0367856

layer1.bn1.bias f4 [16]
00000000: 6451 8a3c b84a 1abd 7f1f 373d f623 33bc
00000010: ca3e 7c3d ca97 35bd 8a32 4ebd 88a6 d63e
00000020: 9212 f8bd 8fdd 18be ef60 893e 3e1d 03be
00000030: edac 03be 9e98 0e3f c0db 043d dc9d 58be
0.016884513 -0.037668914 0.04470777 -0.010933867 0.061583318 -0.04433421 -0.050341167 0.41923928
-0.12112917 -0.14928268 0.26831767 -0.12804124 -0.12858935 0.55701625 0.032436132 -0.21153969

layer1.bn1.running_mean f4 [16]
00000000: d4b6 be3d 7456 543e 5a71 3fbf 3e67 d2be
00000010: 409a ec3e 394f cabe c56b 5dbf dded 4fbf
00000020: a228 1bbe 0a85 2fbf a599 84bf 5cca a3bc
00000030: 66af 92bf 733a febe 2c48 553f d53d 1bbf
0.093122154 0.20736104 -0.74782336 -0.41094393 0.46211433 -0.39513567 -0.8649257 -0.81222326
-0.15152219 -0.68562376 -1.0359389 -0.019993953 -1.1459777 -0.49653968 0.8331325 -0.60641223

layer1.bn1.running_var f4 [16]
00000000: c58c c03f c20d e840 da4b 933f 9882 523f
00000010: e497 2c40 c412 da40 7351 843f 0c59 cd3f
00000020: c5db 4040 efbc ae3f fb30 e53f 4538 8140
00000030: abde 8a3f f9a2 1f40 1983 0940 c7fb a040
1.504296 7.2516794 1.1507523 0.8223052 2.6967707 6.8147907 1.0337356 1.60428
3.0134137 1.3651408 1.7905573 4.038119 1.0849203 2.494322 2.1486266 5.0307345

layer1.conv2.weight f4 [16, 16, 3, 3]
00000000: 65fc efbc 9730 bb3a c891 353e bf5e 193d
00000010: b8be 50be 9621 0f3e 6cc6 853e e3ac 2e3d
00000020: 512b 26bc f543 d8bd 4f2b 63be 9d85 10be
00000030: c01a b2be e30d c5bd 29d4 90bc 3302 38be
00000040: 7e79 fbbc 149c d5bd 5a5b 5d3e 48cd 8a3e
00000050: abc1 81be ed89 1ebc 048c 093f c677 553e
00000060: afb5 77be bcb0 af3e 84f7 c23e dd7d 5cbc
00000070: 7e19 8c3d 1ca3 25bd 9161 05be bf20 0dbe
00000080: 503a 1fbd 6534 fdbe 48f2 1ebe c6ac 773e
00000090: 0785 f1be 06e2 babd 96a1 51be bc57 babe
000000a0: 2679 413d 31b6 01be 0899 83be de24 13bd
000000b0: b9e5 85bd c6bf 0bbe 7501 65bd 1837 c73b
000000c0: 4d0e 40be c8cf 2d3e d34d 833e 07cc a4be
000000d0: a859 f83d efe9 353e 5b40 fcbc 688b 5ebe
000000e0: aa82 9fbd 1fa4 b13c 89db abbe 9c11 77be
000000f0: 5d9f a63b 8818 80be 5601 22be d773 633e
00000100: 987b 073f 2bb1 563e 0af0 ddbc 3f10 ad3e
00000110: d7a5 a73e a913 dcbd 434f 54bd c200 243d
00000120: ed75 953e 5b16 983a fa75 c2bc 9432 523e
00000130: cf69 d63d a5b5 a2bd 4144 b83d 7d6c 253e
00000140: 3859 d7bd ef4f 3b3e c430 fbbc 8022 69be
00000150: 2bd6 4f3d 3f7b c53d fd8d 9b3c 1384 72bd
00000160: 9f84 593d b19f a13c e6c3 b03e d55f c1bd
00000170: 4271 58be fb7e 473e cbae 1ebe 8644 c5bc
00000180: d5e0 4f3e 0bd4 233d 8afd 0d3d 6a52 b33e
00000190: b8aa a83e 719f 58be bee4 6e3e 09c6 833e
000001a0: f2f1 873c 26a8 263e 4503 a73e 6ba4 c33e
000001b0: b93d d7bd 842a 103e 648f 863e e153 dfbd
000001c0: 7a02 013d f99c 353d e3ff 09bd 1a1c 333e
000001d0: 2484 073e 5aa5 c73d bf49 5f3e fd62 4b3b
000001e0: 191f 573e 5c19 f33e 791c d83e 9b8f 003e
000001f0: 5306 503e 5de8 e23b 6def fa3d 7a97 6dbc
00000200: ed9e 02bc 6347 7cbd f00a 2f3e 1276 803d
00000210: 0a70 3fbe d85a 333b 87fd 7e3e 32c4 443d
00000220: b64c a23c 7f26 2d3e ca9a c3bd 93a6 b43d
00000230: 9f0a 003e 05cf 273d 62b8 c23e 566d 4e3e
00000240: 8a42 813d 0656 cbbd 7ba7 633e ef96 613e
00000250: a6a0 293e 499a 7f3e 3451 833e 6585 ad3c
00000260: 24b1 1e3e 8203 e1be bdc9 b2be 0c13 e0be
00000270: ac28 d9be 21d4 e6be 89d4 c3be 2f0e 9cbe
00000280: db57 92be ce37 70bc f4dc 8abe cfc6 fcbd
00000290: 9e25 153e 625e f7bd d117 ccbb 99ab 603d
000002a0: 1e12 6d3e 3880 233e a668 ba3d c2c9 23be
000002b0: c490 0cbe cbcd 3ebe d3f4 bbbd b379 a0be
000002c0: 8dfe 4abe bf1f 87bc 686b 99be bdbb 60be
000002d0: d3d7 9dbd 3ba8 47be 1564 6dbe 3b92 043d
000002e0: 80f5 833d a658 133e f8a1 1abd 68ea ae3b
000002f0: c8cc 243e e04f 543e bcf0 313e fc18 bf3d
00000300: c42a da3d 23dc c6bc 117e 823e d32c b53d
00000310: 2932 47be 9954 57bc 102d 11be f10f 8bbd
00000320: ff42 aa3e 003b 44be 23f6 a6be d7bd 293e
00000330: f40e dcbd d317 b3be 1a59 0abe bdd7 8bbd
00000340: ed7d 07bf 9dac 92be 6410 563d 88d1 d1be
00000350: 528c 01bf 5836 ed3d ef48 68bc 9a87 f3be
00000360: 424b 4bbd 85b1 233d b990 793e 2704 63bc
00000370: 284b 533e fcd3 903e 9f66 003e c4b9 f53d
00000380: 5dbe 703e 567a 9abc 4d03 223e c5fa 693e
00000390: 8b07 3e3e 7ae0 293e c44e 423e 7ea4 843d
000003a0: a7af 213e a45d 813e 1011 94be 873b acbe
000003b0: 93a2 a6bc c719 113c b59f 97bc 22e9 10ba
000003c0: 461b 353e ad83 8d3e 403a 413e 2a9a 2abe
000003d0: d61d 813e 02d8 e03e e399 fbbd fcf8 12be
000003e0: f4ad 283e e8cf 04be 9668 6dbe fee5 90bc
000003f0: 140d 1f3e b4cc a4be 576c 84be c776 0e3e
-0.029295156 0.0014281449 0.17731392 0.037443873 -0.20385253 0.13977656 0.26127946 0.042645346
-0.010142163 -0.10559837 -0.2218449 -0.1411347 -0.34786034 -0.09621789 -0.01767929 -0.17969589
-0.03069758 -0.1043016 0.21616879 0.27109742 -0.2534307 -0.009676439 0.5372927 0.20846471
-0.241904 0.34314525 0.38079464 -0.0134577425 0.068408 -0.040438756 -0.130255 -0.13782023
-0.03887397 -0.49454036 -0.1552211 0.24187002 -0.47171804 -0.09125142 -0.20471796 -0.3639506
0.047234677 -0.12667157 -0.2570269 -0.03592383 -0.06537957 -0.13647375 -0.055909593 0.0060795657
-0.18755455 0.16973794 0.25645313 -0.3218691 0.121264756 0.1776502 -0.030792406 -0.21732867
-0.07788594 0.021684704 -0.3356593 -0.24127811 0.0050849156 -0.25018716 -0.15820822 0.22212158
0.52922964 0.20966022 -0.027091999 0.33801457 0.32743713 -0.107459374 -0.051833402 0.040039785
0.29191533 0.0011603342 -0.023737896 0.20527107 0.104694 -0.07944802 0.089973934 0.16154666
-0.10515064 0.18292211 -0.030662902 -0.22767067 0.050741356 0.09642648 0.018988604 -0.059207987
0.053104993 0.019729467 0.3452446 -0.09442107 -0.21136954 0.19482033 -0.15496366 -0.024080526
0.2030061 0.03999714 0.03466562 0.35023814 0.32942748 -0.21154572 0.23329446 0.25737026
0.01659486 0.16275081 0.32619682 0.38211378 -0.105098195 0.14078718 0.26281273 -0.109046705
0.031496502 0.044339154 -0.0336913 0.17491189 0.13234001 0.09748335 0.21805476 0.0031034343
0.21007957 0.47480285 0.42209223 0.12554781 0.20314912 0.0069246725 0.12252698 -0.014501447
-0.007972461 -0.061591517 0.17094016 0.0627252 -0.18695083 0.002736738 0.249014 0.04803867
0.01981197 0.16909216 -0.09551008 0.08820834 0.12504052 0.040968914 0.38031298 0.20158896
0.063115194 -0.09928517 0.22231857 0.22030233 0.16565189 0.24961199 0.2564789 0.021181772
0.15497261 -0.4394799 -0.3491954 -0.43764532 -0.42413843 -0.45083717 -0.3824809 -0.3047957
-0.28582653 -0.014661742 -0.271217 -0.12342607 0.14565131 -0.12078549 -0.006228425 0.05485115
0.23151442 0.1596688 0.09101991 -0.15994933 -0.13727099 -0.18633191 -0.09177556 -0.3134285
-0.19823666 -0.01649463 -0.29964757 -0.21946616 -0.07707181 -0.19497769 -0.2318271 0.03236602
0.0644331 0.14389285 -0.03775212 0.005338002 0.16093743 0.20733595 0.17376989 0.09330937
0.10652688 -0.024274891 0.25486806 0.0884644 -0.19452728 -0.013142728 -0.14177346 -0.0679015
0.3325424 -0.19163132 -0.32609662 0.16576324 -0.107450396 -0.34979114 -0.13510552 -0.06828258
-0.5292652 -0.28647318 0.052261725 -0.40980172 -0.50604737 0.11582631 -0.014177545 -0.47564393
-0.04963232 0.039964218 0.24371614 -0.01385597 0.20634139 0.2828673 0.12539147 0.119983226
0.23510118 -0.018857162 0.15821572 0.22849567 0.18557565 0.16589537 0.18975359 0.06476687
0.15789662 0.25266755 -0.28919268 -0.33639166 -0.020341193 0.008856243 -0.018508771 -0.00055279036
0.17686185 0.27639523 0.18869877 -0.16660371 0.25218076 0.439148 -0.12285211 -0.14352793
0.16472608 -0.12969935 -0.23184428 -0.017687794 0.15532333 -0.32187426 -0.25863907 0.13912497

layer1.bn2.weight f4 [16]
00000000: dada 583f 987b 903f c89a b33f c36f 333f
00000010: 94c8 853f 4150 793f 9c13 c43f 8f24 6b3f
00000020: 901d 6a3f 746d 8b3f 027e 863f 1c86 e03f
00000030: c37f 9c3f a0ca aa3f 619f 7d3f 3016 8f3f
0.8470894 1.1287718 1.403161 0.7009241 1.0451837 0.9738808 1.5318484 0.9185266
0.9145136 1.0892777 1.0507205 1.7540927 1.222649 1.3343086 0.9907132 1.1178646

layer1.bn2.bias f4 [16]
00000000: 39ed 603e f0b7 1a3f 8e7c 9a3e 24ef 0e3f
00000010: 8fab e03c 5535 d63e ea92 a03e c9e4 fbbc
00000020: 2b8b 0f3e ed9a b83d 3614 203f f61c 04be
00000030: e11f d43e 284f 88be 5f49 3a3f 1f2f 19bf
0.21965493 0.60436916 0.30173153 0.5583365 0.027425556 0.41837564 0.31362087 -0.030748742
0.14017932 0.09013925 0.6253084 -0.12901673 0.41430572 -0.2662289 0.72768205 -0.59837526

layer1.bn2.running_mean f4 [16]
00000000: 51ef 2b40 063a f9bf 32fb cdbe 0414 87bf
00000010: decf a73e d0c2 b6be f10c d1be 3af5 013d
00000020: d34d 003f 81d7 b13f e360 1bc0 496f d4bd
00000030: 3f96 d43e b49a 29c0 9a97 cbbd 5b10 5ebe
2.6864817 -1.9470832 -0.4023071 -1.0552983 0.32775778 -0.35695505 -0.40830186 0.031728007
0.5011875 1.3893892 -2.4277885 -0.103727885 0.4152088 -2.6500673 -0.09941025 -0.21685927

layer1.bn2.running_var f4 [16]
00000000: 9fc5 4240 a07b 3340 aa92 8740 bb18 3e40
00000010: 422e 6740 6334 3240 c057 be40 5587 1d40
00000020: c69f 0140 f73b 9440 0315 7b40 2954 7e40
00000030: 99dc 7c40 605a d940 5c76 9540 40dd 0040
3.0433118 2.8044205 4.2366533 2.9702594 3.6121984 2.7844474 5.9482117 2.461385
2.0253768 4.63232 3.9231575 3.9738867 3.9509642 6.792282 4.670698 2.013504

layer2.conv1.weight f4 [32, 16, 3, 3]
00000000: 6f05 e2bd d97a b5ba f632 1bbe 89ef ba3c
00000010: 2fda 27be 42f2 26be 386d 793e d781 ddbd
00000020: f0bd e6bd f192 9c3d 1f7f bd3d c184 0b3f
00000030: 4a1f 83bd 607d b1ba 5f50 8d3e 98e8 aebe
00000040: e003 a9ba 7090 e63c 61f4 42bd 2af4 b03c
00000050: 6a1d 81bd f590 86bd 298f 83bd 1099 8abe
00000060: 0031 91be 8a3d 86bd 5161 3dbe 66f1 683d
00000070: 2c4c e93d 3b73 8a3e 6540 4abd c45d 293d
00000080: 7e88 7b3e 4225 423e 0c8e 8dbd f35c ab3a
00000090: 9f79 cb3d 44f4 5d3e 3db7 f13e 29fa 71bc
000000a0: 138d 883e ca4e 603e 0974 343a b26e a3bd
000000b0: 9055 c4bd 0cb5 1abc 688e 9f3e b967 203e
000000c0: 46ae 43bd abe8 613e cc7f cf3e 9ba4 ce3e
000000d0: cea9 b93e 2a9b b53e 810c afbc 0004 2a3e
000000e0: 7e3c 553e 4e1a 103e 60e6 8c3e 0986 763e
000000f0: 437a 423e 9ea7 b13c f879 0e3d 89e8 b3bd
00000100: 37f2 113e e1a1 313e b070 12be dd09 983c
00000110: 140b 0d3e 1516 c0bd c910 c3bb 227d 133e
00000120: c696 3b3e b34c bc3d 263c 70be ba2f 6f3e
00000130: c1fe 243d a854 93be fb21 c1bd b2f5 65be
00000140: 6e52 2abe 3218 773d a3fd 46bd e46a 393e
00000150: 47dd 9abe 843c 80be 993c cb3d 0399 ccbe
00000160: 75c0 f4be ce62 45bc 7de6 20be 4a0a 42be
00000170: d040 38bd 5a49 96be 8b5e b6bd 5286 613e
00000180: c9c6 a9be b929 2bbe cd11 343e 8ef6 103e
00000190: 2d25 1f3e f331 803d 3b9e 3b3d 0a54 ff3d
000001a0: a0e1 853d 416b 2e3e d64c 613d 0c23 63bd
000001b0: 8915 7ebd f088 053e 2a54 6b3e c555 683c
000001c0: 1de7 a23d fd80 ab3c 0bce 243c 36b5 953d
000001d0: c7ab 4abe 7961 843d e159 1fbe 1330 053b
000001e0: 56ca 54bd 5837 9bbe 1f38 18be 5196 90be
000001f0: 3f5a 99be 95e0 86be d558 b6be b665 5abe
00000200: 07ca ca3e 3741 14be ad5c f1be d400 6ebe
00000210: 1eef 863e ebb4 80be 0008 a0be a110 a23e
00000220: e810 dc3e 1628 15ba 6628 8c3e 0da1 fb3e
00000230: a022 8e3c 397d 37bd 7d07 883c 8f12 64bd
00000240: 84ab f9be 1122 0d3d 6323 c73d 3f5d ebbe
00000250: 44db 10bd 5b00 c63d 3d0f 51be 0e29 a13d
00000260: d2dd 7fbc adc4 15be 8516 fdbb 9ba3 013e
00000270: ea93 c4bd ddfd b43c 123a e03c 4187 66be
00000280: f685 b8bd dde0 18bd 0d01 3a3e 166b 053e
00000290: 017e 633d 60fd 3e3e 1b43 06be f928 f73d
000002a0: 8124 9a3d 684e 82be 5ba4 afbd c428 4dbe
000002b0: c051 a1bd 23c7 34be 826e a4bc 3da0 2f3e
000002c0: bc21 93bc 5437 043e 9a7d 693e 0131 0abe
000002d0: 9306 e0bd c50f 28be bfb3 c6bc 250c 08be
000002e0: acd2 373d 7661 7a3e ac8d 07be 65e8 4d3d
000002f0: 76b6 933e 5048 39be 090c 103e 9507 063d
00000300: 50fb 803d 98b8 503e 7f41 7f3d 7063 843e
00000310: 4e40 c53d 8c92 60bd 466e fa3b 4f26 5f3d
00000320: 2be3 7abd 7797 543e d476 483e 8ef9 13ba
00000330: 14e6 de3e 0510 543e 5279 a4bd ee07 ddbd
00000340: b455 bc3d c792 9b3e 07ed fc3b 38f0 bf3d
00000350: 1da9 4b3e 42cc 65bc edfb 6e3d f18c b83d
00000360: 1cd1 2bbe c6f9 b13c 29b3 213e edec 923e
00000370: e986 c13e 5898 dd3e 9000 013f 8fa5 e03e
00000380: 2be7 be3e 40d7 07bc 8a85 e0bd f49b 5cbc
00000390: 9b87 b73b 013e 32be 5b5f e0bb 2c51 dabd
000003a0: 4529 2fbd 5409 443e bab2 4bbe da04 1bbe
000003b0: 0a3f ea3d 0574 2cbd d78b 093d 29ea 4d3e
000003c0: 2c2e c73d c7c6 3a3c 0170 203e 1acc d1be
000003d0: 9dee 16bf f468 b1be 85cd 09bf 13f6 3cbf
000003e0: 7ef8 c4be e2b5 9abe 2379 d2be eca9 96be
000003f0: 54c7 a93d f983 a73c 1648 c6bd 6d45 bb3d
-0.110361926 -0.0013845816 -0.15156159 0.022819297 -0.16391824 -0.16303352 0.2435807 -0.108157806
-0.112666965 0.07645214 0.09252762 0.5449944 -0.06402452 -0.0013541393 0.2760038 -0.3416183
-0.0012894832 0.028145045 -0.04759634 0.021600801 -0.063044384 -0.06570617 -0.0642379 -0.27069902
-0.28357697 -0.065547064 -0.18494155 0.05687084 0.11391482 0.2704104 -0.049377818 0.041349187
0.24563786 0.18959525 -0.06911859 0.0013073966 0.09935307 0.21675211 0.47210112 -0.0147691155
0.2667013 0.21905056 0.00068837457 -0.07980098 -0.09586632 -0.009442579 0.31163335 0.15664567
-0.047773622 0.22061412 0.4052719 0.4035996 0.36262363 0.35469943 -0.021368267 0.16603088
0.20823857 0.14072534 0.27519512 0.24074568 0.18991952 0.021686371 0.034784287 -0.08784587
0.14252554 0.17346908 -0.143008 0.01855939 0.13773757 -0.09379212 -0.0059529287 0.14403203
0.18319234 0.09194317 -0.23460445 0.2335805 0.040282015 -0.28775525 -0.094303094 -0.22457007
-0.16633007 0.06032581 -0.04858173 0.18107182 -0.30246946 -0.2504617 0.099236675 -0.3996049
-0.47803083 -0.012047483 -0.15712924 -0.18949237 -0.044983685 -0.29352838 -0.089047514 0.22023895
-0.33159474 -0.16715135 0.17584915 0.14156553 0.15541525 0.06259527 0.045805197 0.12467201
0.06537175 0.17033102 0.055004917 -0.055453345 -0.062032256 0.13040519 0.22981325 0.014180605
0.079542376 0.02093553 0.01005889 0.07309954 -0.1979209 0.06463904 -0.1556163 0.0020322844
-0.051950775 -0.3031566 -0.14865158 -0.28239682 -0.29951665 -0.26343217 -0.35614648 -0.21327862
0.3960726 -0.14478002 -0.47141019 -0.23242503 0.26354307 -0.2513803 -0.31256104 0.31653312
0.42981648 -0.0005689872 0.27374572 0.4914631 0.017350495 -0.044797156 0.016605133 -0.05568176
-0.4876367 0.034456316 0.09723546 -0.4596958 -0.035365358 0.096680366 -0.20415969 0.07869159
-0.015616851 -0.14625807 -0.007723632 0.12660067 -0.09598525 0.022093708 0.02737144 -0.22512533
-0.09009926 -0.03732382 0.18164463 0.13029131 0.05554009 0.18651342 -0.13111536 0.12068362
0.07526494 -0.25450444 -0.0857627 -0.20035082 -0.07876921 -0.1765409 -0.020072225 0.1715097
-0.017960422 0.12911731 0.2280182 -0.13495256 -0.10938754 -0.16412266 -0.024255631 -0.13285883
0.044878647 0.24451241 -0.13237637 0.050270457 0.28850144 -0.18093991 0.14067091 0.032722075
0.06297934 0.20382917 0.06231832 0.25857115 0.09631406 -0.054827258 0.00764254 0.054479893
-0.0612518 0.20760904 0.1957658 -0.00056447915 0.4353491 0.20709236 -0.080309525 -0.10792528
0.09196034 0.3038542 0.0077186855 0.0937199 0.1988873 -0.01402575 0.058345724 0.090112574
-0.16778988 0.021725547 0.15791 0.28696385 0.3779824 0.43280292 0.50391483 0.4387631
0.37285742 -0.008291066 -0.109629706 -0.0134649165 0.005600882 -0.17406465 -0.0068473048 -0.106600136
-0.042763967 0.19144183 -0.19892398 -0.1513857 0.11437805 -0.042102832 0.033580627 0.20108856
0.097256035 0.011399931 0.15667726 -0.4097603 -0.58957845 -0.34650385 -0.5382922 -0.7381298
-0.38470834 -0.3021689 -0.41108045 -0.29426515 0.08289972 0.020448672 -0.09681718 0.09144101

layer2.bn1.weight f4 [32]
00000000: 813f 693f a809 783f 3f21 3e3f ec18 883f
00000010: b2b4 5c3f 9f56 9b3f 885b 743f 8b9c 4a3f
00000020: df4e 583f bd57 9b3f 46ff 423f 0102 8d3f
00000030: 8c65 823f 4fbe 5d3f ce69 a03f ecc1 563f
00000040: c776 903f f1f9 5b3f f157 933f 5851 6a3f
00000050: ae9c 403f 55fc 503f 1abb c03f 9eeb 9f3f
00000060: 0818 5a3f 36bf 5e3f 81d7 753f 08a8 633f
00000070: b4a3 703f c041 793f 55f9 453f 4400 6e3f
0.91112524 0.96889734 0.7426948 1.0632606 0.8621322 1.213581 0.95452166 0.79145116
0.8449535 1.2136151 0.76170766 1.1016237 1.018724 0.8661851 1.2532289 0.8388965
1.1286248 0.85928255 1.1511213 0.9153037 0.75239074 0.8163503 1.5057099 1.249378
0.8519292 0.87010515 0.9603196 0.8892827 0.9399979 0.9736595 0.77333575 0.92969155

layer2.bn1.bias f4 [32]
00000000: 1b86 d0bc fd80 543e 5482 57bc e43c 85bc
00000010: 8149 2ebe 2223 c5bd e241 483e 900c 22bb
00000020: d5b4 53be 8b05 5ebd 52f0 833b 6352 5dbe
00000030: 3400 c2bd 45f5 64be 2afe 3fbe 84c5 94be
00000040: 68f9 d0bd 8487 2fbe 0517 24be 7829 82be
00000050: 89f3 8c3d 569f 083e cdb9 e8be ce2b d9bc
00000060: 48e3 31be a701 d4bd 4d20 94be 7ce8 cdbc
00000070: c7cd 9cbe 45a1 f4bd 39a0 85bd 151c 6ebe
-0.025454571 0.2075233 -0.013153631 -0.016264386 -0.17020227 -0.09625842 0.19556382 -0.0024726726
-0.2067445 -0.054204505 0.004026451 -0.2161346 -0.09472695 -0.22359188 -0.187493 -0.29056942
-0.102038205 -0.17141539 -0.16024406 -0.25422263 0.06882388 0.13342032 -0.45454255 -0.026510146
-0.17371857 -0.10351878 -0.28930894 -0.025135271 -0.30625746 -0.11944822 -0.06524701 -0.232529

layer2.bn1.running_mean f4 [32]
00000000: ee12 da3f 4d00 c93d a5cc a9c0 1cb0 eec0
00000010: be1b 01bd ec79 5fbf b232 37c1 9006 5a40
00000020: 94a2 65c0 4bea b6c0 6e12 c0bf a0bb 35c0
00000030: ed86 46c0 1bb0 a4bf 64f7 42c0 0afe ccbd
00000040: 627c 0fc0 b9fa d9c0 31ed 59c0 373f ad3f
00000050: a783 20c0 1e17 c8c0 00c3 ddc0 27ba e23f
00000060: c0fb 34c0 264d a3c0 3e46 0540 ed08 42c0
00000070: d0fb adbf 54a4 26c1 d41f 3fc0 31bc febf
1.7037027 0.098145105 -5.306231 -7.4589977 -0.031520598 -0.87295413 -11.449877 3.4066505
-3.588048 -5.7161 -1.5005624 -2.8395767 -3.1019852 -1.2866243 -3.0463495 -0.100093916
-2.2419667 -6.811856 -3.405102 1.3534917 -2.5080354 -6.252822 -6.9300537 1.7713059
-2.8278656 -5.1031675 2.0824122 -3.0317948 -1.3592472 -10.415119 -2.9863176 -1.9901181

layer2.bn1.running_var f4 [32]
00000000: 6b81 5e41 17bc 2e41 fab6 eb40 3a7d 5f41
00000010: 722e ea40 7292 9941 2fcc 8f41 3e46 2e41
00000020: 28b2 cd40 516e 8a41 776f df40 98fd 5841
00000030: 945e 7e41 a58d 2341 9517 5d41 88cf ed40
00000040: d769 2541 6196 f740 1e58 1641 522a 0141
00000050: db94 e140 b61d 0441 f713 bf41 6c0a 6e41
00000060: 403a d140 cef3 9740 4c88 f640 25b3 3441
00000070: 77f6 6340 f48f 4e41 94db 1641 006d e440
13.906596 10.92092 7.366086 13.968073 7.3181696 19.196507 17.974699 10.892149
6.4279976 17.303865 6.9823565 13.561913 15.89809 10.222081 13.818257 7.4315834
10.33834 7.737107 9.396513 8.072832 7.049421 8.257254 23.884748 14.877544
6.5383606 4.7485113 7.704138 11.293736 3.561918 12.910145 9.428608 7.1383057

layer2.conv2.weight f4 [32, 32, 3, 3]
00000000: 4bff 61be 1bed 80bd 6c29 6ebb 9fb1 f93d
00000010: 1608 813e ff64 2d3d a68b f03d 27e3 5f3e
00000020: 588a 1b3d 0006 bcbc d831 513e 6e2b 263e
00000030: 2e68 9f3b 344f 2d3e f16d 023e db00 16bd
00000040: d6ab d1bc 0e12 06be 6bcb c53c fc3a 8f3d
00000050: 5859 fa3d 3a3a 1dbe 33c0 47be a7ce bb3c
00000060: ff0d 49be a08e 8dbe 1a22 6dbd 9277 8c3e
00000070: 462b f8bd a246 c2be 21f4 c33e add8 c7bd
00000080: 42b9 81be 95a0 c33e 5f23 15be bc05 b0be
00000090: 588b d6be 8648 c2be 96f1 45be ae43 d6be
000000a0: cc97 b9be 060f 81be c813 5dbd d729 83be
000000b0: 3fe5 9cbe d2ec 96be 58fe 88bd 06bc 5a3e
000000c0: fec6 8fbe 5892 01bd 8a87 e43c 6da6 1abe
000000d0: 19df 4fbd 7485 7ebd a5c1 943e 38ce 93bd
000000e0: 4c49 a9be 1afe 8d3e 62ff 53bc d7a5 98be
000000f0: c57c e53d 0253 b53d a5e7 68be 8407 45be
00000100: 3276 22bd 0e80 26be abdb 163d 03a1 5a3e
00000110: a44a bdbc 5f4a ad3d 4360 8dbd 45f6 32be
00000120: 5bc7 593d 6844 033e 3112 9cbd 198a 9cbd
00000130: 5403 953e a703 743e 2dba 143d 131e 073e
00000140: 6e61 ca3d 5acd 823e 1c7f fa3b 6780 8bbe
00000150: 87e2 3c3d bedf 733e 4380 0c3e 6570 a9be
00000160: ed2e f3bc 9957 2c3e 3647 c33d c826 11be
00000170: 4032 e7be 8bc8 863e 909e 2e3e 4109 ce3c
00000180: 1c4c 4f3e 547d d63d 75a3 863e 6fd6 68bd
00000190: 9cdc 03be 4618 b8bd 8016 373d cf0c 83bd
000001a0: 1eee edbd d731 133d e5d5 5abe 930e 8ebe
000001b0: 2985 0a3e 1685 d53d 08e8 8dbd 30f1 a83d
000001c0: 58c1 b43d 56c7 0abe 0506 0abc 331e 8e3d
000001d0: 799e 0ebe b266 1cbd d88e f7bc c182 633d
000001e0: 2338 233e 34e5 913e f858 b73e 8669 29bc
000001f0: 91c8 e43d 73b0 b6bd 28b5 ecbd e856 10be
00000200: a185 dfbe 4bf4 0fbe 2260 40be 98db 9ebe
00000210: 09cd 18be 82f7 9abd f567 ecba b827 9dbe
00000220: 8875 84be 8f6f 8cbe 29d5 c73d 421c fe3c
00000230: 34a3 d03d 353f a33e fc9d 423d 2aa6 2e3d
00000240: a081 cdbe d146 d33d 194c b83e ce81 83bd
00000250: 39ba 8f3d 9490 703e f6cd 3abe 40df c7be
00000260: 7109 9f3d 0b6b 9cbd ec08 fe3d c9da eb3e
00000270: 49df d1bd e56d 773e db7e bb3e c7df a3bd
00000280: 4be8 533e e2c2 2c3e e87a 743d 69f3 8ebe
00000290: 8f95 29bd 36e0 ab3c 78f7 90bc 9514 2c3d
000002a0: 9f3c 8dbd 6cde 323d 7d3f 97bd 655e 493e
000002b0: 8b35 c73e 54c5 e0bc 1bb1 92bd 49db 563e
000002c0: f595 2f3e 32d4 20be 108d eb3d 0226 aa3d
000002d0: 8974 f8bd 6ca0 09be b0b8 dabe ec5e 78be
000002e0: 2d48 db3c ab96 9bbd 3db2 5dbe b107 af3e
000002f0: 4c44 9f3e 3b2c 01bd 339c 16be 23e9 a6be
00000300: 728e 913c f2dc 553d 6b1b 53be d6cc 073e
00000310: a347 36be 2581 83be ac99 4e3e 807e 1a3e
00000320: efcc 96bd af06 673c 48f8 6abb 428e 87be
00000330: 7c18 3e3e c0c1 9dbc 4cf1 13bf 9825 99be
00000340: 0333 88be 694b 93bc 85cf fdbd 25fd b1bd
00000350: 13e0 343e 816c 33bf 8877 4dbf 92ff 9fbe
00000360: bbf0 d1be 52c1 debd 6a8b 27bd 69cd e1be
00000370: 5b73 d0be cdca 67bd 5f59 cb3c 90bf abbe
00000380: eca4 bfbb 0139 bd3d 3eb8 573e 0974 963c
00000390: 2e86 98bd b1e8 b23e 48af 2b3e 583f cbbe
000003a0: a1f1 cfbd baff db3c e7e4 21be 80ef 19be
000003b0: 6988 253e 13bb 80be cf55 83be 1a26 38be
000003c0: 75ce 21be 4a31 9fbe 7bca 29be 0d74 993d
000003d0: f806 3f3e 0bcb 86be f95f d53d 16c8 debc
000003e0: b41a 69be c865 a13c e84a 903d 3ce0 f6bd
000003f0: c5cb 2dbd d1e1 213e 63a4 803e 857e 95bc
-0.22070043 -0.06295224 -0.0036340607 0.12192082 0.25201482 0.042332646 0.11745386 0.21863995
0.03797373 -0.02295208 0.2042917 0.16227505 0.004864714 0.16924745 0.12737252 -0.03662191
-0.025594633 -0.13092825 0.024144849 0.06993672 0.12224072 -0.15354243 -0.19506912 0.022925688
-0.19634245 -0.27647877 -0.05789385 0.27434975 -0.12117629 -0.37944514 0.38272193 -0.097581245
-0.25336653 0.38208452 -0.14564274 -0.34379375 -0.41903186 -0.37945956 -0.19330439 -0.4184851
-0.36248624 -0.25206774 -0.053973943 -0.2561786 -0.3064365 -0.29477555 -0.06689137 0.21360788
-0.28081506 -0.031633705 0.027896661 -0.15102549 -0.050749872 -0.06213899 0.2905399 -0.072170675
-0.33063734 0.27732927 -0.012939306 -0.29814026 0.112054385 0.08853723 -0.22744615 -0.19241148
-0.0396635 -0.16259786 0.036830585 0.21350484 -0.02310688 0.08461451 -0.06903126 -0.17476757
0.053168636 0.12819064 -0.07620657 -0.076435275 0.29104102 0.23829518 0.036310364 0.13195066
0.098818645 0.25547296 0.007644547 -0.272464 0.04611447 0.2381582 0.13720803 -0.33093563
-0.029685462 0.16830291 0.09535067 -0.1417495 -0.45155525 0.26324877 0.17052674 0.025150897
0.20243877 0.10473123 0.26296583 -0.056845125 -0.12877125 -0.08989005 0.044699192 -0.063989274
-0.11617683 0.035936203 -0.21370657 -0.27745494 0.13527359 0.10425775 -0.06929022 0.08249128
0.0882594 -0.13552603 -0.008424287 0.06939354 -0.1392764 -0.038183875 -0.03021948 0.05554462
0.15939383 0.2849518 0.35810065 -0.0103401 0.111710675 -0.08920374 -0.1155799 -0.14095652
-0.43656638 -0.14058034 -0.18786672 -0.31026912 -0.14921965 -0.075667396 -0.0018036353 -0.30694366
-0.2587092 -0.27428862 0.09757454 0.031019334 0.101873785 0.3188416 0.047513947 0.042638935
-0.4013796 0.103162415 0.35995558 -0.06421243 0.07017941 0.23492652 -0.1824263 -0.39037514
0.07765473 -0.07637604 0.124040455 0.46065357 -0.102476664 0.24163015 0.3662022 -0.080016665
0.20694081 0.16871217 0.059687525 -0.27920082 -0.041402396 0.020980936 -0.017696127 0.042011816
-0.06896328 0.04366915 -0.07385156 0.19664915 0.38908038 -0.027437843 -0.071626864 0.20982088
0.17147048 -0.15705946 0.11501515 0.08308031 -0.12131602 -0.13440102 -0.4271903 -0.2425496
0.026767815 -0.07597097 -0.21650024 0.34185556 0.31106794 -0.031536322 -0.14708023 -0.32599744
0.017768119 0.052212663 -0.20615928 0.13261732 -0.17800765 -0.25684467 0.20175809 0.15087318
-0.07363307 0.014100715 -0.0035853554 -0.26475722 0.18564028 -0.019257426 -0.57790065 -0.29911494
-0.2660142 -0.017980294 -0.12393097 -0.086908616 0.17663603 -0.7008744 -0.80260515 -0.31249672
-0.41003975 -0.10876717 -0.04090444 -0.44102028 -0.4071301 -0.05658989 0.024822889 -0.33544588
-0.0058485176 0.09239388 0.21066377 0.018365877 -0.07447468 0.34943154 0.16766083 -0.39696765
-0.10153509 0.026855338 -0.15809976 -0.15032768 0.16165318 -0.25142726 -0.25651404 -0.17983285
-0.15801413 -0.31092292 -0.16581146 0.07492838 0.18655002 -0.26326784 0.10418696 -0.027195018
-0.22764093 0.019701853 0.07045537 -0.12054488 -0.042430658 0.15808798 0.25125417 -0.018248806

layer2.bn2.weight f4 [32]
00000000: 8a1c 8b3f 4bc5 863f 62e3 963f a01e 943f
00000010: e92e 913f 9878 8f3f c472 893f 0401 b23f
00000020: 0387 ab3f 5808 8d3f 7b8b b33f 8da4 aa3f
00000030: 3473 9e3f 325a 963f 63c2 ab3f c097 d63f
00000040: f92a 863f 74d2 793f 051b 9b3f 1b0a 743f
00000050: 7f6b a43f 1734 823f fb04 b23f c570 a43f
00000060: 6b9e a83f e667 b93f 3b19 a93f 9b12 ab3f
00000070: ed54 b13f 3987 683f 0a14 a73f ba74 a83f
1.0868084 1.0528959 1.1788142 1.1571846 1.1342441 1.1208677 1.0738149 1.390656
1.3400577 1.1018171 1.4026941 1.3331467 1.2378907 1.1746275 1.3418697 1.676506
1.0481864 0.9758675 1.2117621 0.9532792 1.2845305 1.0172147 1.390777 1.2846915
1.3173345 1.4484832 1.3210825 1.3365053 1.3854042 0.90831333 1.305299 1.3160622

layer2.bn2.bias f4 [32]
00000000: b271 c23d 8034 c9bc 5f33 e23d c3ee d5be
00000010: f394 4fbe c260 4cbd 808c 00bd 2a3d aebe
00000020: 47ed 46be 9994 84bd 71a8 a9bd 462e 9cbe
00000030: 2eb3 09bd b34a 1a3d b2e5 06be d605 463e
00000040: 019d 1ebe dfbb a63e baea 813d 2d01 99bd
00000050: dd10 b3bd ef2d 9c3c 02dc 9fbe 07c5 bfbd
00000060: 7abd a0bd 334c 173e 38fb 95bd 43c5 823e
00000070: ada0 bb3c 99e4 933d 32cc a1bd d609 98bd
0.09494342 -0.024561167 0.110449545 -0.41783723 -0.20271663 -0.049896963 -0.03138399 -0.3403104
-0.19426452 -0.06473655 -0.08284081 -0.30504054 -0.033618145 0.037668895 -0.1317356 0.19338164
-0.1548958 0.3256521 0.06343599 -0.074709274 -0.08743451 0.019064872 -0.3122254 -0.09363752
-0.0784864 0.14775161 -0.07323307 0.25541124 0.022903765 0.07221336 -0.07900275 -0.07423751

layer2.bn2.running_mean f4 [32]
00000000: 653f 1dc0 d532 adbf cde2 a8bf 81b7 96bf
00000010: b6f4 20c0 994d 8f3e e783 6340 bedb 9ebf
00000020: e5c9 903f 6aad 87bf 7212 1bc0 9058 d2bf
00000030: e375 84bf baea 36c0 9b39 dd3e 42c6 14c0
00000040: 3803 5f3f d62e c4bf 61bb 3ec0 da6d 3f3f
00000050: fbfa ccbf 6362 3840 693a d4bf 50c7 7ebf
00000060: 1e39 78bf f9e7 b5c0 5818 c0be 88dd 4240
00000070: e85f 89bf 96f9 63c0 7192 ddbf 9bc1 c5bf
-2.4569943 -1.3531138 -1.3194214 -1.1774751 -2.514936 0.2798889 3.5549257 -1.241081
1.1311613 -1.0599797 -2.4230008 -1.6433277 -1.0348476 -2.8580766 0.43208012 -2.3246007
0.87114286 -1.5326793 -2.9801867 0.74776995 -1.6014093 2.881005 -1.6580325 -0.99522877
-0.96962154 -5.684567 -0.37518573 3.0447712 -1.0732393 -3.5621085 -1.7310315 -1.5449709

layer2.bn2.running_var f4 [32]
00000000: 5ec2 9e40 7dd1 5840 f053 af40 245b 2940
00000010: c3fa 9d40 50d3 8740 4171 9340 6e4e 7640
00000020: 6373 7f40 ab2d c840 fbc6 a540 b409 6740
00000030: b611 9740 b916 e140 01b1 7a40 3c5c f240
00000040: 58d3 5c40 82d3 c940 654b a540 1e33 9940
00000050: e406 8640 669f aa40 b798 5540 7590 4f40
00000060: ba3c e640 368a cc40 e777 fc40 2c1c e540
00000070: e2cf c040 ed91 8940 0eac bd40 f8da a740
4.9612265 3.3877861 5.4789963 2.6461878 4.9368606 4.244545 4.607575 3.848537
3.9914176 6.2555747 5.1805396 3.6099672 4.720912 7.034024 3.9170535 7.573759
3.4503994 6.307069 5.1654534 4.78749 4.188341 5.331958 3.337446 3.243192
7.194913 6.3918715 7.8896365 7.159689 6.0253763 4.299063 5.927253 5.2454796

layer2.downsample.0.weight f4 [32, 16, 1, 1]
00000000: 4037 2b3d 980a 9cbe d4ca 1c3e 5d91 4d3d
00000010: e084 cebe 3916 823e 2976 33be 4f76 c8be
00000020: dbbe 7ebe ad4b 403d 21e3 48be 1c8e 00be
00000030: 26b2 d23e caa0 90be d170 4bbc e43b 803e
00000040: 52ec a23e 51b8 9f3e 696f d9bd 1c4d 2dbe
00000050: 755f 8b3e 8509 10bf 40cf 2f3e d639 2f3e
00000060: 3e7f b33e 7a18 aabd db0f 953e e6bf 643e
00000070: f4d0 05be 1209 8dbd ac70 b3bd 7da0 c4bd
00000080: b416 d13a 8710 c5be 3c92 f73d 7529 553d
00000090: 92a8 d33e 3c9b 06bf 1700 2dbe 029f a63d
000000a0: d686 e9bc ae71 7ebe 84de 043f 96f5 883c
000000b0: 5bf5 723e 4b73 393d 6c14 e6bd faa4 4b3d
000000c0: ca9b 83be 003a b63d 5b6d 98bd d1d5 a93e
000000d0: f955 cdbd 989f 603e 946a 20bd 4a7d 01bf
000000e0: fd06 3f3d cc64 8fbe a06d abbd 2cca a93d
000000f0: 0858 d23c ea9c d7be 5952 e9be c89e c4bc
00000100: 3a50 0b3e dc6a a03d efe1 71be 7586 02bf
00000110: d02a e7be bbac d73e a316 26bc bc48 23be
00000120: cdf9 72be c9b8 02bf 4f3c 133d 8a48 f73b
00000130: 4625 d53d b3eb c1bd 8e34 a0bd 6ddb 233d
00000140: 64ac 34be 96ae 85bd 0cd2 e8be 7b9a 1d3e
00000150: 025a e93c 4106 993e ccd8 69be ac90 c23e
00000160: b1c8 50be 36af 283e 9d6e 41be eb84 b8bd
00000170: 2bd2 f6be 5a03 5dbe e8f9 a3bd b94e c0bd
00000180: 9368 e8be 43ba 723e 770b 523e 4a98 773e
00000190: b8b7 123f 75a0 193e 6386 5dbd 0751 75bd
000001a0: 6b3b 66be 1a11 6bbe 7f7b 603d f6de 923c
000001b0: 6866 983d 1bc1 ee3c 2f21 bbbe 476c 9bbd
000001c0: 2ee0 33bf 485a 1cbe c32f 4abe 9400 c93d
000001d0: 65ea abbe 77d4 f8bd 2d70 80be 5856 89bd
000001e0: 51e0 99be 8f67 d9bd 6fc6 70be 771d afbe
000001f0: cb08 d2bd 7269 15be ec33 51bd e408 16be
00000200: 2a3b aa3c 9981 673d d131 953e 0a54 38be
00000210: 69a6 dcbe a8f4 98ba a45d a23e 40e7 21bd
00000220: e3aa 8abe 1cb1 993b 4e53 bf3e 66cf 1fbe
00000230: 9fab 213e f0fc 0bbd 0611 febe 4a7b a6bd
00000240: 16eb d3be 56b2 7dbd 13f7 6b3e bca2 38bf
00000250: 5586 c4bb 85fe 143e 36ab 12be d558 56be
00000260: b86e 0f3e 987a 0b3d 049e c13c 8b40 1abd
00000270: 3419 233e 05c2 bc3e 7f10 a6bd 20ef f03c
00000280: d29b dc3e 7568 77bd d665 2fbd 9a9c 12be
00000290: a6a7 103e d53d ab3c 6770 03be 6f5d bebd
000002a0: 1d82 8dbe 807c 48bf acb3 f4bd 8a31 e2bd
000002b0: b4b2 1b3b 9260 7e3d 0bb2 213e 0683 2cbc
000002c0: 2695 ddbd d04b 6abe e19d c0be e93b 31be
000002d0: 7df6 bebd 4d13 4f3e 20e1 1bbf a7d4 34be
000002e0: bcc2 dc3e 210a 49bc 9f0c 8ebe 2af9 15bd
000002f0: 3f39 8dbe 73d5 70be 5d2a 74be 94a1 f23d
00000300: 6c3c cbbe c962 0ebe 83ac 453e 50d6 fbbe
00000310: 5220 d73d 9179 613e 06c3 92bc d772 87be
00000320: 45f9 ad3e 156f 31be 28c7 c6be 8734 27be
00000330: 740e 1cbe f6a1 a73d c795 043e 7613 5fbd
00000340: 0cee d63d f3f6 82be 56ce a5bd 5725 e0be
00000350: 27d1 d23e f5ac 08be e55f 20bd 3b7e a5be
00000360: a5be 07bd 41e2 56be 1041 43be 54e3 d13d
00000370: 7f75 893a 78b5 ef3e 6337 06be ef47 2abc
00000380: bbd1 a9bc 9202 6d3c 2e09 ba3e 326e bf3e
00000390: aefb dfbd 9463 fd3d cbe2 8dbe aef6 3cbe
000003a0: df89 713e 0f04 3f3f eb09 e33d 93b2 c5bb
000003b0: cc3a a1bd 44a8 92bd 3d09 a73d fd7e 54bb
000003c0: 6b10 593e 6ac7 e33d 411c 463e 9b57 d73e
000003d0: 22b2 e5bd 289a 2dbe a7b8 b5bd 72ee 633d
000003e0: f864 47be 1c3d c93e 9b70 8ebc 59fc 8e3d
000003f0: 9112 7b3e a75e d9be 1d31 963e 7315 3f3d
0.041800737 -0.30476832 0.15311748 0.050187457 -0.4033575 0.2540758 -0.17525543 -0.39152762
-0.24877493 0.04694717 -0.19617893 -0.1255421 0.4115154 -0.28247672 -0.012417034 0.25045693
0.31820923 0.3119531 -0.10616953 -0.16923946 0.27221265 -0.56264526 0.17168903 0.17111906
0.35058016 -0.0830545 0.2911366 0.22338828 -0.1306799 -0.06886496 -0.08761725 -0.09600923
0.0015952201 -0.38489172 0.12088439 0.05204149 0.41339546 -0.5258062 -0.16894566 0.08135797
-0.028506678 -0.24848053 0.5190203 0.016718667 0.23726408 0.045275968 -0.11234364 0.04971788
-0.25704795 0.08897781 -0.07442733 0.3317094 -0.100261636 0.2193588 -0.03916414 -0.505818
0.046637524 -0.2800659 -0.08370519 0.08290514 0.025676742 -0.42111903 -0.4557064 -0.024001494
0.13604823 0.07832882 -0.23621343 -0.50986415 -0.4514985 0.4212397 -0.010137233 -0.15945715
-0.23728104 -0.5106321 0.035946187 0.007546489 0.104075 -0.09468784 -0.07822524 0.040004183
-0.17643887 -0.0652744 -0.45472753 0.15390961 0.028485302 0.29887584 -0.22836608 0.38001
-0.20389058 0.16473088 -0.18889852 -0.09009727 -0.4820722 -0.2158331 -0.0800665 -0.09390015
-0.45392284 0.23703866 0.20512186 0.24179187 0.5731158 0.15002616 -0.05408324 -0.059891727
-0.22483604 -0.22955742 0.054805275 0.017928582 0.074414074 0.029144814 -0.36548755 -0.07589012
-0.70263946 -0.15268815 -0.19744782 0.098145634 -0.33577266 -0.121498995 -0.25085583 -0.06705922
-0.30053952 -0.10615455 -0.23513196 -0.34202167 -0.102555834 -0.14591005 -0.051074907 -0.14651829
0.020780165 0.05652008 0.2913957 -0.18000808 -0.4309571 -0.0011669593 0.31712067 -0.039527178
-0.270835 0.0046903025 0.37368244 -0.1560646 0.15788125 -0.034176767 -0.49622363 -0.08128984
-0.41390294 -0.061937653 0.2304347 -0.7212331 -0.005997459 0.14550216 -0.14323124 -0.20932324
0.1400708 0.03405246 0.023634918 -0.03765921 0.15927583 0.36866775 -0.08108615 0.029410899
0.4308763 -0.060402352 -0.042821728 -0.14317551 0.14126453 0.020903507 -0.12835847 -0.09295165
-0.2763833 -0.7831497 -0.11948332 -0.11044605 0.0023757638 0.062103815 0.15790574 -0.010529285
-0.108194634 -0.22880483 -0.37620452 -0.1730801 -0.09324358 0.20222206 -0.6089039 -0.17659245
0.4311732 -0.012270481 -0.27744004 -0.036614574 -0.27582738 -0.23518924 -0.23844285 0.11847225
-0.39694536 -0.13904871 0.19304089 -0.49186945 0.105042115 0.2201903 -0.01791526 -0.26454803
0.3397924 -0.1732753 -0.3882382 -0.16328631 -0.15239888 0.081851885 0.1294776 -0.05446192
0.104946226 -0.25579032 -0.08095996 -0.43778488 0.41175196 -0.13347228 -0.039153952 -0.3232287
-0.033140797 -0.20984747 -0.19067788 0.102484375 0.0010487287 0.46818137 -0.13107066 -0.010393127
-0.02072989 0.014465945 0.3633513 0.3738876 -0.10936676 0.12372509 -0.27712092 -0.18453476
0.2358775 0.7461557 0.11085876 -0.0060332506 -0.07872543 -0.07161 0.08156059 -0.0032424324
0.21197669 0.111220196 0.19346716 0.42059025 -0.11215617 -0.16953337 -0.0887311 0.05564732
-0.1947211 0.39304435 -0.017387679 0.06981725 0.24518801 -0.42455027 0.29334345 0.046651315

layer2.downsample.1.weight f4 [32]
00000000: 0d04 683e 67ac 003f 6d1e 8c3e 499b 173f
00000010: e58f f43e 34bd 983e 492a 9a3e 24b2 ea3e
00000020: ec50 e53e 7f1f c23e 5ae6 483e 9cda b33e
00000030: 7137 253e bf8d 4f3e ef6b 613e c54a d73e
00000040: 6ecc 053f baea 943e 8d9b 073f e9d5 e93e
00000050: 14db df3e 14ed b23e 0663 1c3e fc7a c63e
00000060: fd8c f33e 2ab2 763e ed8e bd3e 55e3 713e
00000070: 2203 803e b09b 1a3f 9d25 403e c70a c43e
0.22657795 0.50263065 0.27366963 0.5922132 0.47766033 0.2983185 0.30110386 0.45839036
0.447883 0.37914655 0.19619122 0.35127723 0.1613443 0.20268916 0.2201383 0.42049232
0.5226506 0.29085332 0.52971727 0.45671013 0.4372183 0.349465 0.1527215 0.38765705
0.47568503 0.24091402 0.37023106 0.23621877 0.2500239 0.6039381 0.18764348 0.38289472

layer2.downsample.1.bias f4 [32]
00000000: b271 c23d 8034 c9bc 5f33 e23d c3ee d5be
00000010: f394 4fbe c260 4cbd 808c 00bd 2a3d aebe
00000020: 47ed 46be 9994 84bd 71a8 a9bd 462e 9cbe
00000030: 2eb3 09bd b34a 1a3d b2e5 06be d605 463e
00000040: 019d 1ebe dfbb a63e baea 813d 2d01 99bd
00000050: dd10 b3bd ef2d 9c3c 02dc 9fbe 07c5 bfbd
00000060: 7abd a0bd 334c 173e 38fb 95bd 43c5 823e
00000070: ada0 bb3c 99e4 933d 32cc a1bd d609 98bd
0.09494342 -0.024561167 0.110449545 -0.41783723 -0.20271663 -0.049896963 -0.03138399 -0.3403104
-0.19426452 -0.06473655 -0.08284081 -0.30504054 -0.033618145 0.037668895 -0.1317356 0.19338164
-0.1548958 0.3256521 0.06343599 -0.074709274 -0.08743451 0.019064872 -0.3122254 -0.09363752
-0.0784864 0.14775161 -0.07323307 0.25541124 0.022903765 0.07221336 -0.07900275 -0.07423751

layer2.downsample.1.running_mean f4 [32]
00000000: 3f94 3abf de00 113f b941 84be ba6e 76bf
00000010: 4249 89bf 602b 8fbf c5de 4f3e 17e6 28c0
00000020: 8adb 7abd 3ec4 0dbf 750b 6ebf 8eb8 09c0
00000030: c58d 7cbf da76 7dbf b198 a33f bffd 813f
00000040: da7b 253f 9b08 afbf dbda a7bf c6b3 6abf
00000050: 87d4 18c0 ae5a a3bf 4866 31bf 45f4 d0be
00000060: b89b 1a3f de63 e73f 1dc3 b0be 6d3f 453f
00000070: f48e 80be a9e4 bbbf 745a a4bc 5854 2bbe
-0.72882456 0.5664195 -0.25831392 -0.96262705 -1.0725482 -1.1185112 0.20299824 -2.6390436
-0.061244525 -0.55377567 -0.9298623 -2.1518893 -0.98653823 -0.9900948 1.2780973 1.0155562
0.6464211 -1.3674501 -1.3113664 -0.9168056 -2.3879716 -1.2762048 -0.69296694 -0.40811363
0.6039386 1.8077352 -0.3452386 0.77049905 -0.25109065 -1.4679157 -0.020062663 -0.16731393
